result/8/model_epoch_280.pth (torch, 67404 bytes, 6 tensors)

gru.weight_ih_l0 f4 [192, 18]
0	0xbda6eb6c	-0.08150372
1	0x3dfcbb8c	0.12340459
2	0xbc148690	-0.009065285
3	0x3de9d82a	0.11418183
4	0x3debdbb2	0.11516513
5	0xbc8c6370	-0.01713726
6	0xbd4c51ac	-0.049882576
7	0x3cba4358	0.02273719
8	0xbcd05bd0	-0.025434405
9	0xbb2dc940	-0.002651766
10	0x3c2e3d30	0.010634705
11	0xbc9adec0	-0.018905044
12	0xbd78144c	-0.06056623
13	0x3d4df140	0.050278902
14	0xbd3469f0	-0.044046342
15	0xbd4ce0ac	-0.05001895
16	0x3d023b78	0.031794995
17	0xbd417674	-0.047232106
18	0x3d76540c	0.060138747
19	0x3dd5f0e6	0.10446338
20	0x3c644f10	0.013934866
21	0xbb40e380	-0.0029432476
22	0xbde2ac02	-0.11067964
23	0x3daf3b8a	0.08556278
24	0x3bc592e0	0.0060294718
25	0x3d92c290	0.07166016
26	0xbc096260	-0.008385271
27	0xbdea466e	-0.11439215
28	0xbd8238ae	-0.06358467
29	0x3dfb7698	0.12278479
30	0xbba0ffe0	-0.004913315
31	0x3d58faf0	0.052973688
32	0x3d5d92cc	0.054095075
33	0x3d1e81e4	0.038698092
34	0xbc7074e0	-0.014676303
35	0x3d341270	0.043962896
36	0x3d0c4908	0.034249336
37	0xbdd89bb6	-0.105765745
38	0x3b95d780	0.0045728087
39	0xbdd26f42	-0.10275127
40	0xbc7df830	-0.015501067
41	0x3c457e40	0.012054026
42	0xbddb232e	-0.10700069
43	0xbdf89528	-0.12137824
44	0xbd32eb10	-0.043681204
45	0xbc43f020	-0.011959106
46	0xbd0a1304	-0.03370954
47	0x3d1168d0	0.035500348
48	0x3c98af28	0.018638209
49	0xbdc63c56	-0.09679477
50	0x3da2eb4e	0.07955037
51	0xbd15b320	-0.03654778
52	0xbda27d50	-0.07934058
53	0x3d055614	0.032552794
54	0xbbd9ac60	-0.006642863
55	0x3dcbaa12	0.09944548
56	0x3d90da4a	0.07072885
57	0x3d08c04c	0.033386514
58	0xbd407fe0	-0.04699695
59	0xbcb43f90	-0.022002965
60	0x3cc59de8	0.024123147
61	0x3d943fba	0.072387174
62	0x3d48893c	0.048959002
63	0x3d86b6f2	0.06577863
64	0x3dcc66ac	0.099805206
65	0x3daea096	0.08526723
66	0xbdd6fbf2	-0.104972735
67	0x3da8209a	0.08209343
68	0x3d20c03c	0.03924583
69	0xbbd48120	-0.0064851195
70	0x3c06dd60	0.008231491
71	0x3d75ee9c	0.06004201
72	0x3cc5947a	0.02411865
73	0xbc4c0b8c	-0.012453925
74	0x3dd1dc1a	0.10247059
75	0x3daee6ba	0.08540101
76	0xbd893a62	-0.06700589
77	0xbd39aefe	-0.0453329
78	0xbd818b6e	-0.06325422
79	0x3ce2cdd7	0.027686043
80	0x3dc5fd17	0.09667414
81	0x3d9749ae	0.073871
82	0x3d50e32e	0.050997905
83	0x3da00da2	0.078151
84	0x3d8e89fd	0.06959913
85	0xbc3984b3	-0.011323142
86	0x3d92a7e2	0.07160927
87	0xbd10f3ad	-0.035388637
88	0x3d517274	0.05113454
89	0xbdb713e7	-0.08939343
90	0xbd851248	-0.064976275
91	0x3d32fedc	0.043700084
92	0x3da5e09a	0.0809948
93	0x3dd2c19a	0.10290833
94	0xbc0643e0	-0.008194894
95	0x3d91c8ec	0.07118401
96	0x3dfd144c	0.12357387
97	0x3d639604	0.055562988
98	0x3d44d9dc	0.04805933
99	0xbdcd1e0e	-0.10015498
100	0xbd34ff9c	-0.04418908
101	0xbd77d0cc	-0.06050186
102	0x3d84e4f6	0.06488983
103	0x3dcabe98	0.09899634
104	0x3da88d74	0.08230105
105	0xbb980ce0	-0.0046402067
106	0xbb597a00	-0.003318429
107	0xbdf5bafa	-0.119985536
108	0x3c3d1d60	0.011542648
109	0xbd2f2320	-0.042758107
110	0x3b71c840	0.003689304
111	0x3d0a21bc	0.033723578
112	0x3dd071f0	0.10177982
113	0xbdec10bc	-0.11526629
114	0x3d1f9ad8	0.03896603
115	0x3de992a4	0.114049226
116	0x3d9dba94	0.077016026
117	0xbc28a580	-0.0102933645
118	0x3d82b52c	0.06382212
119	0xbdad2072	-0.08453454
120	0xbdf394c4	-0.11893609
121	0x3d509f1c	0.05093299
122	0xbcbd1480	-0.023081064
123	0xbd9a9eca	-0.07549818
124	0x3df43964	0.11925009
125	0x3d893d26	0.06701116
126	0x3d6e97c7	0.058250215
127	0xbd0320d9	-0.032013748
128	0xbd8983ab	-0.06714567
129	0xbcb2f85d	-0.021846944
130	0x3da8c4ce	0.082406625
131	0xbe014d81	-0.12627222
132	0x3dbc8d8a	0.09206684
133	0x3d21fa19	0.039545152
134	0xbcf2bd0a	-0.029631156
135	0xbdd1bdd4	-0.10241285
136	0xbd80880d	-0.062759496
137	0x3dbb779f	0.09153675
138	0x3d348cd9	0.044079635
139	0xbcf5d653	-0.030009424
140	0x3b813a0a	0.0039436864
141	0xbd74f175	-0.059800584
142	0x3bfb72d2	0.0076735998
143	0xbd490512	-0.0490771
144	0xbdd20722	-0.10255267
145	0x3d9d414a	0.076784685
146	0x3d8b8964	0.068133146
147	0xbdd36676	-0.10322277
148	0x3d0010a6	0.031265877
149	0x3dc5fbf2	0.096671954
150	0x3c85f014	0.01634983
151	0xbc9ff610	-0.019526511
152	0xbd3199fb	-0.043359738
153	0x3d8180d2	0.06323399
154	0x3ba61fbe	0.005069702
155	0xbd489db1	-0.04897851
156	0x3aeb63ae	0.0017958784
157	0xbd6a9c26	-0.05727782
158	0xbd510897	-0.051033583
159	0x3ca55dd4	0.020186342
160	0xbd3f6744	-0.04672934
161	0x3d9868ff	0.074419014
162	0x3dd75334	0.105139166
163	0x3b8dd769	0.0043286574
164	0x3cf844c4	0.030306228
165	0x3dcbe5a1	0.099559076
166	0x3c9f065f	0.019412218
167	0x3da3d8c2	0.08000328
168	0x3d914445	0.070930995
169	0xbd881b80	-0.0664587
170	0xbd43ea69	-0.047830973
171	0x3e07276e	0.13198635
172	0xbdc5d6be	-0.096600994
173	0x3d693146	0.056931756
174	0xbcabb16b	-0.020958623
175	0xbd97031c	-0.0737364
176	0xbd2146e6	-0.039374255
177	0x3db4bc18	0.088249385
178	0x3e035fff	0.12829588
179	0xbd570fa1	-0.05250514
180	0xbdbcfc22	-0.09227778
181	0x3cc94cd0	0.02457276
182	0x3ba69760	0.0050839633
183	0xbdbee4ac	-0.093209594
184	0x3df6103a	0.12014814
185	0xbc87d890	-0.016582757
186	0x3dc1a5f2	0.0945548
187	0x3d829992	0.063769475
188	0xbdf9cbf0	-0.12197101
189	0xbdfb277e	-0.12263392
190	0x3cb99c68	0.022657588
191	0xbb9419a0	-0.0045196563
192	0xbdac071e	-0.08399795
193	0xbd2abbb0	-0.0416829
194	0xbcf73888	-0.030178323
195	0xbbbf3cc0	-0.0058360994
196	0x3d9e4bdc	0.07729313
197	0xbdfc0538	-0.12305683
198	0x3db869e2	0.090045705
199	0x3bff1660	0.0077846497
200	0x3d86294e	0.06550847
201	0x3d9fcf5a	0.07803221
202	0x3cc177a0	0.023616612
203	0xbdc92704	-0.09821895
204	0xbdc520dc	-0.09625408
205	0xbd662098	-0.056183428
206	0x3dd0c3f4	0.10193625
207	0xbd8a145e	-0.06742166
208	0xbd39a0ac	-0.045319244
209	0x3ca309b0	0.01990208
210	0x3df5262a	0.1197017
211	0xbd2ed63c	-0.04268478
212	0x3deb4af0	0.114889026
213	0x3dd6d128	0.10489112
214	0x3deccb22	0.11562182
215	0x3d1fd7a8	0.039024025
216	0x3df2d7a6	0.11857538
217	0x3d01ba80	0.031672
218	0x3de587c4	0.11207536
219	0x3daf9df8	0.08575052
220	0xbdde6094	-0.108582646
221	0x3dff63c8	0.12470204
222	0xbb8cf0e0	-0.0043011755
223	0xbd875676	-0.06608288
224	0xbd5afba4	-0.05346264
225	0xbc970498	-0.018434808
226	0xbdd1ae52	-0.10238327
227	0xbc21bc60	-0.009871572
228	0x3d33d834	0.04390736
229	0x3d025820	0.031822324
230	0xbdbdd566	-0.09269218
231	0xbdc708c8	-0.09718472
232	0x3db03790	0.08604348
233	0xbd763998	-0.06011352
234	0xbc911758	-0.017711326
235	0xbd0a00d8	-0.03369221
236	0x3dd164d8	0.102243125
237	0x3c319b30	0.010840222
238	0xbde92422	-0.11383845
239	0xbd840fb8	-0.064483106
240	0xbc346400	-0.01101017
241	0xbd8b2ad0	-0.06795275
242	0x3dd98f5c	0.10623047
243	0xbd007be0	-0.031368136
244	0xbd8de15a	-0.06927748
245	0x3d628a8c	0.05530791
246	0xbd8f0068	-0.06982499
247	0xbd2530a8	-0.040329605
248	0x3d9368b2	0.071977034
249	0x3dcc62aa	0.09979756
250	0xba98fe00	-0.0011672378
251	0x3dce386c	0.10069355
252	0xbc43a4e0	-0.011941165
253	0x3d79c924	0.06098284
254	0xbd7e5394	-0.062091425
255	0x3dfb4acc	0.12270126

gru.weight_hh_l0 f4 [192, 64]
0	0x3d7d3b84	0.061824337
1	0x3d242454	0.040073708
2	0x3cf3bcd8	0.029753134
3	0xbd8ab7d8	-0.06773347
4	0x3d879670	0.066204906
5	0xbd1ecbe8	-0.03876868
6	0x3d9176c4	0.07102731
7	0x3d182274	0.037142232
8	0xbdf13bf6	-0.11779015
9	0x3df15e1c	0.11785528
10	0xbcc36a40	-0.023854375
11	0x3bc79440	0.006090671
12	0xbd82818a	-0.06372364
13	0x3d90db46	0.07073073
14	0xbd2b1980	-0.041772366
15	0xbdb1fbb4	-0.08690587
16	0x3cb1d8e0	0.02170986
17	0x3be74120	0.007057324
18	0x3dee304c	0.11630306
19	0x3d1d8750	0.038459122
20	0x3ce49c80	0.027906656
21	0xbda2468a	-0.079236105
22	0xbdb584f0	-0.088632464
23	0xbdf3f7fa	-0.11912532
24	0x3de3094a	0.11085756
25	0x3d1b47ac	0.03791015
26	0xbcc11bc8	-0.023572817
27	0xbd9e21e8	-0.07721311
28	0x3de72c9e	0.11287807
29	0x3b884980	0.0041591525
30	0xbd156078	-0.036468953
31	0xbdf91750	-0.1216265
32	0xbdcb8b90	-0.09938729
33	0x3da41448	0.08011681
34	0xbbf9f100	-0.0076276064
35	0x3d9b4d0a	0.075830534
36	0xbdcdcf78	-0.10049337
37	0x3df95a98	0.121754825
38	0xbd96a842	-0.073563114
39	0x3c953c80	0.018217325
40	0xbce49a68	-0.027905658
41	0xbd416628	-0.047216564
42	0xbd972b30	-0.07381284
43	0x3dcb86b6	0.099378034
44	0x3df82da6	0.12118082
45	0x3ddb6ffa	0.10714717
46	0xbc0c5460	-0.008565038
47	0x3d2080dc	0.03918539
48	0x3dea850a	0.114511564
49	0x3def870a	0.116956785
50	0xbd9a7a80	-0.07542896
51	0xbdded0a2	-0.10879637
52	0xbc7e2d20	-0.015513688
53	0x3de224d6	0.11042182
54	0x3d5192f8	0.05116555
55	0x3ca522b8	0.020158157
56	0xbdd2d5c2	-0.10294677
57	0x3da7d266	0.08194427
58	0xbd9f4e2c	-0.07778582
59	0xbd0b8ddc	-0.034070835
60	0xbd17510c	-0.036942527
61	0xbc8f7580	-0.017512083
62	0x3db1bf4e	0.086790666
63	0xbde82b0a	-0.11336334
64	0x3dea208c	0.11431989
65	0xbce3d7f0	-0.027812928
66	0x3bacfd80	0.005279243
67	0x3d115f14	0.035491064
68	0x3d981fe0	0.07427955
69	0x3dfb23b2	0.12262668
70	0xbd919ad0	-0.07109606
71	0xbb47f580	-0.003051132
72	0xbcd8d7b0	-0.026470035
73	0xbda632a4	-0.08115128
74	0x3dbca432	0.09211005
75	0xbd6b6fd8	-0.05747971
76	0xbb63e600	-0.0034774542
77	0x3c54e0a0	0.012993008
78	0x3d58a0a4	0.052887574
79	0xbdd20cf2	-0.10256375
80	0x3dbf83b2	0.09351291
81	0x3d9197e2	0.071090475
82	0xbd9ed77c	-0.07755944
83	0xbd967dc6	-0.07348208
84	0x3c022cd0	0.007945254
85	0x3dfa07e0	0.12208533
86	0x3d871b22	0.06596972
87	0x3dc28bbc	0.094993085
88	0x3b4dbdc0	0.0031393617
89	0x3d3cb6d8	0.04607281
90	0xbdabc3f6	-0.08386986
91	0x3da574d6	0.08078925
92	0x3d5ae51c	0.053441152
93	0xbd9fb7ca	-0.07798727
94	0x3df26784	0.1183615
95	0x3dc80edc	0.09768459
96	0xbdca6644	-0.09882787
97	0x3d1f0a10	0.038827956
98	0xbdd8f308	-0.105932295
99	0xbd4649b4	-0.048410133
100	0x3dff983c	0.12480208
101	0xbcd21b68	-0.025647834
102	0xbc843390	-0.016137868
103	0x3def6954	0.116900116
104	0x3c2fc860	0.0107289255
105	0x3dd90c9e	0.1059811
106	0xbd838b48	-0.0642305
107	0xbd9e00d2	-0.07715
108	0xbdef8e74	-0.11697093
109	0xbcba28a8	-0.022724465
110	0x3ceca7b8	0.028888568
111	0x3d08e510	0.033421576
112	0xbd28ebd0	-0.041240513
113	0x3dc6aa7a	0.097004846
114	0x3c11f340	0.008908093
115	0x3d526478	0.051365346
116	0x3db476ca	0.0881172
117	0xbda3c60a	-0.07996757
118	0x3d9e2878	0.077225626
119	0xbda4341a	-0.0801775
120	0x3dcce7ba	0.10005136
121	0x3dcde088	0.100525916
122	0xbd5628fc	-0.05228518
123	0xbde2c254	-0.110722214
124	0xbcf2fa38	-0.02966033
125	0xbd71f6cc	-0.059073254
126	0x3df6bf76	0.12048237
127	0xbd601f70	-0.05471748
128	0xbd1b3d9c	-0.037900552
129	0x3db4b1f4	0.08823004
130	0xbd89cb76	-0.0672826
131	0x3d8582b6	0.06519072
132	0x3de07164	0.109591275
133	0xbd1e2450	-0.03860885
134	0x3df59a96	0.119923756
135	0xbd746340	-0.059664965
136	0x3ccb6a90	0.024831086
137	0x3d984f7a	0.07437034
138	0x3c449df0	0.012000546
139	0xbd96eca4	-0.07369354
140	0x3c94bfc8	0.018157855
141	0xbdfa7cee	-0.1223086
142	0x3c5827d0	0.013193086
143	0x3c7ffbc0	0.015623987
144	0x3dad0404	0.084480315
145	0xbdbab90c	-0.09117326
146	0x3d272154	0.04080327
147	0x3d36cf38	0.044631213
148	0xbd24efe8	-0.040267855
149	0xbd337324	-0.04381098
150	0x3ddeeb94	0.10884777
151	0xbd9ebc2a	-0.07750733
152	0xbd84fd56	-0.064936325
153	0x3d78fa64	0.060785666
154	0x3db65088	0.08902079
155	0xbd535c24	-0.051601544
156	0xbda69eae	-0.081357345
157	0xbde49640	-0.111614704
158	0xbde1f01a	-0.11032124
159	0x3d5d69a0	0.05405581
160	0x3d1556d8	0.036459774
161	0x3cd7e0e8	0.02635236
162	0xbdbb861a	-0.09156437
163	0xbdb4e83e	-0.08833359
164	0xbbcb7500	-0.006209016
165	0x3dada954	0.084795624
166	0x3d0f7150	0.035020173
167	0xbba56f40	-0.0050486624
168	0x3d8f6996	0.07002561
169	0xbc7f28a0	-0.015573651
170	0x3dbc2b58	0.09187955
171	0x3d891b06	0.066946074
172	0xbdb76db0	-0.08956468
173	0x3d512bd4	0.05106719
174	0x3d6fe980	0.058572292
175	0xbdb985a2	-0.090586916
176	0x3d402320	0.046908498
177	0x3dd9cb5a	0.10634489
178	0x3debdcc0	0.11516714
179	0xbca48308	-0.020082012
180	0x3cdedd48	0.027205124
181	0x3c687e80	0.014190316
182	0x3d9b4334	0.07581177
183	0xbce8d638	-0.02842246
184	0xbdf29104	-0.11844066
185	0xbdac1e24	-0.08404186
186	0x3d96df94	0.07366863
187	0x3d84dd3e	0.06487511
188	0x3bb19a60	0.0054200143
189	0xbd70e030	-0.05880755
190	0xbdfc3d80	-0.12316418
191	0x3ccde608	0.025134102
192	0xbd626190	-0.055268824
193	0x3d6a9150	0.057267487
194	0x3cba7528	0.022760943
195	0xbd9fe67c	-0.07807633
196	0xbdd27bec	-0.102775425
197	0xbd97be9e	-0.07409404
198	0x3dd9aa58	0.106281936
199	0xbdf7543a	-0.12076612
200	0x3d741964	0.059594527
201	0x3cbac270	0.022797793
202	0xbdb7546e	-0.089516506
203	0x3c767250	0.015041903
204	0xbd9226f2	-0.071363345
205	0xbd9acb0e	-0.07558261
206	0xbd9ab5ea	-0.075542286
207	0xbd96253a	-0.07331319
208	0x3dfb043a	0.122566655
209	0x3de46992	0.111529484
210	0x3ce51730	0.027965158
211	0xbdd75722	-0.10514666
212	0xbdfe620c	-0.12421045
213	0x3d887ffa	0.066650346
214	0x3dcfcda4	0.10146645
215	0x3d9f2276	0.07770245
216	0x3ddfa5e2	0.109203115
217	0x3c524990	0.0128349215
218	0x399fc400	0.00030472875
219	0x3d2df028	0.04246536
220	0x3d8cc430	0.06873357
221	0x3da0b3c8	0.078467906
222	0x3c854dd8	0.01627247
223	0x3dfcdd46	0.12346892
224	0xbd9cf9f0	-0.07664859
225	0x3daa4e4c	0.08315715
226	0x3d5cbcd0	0.053891003
227	0x3de85266	0.11343841
228	0xbd0afcb8	-0.033932418
229	0xbdbdc9f4	-0.09267035
230	0xbd069528	-0.03285709
231	0x3df99322	0.121862665
232	0x3d42e7d8	0.047584385
233	0x3dd1a53c	0.10236594
234	0x3ca50d98	0.020148084
235	0xbddc1fb2	-0.10748233
236	0x3de7ebd2	0.11324276
237	0x3dbae874	0.09126368
238	0xbba10f40	-0.004915148
239	0x3d96eefc	0.073698014
240	0xbd820796	-0.06349103
241	0xbc418490	-0.0118113905
242	0xbd9f500e	-0.07778941
243	0xbdefb7f2	-0.11705007
244	0x3d27b68c	0.040945575
245	0xbd5286e8	-0.051398188
246	0xbd61fdcc	-0.05517368
247	0x3d669c40	0.056301355
248	0x3db418b0	0.08793771
249	0x3dd9132e	0.10599361
250	0x3dfc5982	0.1232176
251	0x3d521950	0.05129367
252	0xbda26c08	-0.079307616
253	0x3deb47b2	0.11488284
254	0x3d3a1888	0.04543355
255	0x3d92b628	0.0716365

gru.bias_ih_l0 f4 [192]
0	0x3dff2b12	0.12459387
1	0x3d7f0888	0.062263995
2	0x3d44ed80	0.04807806
3	0xbd1982c8	-0.03747824
4	0x3d2e3db4	0.042539313
5	0x3d45d89c	0.048302278
6	0xbc144d10	-0.009051576
7	0x3d8643b5	0.06555883
8	0xbdf52b70	-0.11971176
9	0xbd7578b4	-0.059929565
10	0x3c11ffb0	0.008911058
11	0xbd2b834c	-0.04187326
12	0x3ce34d40	0.027746797
13	0xbdb7a638	-0.089672506
14	0x3df169b4	0.117877394
15	0xbda513be	-0.08060406
16	0xbd414ca0	-0.047192216
17	0xbdcaad0c	-0.09896287
18	0xbde60fa8	-0.11233455
19	0x3df8313a	0.12118764
20	0xbde903f8	-0.1137771
21	0x3cc58840	0.02411282
22	0xbc6e0670	-0.014527902
23	0xbd8147d2	-0.06312527
24	0xbde2cf86	-0.11074738
25	0x3d5aec26	0.053447865
26	0xbd684c9c	-0.056713685
27	0x3d3d2237	0.046175208
28	0xbcb6d8f0	-0.02232024
29	0xbd6408ac	-0.055672333
30	0xbdd7f83e	-0.10545395
31	0x3ceed9d8	0.02915661
32	0xbde700a8	-0.11279422
33	0xbc0e9547	-0.008702583
34	0x3da5f0c8	0.08102566
35	0x3ddc5860	0.10759044
36	0xbd70e4f8	-0.05881211
37	0xbd9a35c2	-0.07529785
38	0xbc9e3fc8	-0.019317523
39	0xbdb98424	-0.09058407
40	0xbd6fef8c	-0.05857806
41	0x3d8607ca	0.065444544
42	0x3bb7ab40	0.0056051314
43	0x3d98f434	0.07468453
44	0xbbcfd074	-0.006341988
45	0x3d81821a	0.06323643
46	0x3d28b350	0.04118663
47	0x3dd632ca	0.10458906
48	0x3dde4480	0.10852909
49	0xbcdd1b92	-0.026990686
50	0x3db449f6	0.088031694
51	0xbd881a42	-0.06645633
52	0xbda315d6	-0.07963149
53	0xbd56a5b2	-0.052404113
54	0x3dcc1582	0.0996504
55	0xbbd93220	-0.00662829
56	0xba60551e	-0.00085576053
57	0x3d01b1ac	0.03166358
58	0x3d223450	0.03960067
59	0xbd88c35e	-0.06677888
60	0x3d57348c	0.052540347
61	0x3ce94600	0.028475761
62	0x3dbc1724	0.09184101
63	0xbd8534fc	-0.065042466
64	0xbd1243f8	-0.03570935
65	0x3dc1e53d	0.09467552
66	0xbdaa3df8	-0.08312601
67	0xbde1f586	-0.11033158
68	0xbd6aa029	-0.057281647
69	0xbd1070e7	-0.035263922
70	0x3d091950	0.033471406
71	0xbd9f8012	-0.07788099
72	0xbdedb1d4	-0.11606184
73	0x3beb0d95	0.00717325
74	0xbd96868d	-0.07349882
75	0xbdb7fe8b	-0.08984097
76	0xbd6a85b0	-0.0572564
77	0x3d0ca2f0	0.034335077
78	0x3d79046c	0.060795233
79	0xbdaf0297	-0.08545416
80	0x3c936e20	0.017996848
81	0x3df054d2	0.11734928
82	0xbddf7cf6	-0.10912506
83	0x3cacce0a	0.02109434
84	0x3d21af20	0.039473653
85	0xbcdba478	-0.026811823
86	0x3d86940a	0.06571205
87	0xbddc79d1	-0.10765422
88	0x3df4464c	0.119274706
89	0xbe0143aa	-0.12623468
90	0x3cf994d0	0.030466467
91	0x3d112a6a	0.03544084
92	0x3daad90b	0.08342179
93	0x3b8e9c54	0.004352132
94	0x3bdc504a	0.0067234384
95	0xbd5d9f6b	-0.05410711
96	0xbdc3e948	-0.09565979
97	0xbcf48963	-0.029850667
98	0x3c88c84e	0.016697075
99	0xbdc3825d	-0.09546349
100	0xbc96b5c0	-0.018397212
101	0xbde31b40	-0.11089182
102	0xbdfd8d6e	-0.12380491
103	0xbdb5940e	-0.0886613
104	0x3b08e040	0.0020885617
105	0x3d308f5c	0.04310547
106	0xbd04b982	-0.032403477
107	0xbd8644aa	-0.065560654
108	0xbe00b442	-0.12568763
109	0x3dd738f6	0.10508911
110	0x3d62cad3	0.05536921
111	0x3dc5a7d8	0.09651154
112	0x3d0bd248	0.034136087
113	0x3db137b0	0.086532
114	0x3d8ce4dc	0.06879589
115	0x3d65da04	0.05611612
116	0xbbe77cc0	-0.007064432
117	0xbcb48dac	-0.02204021
118	0x3dd8ddf6	0.10589211
119	0xbd6e6c8c	-0.058208987
120	0xbdf6eceb	-0.12056907
121	0x3d0825e0	0.033239245
122	0x3c3ad9f2	0.011404501
123	0x3d2b9fd4	0.04190047
124	0x3d61d4dc	0.05513464
125	0xbd809820	-0.062790155
126	0x3dfe7ed0	0.12426531
127	0x3d162153	0.036652874
128	0x3da2efb6	0.079558775
129	0xbd723fec	-0.059142992
130	0xbd640c63	-0.055675875
131	0x3dbce72c	0.0922378
132	0x3dd36395	0.10321728
133	0x3cb0b590	0.02157095
134	0xbd32bb54	-0.04363568
135	0x3c0588a0	0.00815025
136	0x3c0389c0	0.008028448
137	0x3de0118a	0.10940845
138	0x3d94ef78	0.072722375
139	0x3c6f02e0	0.014588088
140	0x3dda2543	0.10651638
141	0xbdc5dec8	-0.09661633
142	0x3deee7f6	0.11665337
143	0xbded790a	-0.11595352
144	0xbde9a57e	-0.11408518
145	0xbcd4dd98	-0.02598457
146	0xbdc6ba96	-0.09703557
147	0xbd5f9489	-0.054585014
148	0x3db60104	0.088869125
149	0x3d2dafad	0.042403866
150	0xbdc12012	-0.09429945
151	0x3b32f31b	0.0027305547
152	0xbd8100ea	-0.062990025
153	0x3ca15238	0.019692525
154	0xbcb7d1d8	-0.022438928
155	0xbc452b2f	-0.012034222
156	0x3d0e1108	0.03468421
157	0x3db8cbde	0.090232596
158	0xbd2fd650	-0.042928994
159	0xbdd0786d	-0.101792194
160	0xbc6633d0	-0.014050439
161	0xbde80731	-0.11329497
162	0x3d95d77c	0.07316491
163	0x3df8591e	0.12126373
164	0xbc511b50	-0.012762859
165	0x3dcae3fa	0.09906764
166	0x3cf3bc70	0.02975294
167	0x3c9392f8	0.018014416
168	0x3dddafde	0.1082456
169	0x3d5b4958	0.053536743
170	0x3c1ce29a	0.00957551
171	0x3c80a33e	0.01570284
172	0x3c4ec846	0.012620991
173	0x3df1f922	0.118150964
174	0xbc898c51	-0.01679054
175	0xbdbefdd2	-0.09325756
176	0x3de3c6c4	0.11121896
177	0xbdb8cce3	-0.09023454
178	0x3d470b10	0.048594534
179	0xbd990812	-0.074722424
180	0x3de75548	0.11295563
181	0xba7c1541	-0.0009616204
182	0xbd31fbb8	-0.04345295
183	0x3d41e634	0.04733868
184	0xbdc6f8c6	-0.097154185
185	0x3cc46d33	0.023977851
186	0xbde04d74	-0.10952273
187	0xbc3e0470	-0.011597738
188	0x3bde3fc0	0.006782502
189	0x3d5d2138	0.053986758
190	0x3d56dd44	0.05245711
191	0x3db855ee	0.09000765

gru.bias_hh_l0 f4 [192]
0	0xbb32e840	-0.0027299076
1	0x3d778798	0.060432047
2	0x3dba8fa6	0.0910943
3	0x3dd094b8	0.10184616
4	0x3d9d8281	0.07690907
5	0x3d8da86c	0.069168895
6	0xbbc08dc0	-0.005876273
7	0x3dba0d3b	0.09084555
8	0xbd8b108e	-0.06790267
9	0x3e0c269d	0.13686605
10	0x3d9bccf2	0.076074496
11	0x3d162544	0.036656633
12	0xbde74e2a	-0.112942055
13	0xbbbd9ea0	-0.005786732
14	0x3dae3cfe	0.08507727
15	0x3abf3e80	0.001459077
16	0xbd22a468	-0.03970757
17	0x3d1eab04	0.038737312
18	0x3dda9c72	0.10674371
19	0x3db7e448	0.08979088
20	0x3bcf0300	0.0063174963
21	0x3d8eb060	0.069672346
22	0x3b7a8600	0.0038226843
23	0x3d5dac40	0.05411935
24	0xbcd32418	-0.025774047
25	0xbd547562	-0.051869757
26	0xbdb7fa76	-0.089833185
27	0x3db5c5fe	0.08875655
28	0xbddcffc8	-0.10790974
29	0xbdfb149c	-0.1225979
30	0xbde9e358	-0.114203155
31	0xbda838fe	-0.082139954
32	0xbd00b59c	-0.031423196
33	0xbda03038	-0.07821697
34	0x3ce95ae8	0.02848573
35	0xbd41bc26	-0.047298573
36	0x3c5779e0	0.013151616
37	0xbd83b036	-0.06430094
38	0x3cf390e0	0.029732168
39	0xbdbcb852	-0.09214844
40	0x3c24fab0	0.010069534
41	0x3dc9687c	0.09834382
42	0xbd536fe4	-0.05162038
43	0xbd5ea122	-0.054352887
44	0x3cfb65cb	0.030688187
45	0xbd36d3c8	-0.044635564
46	0x3de25373	0.11051073
47	0xbb3b9500	-0.0028622746
48	0xbb85bea0	-0.004081562
49	0xbdab0d6e	-0.08352171
50	0xbd932ac2	-0.0718589
51	0xbdcc83de	-0.09986089
52	0xbdc9d1a8	-0.09854442
53	0x3d8a7cd2	0.06762089
54	0x3d3072cc	0.04307823
55	0x3ddb64d0	0.10712588
56	0x3ddd6d56	0.1081187
57	0x3d744ecc	0.05964546
58	0x3bac0280	0.0052493215
59	0xbd712404	-0.058872238
60	0x3c6c6b40	0.014429867
61	0xbdcb4184	-0.099246055
62	0x3d09ce04	0.033643737
63	0xbd75ca9c	-0.060007676
64	0x3d983bc4	0.074332744
65	0x3de42ff5	0.111419596
66	0x3d38eb4e	0.04514628
67	0x3da2c530	0.07947767
68	0x3ca6a8f8	0.020344242
69	0x3de02e92	0.109463826
70	0xbda9dfc0	-0.0829463
71	0x3de78270	0.11304176
72	0xbddd97a6	-0.1081994
73	0x3d0ce8df	0.03440177
74	0x3df03a45	0.11729864
75	0x3d6dc3f1	0.058048192
76	0x3d63a99e	0.05558168
77	0xbd06bafd	-0.03289317
78	0x3d5785a8	0.0526177
79	0x3b5c287a	0.0033593462
80	0xbdd635b4	-0.10459462
81	0xbd98ef32	-0.07467498
82	0x3c913918	0.01772742
83	0x3c5b0fc5	0.013370459
84	0x3b0c2428	0.0021383855
85	0xbc92ced1	-0.017920883
86	0x3d7cb02c	0.061691448
87	0x3d97235f	0.073797934
88	0xbdb16498	-0.08661765
89	0x3d8c47d0	0.06849635
90	0xbc448ad0	-0.011995986
91	0xbbc23614	-0.005926857
92	0x3c097761	0.008390279
93	0xbdbaf9f7	-0.09129708
94	0xbd946e32	-0.072475806
95	0xbdaeaba5	-0.08528832
96	0x3c6e9530	0.014561936
97	0x3da0cfe5	0.07852153
98	0xbb5bf12f	-0.0033560505
99	0x3d072b4e	0.033000283
100	0x3def54ae	0.11686073
101	0xbdd5860e	-0.104259595
102	0x3d6ad2e8	0.057330042
103	0x3cdf3bc1	0.027250173
104	0xbdc5ed42	-0.09664394
105	0xbde2d10c	-0.11075029
106	0x3ddbb55e	0.107279524
107	0x3da17400	0.07883453
108	0xbced7f6b	-0.028991422
109	0x3c23ae92	0.009990351
110	0xbd77945d	-0.060444225
111	0x3dd476de	0.103742346
112	0xbda94e4d	-0.08266888
113	0xbde9fc7e	-0.11425112
114	0x3bb3bec0	0.0054853857
115	0xbcff7b88	-0.031186834
116	0x3ccd3b28	0.025052622
117	0x3def7643	0.116924785
118	0xbd2bf918	-0.0419856
119	0xbd173af4	-0.036921456
120	0x3dab66d5	0.08369223
121	0xbc2f21b0	-0.010689184
122	0xbdc809d2	-0.09767498
123	0xbdd73748	-0.10508591
124	0x3d048a0c	0.032358214
125	0xbdaa216a	-0.083071545
126	0x3d74618b	0.059663337
127	0xbd29d1e9	-0.04145995
128	0x3d308e64	0.043104544
129	0x3d444d04	0.04792501
130	0xbd8d1c72	-0.06890191
131	0xbd813b60	-0.06310153
132	0x3e0c53f1	0.13703896
133	0xbcfc0290	-0.03076294
134	0xbdbcf766	-0.09226875
135	0x3d7363f9	0.059421513
136	0x3ddda2c4	0.10822061
137	0x3cd214df	0.025644718
138	0xbdaef078	-0.085419595
139	0x3df9b296	0.12192266
140	0x3d249c68	0.040188223
141	0x3d5e6fb0	0.054305732
142	0xbd5f9aa4	-0.054590836
143	0xbd38d010	-0.0451203
144	0x3cffc748	0.031222954
145	0x3d2e31e0	0.042528033
146	0xbdba20a4	-0.09088257
147	0x3df5b9a2	0.11998297
148	0xbd77298c	-0.060342357
149	0x3dca3ac6	0.098744914
150	0x3d387314	0.045031622
151	0x3d751456	0.059833847
152	0xbd950a2c	-0.07277331
153	0x3d25a269	0.04043809
154	0x3d898bd4	0.06716123
155	0xbd9d524c	-0.076817125
156	0x3c2aa510	0.0104153305
157	0xbddf8d80	-0.10915661
158	0xbd951086	-0.07278542
159	0xbd08603c	-0.0332949
160	0xbc8358a0	-0.01603347
161	0x3ce63747	0.02810253
162	0xbdd598da	-0.10429545
163	0x3b562512	0.0032675904
164	0x3dcc29e8	0.099689305
165	0x3d934c5c	0.07192299
166	0x3c84f318	0.016229197
167	0x3c34a7e0	0.011026353
168	0xbd7b0354	-0.06128247
169	0x3da1b100	0.07895088
170	0xbd923b7a	-0.071402505
171	0xbdb80899	-0.08986015
172	0x3d1fc443	0.03900553
173	0xbd197b14	-0.037470892
174	0xbd4e8e4e	-0.05042868
175	0xbdbc4e90	-0.09194672
176	0x3db350c0	0.08755636
177	0xbdbf5c5c	-0.09343788
178	0x3c31a4f0	0.010842547
179	0x3dd064ba	0.10175462
180	0x3ddfa998	0.10921019
181	0xbdea8142	-0.11450435
182	0xbdced286	-0.10098748
183	0xbce077d0	-0.027400881
184	0x3dc6e402	0.09711458
185	0x3dfca884	0.12336829
186	0xbd9463d4	-0.07245603
187	0x3d2aaf90	0.041671336
188	0xbdfd0956	-0.12355296
189	0xbcf69bc0	-0.030103564
190	0x3bbb96e0	0.005724773
191	0x3d288bf0	0.04114908

fc.weight f4 [3, 64]
0	0x3d0d94b4	0.034565642
1	0xbf027e85	-0.50974303
2	0x3dcab252	0.09897293
3	0x3d8f117f	0.06985759
4	0x3d6036a2	0.054739602
5	0xbda760fe	-0.08172797
6	0xbd215b7c	-0.039393887
7	0x3df38ca2	0.11892058
8	0xbcb21207	-0.021737112
9	0x3f371571	0.7151709
10	0xbcc983bf	-0.024598954
11	0x3d2674ac	0.04063861
12	0xbd9f45db	-0.07776996
13	0xbc5878e9	-0.013212421
14	0x3dc40c07	0.095726065
15	0x3ed2eab9	0.41194704
16	0xbd2d3321	-0.04228509
17	0xbde6f820	-0.11277795
18	0xbd188a28	-0.03724113
19	0x3f538874	0.82630086
20	0xbe0c5097	-0.13702618
21	0x3e1614a8	0.14656317
22	0xbd0ee129	-0.0348827
23	0x3e9f3117	0.3109214
24	0x3d2a34a2	0.0415541
25	0x3de8786b	0.11351093
26	0x3ce43308	0.027856365
27	0x3c29f1cb	0.010372589
28	0xbf1b63e0	-0.6069927
29	0x3da1e39d	0.07904742
30	0xbe8617c6	-0.26190013
31	0xbefc2361	-0.49245742
32	0xba2ddfa7	-0.0006632753
33	0xbdb3a863	-0.087723516
34	0xbdc2851d	-0.094980456
35	0xbe1b29e7	-0.15152703
36	0xbd915cda	-0.07097788
37	0x3c9cce28	0.019141272
38	0xbdb9b71b	-0.09068128
39	0xbd1e4733	-0.03864212
40	0xbd921736	-0.071333334
41	0xbd2b4c00	-0.041820526
42	0xbc8b01fa	-0.016968716
43	0xbd947780	-0.07249355
44	0xbe2db464	-0.16963345
45	0xbde7b26b	-0.113133274
46	0x3d996aac	0.07491049
47	0x3ced2e62	0.028952781
48	0xbde1537f	-0.11002254
49	0x3e136800	0.14395142
50	0xbdf0eadd	-0.117635466
51	0xbda0662d	-0.078319885
52	0xbd846601	-0.06464768
53	0xbf0220d9	-0.5083137
54	0x3c58d1a0	0.013233572
55	0xbc025080	-0.007953763
56	0x3d4646f1	0.0484075
57	0xbdacc310	-0.08435643
58	0xbd5b5187	-0.053544547
59	0xbd17db08	-0.03707412
60	0xbd0de3f4	-0.03464122
61	0xbc4fe030	-0.012687728
62	0x3d6b839e	0.057498567
63	0xbcae195a	-0.021252323
64	0x3df95ad6	0.12175529
65	0xbefee0d5	-0.49780908
66	0xbd416a0b	-0.04722027
67	0xbdb5cfc1	-0.088775165
68	0x3d47f3d2	0.04881651
69	0x3d92a26d	0.071598865
70	0x3dc0ce40	0.09414339
71	0xbf432e22	-0.7624227
72	0xbcdc5f5d	-0.026900942
73	0xbf1cc3a2	-0.6123601
74	0x3c0cbe8f	0.008590355
75	0xbcd53f1c	-0.02603107
76	0x3d87e3ce	0.06635247
77	0xbceaf9cc	-0.028683566
78	0x3d6c98a5	0.05776276
79	0x3f1e0df1	0.6174002
80	0x3d9deef3	0.077115916
81	0x3d46f394	0.048572138
82	0x3d9cd33e	0.07657479
83	0xbf45ffc4	-0.7734339
84	0xbdb2ff67	-0.087401204
85	0x3d1f0cf2	0.038830705
86	0x3d68dd56	0.056851707
87	0x3f0d3734	0.5516236
88	0xbcad2e9d	-0.021140391
89	0xbd51181c	-0.051048383
90	0x3c9331d8	0.017968103
91	0xbdada7b5	-0.08479253
92	0x3ee9a946	0.45636958
93	0x3d1f22bb	0.03885148
94	0x3dde57a5	0.108565606
95	0x3f89770f	1.0739459
96	0x3da7f1b7	0.082004
97	0xbb862682	-0.004093946
98	0xbd1473ea	-0.036243357
99	0x3d9c7847	0.076401286
100	0xbdb94afa	-0.09047504
101	0x3d5381b4	0.051637366
102	0x3d927312	0.07150854
103	0x3e07aa60	0.13248587
104	0xbcfb8ae0	-0.03070587
105	0x3cac9a88	0.02106978
106	0x3e006192	0.1253722
107	0xbd855591	-0.06510461
108	0xbf22d6f8	-0.63609266
109	0x3db957d0	0.09049952
110	0xbe042076	-0.12903008
111	0x3b224b4a	0.0024764114
112	0xbc96036f	-0.018312184
113	0x3c698d72	0.014254915
114	0xbd97377f	-0.07383632
115	0x3db20127	0.08691626
116	0xbc903762	-0.017604534
117	0xbe6f7704	-0.23385245
118	0x3d807868	0.06272966
119	0xbd4e5f08	-0.050383598
120	0xbd376050	-0.044769585
121	0x3d61aad6	0.055094562
122	0x3d1e745d	0.03868519
123	0x3d613884	0.054985538
124	0x3c684702	0.014177086
125	0xbce6d3e0	-0.028177202
126	0xbd3cbcda	-0.04607854
127	0x3ceb8006	0.02874757
128	0xbd11ebb8	-0.03562519
129	0xbd983825	-0.07432584
130	0xbdae0a1b	-0.08498021
131	0x3c221f17	0.009895108
132	0x3de962f4	0.11395827
133	0x3d80e6ce	0.062940225
134	0xbdabf0fc	-0.083955735
135	0xbd0c6e99	-0.03428516
136	0x3def129d	0.11673472
137	0xbe49eab4	-0.19718438
138	0xbcbd787f	-0.023128746
139	0x3c9915bf	0.018687127
140	0x3d174f8c	0.036941096
141	0xbc83ec93	-0.016104018
142	0xbd8ef052	-0.06979431
143	0xbd6571d4	-0.056016758
144	0xbd625b51	-0.055262867
145	0x3c29dc50	0.010367468
146	0xbcf53348	-0.02993168
147	0xbdc982a8	-0.09839374
148	0x3dc6860e	0.09693538
149	0xbdd8a9f4	-0.10579291
150	0xbdffa06d	-0.12481771
151	0xbc38a6ba	-0.011270219
152	0x3de07b40	0.10961008
153	0x3cb7f7f9	0.02245711
154	0xbd90b9dc	-0.070667
155	0x3d9ebab0	0.077504516
156	0x3df682ff	0.12036704
157	0xbd570331	-0.052493278
158	0xbd75906c	-0.059952185
159	0x3cf3b50d	0.029749418
160	0x3de5d3ae	0.11222015
161	0xba8fabff	-0.0010961293
162	0xbcada61e	-0.021197375
163	0x3d6c00fd	0.05761813
164	0xbde9a09c	-0.11407587
165	0x3dd3dd6e	0.10344969
166	0xbd03be92	-0.032164164
167	0x3d2775e3	0.04088391
168	0xbcc12bf8	-0.023580536
169	0x3ddfa482	0.10920049
170	0x3dae0afa	0.08498187
171	0x3d8033b6	0.06259863
172	0x3d3563e3	0.044284713
173	0x3dd90543	0.10596707
174	0x3d60d997	0.05489501
175	0x3cffa878	0.031208262
176	0xbda87670	-0.08225715
177	0x3dd8f817	0.105941944
178	0x3d7dc90f	0.061959323
179	0x3d0dd656	0.034628235
180	0x3cb19db6	0.021681648
181	0xbdd5fbee	-0.104484424
182	0xbcc55488	-0.02408816
183	0xbde1665c	-0.110058516
184	0x3dfbff27	0.12304526
185	0x3df00263	0.11719205
186	0xbc1c6c77	-0.009547344
187	0xbce22e68	-0.027610019
188	0x3cbc9fbe	0.02302539
189	0x3dd14f14	0.10220161
190	0xbc12bfa5	-0.008956824
191	0xbd538f08	-0.051650077

fc.bias f4 [3]
0	0xbddf232c	-0.108953804
1	0xbcd410b9	-0.02588688
2	0x3d77faee	0.06054204
