result/9/model_epoch_1660.pth (torch, 67411 bytes, 6 tensors)

gru.weight_ih_l0 f4 [192, 18]
000000 2a db b1 3d b0 1f 4f bd 60 4d 17 3c 70 b7 ec 3c
       0.0868438 -0.05056733 0.009234756 0.028896064
000010 b0 ce f7 bc 62 2e 86 bd b8 cb d4 bd c0 ea 34 bc
       -0.030249923 -0.065518156 -0.10390419 -0.011042297
000020 32 d2 f9 3d f4 19 92 3d d0 ac 96 bc d4 54 c5 bd
       0.12198295 0.071338564 -0.01839295 -0.0963532
000030 60 7d 0a 3c 70 02 84 bd 90 49 60 3d 2c 57 47 3d
       0.008452743 -0.064457774 0.054757655 0.048667118
000040 28 ec fc 3c b4 93 f3 3d a8 02 8a 3d 02 19 89 3d
       0.030874327 0.118934065 0.06738788 0.06694223
000050 3e d0 ae 3d 30 48 fb 3d 72 53 ef bd a8 0e 5b 3d
       0.08535813 0.12269628 -0.11685838 0.053480774
000060 78 d4 29 3d b6 94 e7 3d 80 dc f5 3d bc 66 b9 3d
       0.04146239 0.11307661 0.12004948 0.09052798
000070 6e 27 9c 3d 90 fb d6 bd 44 86 fc bd be 16 db bd
       0.07624708 -0.104972005 -0.12330297 -0.10697697
000080 dc d5 2a 3d 1e 7b db bd 62 7e a5 bd 40 11 2c 3b
       0.04170786 -0.10716842 -0.08080746 0.00262554
000090 44 37 27 3d 64 18 77 3d d4 7b b3 3d e6 5a d1 bd
       0.04082419 0.060325995 0.08763853 -0.102224156
0000a0 28 5b de bd 04 75 de 3d ec 3e 4f bd ee 1c eb bd
       -0.108572304 0.10862163 -0.050597116 -0.11480127
0000b0 d0 8f 19 bd 74 11 45 bd ce 74 e6 bd 04 87 2e 3d
       -0.037490666 -0.048112348 -0.112527475 0.04260923
0000c0 e4 ca f3 3d 28 32 ff 3c 72 8b c0 3d 70 1d b7 3c
       0.11903933 0.031151846 0.09401597 0.022352904
0000d0 c4 71 a5 3d 76 f7 ab 3d 4c 29 5d bd b2 15 c8 3d
       0.0807834 0.08396809 -0.053994462 0.09769763
0000e0 9a 6f 91 3d 5c aa 85 bd 68 dc ec 3c 60 28 e0 bc
       0.071013644 -0.06526634 0.028913692 -0.027363002
0000f0 10 09 8c bc 90 47 f6 3c 9a 5c cd 3d a0 da e7 bd
       -0.017094165 0.03006342 0.10027428 -0.11320996
000100 ea d0 f2 3d 38 31 a2 bc 20 67 70 3d 80 f2 82 3a
       0.118562534 -0.01979886 0.058692098 0.0009990484
000110 ac c7 ec bd f0 82 be 3d 70 c6 dc 3c e2 bd ae 3d
       -0.11561522 0.09302318 0.026950091 0.08532311
000120 50 68 d5 3d f8 c6 9e 3d ac 80 c7 3d 80 83 a3 bd
       0.10420287 0.07752794 0.09741339 -0.07984066
000130 6e 52 98 3d 18 9e be bd d0 02 73 bc a0 27 71 bc
       0.07437597 -0.09307498 -0.0148322135 -0.01471892
000140 a8 78 ef bc 40 a3 4f bd f8 80 20 3d 58 54 b1 bc
       -0.029232338 -0.050692797 0.039185494 -0.021646664
000150 ae 22 b0 3d 52 b6 b4 3d 60 2d 0b 3c ec 56 36 3d
       0.086003646 0.08823837 0.008494705 0.04451649
000160 0e 5d a9 3d 6c 27 ad bd fe a5 ae 3d f8 ac c4 bc
       0.08269702 -0.08454785 0.08527754 -0.02400826
000170 82 00 86 bd 7c db 11 bd 1c a8 35 3d 28 b6 fb 3c
       -0.065430656 -0.035609707 0.044349775 0.030726507
000180 30 5e 43 bd 60 ef db 3b f0 92 bf 3c f0 96 22 bd
       -0.047697246 0.0067118853 0.023385495 -0.039694726
000190 80 d9 17 bc 30 0d 26 bd a0 28 36 bc 8e 19 9a bd
       -0.009268165 -0.04053992 -0.011118084 -0.075244054
0001a0 10 df e1 3d d4 a0 2f 3d f8 58 b3 3d 00 b6 b6 3d
       0.11028874 0.042877987 0.08757204 0.089214325
0001b0 a6 a8 92 3d c4 6f 6c 3d f0 89 9a bd 60 df 9c 3c
       0.071610734 0.057723776 -0.07545841 0.019149482
0001c0 40 41 5d bb 50 ab 3d bc 24 fd 37 bd 52 92 e2 3d
       -0.0033760816 -0.011576489 -0.044919148 0.11063065
0001d0 64 bf 6d bd 88 4d e3 3d 60 eb 24 bd 76 01 a7 3d
       -0.058043852 0.11098772 -0.040263534 0.081545755
0001e0 c0 2a 28 bd 80 a8 40 bc 70 0a 75 bc 4a 90 bb 3d
       -0.041056395 -0.0117589235 -0.014956102 0.0915838
0001f0 84 9d df 3d ee 6e e6 bd d0 e0 a7 3d fa e5 ca 3d
       0.109187156 -0.11251627 0.081971765 0.09907146
000200 80 1f 5a bb 9c 4b 58 bd 28 00 cb 3c 94 02 0d 3d
       -0.0033282936 -0.05280648 0.024780348 0.034426287
000210 06 bb dc 3d 5c 14 42 3d b6 ab ae bd 30 a4 78 3c
       0.107778594 0.047382697 -0.08528845 0.015175864
000220 da 98 a5 bd cc 6f 35 3d 74 c2 e3 3d 04 0e 0f 3d
       -0.08085795 0.04429607 0.11121073 0.034925476
000230 e4 ca 23 bd 18 65 83 3c 90 e4 76 bc 20 db d9 3c
       -0.039988413 0.016039416 -0.015069142 0.026593745
000240 6e 71 ee 3d 18 b6 5d 3d 6a 43 df bd e8 b7 04 bd
       0.11642729 0.054128736 -0.1090153 -0.03240195
000250 84 9f 91 bd 32 1a 91 bd c0 6b 7a 3c 7e a2 a6 bd
       -0.07110503 -0.070850745 0.015284479 -0.08136462
000260 90 86 1d 3d 20 21 cd bc f8 96 e2 bc 8c dc 15 bd
       0.038458407 -0.02504021 -0.027659878 -0.036587283
000270 6c 71 0e 3d d4 0d 21 bd 44 54 70 bd 80 5a a1 bb
       0.034776136 -0.03931983 -0.058674112 -0.0049241185
000280 26 e6 96 bd 92 a8 c7 3d 90 7d 23 bc ee f8 ca bd
       -0.07368116 0.09748949 -0.009978667 -0.09910761
000290 e2 81 bd 3d 42 a4 dd 3d 98 c7 68 3d c6 c4 8b bd
       0.09253289 0.10822345 0.056830972 -0.06824641
0002a0 34 ba 9b bd a0 71 fd 3b 80 b9 d2 bb f0 6a 2e 3c
       -0.07603875 0.0077344924 -0.0064308047 0.010645613
0002b0 64 c2 12 bd 30 9b a1 bd 00 ab f7 3d 52 a0 d0 bd
       -0.035829917 -0.07890928 0.120931625 -0.10186829
0002c0 c0 1d ee bc 7c 9b d6 bd 24 a6 45 bd e0 16 8b 3b
       -0.02906692 -0.10478875 -0.048254147 0.0042446703
0002d0 0c da 88 bd 74 57 91 3d c8 7f b7 3c 88 b8 64 3d
       -0.06682214 0.070967585 0.022399798 0.055840045
0002e0 86 73 83 bd 90 8e d9 bd b0 6f db 3c c2 da fe 3d
       -0.06418519 -0.10622895 0.026786655 0.124440685
0002f0 42 b8 a8 3d 50 e8 1c 3d d6 ce ab 3d c0 e1 90 3d
       0.082382694 0.038307488 0.0838906 0.070743084
000300 e8 0b 20 3d 4e 21 9e 3d f2 90 e7 bd 24 9b 8d 3d
       0.039073855 0.07721196 -0.11306943 0.06914356
000310 f6 b2 f7 bd f4 10 25 bd 90 73 73 3c 50 8b 6f 3d
       -0.12094681 -0.04029937 0.014859095 0.058482468
000320 e8 4b a7 3c d4 79 37 bd 92 c8 c5 bd 7a 94 cc 3d
       0.020421937 -0.04479392 -0.096573964 0.09989257
000330 1e 14 9e 3d 74 58 62 3d fc 3a a8 3d c0 1e 67 bd
       0.07718681 0.055260137 0.082143754 -0.05642581
000340 3a af e1 3d 34 32 72 3d 64 68 96 bd ec cd 2a bd
       0.1101975 0.05912991 -0.0734413 -0.04170029
000350 94 37 e5 bd 80 24 b8 3c fc fa 00 bd ba c7 9d bd
       -0.11192241 0.022478342 -0.031489357 -0.077041104
000360 60 f0 e2 bc 70 86 52 3d 00 30 65 3d 50 75 44 bd
       -0.02770251 0.05139774 0.05595398 -0.04796344
000370 20 d1 04 3c c2 4c e7 bd 20 19 eb bc d2 79 9f bd
       0.0081065 -0.11293937 -0.028698504 -0.07786907
000380 e4 81 6f 3d 5e 45 df 3d 52 a8 e8 3d 18 26 fe 3d
       0.058473483 0.109019026 0.113602296 0.124096096
000390 50 7e 09 bc 20 8c d4 bd 6e 1d a8 bd f8 f6 ef 3d
       -0.008391932 -0.10378289 -0.08208738 0.117170274
0003a0 0e a3 dc 3d 4e 70 ea 3d a0 e8 37 3d 00 3b bc 3b
       0.10773288 0.11447202 0.044899583 0.005744338
0003b0 10 b4 62 3d b0 54 8d bc dc ac 6b bd 56 b6 9b bd
       0.055347502 -0.017252296 -0.0575379 -0.07603137
0003c0 08 36 e0 3c 80 2a b7 bb 40 3a fa bc e4 94 e4 3d
       0.027369514 -0.005589783 -0.030545354 0.11161211
0003d0 b0 82 9a bc 12 b4 a5 bd ba b3 d2 3d 62 89 b0 bd
       -0.018861145 -0.08090986 0.10288186 -0.08619954
0003e0 b4 bf 1e 3d 70 9e 07 3d 32 ad 97 3d c0 90 4d bd
       0.03875704 0.033110082 0.07406081 -0.050186872
0003f0 68 e8 1c 3d ee 9d da bd e0 78 c1 3b 04 5f 58 bd
       0.038307577 -0.10674654 0.005904302 -0.05282499

gru.weight_hh_l0 f4 [192, 64]
000000 f0 98 5e bc 68 0b 8c 3d 00 51 f4 bb d8 6f d5 3c
       -0.013586268 0.06838113 -0.007455945 0.026054308
000010 f8 ad 40 bd 22 6c fa 3d da 72 ca 3d 90 6e 61 3c
       -0.04704091 0.12227656 0.098851874 0.01375927
000020 30 6d eb 3d 8c 37 73 bd 80 0b 43 3c 94 9c 2e bd
       0.11495435 -0.059379146 0.011904597 -0.042629793
000030 d0 f3 f2 3d 40 db 10 3d 4c 66 0d 3d ba 2e eb 3d
       0.1186291 0.035365343 0.034521386 0.11483522
000040 e6 08 ed 3d e8 9f b2 3c 92 e9 f3 bd 78 13 87 bd
       0.11573963 0.021804765 -0.119097844 -0.0659551
000050 52 3a c4 bd b4 05 ba 3d 6e be e1 3d 40 af a1 3b
       -0.09581436 0.09083119 0.1102265 0.0049342215
000060 30 81 83 bc 88 af 42 3d c8 d3 99 3d 20 5d e4 3d
       -0.016052812 0.04753068 0.07511097 0.11150575
000070 28 ec aa 3c 84 54 7c 3d 90 9c 13 bd a4 77 ef 3d
       0.020864561 0.061604038 -0.03603798 0.116927415
000080 b6 78 e6 3d 58 75 1c 3d 88 d7 e1 3d 0a 17 ae bd
       0.112534925 0.038197845 0.110274374 -0.08500488
000090 a0 99 2d bd c6 0e aa bd 7c 10 8e 3d 6a a0 80 bd
       -0.042382836 -0.08303599 0.06936738 -0.062805966
0000a0 80 cd c3 3d 88 5f b6 3c d6 de fd 3d 70 b1 e2 3c
       0.095606804 0.02226235 0.12396018 0.0276725
0000b0 c0 95 f9 3c 28 ef 34 bd c0 9d 87 bb 48 da 20 3d
       0.030466914 -0.04417339 -0.0041386783 0.03927067
0000c0 a2 a7 f3 3d d8 70 84 3c 62 79 f3 bd d8 a8 3c bd
       0.11897208 0.01616709 -0.11888386 -0.04605946
0000d0 b8 6b 82 bd ec f7 e6 bd 20 ef d4 3b 50 9f 6c bc
       -0.06368202 -0.11277756 0.0064982325 -0.01444228
0000e0 da 16 df bd 96 97 db bd 6c b7 c4 bd b8 87 92 bd
       -0.108930305 -0.10722272 -0.096052974 -0.071547925
0000f0 bc ae c7 bd e8 0a f8 bd d4 d5 78 bd e8 6d f7 3c
       -0.09750125 -0.12111455 -0.060750797 0.030203775
000100 a4 d8 8a bd 5c 71 51 bd a4 6c f6 bd 98 21 96 bc
       -0.06779602 -0.0511335 -0.1203244 -0.018326566
000110 0a f3 bd 3d f8 01 8d 3d 62 82 d7 bd a4 db d0 bd
       0.09274872 0.06885141 -0.105229154 -0.10198143
000120 e0 17 c8 3b de 2d e9 3d e0 a8 9f 3d 58 79 bb bc
       0.0061063617 0.113857016 0.07795882 -0.02288501
000130 76 ba c2 bd f4 3e 7f bd 2e b6 fe 3d 22 dd b6 3d
       -0.09508221 -0.062315896 0.12437092 0.089288965
000140 a0 21 b5 3c 02 9a b2 3d a2 a2 eb 3d 80 ed 75 3b
       0.02211076 0.08720781 0.11505629 0.0037525594
000150 a0 94 f8 bc a0 eb 83 3c 5c 6d 92 bd fc 25 92 bd
       -0.030344307 0.016103566 -0.07149765 -0.07136151
000160 ae 6a dc bd e4 f4 ae 3d c4 b0 fc 3d 84 0d eb 3d
       -0.10762535 0.08542803 0.12338403 0.11477187
000170 20 8a b2 3d 2e 9c e4 3d 34 ad 6b 3d d0 d1 f6 3d
       0.087177515 0.111626014 0.057538226 0.12051737
000180 b0 a7 25 3c 58 4d ae 3c cc 97 e2 3d 4a 00 ed bd
       0.010110781 0.021277115 0.11064109 -0.11572321
000190 18 7c fb 3d 00 27 35 3b 6e d2 e0 3d 44 08 9f 3d
       0.122795284 0.0027641654 0.10977636 0.077652484
0001a0 2a 55 d6 3d c0 8e c7 3d 70 e1 68 bd 80 82 cf 3d
       0.104654625 0.09744024 -0.05685562 0.10132313
0001b0 58 23 9e bd bc fe fe bd 42 3b 99 bd a8 9c b2 3c
       -0.07721585 -0.124509305 -0.07482006 0.021803215
0001c0 c8 25 08 bd 98 f9 7b 3d 80 0f 22 bd e8 80 83 3d
       -0.033239156 0.061517328 -0.039565563 0.06421071
0001d0 08 b4 d6 3d 54 75 36 bd d8 16 5e bd 7c 51 ca bd
       0.10483557 -0.044545487 -0.054221004 -0.09878823
0001e0 4c ce ef 3d b8 d7 e5 bc 04 b8 9b 3d b8 33 ca 3d
       0.1170927 -0.028056964 0.076034576 0.09873146
0001f0 60 0b 41 bd 48 58 33 bd f8 09 5b bd e6 45 e2 bd
       -0.04712999 -0.043785363 -0.053476304 -0.11048488
000200 38 45 47 bd a0 b3 97 bb 4a 0a e6 3d 4c cb f9 bd
       -0.048649997 -0.0046295673 0.11232431 -0.12196979
000210 84 92 a3 bd a0 be 06 bc 82 53 da bd 80 57 c4 3b
       -0.0798693 -0.0082241595 -0.10660459 0.005991876
000220 86 99 b0 bd 46 d4 97 bd 84 de 0c 3d 94 f4 3b 3d
       -0.08623032 -0.07413535 0.034391895 0.045887545
000230 30 5c 76 3c f0 ba 26 bc 2e 7d f4 3d 94 a3 79 bd
       0.015036628 -0.010176405 0.11937939 -0.060947016
000240 90 16 31 3c e0 56 26 bc 80 15 80 bb 1e 88 eb 3d
       0.010808602 -0.010152549 -0.003908813 0.11500572
000250 78 64 60 bd 1a 70 a2 bd 54 6a 16 3d a0 eb 54 bd
       -0.054783314 -0.07931538 0.036722496 -0.051982522
000260 f8 8c f2 bd d0 33 51 3d b2 3d 82 3d a2 81 a9 3d
       -0.11843294 0.051074803 0.06359424 0.082766786
000270 74 21 34 bd 64 bc da bd e0 f2 e3 3d 18 46 94 3c
       -0.043977216 -0.10680464 0.11130309 0.01809983
000280 a8 6a 75 3d 40 1c 90 3c d6 10 81 bd 20 12 12 3d
       0.05991617 0.017591596 -0.06302039 0.035661817
000290 3c fd 58 3d a0 c2 cb 3b 08 53 8e 3d 60 77 ff bd
       0.052975878 0.0062182695 0.06949431 -0.12473941
0002a0 80 ec 25 3c b0 ac ee 3d dc c5 4d bd e0 24 bd bc
       0.010127187 0.11654031 -0.05023752 -0.023088872
0002b0 f0 6b d3 3c b8 05 75 3d 78 7f f0 3c 80 76 bd 3a
       0.025808305 0.059819907 0.029357657 0.0014454871
0002c0 e4 1f 85 bd 04 ab 4a bd 4c 44 58 3d f4 7f 98 3d
       -0.06500223 -0.0494795 0.052799508 0.0744628
0002d0 98 fa 08 bd 86 32 d3 3d 12 93 f3 3d 00 d8 21 bd
       -0.03344211 0.10312371 0.11893286 -0.039512634
0002e0 a0 97 d1 bd 6a 85 ce 3d a0 94 d2 3d 30 37 12 bc
       -0.10233998 0.100840405 0.10282254 -0.008924291
0002f0 9e 5a 93 bd c0 9e a8 3b 38 ad a9 bc 78 6c 00 bd
       -0.07195018 0.0051458776 -0.02071248 -0.031353444
000300 08 9f be 3c f2 c2 b6 bd 38 14 e1 bc 84 0d 03 3d
       0.023269191 -0.089239016 -0.027475461 0.03199531
000310 62 6a a4 bd 9e 4d e3 bd 7c c5 23 bd da 01 80 bd
       -0.080281034 -0.11098789 -0.039983258 -0.06250353
000320 70 2e cd bd 1c 6e 6f bd a8 f6 ed 3d 20 86 78 bd
       -0.10018623 -0.058454618 0.116193116 -0.060674787
000330 32 b4 96 bd 74 ad 38 bd b8 d3 54 3d 20 8e f8 bc
       -0.07358588 -0.045087293 0.051959723 -0.030341208
000340 8e 3b 99 bd f0 a1 9b bc d8 8f c6 3c e8 c8 ed 3c
       -0.07482062 -0.018998116 0.024238512 0.029026464
000350 40 13 f2 bc 4c 35 cd 3d 04 63 2b 3d 14 7f 9b 3d
       -0.029550195 0.10019931 0.041842476 0.075925976
000360 ec d2 21 bd 38 91 d0 3c 00 c2 1e bd 70 1c 78 3d
       -0.03950779 0.02545987 -0.03875923 0.060573995
000370 18 45 72 bd ca 27 c9 3d 08 f7 e1 bd c6 65 b3 3d
       -0.059147924 0.09822042 -0.110334456 0.08759646
000380 7a 9c f9 bd b0 f3 0a 3c aa 99 92 bd e8 ca 3f bd
       -0.12188049 0.008480951 -0.07158215 -0.046824366
000390 2c 17 46 3d b2 ef d4 3d 18 02 37 3d bc fe e1 3d
       0.048361942 0.10397281 0.04467973 0.11034915
0003a0 d8 e9 9f bc 68 99 07 3d dc 8d 8f 3d f0 50 90 3c
       -0.019520685 0.033105284 0.070094794 0.017616719
0003b0 ea e9 f4 3d d4 fd ee 3d 4e d6 c1 bd 1c f7 96 3d
       0.11958678 0.116695076 -0.094647035 0.07371351
0003c0 08 3f a2 bd e0 3f f0 bd e6 e8 80 bd 56 da fd bd
       -0.079221785 -0.11730933 -0.06294422 -0.1239516
0003d0 9c b4 b7 3d a8 a5 61 3d 38 10 95 3d 1c 83 39 3d
       0.089699954 0.055089623 0.07278484 0.04529105
0003e0 f4 c5 f4 bd 04 9d 0c 3d 98 82 fd 3d 68 3f 6e bd
       -0.11951819 0.03432943 0.123784244 -0.058165938
0003f0 56 1e 95 3d 74 c8 27 bd f0 0d 90 bc ce 54 9c 3d
       0.07281177 -0.04096265 -0.01758477 0.07633363

gru.bias_ih_l0 f4 [192]
000000 80 db 10 3b 44 3d e9 3d 28 d4 8e bd a0 3c 2e bd
       0.0022103488 0.113886386 -0.06974059 -0.042538285
000010 08 72 21 bd e8 11 86 bc 28 03 e8 bc 0a 0f ce 3d
       -0.03941539 -0.01636596 -0.028321818 0.10061462
000020 80 16 f5 3a 58 6d be 3d fc 5e 1c 3d 0c e9 3b bd
       0.0018698722 0.092981994 0.03817652 -0.045876548
000030 68 2c 1d bd 1a d4 aa 3d c0 54 a6 bd 05 c2 43 bb
       -0.038372427 0.083412364 -0.081216335 -0.0029870283
000040 9c 1a 2b 3d 76 ac a8 bd 82 f8 e6 bd f0 74 d2 3c
       0.041773424 -0.08236019 -0.11277868 0.025690526
000050 5c 03 92 3d 2c 44 2f 3d 0c 73 b2 bd 9c bc b4 3d
       0.07129547 0.042789623 -0.0871335 0.08825037
000060 46 ce f9 bd 6c bc d5 3d 2f f5 c7 bd f0 9d 4f 3d
       -0.12197547 0.10436329 -0.09763562 0.05068773
000070 30 f0 2c 3d 66 b6 e5 bd 24 0c f8 3d 90 7e ef bc
       0.04222125 -0.1121643 0.12111691 -0.029235154
000080 b5 c5 d8 3c b0 29 85 3d f4 ec 3a bd 44 b1 64 bd
       0.026461462 0.06502092 -0.045636132 -0.055833116
000090 90 94 a1 3c e8 e0 02 bd 28 11 49 3d 60 8b 54 bd
       0.01972416 -0.03195277 0.049088627 -0.05189073
0000a0 60 f1 4b bd 55 da 4f bd 58 69 99 3d ec 29 01 3d
       -0.04979074 -0.050745327 0.07490796 0.03153412
0000b0 2a e4 a1 3d 54 24 6f bd b2 05 cd 3d ec fc fe 3d
       0.07904847 -0.058384255 0.10010852 0.12450585
0000c0 4c 19 57 bd c4 ea 48 bd 50 08 7d bd 42 97 81 3d
       -0.05251436 -0.049052015 -0.061775506 0.06327678
0000d0 e8 40 6d bd cc 2a af bd 0d 9e 28 3c 0e 4e fe bd
       -0.057923228 -0.08553085 0.0102915885 -0.124172315
0000e0 60 17 44 3d 30 72 99 3d 12 3c 9f 3d 40 00 74 bc
       0.047873855 0.07492483 0.077751294 -0.014892638
0000f0 7f 97 a6 bc 30 51 15 bc 98 ad 79 3d e4 b6 52 3d
       -0.02033591 -0.009113595 0.060956568 0.05144395
000100 47 3a 25 3c e4 bf 5f bd 15 2f 6c bd 39 95 8b 3d
       0.010084695 -0.05462636 -0.05766209 0.06815571
000110 41 c4 e8 bd 60 c0 6d bc 46 64 d4 3b c3 fa cf bd
       -0.113655575 -0.014511198 0.00648168 -0.10155251
000120 ab 79 ab 3d 24 81 69 3d 8f 06 68 3c c0 61 35 3d
       0.08372816 0.057007924 0.01416172 0.044282675
000130 9b 6f 06 be a4 e6 32 3d e1 86 1c bd 9d 63 90 3d
       -0.13128512 0.043676987 -0.038214568 0.0705025
000140 6b 7a 04 3d 3c 6a 41 bd c9 73 d9 3d aa bf b2 bd
       0.03234331 -0.047220454 0.106177874 -0.08727963
000150 5c 48 8d 3d 88 d9 ca bc 90 2e 5e bd 40 f0 07 3d
       0.06898567 -0.02476193 -0.054243624 0.033188105
000160 b4 44 f5 bd 40 50 2a bb 2f 00 04 3c 82 8f df 3c
       -0.11975995 -0.0025987774 0.008056684 0.02729011
000170 02 32 b3 bd ea 77 9b 3d 34 ae d5 3d 2e 05 f0 3c
       -0.087497726 0.07591231 0.10433617 0.029299345
000180 de 65 34 3d 0a 26 7a bd 09 20 bc bd ad 9a 3b bd
       0.04404246 -0.061071433 -0.09185798 -0.045801807
000190 a0 86 ba 3d a3 62 00 bd 9c cc b9 3d 1e c2 e4 3d
       0.09107709 -0.031344067 0.09072229 0.111698374
0001a0 f0 45 86 bc 7a 57 ac 3d c0 3e 3e bc d0 f0 13 3d
       -0.01639077 0.08415122 -0.01161164 0.03611833
0001b0 60 51 9a bd 50 0a 3d bc 2f a5 78 3d 27 ae 5e 3c
       -0.07535052 -0.011538103 0.060704406 0.013591326
0001c0 08 d3 ab 3d f0 4c 0b 3c f5 67 8d bd c0 f5 1a bd
       0.083898604 0.00850223 -0.06904594 -0.03783202
0001d0 92 51 94 3d c0 77 f6 bb d9 f7 4b bc 4f c8 82 bd
       0.07242121 -0.0075215995 -0.012449228 -0.06385862
0001e0 af 5a f3 3d 5b 6a a9 bb e0 33 54 bc 9e d3 e1 3d
       0.11882531 -0.0051701493 -0.012951821 0.11026691
0001f0 00 e2 8c bd 56 30 b3 3d fb 11 f0 bd 12 83 f6 3d
       -0.068790436 0.08749454 -0.117221795 0.120367184
000200 f2 e2 d7 3d e6 33 a2 3d 00 35 40 bd 70 bf a3 bd
       0.10541333 0.07920055 -0.046925545 -0.07995498
000210 40 d7 e3 bc 54 77 3c bd 52 9d e2 3d c0 de cb bb
       -0.0278126 -0.046012238 0.11065163 -0.006221622
000220 18 94 69 bd 6e 7e 83 3d f4 62 54 bd 80 3b 57 3b
       -0.057026 0.06420599 -0.05185218 0.0032841861
000230 92 37 fb bd 3e 15 d0 bd 40 30 e1 3d 9a 2c 8e bd
       -0.122664586 -0.101603016 0.10995531 -0.06942101
000240 a4 3b bf bd 46 19 d4 bd 0e 90 d4 bd a2 f5 a3 3d
       -0.093375474 -0.10356383 -0.10379039 0.08005835
000250 5a f9 c8 3d ac 87 63 bd 30 59 16 3d b6 97 89 3d
       0.09813185 -0.05554931 0.03670615 0.0671839
000260 96 a9 b5 38 58 90 90 3c 48 07 d2 bc f5 b1 af bd
       8.6623404e-05 0.017646953 -0.025638238 -0.085788645
000270 00 b4 92 3b 9d d6 c2 3d 0c d8 66 3d ec 26 54 bd
       0.004477024 0.095135905 0.056358382 -0.05179493
000280 44 c6 08 3e 0c 6f 08 3d 3f 59 8d bc d8 83 39 3d
       0.13356882 0.033309028 -0.01725447 0.04529175
000290 c0 aa d7 3d 45 46 f8 3d 5e c7 e0 3d 80 d0 00 3c
       0.10530615 0.12122778 0.10975526 0.00786221
0002a0 be e5 c1 bd 38 f2 8f 3d 0c 82 10 3d c4 04 00 bd
       -0.09467648 0.070286214 0.035280272 -0.031254545
0002b0 ba 86 4d 3d 60 2d a5 bc 6c 35 43 3d ac 7f 5e bd
       0.050177313 -0.020163238 0.04765837 -0.054320976
0002c0 98 28 c4 bc 92 cc 91 3d 7f 2a 6c bd a0 82 13 bc
       -0.023945138 0.07119097 -0.057657715 -0.009003311
0002d0 4c 6d da 3d b8 4e e5 3c 33 4d 58 bd c8 31 bf 3d
       0.10665378 0.027991638 -0.052807998 0.09335667
0002e0 20 28 a6 3c 6c 75 bf bd 7e 59 9d bd 00 bb cf 3a
       0.020282805 -0.09348568 -0.07683085 0.0015848577
0002f0 40 00 cd 3d 0c 62 e2 bd 76 21 b5 3d 8e 53 b3 3d
       0.10009813 -0.11053857 0.08844273 0.08756171

gru.bias_hh_l0 f4 [192]
000000 78 35 9f bc 9c 64 dc 3d a0 6c d4 3d a0 45 ee 3d
       -0.019434676 0.10761377 0.10372281 0.11634374
000010 60 45 47 3d 80 1d 55 3c ec 0e 09 bd 4c b8 0c bd
       0.048650146 0.013007522 -0.033461496 -0.034355447
000020 ae 41 ea 3d 30 8c 4f 3d 34 a9 cf bd ce 27 af 3d
       0.11438309 0.050670803 -0.10139695 0.08552514
000030 70 67 6e 3c 00 72 23 3c e4 f1 13 3d 21 cc 3e 3d
       0.014551029 0.00997591 0.036119357 0.04658139
000040 e0 ec 77 3c f8 cc 5f bd 70 6f 5c 3c f0 80 ad bc
       0.015132159 -0.054638833 0.013454303 -0.021179646
000050 38 96 81 bd 88 a1 0e bd dc 6f 75 bd f0 55 c4 3d
       -0.0632748 -0.034822017 -0.05992113 0.09586704
000060 84 ee bb 3d c0 bc a5 3c 21 5a b2 3d 80 5a df bc
       0.091763526 0.020231605 0.08708597 -0.027264833
000070 5e 0e c7 bd a8 5b 94 3d 84 d8 23 3d 60 c4 b2 3c
       -0.09719537 0.072440445 0.040001407 0.021822155
000080 ea 00 ee bd 8e 02 9e bd 90 ed d0 3d 74 32 75 bd
       -0.11621268 -0.07715331 0.102015615 -0.05986257
000090 fa 63 d6 bd d8 65 9c bd 76 36 d9 bd 00 a5 8e 3a
       -0.10468288 -0.07636613 -0.10606091 0.0010882914
0000a0 a0 3a 22 3d 4a c5 ed 3d 00 8e 02 3b f0 ad 7a bc
       0.03960669 0.116098955 0.0019921064 -0.015300259
0000b0 20 28 d0 bd e0 27 24 bc c8 af fc bd f4 f6 42 3d
       -0.10163903 -0.010019273 -0.12338215 0.047598794
0000c0 84 3f f5 3d a0 85 a9 bd 42 09 5f bd 98 be 2d bd
       0.11975005 -0.0827744 -0.05445219 -0.042418092
0000d0 c0 db cb 3b 00 1b e9 3c 74 c1 ff 3c e4 a3 c3 bd
       0.0062212646 0.028455257 0.031220175 -0.09552744
0000e0 ea 38 8c bd 08 d4 d1 bd c4 07 77 3d 86 78 cb 3d
       -0.06846793 -0.1024552 0.06031014 0.099350974
0000f0 57 a8 e2 3d da 11 ee bd 78 f3 03 3d 64 64 97 bd
       0.110672645 -0.11624499 0.03221461 -0.07392195
000100 ca 32 ea 3d 00 e5 da bc 3c 44 0d bd 8b f3 d8 3d
       0.114354685 -0.026720524 -0.0344889 0.10593327
000110 eb 5b e1 bd 68 ce d0 bd 7c b0 78 ba b8 c1 b1 bd
       -0.1100386 -0.10195619 -0.00094867474 -0.08679527
000120 3e 93 c6 bc 35 c6 b7 bd 42 ac 98 3d 60 37 db 3d
       -0.024240132 -0.08973352 0.074547306 0.10703921
000130 8a 67 e6 3d b4 fd 84 bd 59 98 a1 bd 94 00 69 bd
       0.11250217 -0.064937025 -0.07890386 -0.056885317
000140 61 ae 46 bb 2c 91 bf bd 43 78 8f bd 45 67 a6 3d
       -0.003031634 -0.09353861 -0.0700536 0.08125166
000150 92 f2 c3 3d 54 fd 58 bd 90 1d b7 bc 40 c0 94 3d
       0.09567751 -0.052975968 -0.022352964 0.07263231
000160 4c 87 7a bd 3e 64 ef 3d 28 b5 ac bd 8c 89 20 bd
       -0.061164185 0.116890416 -0.0843299 -0.039193675
000170 70 14 2e 3d c3 8c 81 3d 30 57 d3 bd cb 0a 1a bd
       0.04249996 0.06325676 -0.10319364 -0.03760795
000180 f0 15 b6 bd 99 07 a2 bd 83 42 f6 bd a5 d5 87 bd
       -0.08890903 -0.079116054 -0.12024405 -0.06632546
000190 40 4e 1f 3d 21 48 0a be 60 c4 88 3d 30 67 a3 3c
       0.038892984 -0.13504077 0.066780806 0.019946665
0001a0 a0 47 e4 3c f8 8d d7 bd ac a6 f9 3d d5 5f c7 bd
       0.027866185 -0.10525125 0.12189993 -0.097350754
0001b0 28 43 b1 bc 20 64 89 bc af 6a f9 3d a5 a2 1c bd
       -0.021638468 -0.016771376 0.121785514 -0.038241047
0001c0 ce 30 91 3d 96 b6 a7 3d a7 5f ef 3d da 05 b7 bd
       0.07089387 0.081891224 0.11688166 -0.08936663
0001d0 3c 0a dc bd 10 c7 40 bd ca 74 5c bc af 69 85 bd
       -0.107441396 -0.04706484 -0.013455579 -0.06514298
0001e0 0d 97 c4 bd 9b cb 70 bd 38 87 11 bd c0 9c ff bc
       -0.09599123 -0.058787923 -0.035529345 -0.031202674
0001f0 00 8c 65 bb e0 3b d3 bd 21 87 f9 bd d2 7c c9 3d
       -0.0035026073 -0.103141546 -0.12183977 0.09838261
000200 fc c2 09 bd a4 99 a2 3d 18 42 bb bd d2 2c e2 bd
       -0.033633217 0.07939461 -0.09143466 -0.11043705
000210 92 3f e5 3d f0 40 2b bd be 14 d0 bd 18 b2 94 3d
       0.11193766 -0.041809976 -0.10160206 0.07260531
000220 7c 22 fa 3d b4 e1 44 3d 08 16 99 3c 8c 3e 7c bd
       0.122136086 0.04806681 0.018687263 -0.061583087
000230 44 d5 b7 bd 30 6e c6 3c e0 fc 17 3d a1 5f a7 bd
       -0.08976224 0.024222463 0.037106395 -0.08172537
000240 78 9c 04 3d 64 b0 50 bd d0 bf 56 bc d8 15 5d 3d
       0.032375783 -0.05094947 -0.013107255 0.05397591
000250 00 10 d2 39 22 a4 c3 bd c4 a7 e1 bd 58 0d 20 3d
       0.00040066242 -0.0955279 -0.11018327 0.039075226
000260 36 0e bb bd a0 2e 7c 3d 76 41 08 be 40 48 04 bd
       -0.0913357 0.061567903 -0.13306221 -0.032295465
000270 00 9f 00 bd cd 4c 7b 3d 8c 9c f2 bd 72 bc a6 3d
       -0.031401634 0.06135254 -0.11846265 0.08141412
000280 91 72 5f bd 40 8e b7 3d 24 9e 30 bd e0 14 8c 3c
       -0.05455262 0.08962679 -0.043119565 0.017099798
000290 1e 59 93 bd 59 20 e3 bd f4 ca 58 3d 70 fd 59 3d
       -0.07194732 -0.11090154 0.052927926 0.053220212
0002a0 08 d6 f9 bd 69 ba 1c 3d 30 20 5b 3d 2a cb d5 3d
       -0.12199026 0.038263712 0.053497493 0.10439141
0002b0 07 b2 32 bd 60 6c 81 3c f4 6a 99 3d 00 8e b4 b9
       -0.04362681 0.015798748 0.07491103 -0.00034438074
0002c0 38 fe 86 3d 80 e8 f4 3b b7 bb bd 3d 66 78 a1 bd
       0.06591457 0.007474005 0.092643194 -0.07884292
0002d0 ee 07 b1 3d be 95 bd bd 27 29 5f bc fa 10 eb bd
       0.086440906 -0.09257077 -0.013620651 -0.114778474
0002e0 76 a1 91 bd 64 f2 13 bd 2a b4 d6 3d 9a a2 88 3d
       -0.07110874 -0.036119834 0.10483582 0.06671639
0002f0 4a f9 58 3c 80 4c 8e 3c 86 7c f7 3d 3c 1f e3 3d
       0.013243029 0.017370462 0.12084298 0.11089942

fc.weight f4 [3, 64]
000000 47 e7 3c 3f 56 e3 d7 3d 66 3b 59 bf 7d f6 a7 3d
       0.737904 0.10541408 -0.8485626 0.08201311
000010 ae 07 53 3f 67 31 37 bd 34 01 f1 bc 51 ca 88 3d
       0.82433593 -0.044724848 -0.029419519 0.06679214
000020 48 8e 01 bb 4b 37 b9 3e 6f cf 63 bd 5a da fd bd
       -0.0019768644 0.36174998 -0.055617746 -0.12395163
000030 61 06 9b bd eb 90 94 bd 22 d0 e5 bd 65 ee ae bd
       -0.07569576 -0.072542034 -0.11221339 -0.08541564
000040 70 4c ee bc f0 e9 fc bd 4b d7 aa be 5f 84 97 3d
       -0.029089183 -0.123493075 -0.3336738 0.07398295
000050 80 df a1 3c a0 84 f2 bc 42 38 b5 bd dd 6b 99 3d
       0.019759893 -0.029604256 -0.08848621 0.074912764
000060 af ed 44 3c ec c0 3b bd c0 a2 ab 3e 41 e0 4a bf
       0.012019559 -0.04583828 0.33522606 -0.79248434
000070 b2 f7 9f 3d 9f 1e 98 3f bc 7a 89 3d 15 2a 66 3d
       0.07810916 1.1884345 0.06712863 0.056192476
000080 c1 d3 65 bf 63 eb 99 be 5e c4 1a bf dc d0 b8 bd
       -0.89776236 -0.30062398 -0.6045588 -0.09024212
000090 0b dc cf 3d fe 55 b8 3d fe d6 e8 3d d4 09 15 3d
       0.10149392 0.09000777 0.113691315 0.036386326
0000a0 00 6d 1c bd 7d 07 30 3f 39 05 f7 3d 03 b5 8b 3d
       -0.038189888 0.68761426 0.12061543 0.068216346
0000b0 b6 ea 26 bd 82 0e 67 3c 82 da 23 bd 0b a5 1a 3d
       -0.04075118 0.01410258 -0.040003307 0.037755053
0000c0 38 b6 17 bd 9a 4c 1f bd 50 82 97 3d 00 36 26 bd
       -0.03703901 -0.038891412 0.07397902 -0.040578842
0000d0 10 3b 92 3d 3b 28 c4 3d c0 72 ca 3d 69 de e9 3c
       0.071401715 0.09577986 0.09885168 0.028548436
0000e0 55 5f 40 bf 74 7e 3d 3d 48 2e 6b bd d2 39 ff 3d
       -0.75145465 0.046263173 -0.057417184 0.124622
0000f0 3f 57 b0 bb 0c d3 cb bd 99 51 90 bd 58 25 be bd
       -0.0053814943 -0.09952363 -0.070468135 -0.092844665
000100 17 14 29 3f 74 9a cb bd 15 aa 56 3f 44 52 ba 3c
       0.6604628 -0.09941569 0.83853275 0.022744305
000110 38 db 6f 3c c5 ea c0 3c 91 c9 c7 bd 6e ad b8 3c
       0.014639668 0.023549447 -0.097552426 0.022543635
000120 de c9 c3 bd 2e b6 4e bf 22 38 94 3b 3a cc a4 bd
       -0.095599875 -0.80746734 0.004523293 -0.080467656
000130 46 9a dd 3e c5 dc 42 3c 4c 73 84 3d 68 93 c6 3d
       0.43281764 0.011893456 0.06467304 0.09696084
000140 95 1e ce 3d 60 f0 59 3c 5f 31 8c 3e 25 c7 15 be
       0.10064427 0.013301939 0.27381417 -0.14626749
000150 d4 19 3f bd 9e 69 af 3c 28 4c a9 3c 2f 3b dc bd
       -0.04665549 0.021412667 0.020666197 -0.10753476
000160 eb d6 18 3e 44 8c 6e 3d 97 51 84 3f 0a 34 1f 3f
       0.14925735 0.058239236 1.0337399 0.6218878
000170 c7 68 4c bc 0a e6 ab 3f 50 ae 19 bc 03 3c e2 3d
       -0.012476153 1.3429577 -0.009379938 0.110466026
000180 a5 33 72 3f 4b 38 52 3f f6 85 4c 3f dc 49 70 3d
       0.94610053 0.82117146 0.7989191 0.058664188
000190 d6 fe 6f bf 9b ae 6c bd 18 1b 91 3d 5a 91 a4 3d
       -0.93748224 -0.057783704 0.07085246 0.08035536
0001a0 d0 17 96 3c 1e 26 ea be 31 ed ba 3d c3 58 84 bc
       0.018321902 -0.45732206 0.09127272 -0.016155606
0001b0 07 b0 6e 3d 9c 38 90 bd 1e 55 ad bd f3 e4 cd bd
       0.05827334 -0.070420474 -0.084635004 -0.10053434
0001c0 f4 ab 36 3d 04 22 12 3c 39 33 27 be 68 18 67 3d
       0.04459758 0.008919243 -0.16328134 0.05641976
0001d0 fa 8d a7 bd 60 98 83 bd 96 59 26 bb c2 0b 9b 3d
       -0.08181377 -0.064255476 -0.0025382987 0.07570602
0001e0 3c 5a a8 be 7e 9f e5 3c 5a ba a9 bd 00 c4 70 3b
       -0.32881343 0.028030153 -0.08287497 0.003673792
0001f0 7a 0e 83 bd c0 bb 2d bd 88 68 16 3e 58 f2 e9 bd
       -0.063992456 -0.04241538 0.14688313 -0.114231765
000200 ad aa 62 bc aa f4 89 3d 3e 33 d2 be fe 69 e1 3d
       -0.013834638 0.06736119 -0.4105472 0.110065445
000210 48 34 20 3e 25 49 49 bc 4c 58 88 bd 4f 72 60 3d
       0.15644944 -0.012285505 -0.06657466 0.054796513
000220 4d 53 44 bd 25 a9 eb bc bc 20 c8 bd 04 ff f6 bd
       -0.047931004 -0.028767178 -0.097718686 -0.12060359
000230 52 76 e5 be 36 9e ca bd b2 f9 b3 3d ef 30 3c 3d
       -0.44816834 -0.098934576 0.0878786 0.045945104
000240 4a 48 f3 3b 80 e3 54 bb 0d ff 1b be 3f 1e e2 bd
       0.007424389 -0.0032484233 -0.15234013 -0.11040925
000250 00 ca c4 bc d9 ca 42 3d 4c e3 1e 3d 50 29 95 bc
       -0.024022102 0.04755673 0.038790986 -0.018208176
000260 12 34 79 3d c4 b6 58 3d 78 39 22 be d9 20 38 3e
       0.060840674 0.052908674 -0.15842235 0.1798128
000270 c4 ca bb bb d8 e2 38 3e 6c ba 63 3d be 4c 21 3d
       -0.0057309587 0.18055284 0.055597708 0.039379828
000280 54 66 1c 3e a1 16 3b 3e 16 39 fb 3d e7 7f b2 bc
       0.1527341 0.18270351 0.12266748 -0.021789504
000290 cd 5a a5 bd d7 76 dd 3d 08 0f af bd 20 ae ee 3d
       -0.080739595 0.108136825 -0.08547789 0.116543055
0002a0 38 f0 f4 bc b0 2e 7c be 70 8f 29 3b 4a 8f 6c bc
       -0.029899701 -0.24627185 0.002587285 -0.01443846
0002b0 d9 a6 54 bd e4 01 29 bd 20 2b 15 bc c8 dc be 3d
       -0.05191693 -0.04126157 -0.00910452 0.093194544
0002c0 5a 79 c1 3d e2 f6 c5 3d a6 1e 1d 3e a6 0e c2 bd
       0.09446974 0.0966623 0.15343723 -0.0947545
0002d0 1f 3c 0e 3d d4 66 99 bd 22 71 91 3d 5e 25 60 bd
       0.034725305 -0.07490316 0.071016565 -0.054723136
0002e0 d6 7c 89 bd f9 89 e3 3c 50 64 ac bd 40 c3 16 bb
       -0.06713264 0.027775751 -0.084175706 -0.0023004562
0002f0 5d ae b2 3d 00 9b 23 bb b7 f1 c2 3d a0 02 37 bc
       0.087246634 -0.0024964213 0.0951876 -0.011170059

fc.bias f4 [3]
000000 59 60 e6 3d 2c 73 1f 3d a9 c8 82 bd
       0.112488456 0.038928196 -0.06385929
