a-storage/model_checkpoints/best_gru_fold_1.pth (torch, 606668 bytes, 10 tensors)

gru.weight_ih_l0 f4 [384, 4]
-0.119038686 -0.118081085 -0.14842407 -0.20040779 0.009580092 -0.076674774 0.018921034 -0.027371343
-0.07124469 -0.07143213 -0.0057693087 0.08087562 -0.04657449 -0.17812917 0.079117246 -0.07483443
-0.033188354 -0.08548601 -0.18885055 -0.108325996 -0.15206058 -0.09655621 -0.09108215 -0.09991497
-0.1311181 -0.001696592 0.13988301 -0.0845367 0.051574007 0.07759126 -0.0095689455 -0.08438101
-0.11018173 -0.025438678 -0.008629275 -0.1029655 0.009516769 0.15390565 0.0066782823 -0.03227056
0.026723288 -0.07335432 0.102739386 0.06791117 -0.08963997 0.04049121 -0.04831327 -0.06457245
-0.0025279664 -0.03632715 -0.17422232 -0.07460847 0.20908956 -0.05800015 0.09329595 0.16655155
-0.04652395 0.110546775 -0.07992355 0.07781813 0.008212557 0.03248076 -0.05761622 -0.11762305
0.06599986 0.114686474 0.09905325 0.11734147 -0.08971658 -0.063737094 -0.13807724 -0.15299489
0.026711073 -0.059070323 -0.08112774 -0.17815752 -0.076470286 0.009605792 0.050826617 0.007303047
-0.14157234 -0.056964003 -0.14987169 -0.018415842 -0.083771095 0.083484165 -0.20788044 -0.08450777
-0.04518028 -0.056749143 0.24969688 0.16448049 0.049690224 0.09667063 0.1176559 0.07341968
-0.023191534 0.08912567 0.1219428 0.031605475 -0.13441107 -0.19234018 -0.08779455 0.06506646
-0.005655248 -0.007455323 -0.051909283 -0.024135515 0.07491656 0.0021761758 -0.1583146 -0.0047092075
-0.08787838 -0.0045320713 0.13370202 -0.020747025 0.053541496 0.11164426 0.040108554 0.009425646
0.11585624 0.07380369 0.088471875 -0.04247842 0.17040816 0.034232244 -0.022218054 0.016503418
-0.0999521 -0.042244647 -0.08167912 -0.060526844 0.019392885 0.10250012 0.023681909 0.06943148
-0.08111735 -0.20408428 -0.094795644 -0.17556919 -0.21372235 -0.091264874 0.016131341 -0.10865649
0.10538302 0.06382856 -0.2136718 -0.1547611 -0.039874952 0.08455501 -0.15930642 -0.29411343
-0.15495579 -0.0303564 0.056677748 -0.06770171 0.036712684 -0.05998589 0.059434645 0.100633055
-0.054896317 -0.23280136 -0.15737735 0.008475059 0.08213993 -0.119355835 0.17021123 -0.012308036
-0.0036464627 -0.038591668 -0.00061929616 0.03782045 0.036978103 0.045595307 -0.23629777 -0.071978666
0.023972638 0.06209502 0.0989694 0.03637873 -0.15524279 -0.2456841 -0.14793162 -0.12315908
0.05627031 0.14479758 0.13696374 0.031029074 0.061724525 0.109753005 -0.018300703 0.13410415
-0.07027434 0.0791483 0.22073366 0.04910385 0.04751948 0.08909437 0.06538037 0.117478356
-0.07984105 -0.10058506 -0.02694841 -0.051880352 -0.10375788 -0.24633917 -0.17181689 -0.22593871
0.025997343 -0.2578084 -0.035046533 0.099093094 -0.051802196 -0.09149454 0.06917135 0.10616037
-0.241152 -0.23784888 -0.37275127 -0.107900605 0.032011732 0.0069794394 0.13842593 -0.02199909
-0.00240708 0.05273893 0.0030256524 -0.09418689 -0.0983747 -0.1069276 -0.11286281 -0.09047842
-0.050115976 -0.22571006 -0.21306942 -0.1280798 0.13524102 0.18063696 0.10608845 0.37559563
-0.05456914 0.034117732 0.13101432 -0.07135471 -0.13985913 0.0020926516 -0.16045178 -0.0064607775
0.13708034 0.16868529 0.09501371 0.04400777 -0.18256474 -0.1213074 -0.10139576 -0.10693512
00000000: 8eca f3bd 7fd4 f1bd 7bfc 17be b337 4dbe
00000010: d1f5 1c3c aa07 9dbd 4900 9b3c de39 e0bc
00000020: bce8 91bd 024b 92bd 780c bdbb 1ea2 a53d
00000030: e4c4 3ebd 7e67 36be 3908 a23d cb42 99bd
00000040: 83f0 07bd 4a13 afbd 0a62 41be 05da ddbd
00000050: c5b5 1bbe 43bf c5bd 4789 babd 38a0 ccbd
00000060: d343 06be 2e60 deba 7e3d 0f3e 9421 adbd
00000070: 443f 533d 2be8 9e3d 11c7 1cbc f3cf acbd
00000080: f5a6 e1bd c664 d0bc cd61 0dbc 93df d2bd
00000090: 39ec 1b3c 7199 1d3e 7ed5 da3b 222e 04bd
000000a0: ccea da3c ca3a 96bd 0769 d23d 0315 8b3d
000000b0: 2995 b7bd 1cda 253d 23e4 45bd 903e 84bd
000000c0: 3dac 25bb c7cb 14bd 5667 32be 53cc 98bd
000000d0: 931b 563e 9191 6dbd f211 bf3d 7d8c 2a3e
000000e0: e68f 3ebd 5966 e23d f5ae a3bd 1d5f 9f3d
000000f0: f68d 063c 8c0a 053d fcfe 6bbd 5be4 f0bd
00000100: ef2a 873d bee0 ea3d 6edc ca3d ba50 f03d
00000110: 54bd b7bd 9888 82bd 1f64 0dbe b1aa 1cbe
00000120: 2ed1 da3c b9f3 71bd 4d26 a6bd ed6e 36be
00000130: 749c 9cbd 9d61 1d3c 922f 503d 664e ef3b
00000140: 57f8 10be 1653 69bd f777 19be d2dc 96bc
00000150: 2e90 abbd bff9 aa3d 9cde 54be 6912 adbd
00000160: f50e 39bd ca71 68bd 8ab0 7f3e 936d 283e
00000170: fa87 4b3d 40fb c53d 94f5 f03d 0f5d 963d
00000180: 2cfc bdbc 8587 b63d 26bd f93d be74 013d
00000190: 0ea3 09be d3f4 44be a1cd b3bd 9041 853d
000001a0: a94f b9bb c84b f4bb d49e 54bd d8b7 c5bc
000001b0: da6d 993d 2c9e 0e3b 391d 22be b24f 9abb
000001c0: 95f9 b3bd c581 94bb 2fe9 083e aaf5 a9bc
000001d0: 544e 5b3d bfa5 e43d de48 243d 066e 1a3c
000001e0: 0946 ed3d 6426 973d be30 b53d dafd 2dbd
000001f0: 7a7f 2e3e 1c37 0c3d a302 b6bc 2d32 873c
00000200: b0b3 ccbd b908 2dbd 6247 a7bd ffea 77bd
00000210: d4dd 9e3c 95eb d13d 9000 c23c 1732 8e3d
00000220: da20 a6bd 78fb 50be 3824 c2bd 69c8 33be
00000230: 08da 5abe 14e9 babd e025 843c 4b87 debd
00000240: 0ed3 d73d 8cb8 823d c8cc 5abe b279 1ebe
00000250: eb53 23bd 2d2b ad3d 3921 23be 0996 96be
00000260: bbac 1ebe fcad f8bc ed26 683d 32a7 8abd
00000270: 0a60 163d c4b3 75bd be71 733d b418 ce3d
00000280: f6da 60bd 7b63 6ebe 8727 21be f9da 0a3c
00000290: fb38 a83d d570 f4bd da4b 2e3e a5a7 49bc
000002a0: 7ef9 6ebb 4c12 1ebd 4358 22ba 9ee9 1a3d
000002b0: 5a76 173d 25c2 3a3d 0bf8 71be 8d69 93bd
000002c0: 4462 c43c 5957 7e3d 78b0 ca3d dd01 153d
000002d0: f7f7 1ebe 9d94 7bbe 637b 17be d43a fcbd
000002e0: b27b 663d d145 143e 3940 0c3e af30 fe3c
000002f0: dbd2 7c3d 2fc6 e03d 5beb 95bc 9952 093e
00000300: feeb 8fbd 8118 a23d 0108 623e 1e21 493d
00000310: c9a3 423d 1c77 b63d 25e6 853d 7e98 f03d
00000320: b483 a3bd 8aff cdbd e9c2 dcbc 7e80 54bd
00000330: 037f d4bd 5640 7cbe c4f0 2fbe 7a5c 67be
00000340: 61f8 d43c 76ff 83be f48c 0fbd 52f1 ca3d
00000350: 8a2e 54bd 7d61 bbbd b5a9 8d3d 9c6a d93d
00000360: 8df0 76be a88e 73be 41d9 bebe fefa dcbd
00000370: bc1e 033d c8b3 e43b 87bf 0d3e 7037 b4bc
00000380: 1ac0 1dbb c704 583d 064a 463b 0ee5 c0bd
00000390: ad78 c9bd dcfc dabd 9e24 e7bd c04c b9bd
000003a0: 6946 4dbd 8a20 67be df2e 5abe 5a27 03be
000003b0: 9f7c 0a3e e5f8 383e e744 d93d 124e c03e
000003c0: e483 5fbd 09bf 0b3d 9e28 063e 6b22 92bd
000003d0: 3b37 0fbe de24 093b 794d 24be eeb4 d3bb
000003e0: ca5e 0c3e d6bb 2c3e 8c96 c23d 7e41 343d
000003f0: 40f2 3abe 0470 f8bd 95a8 cfbd cd00 dbbd

gru.weight_hh_l0 f4 [384, 128]
0.059280556 -0.030860962 0.07505588 0.14633292 0.06011985 0.028605958 0.07843371 -0.022897992
-0.1509932 0.024320988 -0.055591557 0.03711788 -0.11104555 -0.092734605 -0.041691896 -0.05158242
0.053210113 -0.17248717 -0.06372303 -0.024291512 0.02987269 0.062022798 -0.09405597 -0.015646245
-0.046587825 0.13064587 -0.098616034 -0.14188124 0.088844776 -0.13697532 0.04615193 0.10205518
0.01569525 -0.099388815 -0.028661046 -0.008857919 -0.082156956 -0.0948259 0.04441225 -0.16600095
-0.01888999 -0.03135329 -0.11016524 0.11612006 0.018820407 -0.022183426 0.17397703 0.055800997
0.05176502 -0.1336125 0.050964095 -0.02995309 0.047458697 0.05904662 0.0637792 0.09218906
-0.07342529 0.006949764 -0.07750355 -0.012258048 -0.107780196 -0.002552658 -0.021232735 -0.09596276
0.092028886 -0.12027552 -0.021417428 -0.040407043 -0.08609089 0.05243997 -0.17820264 -0.25375307
0.033252575 0.10937132 -0.03433764 -0.057554193 0.009663462 -0.0010402934 -0.107053265 0.06174502
-0.009655452 -0.053453535 -0.0057246787 0.1419306 -0.0025869554 -0.044835657 0.04910313 -0.053453714
-0.009431619 -0.124235734 -0.054706737 -0.07760459 -0.06064211 -0.09018 0.058674794 -0.07360384
0.027627263 -0.07597084 -0.049336877 0.04787289 0.034522276 -0.060017675 -0.033951156 0.010320825
-0.029314307 -0.03623005 0.06716224 0.021314269 0.060582694 -0.14078113 -0.020437423 0.03639539
-0.039611798 0.048876524 0.13191396 0.11591519 0.10808234 0.093267575 -0.05316627 -0.14614664
0.0010316434 -0.15051067 -0.006856775 -0.12120279 0.14824307 -0.080754206 -0.110383056 0.022349356
-0.033741966 0.047599077 0.029250763 0.1784847 -0.072509356 0.03152915 0.03148659 -0.051350717
-0.025589995 -0.09717546 -0.16659056 0.07119009 -0.040080156 -0.044852577 0.025994632 0.1006684
0.029257612 -0.08114747 -0.08302949 -0.13198556 0.08498246 0.06054451 -0.15801631 0.0047786436
-0.058489263 -0.018311396 -0.0778622 0.0017368696 0.18936147 0.035667293 -0.072035246 0.18600266
-0.07492851 -0.047348976 -0.1188526 -0.13703427 -0.010896575 -0.1886395 -0.06681715 0.09007644
0.066456236 -0.11427295 -0.057067484 0.03984369 0.09062172 0.089393154 0.12018819 -0.012182005
-0.0286961 -0.05665438 -0.060619555 -0.02304229 0.039900027 -0.0731344 0.16934574 0.16402721
-0.012434359 0.034731463 0.073916934 -0.0075045982 -0.19633661 0.1494935 -0.040689785 -0.05434464
0.027630279 -0.11350268 0.08724334 0.022624247 -0.10313363 0.044468027 0.013675056 -0.17594849
-0.037304137 0.036761563 -0.026246708 0.08048625 0.09889459 -0.054845825 0.074613355 0.045416906
-0.046734348 -0.0945742 -0.08683074 0.031687938 0.0012386447 0.023359774 0.12477262 0.041936643
0.07758115 -0.08380996 -0.09908276 0.0127551295 0.1214338 0.07240206 -0.004118069 0.031122899
0.04303081 -0.023806624 0.052624095 -0.11968404 -0.040228207 0.039254054 0.049225077 -0.098436184
-0.0420222 -0.056907423 0.041002 0.059051976 0.0291163 -0.19797695 0.012617656 -0.04622196
-0.016972734 -0.124193326 0.031817403 0.16195992 0.08142929 -0.013241645 0.08326998 -0.083297774
-0.03721862 -0.07800801 0.036736563 -0.0041048285 0.028322672 -0.09806783 -0.006843756 -0.103271544
00000000: 2bd0 723d 21d0 fcbc e6b6 993d 4cd8 153e
00000010: 3b40 763d 0b57 ea3c daa1 a03d 9294 bbbc
00000020: f69d 1abe cf3c c73c f9b3 63bd eb08 183d
00000030: d96b e3bd a4eb bdbd 1fc5 2abd 1648 53bd
00000040: d9f2 593d 7aa0 30be 3881 82bd fefe c6bc
00000050: 92b7 f43c 9e0b 7e3d 6ba0 c0bd 8e2c 80bc
00000060: e0d2 3ebd 08c8 053e 34f7 c9bd 5149 11be
00000070: 40f4 b53d 4243 0cbe ce09 3d3d 4e02 d13d
00000080: 5393 803c 5d8c cbbd 92ca eabc ce20 11bc
00000090: e841 a8bd 1534 c2bd 9fe9 353d 27fc 29be
000000a0: 2ebf 9abc 4f6c 00bd 509e e1bd 5bd0 ed3d
000000b0: 412d 9a3c 04ba b5bc 0927 323e 968f 643d
000000c0: 8f07 543d b7d1 08be babf 503d 2f60 f5bc
000000d0: 0d64 423d deda 713d ab9e 823d 9ecd bc3d
000000e0: 0060 96bd d9ba e33b 2eba 9ebd fbd5 48bc
000000f0: ddbb dcbd 7f4a 27bb 46f0 adbc 2088 c4bd
00000100: a479 bc3d 0353 f6bd 9a73 afbc db81 25bd
00000110: 6c50 b0bd 4bcb 563d c17a 36be eceb 81be
00000120: da33 083d 12fe df3d a0a5 0cbd f2bd 6bbd
00000130: 7f53 1e3c 745a 88ba be3e dbbd 59e8 7c3d
00000140: e731 1ebc 18f2 5abd 1696 bbbb 4156 113e
00000150: e989 29bb 98a5 37bd 5d20 493d 48f2 5abd
00000160: 1487 1abc 4e6f febd 2c14 60bd 28ef 9ebd
00000170: dc63 78bd 4bb0 b8bd fb54 703d 9cbd 96bd
00000180: 9252 e23c 9a96 9bbd 7715 4abd 5d16 443d
00000190: 3b67 0d3d 18d5 75bd 5e10 0bbd ad18 293c
000001a0: 8f24 f0bc f665 14bd 5b8c 893d 439b ae3c
000001b0: 8f25 783d ee28 10be 626c a7bc 5513 153d
000001c0: fb3f 22bd c032 483d 7414 073e f164 ed3d
000001d0: 465a dd3d 1203 bf3d e0c4 59bd 77a7 15be
000001e0: 3538 873a 781f 1abe ccae e0bb 2b39 f8bd
000001f0: 08cd 173e 7662 a5bd 8310 e2bd ff15 b73c
00000200: 0435 0abd 40f7 423d 4c9f ef3c b1c4 363e
00000210: c97f 94bd b624 013d 15f8 003d 2155 52bd
00000220: 1ca2 d1bc ed03 c7bd b796 2abe 1ccc 913d
00000230: 172b 24bd 56b7 37bd b2f2 d43c 3c2b ce3d
00000240: a9ad ef3c a530 a6bd 5e0b aabd 3927 07be
00000250: 490b ae3d 85fd 773d 07cf 21be 2b96 9c3b
00000260: 7092 6fbd c801 96bc 3876 9fbd aca7 e33a
00000270: f9e7 413e de17 123d 3787 93bd 7b77 3e3e
00000280: 1e74 99bd 00f1 41bd fe68 f3bd b652 0cbe
00000290: 8c87 32bc b72a 41be 6ed7 88bd ff79 b83d
000002a0: 351a 883d f007 eabd 98bf 69bd 2333 233d
000002b0: e197 b93d c213 b73d 3a25 f63d 0897 47bc
000002c0: 1514 ebbc 6c0e 68bd 364c 78bd 2fc3 bcbc
000002d0: 366e 233d 7dc7 95bd f868 2d3e c0f6 273e
000002e0: 7bb9 4bbc 9442 0e3d c361 973d 22e9 f5bb
000002f0: 770c 49be d314 193e 55aa 26bd 7c98 5ebd
00000300: e558 e23c 1874 e8bd a3ac b23d 7c56 b93c
00000310: b937 d3bd 1b24 363d 580d 603c d72b 34be
00000320: 39cc 18bd 4b93 163d 5603 d7bc fad5 a43d
00000330: 3f89 ca3d 04a6 60bd e3ce 983d 1407 3a3d
00000340: 846c 3fbd 1eb0 c1bd 51d4 b1bd 36cb 013d
00000350: 055a a23a ff5c bf3c ca88 ff3d c2c5 2b3d
00000360: dee2 9e3d 8ea4 abbd e7eb cabd e4fa 503c
00000370: 49b2 f83d 8847 943d def0 86bb 73f5 fe3c
00000380: 1341 303d 1c06 c3bc 5d8c 573d e81c f5bd
00000390: 55c6 24bd dcc8 203d 3ca0 493d e998 c9bd
000003a0: 781f 2cbd c217 69bd b7f1 273d 7ce0 713d
000003b0: 4f85 ee3c 78ba 4abe 49ba 4e3c 3d53 3dbd
000003c0: 670a 8bbc 1259 febd f752 023d d2d8 253e
000003d0: 66c4 a63d 7cf3 58bc 7489 aa3d 0698 aabd
000003e0: 8d72 18bd aac2 9fbd 1479 163d cc81 86bb
000003f0: f304 e83c c9d7 c8bd 9641 e0bb 0880 d3bd

gru.bias_ih_l0 f4 [384]
-0.096570775 -0.16392626 -0.04645073 -0.033135906 -0.022078317 -0.0985063 -0.12898584 -0.03841738
-0.056913182 -0.04727787 -0.20942764 -0.046353124 0.07190598 -0.16826367 -0.07564985 0.0041996725
-0.028818851 -0.031369828 -0.09300621 -0.038867503 -0.052204683 -0.1419901 -0.052621886 0.05433433
-0.120274976 -0.09300741 -0.12840179 -0.03647235 -0.18738793 -0.12512414 -0.3393393 0.020287463
-0.1502964 0.07167252 -0.06106286 -0.092418686 -0.058985118 -0.025974946 -0.08039953 -0.10181651
-0.029922452 -0.036091473 -0.0012312892 -0.13563544 -0.01568498 -0.047965426 -0.17816567 -0.025412539
-0.18083346 -0.10626442 -0.16508931 -0.035289925 -0.027695937 -0.0044744574 -0.01657317 -0.029201422
-0.040331233 -0.037065078 0.050883297 0.0073680696 0.028491788 -0.036214624 0.0020321258 0.047081947
-0.113792785 0.02467723 -0.040790338 -0.10791368 -0.1145355 -0.042175446 0.08940859 0.014948854
-0.12678115 -0.18589926 -0.10021021 -0.073946804 -0.11627176 -0.14368556 -0.105488434 -0.016100919
-0.062364653 -0.08095145 -0.11698129 -0.120026104 -0.15250288 -0.020769117 -0.05068669 -0.028024469
0.06511446 0.02690714 -0.033107206 -0.09719131 -0.14838791 -0.097762786 -0.14990303 -0.048326775
-0.0093941195 0.032201298 -0.01795206 -0.03190865 0.0016313577 -0.05514579 -0.054697204 -0.03414018
0.049380686 -0.07458533 -0.12731272 0.115869835 0.03599333 -0.15175845 0.08090019 -0.16286786
-0.084121466 -0.08147899 -0.12422265 -0.1871747 -0.10543374 -0.08093341 -0.10196511 -0.12000055
0.021802973 -0.045809753 -0.058423355 -0.08452896 -0.08175027 -0.15487929 0.03402583 -0.030116076
0.27613777 0.35292134 -0.31462792 0.26357 0.08605965 0.043669853 0.30566388 0.31786585
0.19580984 0.44076657 -0.1806115 0.13623041 -0.06861792 0.36679673 0.0093943365 0.3452329
0.25814265 -0.16810094 -0.059957046 0.03446332 -0.064520255 -0.111657016 0.080256745 0.15956151
0.36611268 0.30988288 0.21436211 -0.06520609 -0.06571739 0.3607862 0.20517436 -0.17384271
-0.47901803 0.39083946 -0.066839054 -0.15394625 -0.12870266 -0.1269697 0.18117918 0.0437685
0.33612415 0.46639058 0.19477534 0.3649803 0.24701265 0.084903374 -0.13164565 -0.35665447
0.34886518 0.15670235 0.1643487 0.45241943 0.02454067 -0.21240614 0.063576296 0.1431868
0.18245761 0.1045548 0.17442925 0.19896539 0.15359238 0.33720803 -0.18250464 -0.021958105
-0.08214179 -0.15845971 0.24415582 0.23141983 0.6205858 0.12406229 0.397984 -0.03934928
0.22717264 0.20976903 0.1828065 -0.022580272 -0.037097998 0.3415631 0.32758325 -0.1950323
0.14654282 0.36140266 0.096333995 -0.042277906 -0.21468738 0.6237477 0.13343562 0.38683924
0.2953504 0.23532335 -0.22249602 0.26711506 0.31987825 0.37873024 -0.2045523 -0.13690051
0.35798815 0.36235887 0.32606697 0.14373383 0.3442189 -0.13374202 0.31384245 0.36137503
0.2213942 0.40565994 0.2270382 0.09230741 0.14248523 -0.15759557 0.33104688 -0.075763024
0.10944073 -0.13307725 0.18249369 0.4159913 -0.28930777 0.052874923 -0.18265764 0.106220275
0.1532969 0.04385369 -0.110326454 0.18547124 0.29053706 0.25114152 -0.04179733 0.25060555
00000000: e6c6 c5bd 49dc 27be 1f43 3ebd 84b9 07bd
00000010: 96dd b4bc acbd c9bd dd14 04be 8b5b 1dbd
00000020: cc1d 69bd 71a6 41bd 3374 56be c6dc 3dbd
00000030: 7143 933d 504d 2cbe 4fee 9abd 689d 893b
00000040: 8315 ecbc a67d 00bd 0a7a bebd 8833 1fbd
00000050: 94d4 55bd da65 11be 0c8a 57bd ad8d 5e3d
00000060: ba52 f6bd ab7a bebd c27b 03be 0864 15bd
00000070: 9fe2 3fbe 8b20 00be e1bd adbe e531 a63c
00000080: 4de7 19be 0bc9 923d 0d1d 7abd 0246 bdbd
00000090: 619a 71bd 69c9 d4bc 82a8 a4bd 2d85 d0bd
000000a0: ee1f f5bc a7d4 13bd 3663 a1ba 04e4 0abe
000000b0: ca7d 80bc 6577 44bd 1071 36be f52d d0bc
000000c0: 682c 39be 29a1 d9bd 2c0d 29be 2b8c 10bd
000000d0: 97e2 e2bc 789e 92bb 75c4 87bc d237 efbc
000000e0: 5d32 25bd 8dd1 17bd 016b 503d d96f f13b
000000f0: 9c67 e93c c955 14bd 6a2d 053b 00d9 403d
00000100: 310c e9bd e727 ca3c c513 27bd d901 ddbd
00000110: 9791 eabd 29c0 2cbd da1b b73d 0aec 743c
00000120: ebd2 01be 605c 3ebe 033b cdbd 6c71 97bd
00000130: e31f eebd 4f22 13be 520a d8bd 13e6 83bc
00000140: 1472 7fbd e0c9 a5bd e393 efbd 3fd0 f5bd
00000150: b729 1cbe ff23 aabc d99c 4fbd 9293 e5bc
00000160: bb5a 853d 5d6c dc3c 6c9b 07bd 3d0c c7bd
00000170: 00f3 17be db37 c8bd 2e80 19be 4cf2 45bd
00000180: cbe9 19bc 82e5 033d 3310 93bc a5b2 02bd
00000190: 48d3 d53a 8de0 61bd 2d0a 60bd 93d6 0bbd
000001a0: 6743 4a3d 32c0 98bd 445e 02be 2a4d ed3d
000001b0: be6d 133d 9166 1bbe 00af a53d d5c6 26be
000001c0: e047 acbd 75de a6bd 7268 febd b9aa 3fbe
000001d0: a5ed d7bd 6ac0 a5bd 15d3 d0bd d9c2 f5bd
000001e0: 269c b23c 02a3 3bbd 544d 6fbd 851d adbd
000001f0: b06c a7bd ad98 1ebe ab5e 0b3d fdb5 f6bc
00000200: ee61 8d3e 1bb2 b43e e916 a1be a6f2 863e
00000210: 0b40 b03d 29df 323d fa7f 9c3e 50bf a23e
00000220: 6082 483e 28ac e13e 39f2 38be fc7f 0b3e
00000230: 8d87 8cbd c8cc bb3e b4ea 193c 5ec2 b03e
00000240: 462b 843e a722 2cbe 8595 75bd 6929 0d3d
00000250: 3223 84bd 6fac e4bd a65d a43d 1864 233e
00000260: 1f73 bb3e f8a8 9e3e be81 5b3e c58a 85bd
00000270: d796 86bd f8b8 b83e 3a19 523e d303 32be
00000280: da41 f5be 1c1c c83e eae2 88bd 16a4 1dbe
00000290: a1ca 03be 5804 02be 0987 393e 9946 333d
000002a0: 7718 ac3e bfca ee3e 3073 473e b3de ba3e
000002b0: e2f0 7c3e d2e1 ad3d 1ece 06be 6a9b b6be
000002c0: 759e b23e 9576 203e 074b 283e 85a3 e73e
000002d0: 8409 c93c ff80 59be 4a34 823d 8f9f 123e
000002e0: 2bd6 3a3e d420 d63d 959d 323e 95bd 4b3e
000002f0: 5247 1d3e 88a6 ac3e 7fe2 3abe 7ce1 b3bc
00000300: f439 a8bd 4343 22be fc03 7a3e 52f9 6c3e
00000310: b6de 1e3f 5f14 fe3d 8fc4 cb3e b62c 21bd
00000320: f29f 683e b1cd 563e a131 3b3e 43fa b8bc
00000330: 12f4 17bd 5ce1 ae3e feb8 a73e 8cb6 47be
00000340: 520f 163e c509 b93e c24a c53d 992b 2dbd
00000350: 02d7 5bbe eead 1f3f 59a3 083e cb0f c63e
00000360: 2b38 973e 9bf8 703e ffd5 63be 4ec3 883e
00000370: 15c7 a33e eee8 c13e 2876 51be a62f 0cbe
00000380: 394a b73e 1a87 b93e 40f2 a63e f62e 133e
00000390: 763d b03e abf3 08be f5af a03e 2606 b93e
000003a0: 29b5 623e a9b2 cf3e b47c 683e ab0b bd3d
000003b0: a6e7 113e bc60 21be fa7e a93e a529 9bbd
000003c0: 7622 e03d 6745 08be a0df 3a3e d0fc d43e
000003d0: 2620 94be 6093 583d 9b0a 3bbe 048a d93d
000003e0: ddf9 1c3e ed9f 333d d6f2 e1bd 2cec 3d3e
000003f0: 46c1 943e 9f95 803e ad33 2bbd 5f4f 803e

gru.bias_hh_l0 f4 [384]
-0.054041065 -0.11466349 -0.10935298 0.00581226 0.035361204 -0.052749544 -0.18814628 -0.06368146
-0.07060726 -0.028621431 -0.21525814 -0.11682835 -0.05011641 -0.16738313 -0.1481155 0.013621596
-0.09400341 -0.049752492 -0.014557674 0.020505127 -0.051096555 -0.032455068 -0.05656984 -0.017590284
0.031878565 -0.013087103 -0.13124418 0.019834107 -0.07403909 -0.1825588 -0.28131467 0.044227626
-0.01702008 0.009882479 -0.059507098 0.026264558 -0.13528097 0.036430083 -0.10383671 -0.04296095
-0.10099083 -0.12582967 -0.15817654 -0.029266091 -0.124913976 0.07176422 -0.024465278 -0.03375392
-0.07478096 -0.15208313 -0.18299706 -0.052438512 -0.079953805 0.011440931 -0.04563387 0.0058644107
-0.053028807 -0.08310979 -0.008958477 -0.10870514 -0.06382201 -0.046133876 -0.029584216 0.020097807
-0.040862035 -0.07720594 -0.062494796 -0.07983112 -0.027038004 -0.07527846 0.013868896 0.07752844
-0.10815807 -0.18928564 -0.1040918 -0.1290055 -0.026393196 -0.05796112 -0.1173571 -0.0002520222
-0.06588438 0.010917269 -0.04020931 -0.17076038 -0.05340399 -0.028350199 0.011056696 -0.010163549
-0.012596532 0.0406361 0.04089851 -0.0993233 -0.1588865 -0.07252757 -0.13644159 0.017910492
-0.054633975 -0.044323917 -0.029191874 -0.03817034 -0.010367615 0.061538626 -0.025355818 -0.06059639
-0.04151288 -0.122500576 -0.10105023 -0.0023442348 -0.004381503 -0.072615445 0.019332318 -0.13378567
-0.1845312 -0.0020192 -0.085242726 -0.05374969 -0.04094779 -0.059920043 -0.15760913 -0.09471475
0.0113689 -0.049519207 0.02478525 -0.10017427 -0.039917603 -0.20909338 -0.014038486 -0.07559402
0.26650974 0.4383001 -0.35531795 0.34736294 0.1915661 0.049492285 0.2877404 0.27689573
0.23474263 0.3205584 -0.14862962 0.077942304 -0.00081034546 0.2854999 -0.0028173567 0.23220056
0.2520711 -0.16424222 -0.028132549 -0.113690875 -0.11201073 -0.15954307 0.18982527 0.17820424
0.35435587 0.28932476 0.27587777 -0.0065866564 -0.039272316 0.3396152 0.20754741 -0.2098999
-0.48520157 0.357955 0.07784576 -0.17391174 -0.14251354 -0.117332205 0.14454314 0.17419563
0.29971927 0.3386994 0.16258639 0.3767145 0.1773949 -0.0035981364 -0.1422834 -0.3220242
0.36006957 0.19883989 0.29007006 0.46057326 -0.061441235 -0.055982593 0.036022473 0.1416048
0.08006028 0.19225794 0.24784775 0.3080139 0.23722813 0.42548582 -0.19357838 -0.10127473
-0.2326461 -0.033937443 0.29227635 0.15459989 0.6098821 0.08295189 0.41103598 -0.008228609
0.2643882 0.27283582 0.18087009 0.004399879 0.116465315 0.24938782 0.283974 -0.17897573
0.16865562 0.29079846 0.092688896 -0.0010011137 -0.09827136 0.661345 0.13505466 0.43265486
0.32351148 0.23807892 -0.08775895 0.2826794 0.24168418 0.46108323 -0.11286237 -0.15290871
0.26438564 0.35816294 0.29452032 0.07004701 0.26340172 -0.14375798 0.27288657 0.37131992
0.22979325 0.26268178 0.22300081 0.0039421725 0.17363822 -0.17577611 0.4324559 -0.13124064
0.17226398 -0.10875433 0.1315764 0.28297773 -0.41565406 0.22561888 -0.2847597 0.13058503
0.12095135 -0.022247558 -0.08251157 0.21496339 0.2723876 0.29697078 0.06949185 0.1949355
00000000: 2a5a 5dbd b1d4 eabd 75f4 dfbd c574 be3b
00000010: e9d6 103d e80f 58bd 6ba9 40be 6d6b 82bd
00000020: 8a9a 90bd 7e77 eabc a16c 5cbe b443 efbd
00000030: dd46 4dbd 7c66 2bbe 97ab 17be 1d2d 5f3c
00000040: dc84 c0bd 45c9 4bbd 4f83 6ebc 5efa a73c
00000050: 9f4a 51bd 9bef 04bd c7b5 67bd 8019 90bc
00000060: 1993 023d 4a6b 56bc e064 06be 237b a23c
00000070: cea1 97bd b2f0 3abe 7a08 90be 0728 353d
00000080: b26d 8bbc 1fea 213c b7bd 73bd c528 d73c
00000090: 1887 0abe b637 153d 57a8 d4bd d2f7 2fbd
000000a0: 48d4 cebd 7ed9 00be 08f9 21be 71bf efbc
000000b0: e6d2 ffbd 1ff9 923d 686b c8bc 8d41 0abd
000000c0: c326 99bd aebb 1bbe 9563 3bbe c4c9 56bd
000000d0: d2be a3bd be72 3b3c 95ea 3abd 3e2a c03b
000000e0: bc34 59bd 7735 aabd 93c6 12bc cda0 debd
000000f0: 1db5 82bd e0f6 3cbd 995a f2bc 28a4 a43c
00000100: f35e 27bd 261e 9ebd 8bfa 7fbd 807e a3bd
00000110: ce7e ddbc 982b 9abd 5e3a 633c 3bc7 9e3d
00000120: fa81 ddbd 18d4 41be 152e d5bd 051a 04be
00000130: 8b36 d8bc a468 6dbd eb58 f0bd d921 84b9
00000140: 64ee 86bd 58de 323c 84b2 24bd cfdb 2ebe
00000150: 24be 5abd ad3e e8bc 2527 353c 0485 26bc
00000160: af61 4ebc 0a72 263d 3285 273d 046a cbbd
00000170: 25b3 22be 5689 94bd 58b7 0bbe 06b9 923c
00000180: e0c7 5fbd ff8c 35bd cc23 efbc 8158 1cbd
00000190: eedc 29bc ed0f 7c3d 01b7 cfbc ec33 78bd
000001a0: 6909 2abd 95e1 fabd 6cf3 cebd bca1 19bb
000001b0: b692 8fbb 68b7 94bd cf5e 9e3c 1cff 08be
000001c0: bff5 3cbe 8e54 04bb bd93 aebd a328 5cbd
000001d0: dfb8 27bd b86e 75bd 4a64 21be cff9 c1bd
000001e0: 9f44 3a3c a7d4 4abd 700a cb3c 2b28 cdbd
000001f0: a480 23bd 931c 56be ae01 66bc 0ad1 9abd
00000200: f773 883e df68 e03e 3cec b5be 8ed9 b13e
00000210: e729 443e 6cb8 4a3d b652 933e 47c5 8d3e
00000220: 5f60 703e 3b20 a43e 5d32 18be 37a0 9f3d
00000230: 5d6d 54ba 0b2d 923e 67a3 38bb fcc5 6d3e
00000240: 770f 813e 1d2f 28be 3b76 e6bc c3d6 e8bd
00000250: e265 e5bd 425f 23be 8e61 423e 2c7b 363e
00000260: 226e b53e 6022 943e da3f 8d3e e1d4 d7bb
00000270: 02dc 20bd 0be2 ad3e 4f87 543e 00f0 56be
00000280: 576c f8be e145 b73e 996d 9f3d eb15 32be
00000290: 12ef 11be de4b f0bd 1e03 143e 5760 323e
000002a0: ce74 993e 026a ad3e 0c7d 263e b9e0 c03e
000002b0: 02a7 353e b6ce 6bbb bdb2 11be 5be0 a4be
000002c0: 0a5b b83e af9c 4b3e 1084 943e 42d0 eb3e
000002d0: cea9 7bbd 014e 65bd 4d8c 133d d900 113e
000002e0: a5f6 a33d 44df 443e cdcb 7d3e ffb3 9d3e
000002f0: eeeb 723e 47d9 d93e 6939 46be 2069 cfbd
00000300: c73a 6ebe fd01 0bbd 3fa5 953e 6f4f 1e3e
00000310: 3c21 1c3f aee2 a93d 4f73 d23e 4ad1 06bc
00000320: e45d 873e 23b1 8b3e 0236 393e dc2c 903b
00000330: 5e85 ee3d 855f 7f3e 0a65 913e 6a45 37be
00000340: 0fb4 2c3e 89e3 943e add3 bd3d cd37 83ba
00000350: 7f42 c9bd e84d 293f c54b 0a3e f084 dd3e
00000360: 4ca3 a53e f6ca 733e f7ba b3bd 5bbb 903e
00000370: 0f7c 773e 1a13 ec3e 6324 e7bd 1a94 1cbe
00000380: 8e5d 873e 2261 b73e 5ecb 963e cf74 8f3d
00000390: 97dc 863e 4b35 13be cab7 8b3e a51d be3e
000003a0: ec4e 6b3e 3a7e 863e 535a 643e 572d 813b
000003b0: 38ce 313e a7fe 33be dc6a dd3e f263 06be
000003c0: f865 303e 97ba debd f7bb 063e 75e2 903e
000003d0: 9cd0 d4be a308 673e 06cc 91be 15b8 053e
000003e0: 57b5 f73d 8340 b6bc d3fb a8bd 5d1f 5c3e
000003f0: 6376 8b3e 8e0c 983e be51 8e3d 2c9d 473e

gru.weight_ih_l1 f4 [384, 128]
-0.1367934 0.009305481 -0.22500506 -0.01686235 0.09274521 -0.18550605 0.009653832 0.08733678
0.09187711 0.09775426 0.35287482 -0.28074887 0.028063877 0.21226832 0.15101181 -0.10729242
0.085473776 0.23123369 0.020314043 0.28125396 -0.069691576 0.008360477 0.12558624 -0.0083402805
0.03656985 -0.18355812 0.16576838 0.02027187 -0.13275218 -0.0032657695 -0.14392252 0.0118952915
-0.0582126 0.0982908 0.03996181 0.24459225 0.3043245 0.12889092 -0.099498205 0.09394511
0.03446029 0.08853295 0.020414757 -0.26739252 0.08623674 0.094517775 -0.052635808 -0.023030072
0.11236271 -0.08151382 0.047869448 -0.122783504 -0.08265319 -0.073158264 -0.047141105 -0.04931995
-0.24746488 -0.12319238 -0.036067292 0.05190081 0.3150928 -0.12250344 -0.12758686 0.1349103
-0.34723395 0.035122294 0.15818639 0.068560936 -0.019259272 -0.10536342 0.011324681 0.19185452
0.13470934 0.047128033 0.017494367 0.0454203 -0.14471596 -0.095964044 0.04517093 0.21696024
0.022926318 -0.08325405 0.25953346 0.014378805 -0.19533563 0.25892234 0.019585554 -0.001870107
0.15175487 0.077748455 -0.03289253 0.3265515 -0.028449245 0.083353564 0.014460585 0.014962357
0.025506314 0.3719349 0.043311976 0.2579861 0.3824308 0.07395064 0.09152241 0.03654263
0.08175101 -0.013873536 -0.19402312 0.22971919 0.009062292 0.22810623 0.03636775 0.061511178
0.07247665 0.11148556 -0.13735406 -0.095313 -0.111838326 0.09764949 0.18720998 0.12203103
0.031608723 0.006314188 0.105978705 0.12616743 0.026082942 0.19637457 0.40557158 0.02861581
0.06293487 -0.08021343 0.044109125 0.08963076 -0.038440216 0.051113922 0.028688058 0.16312248
-0.07060083 -0.035605878 -0.039446894 -0.12921402 -0.098231085 0.020764234 0.094232 0.09871664
-0.041038305 -0.12850451 -0.15162493 0.021087626 -0.004604809 -0.04442845 -0.06844603 0.047594454
-0.22920702 -0.09553006 -0.048041057 -0.022777837 0.11644716 0.07014721 -0.11431058 -0.0135409245
0.05069094 0.14552428 -0.012256551 0.090754256 0.088779636 -0.14444165 -0.07405547 0.09874858
0.01851139 -0.14109653 0.033220947 -0.0025293836 -0.09627614 0.07661425 0.104564235 -0.02806613
-0.08652146 -0.06340239 0.10876662 -0.1533167 0.020808106 -0.19680505 0.15825059 0.06831014
0.069484085 -0.109326296 0.13991278 -0.0626683 -0.107664265 0.13779178 -0.28130728 -0.0666291
0.06936018 -0.07800378 0.021662517 0.06375051 -0.20900697 -0.043073323 0.10208042 -0.119471624
-0.077678196 -0.101133555 -0.013751202 0.04200341 -0.0032816418 -0.0011179977 0.022081314 0.059754156
0.12055986 -0.12820783 0.017097987 0.08988829 0.07819727 0.12853143 0.002974444 -0.08626402
0.04345078 0.10357031 0.15609726 -0.068098 -0.023304943 0.09950385 0.12860776 -0.13482516
-0.01766521 0.08355609 -0.053493604 0.108456984 -0.08125998 0.03250113 -0.036882773 0.028178556
0.047140036 -0.045210037 0.03726646 0.1263183 0.11805094 -0.11574314 -0.022793947 0.081547424
-0.1514633 -0.10956057 -0.12725243 -0.005527844 -0.094753474 0.15128171 0.029155608 -0.14206158
0.13801329 0.09182479 0.08680009 0.09097878 0.08329443 -0.06490441 0.040206548 -0.13457951
00000000: 9213 0cbe 0476 183c ba67 66be e922 8abc
00000010: 33f1 bd3d 4cf5 3dbe 1b2b 1e3c a0dd b23d
00000020: 112a bc3d 6333 c83d 02ac b43e 51be 8fbe
00000030: 37e6 e53c de5c 593e d7a2 1a3e 21bc dbbd
00000040: e00c af3d 86c8 6c3e a369 a63c 8500 903e
00000050: 75ba 8ebd 62fa 083c ae99 003e aca5 08bc
00000060: 44ca 153d a9f6 3bbe 30bf 293e 3111 a63c
00000070: 30f0 07be 8506 56bb 6d60 13be 78e4 423c
00000080: 5670 6ebd b04c c93d ffae 233d 6476 7a3e
00000090: 6cd0 9b3e fbfb 033e b7c5 cbbd 4b66 c03d
000000a0: 3c26 0d3d c350 b53d d93c a73c ace7 88be
000000b0: e39c b03d 8992 c13d a598 57bd 90a9 bcbc
000000c0: 6c1e e63d b8f0 a6bd c112 443d eb75 fbbd
000000d0: 1346 a9bd 00d4 95bd 0817 41bd b703 4abd
000000e0: 6f67 7dbe 494c fcbd 4cbb 13bd f295 543d
000000f0: d853 a13e 15e3 fabd 21a6 02be ed25 0a3e
00000100: a6c8 b1be 65dc 0f3d 9dfb 213e ad69 8c3d
00000110: 9fc5 9dbc c7c8 d7bd 288b 393c 8375 443e
00000120: 3ff1 093e 5309 413d 5950 8f3c a30a 3a3d
00000130: 6c30 14be cc88 c4bd 2705 393d d32a 5e3e
00000140: f9cf bb3c 1981 aabd 92e1 843e 1495 6b3c
00000150: 1006 48be 7891 843e e271 a03c 611e f5ba
00000160: a165 1b3e 953a 9f3d 51ba 06bd c231 a73e
00000170: 640e e9bc 46b5 aa3d 17ec 6c3c ac24 753c
00000180: 9ef2 d03c 406e be3e e667 313d c116 843e
00000190: f8cd c33e 6f73 973d 1a70 bb3d baad 153d
000001a0: 136d a73d d44d 63bc ffad 46be 823b 6b3e
000001b0: 027a 143c ae94 693e 5af6 143d 25f3 7b3d
000001c0: a36e 943d 8b52 e43d 8ba6 0cbe 7633 c3bd
000001d0: 7e0b e5bd 75fc c73d f9b3 3f3e 68eb f93d
000001e0: 2678 013d 3fe7 ce3b 5d0b d93d 0932 013e
000001f0: e5ab d53c 6a16 493e 14a7 cf3e b46b ea3c
00000200: ffe3 803d f046 a4bd c5ab 343d 5590 b73d
00000210: 7d73 1dbd d55c 513d 3803 eb3c 9409 273e
00000220: 2b97 90bd 78d7 11bd 1193 21bd ae50 04be
00000230: 612d c9bd c119 aa3c b5fc c03d f32b ca3d
00000240: c817 28bd b096 03be 9143 1bbe f5bf ac3c
00000250: f0e3 96bb 9bfa 35bd 6f2d 8cbd 67f2 423d
00000260: 3fb5 6abe 44a5 c3bd b3c6 44bd 9698 babc
00000270: d97b ee3d 57a9 8f3d aa1b eabd c1da 5dbc
00000280: 4ea1 4f3d 5104 153e b3cf 48bc 5edd b93d
00000290: 19d2 b53d 83e8 13be 65aa 97bd b23c ca3d
000002a0: 33a5 973c 9c7b 10be b012 083d 04c4 25bb
000002b0: 6d2c c5bd efe7 9c3d c625 d63d f1ea e5bc
000002c0: 2a32 b1bd 1dd9 81bd 09c1 de3d 0eff 1cbe
000002d0: c375 aa3c 4387 49be 710c 223e 30e6 8b3d
000002e0: ac4d 8e3d 77e6 dfbd 4c45 0f3e 3d58 80bd
000002f0: 157f dcbd 4a19 0d3e 8207 90be d674 88bd
00000300: b60c 8e3d 72c0 9fbd 9775 b13c a18f 823d
00000310: ec05 56be a76d 30bd 8a0f d13d 8aad f4bd
00000320: bf15 9fbd 1c1f cfbd b94c 61bc c50b 2c3d
00000330: d010 57bb c789 92ba dfe3 b43c c6c0 743d
00000340: 16e8 f63d ea48 03be 1411 8c3c 5a17 b83d
00000350: e425 a03d be9d 033e e4ee 423b 31ab b0bd
00000360: 72f9 313d ac1c d43d f6d7 1f3e f776 8bbd
00000370: 02ea bebc adc8 cb3d c1b1 033e 9b0f 0abe
00000380: a1b6 90bc 751f ab3d 1c1c 5bbd b21e de3d
00000390: a26b a6bd e81f 053d 6412 17bd b7d6 e63c
000003a0: e915 413d 292e 39bd b7a4 183d 9659 013e
000003b0: b1c4 f13d bd0a edbd 5fba babc 5602 a73d
000003c0: 3219 1bbe 4b61 e0bd 764e 02be eb22 b5bb
000003d0: 1c0e c2bd 98e9 1a3e bed7 ee3c 9778 11be
000003e0: 5b53 0d3e a30e bc3d 3fc4 b13d 1553 ba3d
000003f0: 4596 aa3d 9aec 84bd 9faf 243d 36cf 09be

gru.weight_hh_l1 f4 [384, 128]
0.25518733 0.01384919 -0.17229688 0.088861726 -0.11549498 -0.013643041 0.30881095 0.03261907
0.020003773 0.0069003142 0.044178437 0.26947898 -0.13996103 0.1460954 -0.02971512 -0.24588457
-0.32187945 0.060836203 -0.4556597 0.080296054 -0.23146312 -0.17886682 -0.23596379 -0.0815594
-0.005475515 -0.099651314 0.084836625 -0.121469654 0.103202984 -0.05006118 -0.20453689 0.038292874
0.011860164 -0.3257573 -0.086141594 -0.14719823 -0.16798148 -0.011937109 0.024329191 -0.20571017
0.1727814 0.09811492 0.17409228 -0.1660981 -0.075846896 -0.10209328 -0.083314635 0.04447309
-0.21173465 -0.28949356 0.019048354 -0.016000707 -0.4097547 0.08724529 0.09152776 0.18305549
0.022331577 0.03791453 -0.00796518 0.08502855 -0.086026974 -0.28564867 0.19339265 -0.43184084
0.26126364 0.0774429 0.14107537 -0.11748803 -0.018150738 0.09014725 -0.13720834 0.35733384
0.026783189 0.1479772 0.16351506 -0.21499418 0.040847186 0.15768804 0.002990744 -0.30365705
-0.1813562 0.14123486 -0.15394665 0.21290468 0.060424443 0.15631585 0.20073274 -0.08829128
0.058431722 -0.19571693 0.13153066 -0.14069065 -0.20322335 -0.04313069 -0.041228898 0.2197188
0.033611618 0.06340343 0.113244906 0.05314928 -0.054746687 -0.018906405 -0.27806887 0.09103078
0.098154575 -0.0021142382 0.17095964 0.098081015 -0.06974956 -0.10399635 0.1222324 -0.18432757
-0.061106868 0.09065158 0.29402736 0.007593774 -0.011034284 0.19759464 0.18521619 -0.19660367
0.09788018 -0.06280336 -0.0813406 0.044496566 0.06077584 0.07637606 0.12031548 -0.106921494
-0.039142855 -0.02756318 -0.011294655 0.049071215 0.06557218 0.12222962 0.05469035 -0.018918697
-0.1444899 -0.051983565 -0.09159658 0.09449596 0.11846059 -0.36024484 -0.06307997 -0.14264923
-0.17533435 0.07823866 0.009680238 0.11169165 -0.09785933 -0.0047685048 -0.08292988 0.018072989
-0.099172965 0.038947515 -0.006763537 -0.01391945 0.21037734 -0.010375604 -0.1573949 -0.12158671
0.18829435 0.0018637592 -0.04239479 -0.09960932 -0.027312858 -0.19580275 0.106072456 -0.0016891173
-0.00059230294 0.011117684 0.042145196 -0.022123445 -0.06616575 0.06742611 -0.038263414 -0.110764675
-0.011415804 0.080062136 -0.053029336 0.15306668 0.043347057 0.028640715 -0.12243484 0.17921616
0.025300201 0.13156958 0.019447932 -0.11385348 0.010109159 0.16957815 -0.14193971 -0.16870743
0.07200499 0.15956812 0.018857554 0.039897345 0.1267413 -0.117317386 -0.07949191 -0.14337973
0.099857114 -0.14472273 0.13950583 -0.07723473 0.26186123 -0.020089274 0.092939824 0.023360845
0.0045797043 0.04493842 -0.20215257 -0.06682908 0.09675346 0.07614713 -0.06599476 0.028183347
-0.10235085 -0.043529775 0.17808056 -0.039110262 -0.0057116076 0.06857266 0.055697452 0.27981624
0.031892627 0.057114232 0.09440393 0.07404039 -0.11196444 -0.19645682 -0.21679588 0.005434283
-0.03379479 0.18650232 0.016933266 0.28347453 0.014439111 -0.037984867 0.083247244 0.00018149982
-0.062419944 -0.12712047 0.12788673 0.025024014 0.097170144 0.17815185 -0.005817186 -0.09662693
-0.06340026 -0.05497956 -0.079350054 -0.068333514 0.009458826 0.017098885 -0.021489179 -0.012143792
00000000: eaa7 823e b7e7 623c 986e 30be 23fd b53d
00000010: a288 ecbd 1087 5fbc 781c 9e3e 939b 053d
00000020: f4de a33c 081c e23b 73f4 343d 26f9 893e
00000030: f251 0fbe 089a 153e 206d f3bc 2ac9 7bbe
00000040: 62cd a4be 622f 793d 3a4c e9be 4272 a43d
00000050: ab04 6dbe dd28 37be 7ea0 71be 9d08 a7bd
00000060: f36b b3bb fd15 ccbd d3be ad3d 15c5 f8bd
00000070: 165c d33d f40c 4dbd 1e72 51be fdd8 1c3d
00000080: 2251 423c a9c9 a6be 016b b0bd 22bb 16be
00000090: 5603 2cbe dd93 43bc 034e c73c b0a5 52be
000000a0: 9bed 303e 7af0 c83d 3f45 323e 9f15 2abe
000000b0: 9e55 9bbd 4816 d1bd dda0 aabd 6a29 363d
000000c0: f8d0 58be 8038 94be 4b0b 9c3c ea13 83bc
000000d0: 5ecb d1be a9ad b23d e872 bb3d e672 3b3e
000000e0: b6f0 b63c 444c 1b3d 6380 02bc 7323 ae3d
000000f0: e92e b0bd 8b40 92be b908 463e 3e1a ddbe
00000100: 59c4 853e 629a 9e3d 1076 103e 909d f0bd
00000110: dbb0 94bc 1f9f b83d 5880 0cbe 76f4 b63e
00000120: 6b68 db3c 5687 173e 7e70 273e 6f27 5cbe
00000130: 614f 273d f978 213e 5c00 443b f078 9bbe
00000140: 71b5 39be df9f 103e 31a4 1dbe af03 5a3e
00000150: 9f7f 773d 4311 203e e28c 4d3e 0fd2 b4bd
00000160: 1a56 6f3d 056a 48be f9af 063e 3611 10be
00000170: c819 50be cea9 30bd a2df 28bd f7fd 603e
00000180: 56ac 093d a8d9 813d f2ec e73d 0fb3 593d
00000190: 103e 60bd 9be1 9abc 0b5f 8ebe 586e ba3d
000001a0: 4405 c93d 088f 0abb 0b10 2f3e b3de c83d
000001b0: dbd8 8ebd 0afc d4bd fb54 fa3d 5ec0 3cbe
000001c0: 324b 7abd 89a7 b93d c18a 963e 31d5 f83b
000001d0: 24c9 34bc 4056 4a3e 50a9 3d3e 7952 49be
000001e0: 6775 c83d 0c9f 80bd e795 a6bd 0842 363d
000001f0: 16f0 783d 0d6b 9c3d f667 f63d a8f9 dabd
00000200: 4254 20bd 2ecc e1bc 370d 39bc e6fe 483d
00000210: b54a 863d 8653 fa3d fd02 603d 62fb 9abc
00000220: 29f5 13be b8ec 54bd fd96 bbbd 1987 c13d
00000230: 779b f23d 0372 b8be 1230 81bd a412 12be
00000240: d98a 33be 973b a03d dc99 1e3c 97be e43d
00000250: 796a c8bd 1e41 9cbb 24d7 a9bd ce0d 943c
00000260: 321b cbbd 6e87 1f3d a9a0 ddbb 680e 64bc
00000270: 286d 573e 70fe 29bc 212c 21be 7402 f9bd
00000280: 3cd0 403e 6249 f43a 29a6 2dbd f9ff cbbd
00000290: 37bf dfbc 8480 48be 843c d93d 5f65 ddba
000002a0: c744 1bba f226 363c 71a0 2c3d 3a3c b5bc
000002b0: e981 87bd b316 8a3d 19ba 1cbd 97d8 e2bd
000002c0: 5a09 3bbc 9ef7 a33d 4a35 59bd 83bd 1c3e
000002d0: af8c 313d ef9f ea3c 1ebf fabd 7184 373e
000002e0: 5e42 cf3c 2dba 063e 4551 9f3c 032c e9bd
000002f0: e3a0 253c e5a5 2d3e a558 11be a4c1 2cbe
00000300: 5a77 933d d365 233e 287b 9a3c 666b 233d
00000310: 79c8 013e 1944 f0bd a8cc a2bd 23d2 12be
00000320: e381 cc3d 3232 14be 9eda 0e3e 3e2d 9ebd
00000330: ad12 863e 4392 a4bc 3c57 be3d 3e5f bf3c
00000340: 5811 963b 5911 383d 1501 4fbe afdd 88bd
00000350: ae26 c63d 07f3 9b3d 4328 87bd c3e0 e63c
00000360: 539d d1bd 474c 32bd c05a 363e 1532 20bd
00000370: 7028 bbbb d36f 8c3d 0323 643d 1344 8f3e
00000380: d8a1 023d 9df0 693d d956 c13d 7da2 973d
00000390: 9d4d e5bd fa2b 49be bdff 5dbe 1212 b23b
000003a0: 686c 0abd 77fa 3e3e a2b7 8a3c 9323 913e
000003b0: 0592 6c3c 0596 1bbd 887d aa3d fd50 3e39
000003c0: 0eac 7fbd de2b 02be bdf4 023e 29ff cc3c
000003d0: 2401 c73d 706d 363e 189e bebb 57e4 c5bd
000003e0: ffd7 81bd 3f32 61bd 4882 a2bd 71f2 8bbd
000003f0: 31f9 1a3c f612 8c3c 130a b0bc c1f6 46bc

gru.bias_ih_l1 f4 [384]
-0.021288255 0.0066248076 0.019011049 0.014441292 -0.10368987 -0.008185365 -0.16102979 -0.12215403
-0.028340064 -0.05161489 -0.06970551 0.11470604 0.062845655 -0.0426631 -0.016169747 0.13224165
-0.04378347 0.046991676 0.06792306 0.06506551 -0.046402756 0.01895552 0.14417072 0.0067317216
0.0013398924 0.017782483 -0.0071254186 -0.0450931 0.033007517 -0.008991197 -0.08566735 0.08204894
0.14591786 0.079254225 -0.032250877 -0.1623523 -0.07948839 -0.070393756 -0.051705074 0.06944878
-0.022143532 0.099239096 0.029845964 -0.15782885 -0.09390629 0.15775555 -0.072672345 0.040643062
-0.007570899 -0.002963995 -0.01152443 0.10038439 -0.090141766 0.004535964 -0.07769587 -0.06204428
-0.040368296 0.062169034 -0.1252677 -0.090983965 -0.03915418 0.01902637 0.04815585 0.05737464
0.04854717 -0.029781021 -0.036188398 0.016842594 0.05571688 -0.017598595 -0.11261553 0.050128445
0.025814159 -0.07612271 -0.101986535 0.03734335 0.009620258 -0.09727871 0.039363198 -0.13270025
-0.0004914988 0.08644259 -0.00074472657 0.05238318 0.15166067 -0.06812221 -0.08028886 0.11080638
-0.014315953 0.06311769 0.00270345 0.026544906 -0.11990569 -0.010163403 0.12818822 -0.035821415
0.022794988 -0.07703136 -0.034053374 -0.017861946 0.023048284 -0.0039690956 -0.1371874 0.05716281
0.072725676 -0.09754158 0.010924712 0.07979853 0.042922214 -0.15400381 -0.1259702 0.04406924
-0.16251323 -0.069712445 0.08552429 -0.07375792 0.0405062 -0.08672097 -0.0073134317 -0.009059648
-0.0990655 -0.02568404 -0.049038667 0.050855927 0.07415624 0.014668194 0.033237126 0.0031998844
0.0017173433 -0.010441591 0.08331693 0.015690165 -0.004317953 -0.029628284 0.09134025 -0.0641972
-0.07573359 -0.11509198 0.1982207 -0.010366417 0.004216133 0.19811651 0.404066 0.26232594
-0.010892476 0.07609184 0.34212276 0.18877079 0.13470322 0.271609 0.39351448 0.11179374
0.41487393 0.4561393 -0.06787936 0.31685257 0.2616038 -0.020411532 -0.022210443 0.27808508
0.22043519 0.3097667 0.08586157 0.2692036 0.21898168 0.12383872 0.13316086 0.26676592
0.13077465 0.45182958 -0.15447791 -0.012291649 0.47971317 0.555603 0.033091005 -0.16196804
0.049358997 0.14052819 0.14214914 0.1480431 0.18590134 0.48732764 0.10903888 0.15864003
0.097935714 0.18728502 -0.042564753 0.13461915 0.32323295 0.05721044 0.11232437 0.16453816
-0.13276409 0.32390836 -0.12959297 0.06814561 0.274151 0.57257146 -0.0039881645 0.07615686
0.29371384 0.1858058 0.17501321 0.08546907 0.4109628 0.26644486 0.25939274 0.081649765
0.1980865 0.21086064 0.2548757 0.16987762 0.23897581 0.20244953 0.107490316 0.11031093
-0.0248668 0.12656492 0.25767627 0.3271914 0.14994696 0.41877726 0.16160646 0.29355672
0.38673803 0.02412673 -0.1723972 0.17987499 0.22344674 0.25827712 0.04293951 0.20772615
-0.07254944 0.06967365 0.45399344 0.24027577 0.2204916 -0.05287924 0.12448811 0.20600115
0.030905517 0.36186025 0.19306509 0.11081717 0.45519334 0.07552121 0.218389 0.05142547
0.07928232 0.06676877 0.2571583 0.17368473 0.33787763 0.19875951 0.27524257 0.31109145
00000000: b564 aebc ea14 d93b 0fbd 9b3c 2b9b 6c3c
00000010: 5b5b d4bd e91b 06bc fee4 24be e42b fabd
00000020: 6c29 e8bc 236a 53bd c3c1 8ebd 00eb ea3d
00000030: 39b5 803d 81bf 2ebd 6b76 84bc 5b6a 073e
00000040: 4c56 33bd 587a 403d 3f1b 8b3d 1141 853d
00000050: d110 3ebd 9b48 9b3c 7da1 133e c695 dc3b
00000060: 549f af3a 92ac 913c 587c e9bb 8bb3 38bd
00000070: e432 073d d04f 13bc 5d72 afbd 4609 a83d
00000080: 7e6b 153e 0a50 a23d 7f19 04bd ae3f 26be
00000090: cfca a2bd 9a2a 90bd b3c8 53bd 293b 8e3d
000000a0: 5a66 b5bc de3d cb3d 867f f43c e39d 21be
000000b0: f151 c0bd ac8a 213e 3dd5 94bd 5779 263d
000000c0: 4e15 f8bb 963f 42bb f6d0 3cbc 5596 cd3d
000000d0: 3f9c b8bd 6da2 943b 031f 9fbd 2522 7ebd
000000e0: 3a59 25bd f5a4 7e3d 2d46 00be cd55 babd
000000f0: 2260 20bd 31dd 9b3c 123f 453d ac01 6b3d
00000100: 66d9 463d 54f7 f3bc 493a 14bd 7bf9 893c
00000110: 6237 643d ee2a 90bc f9a2 e6bd 7c53 4d3d
00000120: 3778 d33c 39e6 9bbd 51de d0bd 57f5 183d
00000130: 499e 1d3c 0f3a c7bd 4e3b 213d 93e2 07be
00000140: edd7 00ba d008 b13d c139 43ba bf8f 563d
00000150: ef4c 1b3e a883 8bbd 7c6e a4bd 75ee e23d
00000160: 758d 6abc d943 813d 5d2c 313b b474 d93c
00000170: 1d91 f5bd 6784 26bc c643 033e 7ab9 12bd
00000180: 8ebc ba3c 9ec2 9dbd 8d7b 0bbd 3753 92bc
00000190: c1cf bc3c 300f 82bb db7a 0cbe 8d23 6a3d
000001a0: 33f1 943d e1c3 c7bd 90fd 323c 696d a33d
000001b0: 34cf 2f3d 2db3 1dbe 55fe 00be f381 343d
000001c0: de69 26be 66c5 8ebd 5c27 af3d 640e 97bd
000001d0: d4e9 253d c49a b1bd 83a5 efbb eb6e 14bc
000001e0: dae2 cabd 5667 d2bc c5dc 48bd 4e4e 503d
000001f0: 3adf 973d dd52 703c a723 083d 27b5 513b
00000200: 7b18 e13a 3513 2bbc 11a2 aa3d a988 803c
00000210: 9d7d 8dbb 04b7 f2bc 9910 bb3d d279 83bd
00000220: 361a 9bbd 58b5 ebbd 5efa 4a3e e7d7 29bc
00000230: 7d27 8a3b 0edf 4a3e bde1 ce3e 964f 863e
00000240: 5b76 32bc 0ad6 9b3d b72a af3e 214d 413e
00000250: a4ef 093e 5610 8b3e bb7a c93e 1ef4 e43d
00000260: 5b6a d43e 178b e93e 5504 8bbd 803a a23e
00000270: eff0 853e 1636 a7bc adf2 b5bc 2b61 8e3e
00000280: c3b9 613e be99 9e3e 31d8 af3d 0ed5 893e
00000290: bc3c 603e 289f fd3d 525b 083e 8b95 883e
000002a0: cae9 053e 3556 e73e 752f 1ebe ea62 49bc
000002b0: f79c f53e 003c 0e3f 6f8a 073d f3da 25be
000002c0: a92c 4a3d 9fe6 0f3e 8b8f 113e 9c98 173e
000002d0: ec5c 3e3e 0283 f93e c74f df3d 8872 223e
000002e0: 8592 c83d a5c7 3f3e 6158 2ebd 9ad9 093e
000002f0: ca7e a53e 7f55 6a3d 520a e63d b17c 283e
00000300: 4ff3 07be 51d7 a53e 05b4 04be ed8f 8b3d
00000310: 855d 8c3e 0b94 123f 26af 82bb 21f8 9b3d
00000320: a961 963e e043 3e3e aa36 333e 680a af3d
00000330: b769 d23e 766b 883e 20cf 843e fe37 a73d
00000340: 30d7 4a3e daeb 573e 117f 823e 66f4 2d3e
00000350: 13b6 743e ee4e 4f3e e223 dc3d b2ea e13d
00000360: 76b5 cbbc 3c9a 013e 25ee 833e a285 a73e
00000370: b28b 193e f969 d63e 2a7c 253e 114d 963e
00000380: 8702 c63e 6ca5 c53c e488 30be 2631 383e
00000390: 39cf 643e e63c 843e 57e1 2f3d 2ab6 543e
000003a0: cd94 94bd 0fb1 8e3d d471 e83e da0a 763e
000003b0: 8dc8 613e e797 58bd 9ff3 fe3d f7f1 523e
000003c0: 912d fd3c bf45 b93e dbb2 453e 1df4 e23d
000003d0: 1a0f e93e ddaa 9a3d 5ea1 5f3e 83a3 523d
000003e0: c55e a23d 11be 883d 41aa 833e 69da 313e
000003f0: 4cfe ac3e 9d87 4b3e 98ec 8c3e 6147 9f3e

gru.bias_hh_l1 f4 [384]
0.04984008 -0.058534183 0.07884887 0.054626457 -0.090470284 0.006523113 -0.029330794 0.0055570113
0.06283553 -0.04639815 -0.08327277 -0.04913912 -0.040376954 -0.07290138 0.02324821 0.006120162
0.061276343 -0.049814723 0.050898556 -0.005099829 -0.079295814 -0.03211556 0.11012812 -0.10106499
-0.1546214 -0.024785308 -0.07089768 0.041936453 -0.040958166 0.06880186 -0.131054 0.10952217
0.1460328 -0.06614642 -0.082805395 -0.011460072 0.086217195 0.017995898 0.03507325 -0.07599935
-0.06003979 0.12806554 0.05812218 -0.072617546 0.06048383 0.20415518 -0.04266397 -0.023154581
-0.08399361 -0.0061139865 -0.01443198 0.02532721 0.04511696 -0.06144469 -0.09268368 0.06840924
-0.06793044 -0.03505047 -0.06704451 -0.12099374 -0.07852113 0.052219074 -0.06481547 3.9916526e-05
-0.098042004 -0.013894376 0.024950108 -0.021577626 0.008387475 -0.10439439 -0.07987122 0.007200428
0.005642278 0.014276197 -0.08774249 -0.09563537 0.045041054 -0.0424413 0.057929456 -8.563035e-05
-0.121801436 0.09609489 -0.033935323 0.012603203 0.05349659 0.00718472 -0.03749543 0.026576407
0.063618384 -0.09561014 0.04777598 -0.009909941 -0.003276018 0.06844545 0.013744174 -0.008828818
-0.03526613 -0.109349385 0.0583313 -0.06613682 0.06711445 -0.008778749 -0.11801201 0.063052386
0.05709256 -0.018930996 -0.0844361 0.108788 -0.02098762 -0.08911735 -0.075714566 0.058633305
-0.0744538 0.0039412184 0.04864086 -0.03176762 0.04811141 -0.08567897 0.071407825 -0.09370631
-0.021717036 -0.05938453 -0.035994124 0.054514572 0.11362275 -0.09512053 0.023365337 -0.09282474
0.0012430564 0.111514725 0.043702666 0.07087761 -0.08095542 -0.13437319 0.010333928 -0.09388941
-0.040373202 -0.12903184 0.28913364 -0.15254356 0.11097631 0.14172873 0.4914063 0.39678043
-0.07486391 0.022020765 0.3185206 0.13437907 0.15375672 0.22402066 0.29856434 0.07268973
0.37572894 0.40553036 -0.088045396 0.39713565 0.22105767 0.012261279 -0.078878745 0.3074005
0.22565258 0.38144583 -0.03128043 0.10021577 0.14341311 0.058668125 0.030138236 0.27746508
0.053041782 0.39914563 -0.23587288 0.13325612 0.42651618 0.4148435 -0.044591192 -0.15297689
-0.070124336 0.052780993 0.18269087 0.26720157 0.20198621 0.46823946 0.07730671 -0.0006981286
0.12126968 0.20593658 -0.051235653 -0.0069760024 0.36318022 0.16427223 0.2645611 0.25211868
-0.02463845 0.30957398 -0.009610809 0.0062443726 0.24010548 0.5101669 0.06991463 -0.031799648
0.22333393 0.24752004 0.099666044 0.17277811 0.4412523 0.34343323 0.31420568 -0.023479262
0.048063513 0.26462457 0.26539308 0.29880953 0.3345899 0.33413157 0.16294762 0.16235813
-0.13031039 0.18291017 0.21555236 0.26567328 0.14096089 0.5193004 0.030806487 0.3809894
0.39197928 0.022241995 -0.16042687 0.19772068 0.22047862 0.21979038 -0.013878787 0.24486867
0.08434283 0.10802188 0.41286066 0.19882894 0.20386343 -0.022423802 0.10480791 0.26385894
0.06756332 0.3771978 0.22645772 0.17458852 0.38867548 -0.065103486 0.23828942 0.07833428
0.0832334 0.09704155 0.24446136 0.06343295 0.35796818 0.19112067 0.33583227 0.27879068
00000000: 1d25 4c3d 8ac1 6fbd 847b a13d febf 5f3d
00000010: 7c48 b9bd d7bf d53b 2247 f0bc 9717 b63b
00000020: eaaf 803d fd0b 3ebd ea8a aabd 1a46 49bd
00000030: 4e62 25bd 524d 95bd 0873 be3c a48b c83b
00000040: e7fc 7a3d 860a 4cbd 017b 503d 771c a7bb
00000050: d865 a2bd 9b8b 03bd da8a e13d 29fb cebd
00000060: 1355 1ebe 8f0a cbbc ce32 91bd 8fc5 2b3d
00000070: c0c3 27bd fde7 8c3d 0533 06be 294d e03d
00000080: 9f89 153e c677 87bd e095 a9bd 07c3 3bbc
00000090: a492 b03d 226c 933c f8a8 0f3d 8ca5 9bbd
000000a0: 48ec 75bd 9d23 033e 8611 6e3d 82b8 94bd
000000b0: e4bd 773d 0e0e 513e 6ac0 2ebd adae bdbc
000000c0: d804 acbd d657 c8bb 1d74 6cbc 027b cf3c
000000d0: 90cc 383d 6dad 7bbd f1d0 bdbd 251a 8c3d
000000e0: 1d1f 8bbd 1591 0fbd a24e 89bd 91cb f7bd
000000f0: b0cf a0bd abe3 553d f9bd 84bd 0b6c 2738
00000100: 3fca c8bd 3da5 63bc 2b64 cc3c 90c3 b0bc
00000110: 9f6b 093c bacc d5bd 8693 a3bd 91f1 eb3b
00000120: dce2 b83b b6e6 693c 56b2 b3bd 7adc c3bd
00000130: f87c 383d eed6 2dbd 7047 6d3d 7294 b3b8
00000140: 0873 f9bd 66cd c43d c4ff 0abd aa7d 4e3c
00000150: 3e1f 5b3d cd6d eb3b cf94 19bd c4b6 d93c
00000160: 5b4a 823d 40cf c3bd bfb0 433d 4e5d 22bc
00000170: 76b2 56bb 212d 8c3d 3e2f 613c bfa6 10bc
00000180: 3873 10bd 92f2 dfbd cdec 6e3d be72 87bd
00000190: 4d73 893d bed4 0fbc 48b0 f1bd 9c21 813d
000001a0: e3d9 693d 2d15 9bbc d6ec acbd 3ecc de3d
000001b0: 3bee abbc 2883 b6bd 3d10 9bbd 7a29 703d
000001c0: 3c7b 98bd 5625 813b a33b 473d c41e 02bd
000001d0: 7810 453d 7578 afbd 443e 923d 18e9 bfbd
000001e0: ede7 b1bc 313d 73bd 936e 13bd ac4a 5f3d
000001f0: 0bb3 e83d 8dce c2bd aa68 bf3c e61a bebd
00000200: 0dee a23a d561 e43d 9101 333d 4828 913d
00000210: f5cb a5bd 2099 09be a34f 293c 1749 c0bd
00000220: 5f5e 25bd ec20 04be 5309 943e 6134 1cbe
00000230: 8c47 e33d 5621 113e 9b99 fb3e ce26 cb3e
00000240: 4052 99bd e464 b43c 2215 a33e ab9a 093e
00000250: 6772 1d3e ac65 653e 6ddd 983e 5ade 943d
00000260: 8b5f c03e ada1 cf3e 2551 b4bd 5d55 cb3e
00000270: f15c 623e 88e3 483c 2e8b a1bd 9963 9d3e
00000280: 7811 673e de4c c33e e81f 00bd ed3d cd3d
00000290: e3da 123e fd4d 703d 76e4 f63c e70f 8e3e
000002a0: 5742 593d d15c cc3e a988 71be 4b74 083e
000002b0: 5460 da3e 5e66 d43e 41a5 36bd f9a5 1cbe
000002c0: 599d 8fbd e230 583d 5113 3b3e a5ce 883e
000002d0: 79d5 4e3e 15bd ef3e fb52 9e3d 9e02 37ba
000002e0: 3d5c f83d 0ae1 523e 7adc 51bd f396 e4bb
000002f0: c2f2 b93e fb36 283e 8d74 873e b315 813e
00000300: 93d6 c9bc 7b80 9e3e a876 1dbc 989d cc3b
00000310: 36de 753e 4c9a 023f 672f 8f3d 5940 02bd
00000320: a6b1 643e e575 7d3e b61d cc3d bfec 303e
00000330: d2eb e13e 7bd6 af3e 91df a03e 9557 c0bc
00000340: 3fde 443d df7c 873e 9ae1 873e 90fd 983e
00000350: 5e4f ab3e 4b13 ab3e bedb 263e 3641 263e
00000360: 1670 05be ce4c 3b3e c2b9 5c3e 5406 883e
00000370: 0d58 103e dff0 043f e35d fc3c 0b11 c33e
00000380: 82b1 c83e d834 b63c f146 24be 4a77 4a3e
00000390: 26c5 613e bb10 613e da63 63bc dabe 7a3e
000003a0: efbb ac3d 933a dd3d 7962 d33e d099 4b3e
000003b0: 93c1 503e 1fb2 b7bc 88a5 d63d 8518 873e
000003c0: a35e 8a3d 1220 c13e 88e4 673e 55c7 323e
000003d0: 7900 c73e fa54 85bd 2402 743e b96d a03d
000003e0: 4676 aa3d b8bd c63d 1454 7a3e 22e9 813d
000003f0: 9b47 b73e 23b5 433e 35f2 ab3e a7bd 8e3e
