a-storage/model_checkpoints/best_lstm_fold_1.pth (torch, 807379 bytes, 10 tensors)

lstm.weight_ih_l0 f4 [512, 4]
0	0x3d89ad04	0.06722453
1	0xbca58ae8	-0.020207837
2	0x3d264b29	0.040599022
3	0x3ddc0856	0.107437775
4	0xbc234b61	-0.009966702
5	0x3db4e63b	0.088329755
6	0xbdc64776	-0.09681599
7	0x3b8ae9a7	0.0042392793
8	0x3d2c3f25	0.042052407
9	0xbd91ad6b	-0.07113155
10	0x3be7dfec	0.007076254
11	0x3d2e04f7	0.042485204
12	0x3cd121e6	0.02552886
13	0xbd257332	-0.040393062
14	0xbc78bae1	-0.015181274
15	0x3c07057d	0.008241055
16	0xbe264492	-0.16237095
17	0xbe2137cc	-0.15743941
18	0x3c31c5a1	0.010850341
19	0xbe122cbc	-0.14274877
20	0x3d767e4d	0.060179044
21	0x3d94fa03	0.072742485
22	0x3e232d6d	0.15935297
23	0x3d86e09c	0.065858096
24	0xbdb05f67	-0.086119466
25	0x3de276d2	0.110578194
26	0x3dc78893	0.09742846
27	0xbc9d0c93	-0.019171035
28	0x3db63c3e	0.08898209
29	0xbcb0be2f	-0.021575062
30	0x3d846aa5	0.06465653
31	0x3e0f01dc	0.13965553
32	0xbd43fbb5	-0.04784747
33	0xbc021f2c	-0.007942002
34	0xbe7f0fa3	-0.24908309
35	0x3d22cd90	0.03974682
36	0xbe3bac9f	-0.18327568
37	0xbe5deede	-0.21673152
38	0xbded41a0	-0.115847826
39	0x3e45d483	0.19319348
40	0x3e4a611c	0.19763607
41	0xbcc9e2ce	-0.024644282
42	0x3db5726a	0.088597134
43	0xbd554ccc	-0.052075192
44	0xbb62205a	-0.0034504146
45	0xbc8d49a0	-0.017247021
46	0x3e347440	0.17622471
47	0x3e9659d6	0.29365414
48	0xbd3aa8be	-0.04557108
49	0x3cf3a903	0.029743677
50	0x3df63088	0.12020975
51	0x3e27626f	0.16346143
52	0xbd84b8f3	-0.06480589
53	0xbdc71436	-0.09720652
54	0x3c9c3bae	0.019071426
55	0x3e23e4dd	0.16005273
56	0xbd97ed24	-0.07418278
57	0x3d5752b4	0.052569106
58	0xbe07a4ac	-0.13246411
59	0x3d1707b6	0.036872588
60	0x3cb2786a	0.021785934
61	0xbe4c7a5f	-0.19968556
62	0x3c90d895	0.0176814
63	0x3d897af9	0.06712908
64	0x39084149	0.00012994291
65	0xbe5629c4	-0.2091437
66	0xbb45b4e7	-0.003016764
67	0xbda707b8	-0.08155769
68	0xbce150a5	-0.027504275
69	0xbd17e5a3	-0.037084233
70	0x3e029106	0.12750635
71	0x3d1ccdec	0.03828232
72	0x3dfa5418	0.12223071
73	0xbe03b612	-0.12862423
74	0xbc8a2fb5	-0.016868452
75	0x3d42b0e2	0.04753197
76	0x3e21a00a	0.15783706
77	0x3c97456b	0.018465718
78	0x3dff056e	0.124522075
79	0x3d16c7ee	0.03681176
80	0xbc8029f6	-0.015645009
81	0xbe4f46f9	-0.20241918
82	0xbe61b8bf	-0.22043131
83	0xbbf25d7a	-0.007396397
84	0x3de2237b	0.110419236
85	0xbd97ab26	-0.07405691
86	0x3d0cf260	0.034410834
87	0x3e3d92ad	0.18512984
88	0x3d80abda	0.06282778
89	0x3c43973f	0.011937915
90	0x3e4cf593	0.20015554
91	0x3e066d15	0.13127549
92	0xbd086f05	-0.033309
93	0xbcc06313	-0.023484742
94	0x3e17e3b4	0.14832956
95	0xbd06ce63	-0.03291167
96	0x3d8b2864	0.06794813
97	0x3c4607e8	0.012086846
98	0x3d8be3d3	0.068305634
99	0x3d4943bf	0.049136873
100	0x3c0fd19f	0.008778005
101	0xbd9f61d5	-0.07782332
102	0x3cd94be6	0.026525449
103	0xbd8645be	-0.06556271
104	0xbdf97c44	-0.12181905
105	0x3cb94cad	0.02261957
106	0xbe08a276	-0.13343224
107	0xbdd175d6	-0.102275535
108	0xbe4986aa	-0.19680277
109	0xbe2865d9	-0.16445102
110	0xbe166197	-0.14685665
111	0x3e02ba5c	0.12766403
112	0x3d17ac68	0.037029654
113	0x3c917bec	0.017759286
114	0x3d9dd150	0.07705939
115	0x3d873d59	0.06603498
116	0xbe41ae78	-0.18914211
117	0xbdf3ddf1	-0.11907566
118	0xbe10fc4d	-0.14158745
119	0xbdc80e14	-0.0976831
120	0xbdfe4e49	-0.124172755
121	0xbdfc5677	-0.12321179
122	0xbe0fa44c	-0.14027518
123	0x3ddd74da	0.10813303
124	0x3cb5a36d	0.022172654
125	0xbe963bf5	-0.2934262
126	0x3dbbda0c	0.091724485
127	0xbd78874b	-0.0606759
128	0xbde6228a	-0.112370566
129	0xbdcbdf08	-0.09954649
130	0xbc3ec944	-0.011644665
131	0xbde340de	-0.11096357
132	0x3dd322e2	0.10309388
133	0xbd09784c	-0.03356199
134	0xbba4e3a1	-0.0050320183
135	0x3e04fb0a	0.12986389
136	0xbdeb2e03	-0.114833854
137	0xbdfde3f7	-0.123969965
138	0xbd7f31fa	-0.06230352
139	0xbe30d2aa	-0.17267862
140	0xbe975ff2	-0.29565388
141	0xbbb8e75a	-0.0056428136
142	0xbe532a40	-0.20621586
143	0x3d5e959c	0.054341897
144	0xbe17134f	-0.1475346
145	0xbce3371b	-0.027736237
146	0xbcb7988e	-0.02241161
147	0x3e1824bf	0.14857768
148	0xbe0020b1	-0.12512471
149	0x3d4a22d7	0.049349632
150	0xbd66b53d	-0.056325186
151	0x3e2c142c	0.1680457
152	0x3db79a14	0.08964935
153	0x3d607fa3	0.054809224
154	0x3de89997	0.1135742
155	0xbdaaf699	-0.08347816
156	0xbe00705d	-0.12542863
157	0xbd964193	-0.07336726
158	0xbe097975	-0.13425238
159	0xbd1fa689	-0.03897718
160	0xbe286161	-0.16443397
161	0xbdbdb1d7	-0.09262436
162	0xbd0f9842	-0.035057314
163	0xbdbe7565	-0.09299735
164	0xbbf5841e	-0.0074925562
165	0x3d1dc574	0.038518384
166	0xbd2d69bf	-0.042337175
167	0x3dcbf6ee	0.099592075
168	0xbe65cf86	-0.22442445
169	0x3d86d7c6	0.06584124
170	0xbcc89dcf	-0.024489312
171	0x3e5adc51	0.21373107
172	0xbcdfb7dd	-0.027309353
173	0xbd054d9b	-0.032544713
174	0x3dda3be5	0.10655955
175	0x3e65727f	0.22406958
176	0x3cebc4e9	0.028780418
177	0xbe35e238	-0.17762077
178	0xbda68390	-0.08130562
179	0xbb4e6327	-0.0031492205
180	0x3cf98dd9	0.030463146
181	0x3ca0a907	0.019611849
182	0x3dcdfbcd	0.10057793
183	0xbdba5a08	-0.09099203
184	0x3e185327	0.1487547
185	0xbd74e374	-0.05978723
186	0x3d6b821f	0.05749714
187	0xbd11c49c	-0.035587892
188	0x3e27be92	0.1638129
189	0x3cec24e5	0.028826186
190	0x3c3d369d	0.011548665
191	0xbe1718f1	-0.14755608
192	0x3dc0d110	0.094148755
193	0xbde78636	-0.113048956
194	0xbd5a39e9	-0.053277884
195	0x3d2726fd	0.040808666
196	0xbbca4025	-0.0061721974
197	0x3d3d2730	0.04617995
198	0x3def9662	0.11698605
199	0x3d6c1a58	0.05764231
200	0x3c3fd35c	0.011708107
201	0xbddfa19c	-0.109194964
202	0x3c15bc0b	0.009139071
203	0x3d85f710	0.06541264
204	0xbe13cf57	-0.14434563
205	0x3d0f2561	0.034947757
206	0xbda3570f	-0.079755895
207	0x3dd1af00	0.10238457
208	0xbdb0d5cf	-0.08634531
209	0x3d84bb04	0.06480983
210	0x3c65efbb	0.014034207
211	0x3b30adfa	0.0026959167
212	0xbe5afb7b	-0.21384995
213	0xbde1551a	-0.1100256
214	0xbdf466e5	-0.11933688
215	0x3eca2458	0.39480853
216	0x3d8b6864	0.0680702
217	0xbe5cff56	-0.21581778
218	0xbd40785a	-0.046989776
219	0x3e328a13	0.17435484
220	0x3d3773ab	0.044788044
221	0xbe1c82ac	-0.15284222
222	0x3d1806a9	0.037115727
223	0xbd67f426	-0.056629322
224	0x3cba41f8	0.022736534
225	0xbcd74877	-0.026279671
226	0x3ca4dff8	0.020126328
227	0x3e51a4a7	0.20472966
228	0xbe61ffaa	-0.22070184
229	0xbcc71bcf	-0.024305252
230	0xbe2c3564	-0.16817242
231	0x3e6562e0	0.22400999
232	0xbc97fea3	-0.018554037
233	0xbc985f50	-0.018600136
234	0xbdc28f4c	-0.09499988
235	0x3db84448	0.089973986
236	0xbee25f42	-0.442133
237	0xbd96ef01	-0.07369805
238	0x3d4d3031	0.050094787
239	0x3db52439	0.088447995
240	0xbded9bd5	-0.11601988
241	0xbc5e9e89	-0.013587602
242	0xbbb8b36d	-0.0056366236
243	0x3d7b1caa	0.061306633
244	0xbe0a507b	-0.13507263
245	0x3c07ae4d	0.008281303
246	0xbe44a087	-0.19201861
247	0xbe055adc	-0.13022941
248	0xbcc59d64	-0.024122901
249	0xbe325a37	-0.17417227
250	0xbbf02fc4	-0.007329913
251	0xbdce549d	-0.100747325
252	0xbdd27e05	-0.102779426
253	0xbcc923f8	-0.024553284
254	0xbe75f31e	-0.24018523
255	0x3ce2cdb3	0.027685976

lstm.weight_hh_l0 f4 [512, 128]
0	0xbc898c99	-0.016790675
1	0x3d87f53a	0.0663857
2	0x3e3aa543	0.18227105
3	0xbc2f67dc	-0.010705914
4	0x3d30b982	0.043145664
5	0xbdc3ef6f	-0.09567153
6	0xbdbd5e72	-0.0924653
7	0x3dac0959	0.084002204
8	0xbcd5f2d2	-0.026116762
9	0xbb1e77d7	-0.0024180317
10	0x3d1eebd1	0.03879911
11	0xbe89bb94	-0.26900923
12	0x3d746452	0.059665985
13	0xbd34aaaa	-0.04410807
14	0xbd9c7e2c	-0.07641253
15	0x3d61ea6e	0.05515521
16	0xbdd1a518	-0.10236567
17	0xbd0322cb	-0.032015603
18	0xbd8f65da	-0.070018485
19	0xbb413971	-0.00294837
20	0x3d834b41	0.06410838
21	0xbd82c517	-0.06385248
22	0xbb869a7d	-0.004107772
23	0xbd190096	-0.037354074
24	0x3cea0d86	0.028570902
25	0xbc314520	-0.010819703
26	0x3d5ba4d5	0.053623993
27	0x3c97af2e	0.01851615
28	0xbd588170	-0.052857816
29	0xbcf574d7	-0.02996294
30	0x3c3dd6f4	0.011586893
31	0x3bf49c6b	0.0074649355
32	0x3c9a3d45	0.018828044
33	0x3cf1272c	0.029437624
34	0x3ccd8304	0.025086887
35	0xbdc63080	-0.096772194
36	0xb978b551	-0.00023718669
37	0xbe1b7b6b	-0.15183799
38	0x3c73ab52	0.014872389
39	0x3d635873	0.055504274
40	0x3d3c5e88	0.04598859
41	0x3dfd0f6a	0.123564556
42	0xbd60cac9	-0.05488089
43	0x3ac51b25	0.0015037997
44	0xbcaaa74a	-0.020831723
45	0x3dcc1f5f	0.09966921
46	0x3dcf8278	0.10132307
47	0xbdc6a7c2	-0.09699966
48	0xbd0dc39e	-0.034610383
49	0xbd496c46	-0.049175523
50	0xbdaab060	-0.08334422
51	0x3ccd2de1	0.02504629
52	0xbd94add3	-0.07259717
53	0xbdab0334	-0.0835022
54	0x3da4a5e8	0.080394566
55	0xbd985fd2	-0.07440151
56	0xbc89e1bf	-0.016831277
57	0x3bb75ea2	0.005595998
58	0xbd2d1dcc	-0.042264745
59	0x3e2d1240	0.16901493
60	0xbd1498f1	-0.03627867
61	0xbe04cf6c	-0.1296975
62	0x3d7fe47c	0.06247376
63	0x3db894db	0.09012767
64	0x3dc8e228	0.09808761
65	0xbbf4b198	-0.00746746
66	0xbdb505de	-0.0883901
67	0xbe4c8377	-0.19972025
68	0xbd564dc3	-0.052320253
69	0x3e9253bc	0.2857951
70	0x3d6eebb4	0.058330253
71	0xbc8c8cfd	-0.017157072
72	0x3bd28fd9	0.0064258394
73	0xbcdec19f	-0.027191935
74	0xbdaebc38	-0.08531994
75	0x3cccea54	0.02501408
76	0xbdbdf590	-0.09275353
77	0xbe90bd94	-0.28269637
78	0xbd621ff5	-0.055206258
79	0x3dbc024b	0.09180125
80	0xbe555fed	-0.20837374
81	0xbd4f83e6	-0.050662898
82	0xbd0bcbf3	-0.034130048
83	0x3c218e16	0.009860536
84	0x3d2aea5c	0.04172741
85	0xbcb004a5	-0.02148659
86	0xbd9c4967	-0.07631188
87	0x3e05b9aa	0.13059106
88	0x3d95645e	0.07294534
89	0xbe77730f	-0.24164985
90	0xbb65860d	-0.0035022527
91	0x3d051fb5	0.03250094
92	0x3ccc65e9	0.024950938
93	0x3cf44b25	0.029820988
94	0xbcaf1d71	-0.021376343
95	0xbd8860a3	-0.06659057
96	0x3cc5bd58	0.024138138
97	0x3c8a6d9b	0.016897967
98	0x3e5d89f1	0.21634652
99	0x3d249aa1	0.040186528
100	0xbbf10831	-0.007355713
101	0x3c40afb6	0.011760643
102	0xbd3d0082	-0.046143062
103	0x3d6759cb	0.056482118
104	0xbda5a553	-0.08088174
105	0x3d65ec56	0.05613359
106	0x3d591703	0.05300046
107	0xbcb85684	-0.022502191
108	0x3d8399f9	0.06425852
109	0xbe578db8	-0.21050155
110	0xbd8a034b	-0.06738909
111	0x3d3f936e	0.04677146
112	0xbdb34292	-0.08752932
113	0x3dd5c7ca	0.10438497
114	0xbdb26b77	-0.087119035
115	0xbd22d1cd	-0.039750863
116	0x3dbf60c7	0.09344631
117	0x3b93aa55	0.004506389
118	0x3b4db920	0.003139086
119	0x3d93e53c	0.07221457
120	0xbdb1a920	-0.08674836
121	0x3d509091	0.05091912
122	0x3d07ac2c	0.03312318
123	0x3e0a7ff7	0.13525377
124	0x3db44a49	0.08803231
125	0x3bc2b38a	0.005941813
126	0xbba38065	-0.004989671
127	0x3c9c6928	0.019093111
128	0xbdd5be37	-0.10436671
129	0xbdebce86	-0.115140006
130	0x3d82112f	0.06350934
131	0xbd2a4c26	-0.041576527
132	0x3dbf7599	0.09348602
133	0xbd120b49	-0.035655294
134	0x3d7eea11	0.062234942
135	0x3db14bbf	0.086570255
136	0xbccadfa8	-0.02476485
137	0xbd9463b5	-0.0724558
138	0xbdf13653	-0.1177794
139	0xbdae5895	-0.085129894
140	0x3d2fa59d	0.04288255
141	0x3c0e95df	0.008702724
142	0x3df39095	0.11892811
143	0xbe4366a2	-0.1908212
144	0xbda519df	-0.08061575
145	0x3e2e7bf7	0.17039476
146	0xbe58d1c8	-0.21173775
147	0x3d8a9ed2	0.06768574
148	0x3e4359fd	0.19077297
149	0xbcbf9b5d	-0.023389513
150	0x3e134174	0.14380437
151	0xbde9e2e8	-0.11420232
152	0xbcb1b0be	-0.021690723
153	0xbcf3e3f1	-0.029771777
154	0x3d71c0e3	0.05902184
155	0x3d3ae0cf	0.04562455
156	0xbda774b0	-0.08176553
157	0x3de8209d	0.113343455
158	0xbdef7170	-0.11691558
159	0xbd962055	-0.073303856
160	0xbe2fbed5	-0.1716264
161	0x3b687f63	0.003547632
162	0xbd994489	-0.07483775
163	0x3c482bec	0.012217503
164	0x3e29bd59	0.16576137
165	0xbcf7e638	-0.030261144
166	0x3df83920	0.12120271
167	0xbdddbbfe	-0.10826872
168	0x3caf88de	0.021427568
169	0x3e4287bd	0.18997093
170	0x3cba1f02	0.022719864
171	0xbda0fc04	-0.07860568
172	0xbc9854e1	-0.01859516
173	0x3c943f45	0.018096576
174	0x3cb86bff	0.022512434
175	0xbd5f65f7	-0.0545406
176	0x3ddc4185	0.10754684
177	0xbd901552	-0.070353165
178	0x3d40d941	0.04708219
179	0xbb93de83	-0.0045126094
180	0xbd8a8454	-0.06763521
181	0x3c52150f	0.012822404
182	0x3e01bf24	0.1267057
183	0x3e29144a	0.16511646
184	0xbddbcdbf	-0.10732602
185	0x3e15a480	0.14613533
186	0x3e4d4461	0.20045616
187	0x3c65b231	0.014019535
188	0x3d1019c9	0.03518084
189	0x3dbe6a6d	0.09297643
190	0xbc0d79ca	-0.008634994
191	0x3c223f49	0.009902784
192	0xbd505fa5	-0.050872464
193	0x3d160971	0.036630098
194	0x3c82a515	0.015947858
195	0xbe0be7ed	-0.13662691
196	0xbccfe225	-0.025376389
197	0x3e1aeb80	0.15128899
198	0xbd1dc525	-0.03851809
199	0x3d659a20	0.05605519
200	0x3d900f3e	0.07034157
201	0xbdbf2f81	-0.093352325
202	0xbcfd427a	-0.030915488
203	0x3d3ae340	0.04562688
204	0xbaf85ee4	-0.0018949178
205	0xbd8b29f0	-0.06795108
206	0x3d1c21f4	0.038118318
207	0xbdf8b76c	-0.1214436
208	0xbd2badf0	-0.041913927
209	0x3e2fb092	0.171572
210	0xbcce6bc6	-0.025197875
211	0xbe752911	-0.23941447
212	0xbd4f94d0	-0.050679028
213	0x3e19d751	0.15023543
214	0x3d98a901	0.0745411
215	0x3dbab47c	0.09116456
216	0x3e501de3	0.20323901
217	0x3d84e127	0.06488257
218	0x3e03b32f	0.12861322
219	0xbdf7e901	-0.12104989
220	0x3dba7211	0.09103788
221	0x3e06a219	0.13147773
222	0xbc46beef	-0.012130483
223	0x3dd09c87	0.10186105
224	0x3e0b19ff	0.13584135
225	0x3e4b5c92	0.19859532
226	0x3ce012b0	0.02735266
227	0x3d22ac23	0.039714944
228	0xbe158594	-0.14601737
229	0xbe276b95	-0.16349633
230	0xbd63c89c	-0.055611238
231	0x3c2a2556	0.010384878
232	0xbb27fd4d	-0.0025633157
233	0x3e30bd32	0.17259672
234	0xbd263362	-0.040576346
235	0xbd5372bd	-0.051623095
236	0x3e6434cb	0.22285764
237	0xbd2f16d0	-0.042746365
238	0xbda45acf	-0.08025133
239	0x3c1e531e	0.009663371
240	0xbc8afb06	-0.0169654
241	0x3cc55d97	0.024092479
242	0x3d20a5a7	0.03922048
243	0xbe0a7f95	-0.13525231
244	0xbced443c	-0.0289632
245	0x3d80bf39	0.06286473
246	0x3c3bc9db	0.0114617
247	0x3e3a63f8	0.18202198
248	0xbd1fe63b	-0.039037924
249	0xbda3c506	-0.079965636
250	0x3dc95143	0.098299526
251	0x3dbe0d3a	0.092798665
252	0x3d595fab	0.05306975
253	0x3e07c9df	0.13260601
254	0xbd8c724d	-0.06857739
255	0xbc8bdf3e	-0.017074224

lstm.bias_ih_l0 f4 [512]
0	0xbda1a9a2	-0.07893683
1	0x3d298d09	0.041394267
2	0xbda0f35d	-0.07858918
3	0xbdfd1abc	-0.12358615
4	0xbdc67ba5	-0.09691552
5	0xbb676b7c	-0.0035311868
6	0xbda38fc4	-0.079864055
7	0xbda7ecb4	-0.081994444
8	0x3caea9a3	0.021321123
9	0xbdbaef30	-0.09127653
10	0xbdeb8601	-0.115001686
11	0xbd95cf36	-0.07314913
12	0xbd02b9b2	-0.031915374
13	0xbde6e48b	-0.1127406
14	0x3bca3c70	0.0061717555
15	0x3d4a20da	0.049347736
16	0xbdd4434b	-0.103643976
17	0xbe46545d	-0.1936812
18	0xbdba4b55	-0.090964
19	0xbcda16f7	-0.026622279
20	0x3d4a5ffa	0.049407937
21	0xbd4c06f2	-0.04981131
22	0x3cce9fc2	0.025222663
23	0xbcb4c985	-0.022068748
24	0xbd286b0f	-0.041117724
25	0xbdb57e6d	-0.088620044
26	0xbd166087	-0.03671315
27	0x3cc10265	0.023560712
28	0xbe5444e3	-0.20729403
29	0xbd34e1e9	-0.044160757
30	0x3cf5162a	0.029917795
31	0x3dbb6144	0.09149411
32	0xbddbf301	-0.10739709
33	0x3c46787f	0.012113689
34	0xbda0b047	-0.07846122
35	0xbdf77af2	-0.12083997
36	0xbdbfccc7	-0.0936523
37	0xbd61269e	-0.05496847
38	0xbe20c7dd	-0.15701242
39	0x3a93ebb3	0.0011285454
40	0xbdad74ac	-0.08469519
41	0xbd76ed5f	-0.06028497
42	0x3cea70b3	0.028618192
43	0xbdde5ee5	-0.108579434
44	0x3d7c73ad	0.061633755
45	0xbdee04df	-0.11622023
46	0xbc998cba	-0.018743861
47	0xbde49202	-0.11160661
48	0xbdb7614b	-0.08954104
49	0xbdd85f05	-0.105649985
50	0xbda6a664	-0.08137205
51	0xbd7f5c62	-0.062343962
52	0xbdc9c101	-0.09851266
53	0x3d56196b	0.052270334
54	0xbcacca8c	-0.021092676
55	0xbe198f94	-0.14996177
56	0xbd307d08	-0.04308799
57	0x3d57f696	0.052725397
58	0x3cf6595a	0.030071903
59	0xbd1a29e6	-0.037637614
60	0x3ccda8f7	0.025104983
61	0x3b782370	0.003786292
62	0xbd2b46c7	-0.041815545
63	0xbe275bb9	-0.16343583
64	0xbdf0fb24	-0.11766651
65	0x3cb13c8c	0.021635316
66	0x3c3efcef	0.011656984
67	0xbd22a185	-0.03970482
68	0xbc5659a4	-0.013082895
69	0xbcbd68d2	-0.023121271
70	0x3d069151	0.03285343
71	0xbd7dabff	-0.061931606
72	0x3e1c7ae4	0.15281254
73	0xba381ea4	-0.0007023609
74	0x3e4dda70	0.20102859
75	0xbd922117	-0.07135218
76	0xbda29811	-0.079391606
77	0xbc47bd6e	-0.01219116
78	0x3ca0a059	0.01960771
79	0x3c9cc7f5	0.019138316
80	0xbe145756	-0.14486441
81	0xbdd6668c	-0.10468778
82	0xbdb05ff8	-0.086120546
83	0xbe143608	-0.14473736
84	0x3cf827b2	0.030292366
85	0x3d860d55	0.06545512
86	0xbe15d474	-0.14631826
87	0xbda5e98b	-0.081011854
88	0xbd96375c	-0.07334778
89	0x3c32615a	0.010887468
90	0xbdbd816d	-0.09253202
91	0xbb17b0fb	-0.002314626
92	0xbe07db57	-0.13267265
93	0xbc201dc9	-0.009772726
94	0xbd07d2ec	-0.033160135
95	0x3d4efbc1	0.05053306
96	0xbe14e757	-0.14541374
97	0xbdb44a42	-0.08803226
98	0xbdd32947	-0.103106074
99	0xbe0e5e3e	-0.13903138
100	0xbddea883	-0.10871985
101	0xbe045596	-0.12923273
102	0xbce98cfc	-0.02850961
103	0x3e009e72	0.12560442
104	0xbd7456a3	-0.059652936
105	0x3d9f8cb3	0.07790508
106	0xbcf56220	-0.029954016
107	0x3c10f92a	0.008848468
108	0xbdee8f95	-0.1164848
109	0xbc5e1a2b	-0.013556044
110	0xbd8cf3dc	-0.0688245
111	0xbcb643f8	-0.022249207
112	0xbdebd8bb	-0.115159474
113	0x3be71bfc	0.0070528965
114	0x3d117051	0.035507504
115	0xbdbf98a6	-0.09355287
116	0xbd5caca7	-0.05387559
117	0xbd9887d6	-0.07447784
118	0x3cc9aef9	0.024619566
119	0xbcb2fa37	-0.021847827
120	0xbe366ff2	-0.17816141
121	0xbdbd88ce	-0.09254609
122	0x3abd39c7	0.0014436775
123	0xbddbb62b	-0.10728105
124	0xbd57b5c9	-0.0526636
125	0x3b8cfe30	0.0043027624
126	0xbe21bd37	-0.15794836
127	0xbdc8da71	-0.098072894
128	0xbd88cf65	-0.06680182
129	0x3e599389	0.21247686
130	0xbd6a1bfd	-0.057155598
131	0x3e1008b1	0.14065816
132	0x3d0bdf68	0.034148604
133	0x3d1f08cf	0.03882676
134	0x3e82daeb	0.25557646
135	0xbd13bb76	-0.03606745
136	0x3cf99037	0.030464275
137	0xbe0587f1	-0.13040139
138	0x3e1292d6	0.14313826
139	0x3e8964d8	0.2683475
140	0x3b79d1d9	0.0038119464
141	0xbdcbad97	-0.09945219
142	0x3cabbad6	0.020963114
143	0xbe24b567	-0.16084825
144	0x3d329a37	0.043604102
145	0xbd3d449a	-0.046208
146	0xbc9c207a	-0.019058455
147	0x3cdadbfa	0.026716221
148	0x3e23f522	0.1601148
149	0x3d43046d	0.047611643
150	0x3dac038c	0.08399114
151	0xbd12b75e	-0.035819404
152	0x3e1e37b5	0.15450938
153	0x3e09585e	0.13412616
154	0x3d992fb5	0.074798025
155	0x3b52cdac	0.0032166047
156	0xbdaeaeae	-0.08529411
157	0x3d192df9	0.03739736
158	0xbdaf314a	-0.08554323
159	0xbe2567ce	-0.1615288
160	0xbb9c8cbc	-0.004777519
161	0xbd96e7c2	-0.07368423
162	0x3a2ceb44	0.00065963366
163	0x3b2bd9b9	0.0026222302
164	0x3c9093d4	0.017648615
165	0x3c52bf05	0.012862925
166	0xbc87c645	-0.016574034
167	0x3e126b5d	0.14298768
168	0x3c608360	0.013703197
169	0xbce63ed2	-0.028106127
170	0x3da65e77	0.081234865
171	0xbae7989c	-0.0017669383
172	0xbd00e71a	-0.031470396
173	0xbd381b2d	-0.04494779
174	0xbbfcd435	-0.0077157267
175	0x3e57827c	0.2104587
176	0x3d19f7ba	0.037589766
177	0x3c29f8ee	0.010374291
178	0x3c750ef1	0.014957176
179	0x3ce7ace6	0.028280687
180	0xbd5cdfad	-0.05392425
181	0xbd6e9761	-0.058249835
182	0x3d935696	0.07194249
183	0xbd8f244a	-0.069893435
184	0x3dbe69e9	0.092975445
185	0x3e05346c	0.13008279
186	0x3d0f0da8	0.034925133
187	0xbd9960e9	-0.07489187
188	0xbd5c0b10	-0.053721488
189	0xbdafc6d5	-0.08582846
190	0xbbddb06c	-0.006765416
191	0x3ca8ea33	0.020619487
192	0xbd6d7ddf	-0.05798137
193	0xbd863571	-0.06553162
194	0x3d9017fa	0.07035823
195	0x3d46fac7	0.048579004
196	0xbdbee446	-0.093208835
197	0x3df30161	0.118654974
198	0x3c31b002	0.010845186
199	0xbdae80a4	-0.0852063
200	0xbe2db28c	-0.16962641
201	0xbd0dcf80	-0.034621716
202	0xbc869781	-0.016429665
203	0xbd4fbf17	-0.050719347
204	0xbcfd1b2d	-0.030896747
205	0x3e0f7281	0.14008524
206	0x3bab3b29	0.0052255583
207	0xbb65a395	-0.003504013
208	0xbd65a2d6	-0.056063496
209	0x3e54c468	0.20778048
210	0x3dabf77f	0.083968155
211	0x3e94834e	0.29006428
212	0xbd8f132a	-0.06986077
213	0xbd541fbb	-0.051788073
214	0x3d879a19	0.06621189
215	0xbcdfe551	-0.027331026
216	0xbcd0090a	-0.025394935
217	0x3dd22ab9	0.10262055
218	0x3cd4e4be	0.025987979
219	0xbd8fadbd	-0.0701556
220	0xbc7faf93	-0.015605825
221	0x3d374f7c	0.044753537
222	0x3dccaecb	0.099942766
223	0xbc8922fe	-0.016740318
224	0xbda0a989	-0.07844836
225	0xbcdc567d	-0.02689671
226	0x3dc692f8	0.09696001
227	0xbc0766c4	-0.008264247
228	0xbd962310	-0.073309064
229	0xbe0cf329	-0.13764633
230	0xbd042dd4	-0.032270268
231	0x3e3acba9	0.18241753
232	0xbdddebd7	-0.108359985
233	0x3e72c663	0.23708491
234	0x3ca9dd40	0.020735383
235	0x3deccb39	0.11562199
236	0x3d46c418	0.048526853
237	0xbde810ff	-0.11331367
238	0xbd63bd79	-0.055600617
239	0x3daa656e	0.083201274
240	0xbd88da37	-0.06682246
241	0x3d5236fe	0.051321976
242	0xbca7e6ac	-0.020495735
243	0x3d1642a3	0.036684643
244	0x3dcd60c8	0.10028225
245	0xbd903570	-0.070414424
246	0x3d46d95d	0.048547138
247	0x3dacaf36	0.08431856
248	0xbdd3191c	-0.103075236
249	0xbd516957	-0.05112585
250	0x3db701b0	0.08935869
251	0x3e176aee	0.14786884
252	0xbd2c1710	-0.04201418
253	0x3da60cbb	0.08107897
254	0xbd20c98d	-0.039254714
255	0xbbfb041f	-0.0076604034

lstm.bias_hh_l0 f4 [512]
0	0x3aaad5b7	0.0013033663
1	0x3cf42fbf	0.029807923
2	0xbcfd4f82	-0.030921701
3	0xbe161d22	-0.14659551
4	0xbe36335c	-0.1779303
5	0x3c3d213e	0.01154357
6	0xbc7d1c9b	-0.015448715
7	0x3c932838	0.017963514
8	0xbb16f4ce	-0.0023034099
9	0xbc8bfa99	-0.017087268
10	0xbcf2d064	-0.029640384
11	0x3c29cfdd	0.0103645
12	0xbd8de688	-0.06928736
13	0xbd7c4d2c	-0.061597034
14	0xbd0b5ed9	-0.034026
15	0x3e03f8e6	0.12887916
16	0xbd4ac55c	-0.049504623
17	0xbd40100b	-0.0468903
18	0xbcfe23d3	-0.031022942
19	0xbd5b0ae9	-0.0534772
20	0x3dcdb348	0.10043961
21	0xbe045dfa	-0.12926474
22	0xbda4b997	-0.08043211
23	0xbdf410f2	-0.119172946
24	0xbc967bbf	-0.018369554
25	0xbdbf0a21	-0.09328104
26	0xbce1a781	-0.027545692
27	0xbc575cfd	-0.013144729
28	0xbdf65b0b	-0.12029084
29	0xbe011232	-0.12604597
30	0xbd0f84ae	-0.035038643
31	0x3dd85ab4	0.10564175
32	0xbe07fd1a	-0.13280144
33	0xbd7a15e9	-0.06105605
34	0xbe44f7b1	-0.19235112
35	0xbe13dd04	-0.1443978
36	0xbd86cfcb	-0.06582602
37	0x3da7f7e2	0.08201577
38	0xbd0e03a3	-0.034671437
39	0xbda226aa	-0.07917531
40	0x3c477986	0.01217497
41	0x3c86c548	0.016451493
42	0xbdaf81ec	-0.085697025
43	0xbe028abe	-0.12748238
44	0x3d892a0b	0.06697472
45	0xbe225b75	-0.158552
46	0xbdb84da1	-0.089991815
47	0xbd0b4b0e	-0.034007125
48	0xbdb6e451	-0.08930267
49	0xbdd23d69	-0.10265619
50	0xbe1ff30e	-0.15620062
51	0x3cd07c40	0.025449872
52	0xbcf0dcc2	-0.02940214
53	0x3ce4117b	0.027840367
54	0xbc5c2f44	-0.013439003
55	0xbcce50cc	-0.025185011
56	0xbc3630b1	-0.011120007
57	0x3e018d61	0.12651588
58	0xbde065f9	-0.1095695
59	0xbce5ee79	-0.028067814
60	0xbde03afc	-0.109487504
61	0xbd6566c5	-0.05600621
62	0xbc3ac316	-0.011399051
63	0xbe1cedcc	-0.15325087
64	0xbd371f43	-0.044707548
65	0xbcc62725	-0.024188587
66	0xbdeb3d11	-0.11486257
67	0x3c0a8e1a	0.008456731
68	0x3c3fbb5f	0.011702388
69	0xbe14cd5c	-0.14531463
70	0x3d8ed239	0.069736905
71	0xbdae8dc6	-0.08523135
72	0x3d41deb5	0.04733153
73	0xbc4b73fc	-0.01241779
74	0x3e03d941	0.12875845
75	0x3c8134f1	0.015772315
76	0x3d50cd8e	0.050977282
77	0xbd0de800	-0.03464508
78	0xbce2bf9f	-0.027679263
79	0xbd49e105	-0.04928686
80	0xbbb3d5bb	-0.005488125
81	0x3c5c59cc	0.013449144
82	0x3c1f89a1	0.009737403
83	0xbd9a1f96	-0.07525556
84	0xbbb7ca2d	-0.005608818
85	0x3d1d6b8c	0.038432643
86	0xbdfd7459	-0.12375707
87	0xbde5b0b5	-0.11215345
88	0x3ccf7258	0.025323078
89	0xbd93ed08	-0.072229445
90	0xbdd8aede	-0.10580228
91	0x3d6a2226	0.057161473
92	0xbd526373	-0.051364373
93	0xbafd6e50	-0.0019335244
94	0xbdc442f7	-0.09583085
95	0x3c3dfe69	0.011596301
96	0xbd415bd7	-0.047206726
97	0xbd5ad842	-0.053428896
98	0xbd749a0b	-0.05971722
99	0x3c338ad1	0.010958389
100	0x3d16d6d3	0.036825966
101	0xbe47331a	-0.19453087
102	0xbd08bad6	-0.033381306
103	0x3ca7b755	0.020473162
104	0xbdab5167	-0.08365136
105	0x3d2c5a42	0.042078264
106	0x3cf94b50	0.03043142
107	0x3d2ca4e5	0.042149443
108	0xbdde6c13	-0.10860457
109	0xbd329e3a	-0.043607928
110	0xbe137ff9	-0.14404286
111	0xbceca4d6	-0.028887194
112	0xbd455046	-0.048172258
113	0xbdbae100	-0.091249466
114	0xbdf0151c	-0.11722776
115	0xbe0fe36a	-0.14051595
116	0xbad9cecf	-0.001661742
117	0xbd956e01	-0.07296372
118	0xbd2bfa73	-0.041986894
119	0xbc893d69	-0.016752915
120	0xbdf22df3	-0.1182517
121	0xbc4a71ae	-0.012356205
122	0xbcabf48d	-0.020990634
123	0xbcb7164d	-0.022349501
124	0xbdafa500	-0.08576393
125	0xbd80aa56	-0.06282489
126	0xbd707527	-0.058705475
127	0x3d282b91	0.041057173
128	0x3c842d0e	0.016134765
129	0x3e800d6b	0.25010237
130	0x3dda78d2	0.10667576
131	0x3c093b3e	0.008375941
132	0x3d6b837e	0.057498448
133	0xbc17c3eb	-0.009263019
134	0x3e2865d8	0.164451
135	0xbc31f010	-0.010860458
136	0x3df21282	0.11819936
137	0xbd09c428	-0.033634335
138	0x3df6e943	0.1205621
139	0x3e9a793d	0.30170622
140	0x3b64ee65	0.0034932133
141	0xbda18123	-0.07885959
142	0xbdaefd62	-0.08544423
143	0xbe0c61d8	-0.137092
144	0x3d920f98	0.071318805
145	0x3d83d720	0.06437516
146	0xbe08acc8	-0.13347161
147	0x3ba9055a	0.0051581087
148	0x3e17709f	0.14789055
149	0xbd087d1f	-0.03332245
150	0xbca9ea1d	-0.020741517
151	0xbcdb2b87	-0.026754154
152	0x3e04fb72	0.12986544
153	0x3d88d259	0.06680746
154	0x3d8e2d43	0.06942227
155	0x3dbd3b4d	0.09239826
156	0x3d704d0b	0.058667224
157	0x3e00c6a9	0.12575783
158	0xbdd07bf5	-0.10179893
159	0xbe213b08	-0.15745175
160	0x3d8a0006	0.06738286
161	0xbdc3c8f7	-0.095598154
162	0x3cd981e1	0.026551189
163	0xbc60f0b1	-0.01372926
164	0xbd10d089	-0.035355125
165	0x3d377609	0.0447903
166	0x3cbb030e	0.022828605
167	0x3e2987f7	0.16555773
168	0x3d68dc75	0.05685087
169	0xbd8e7a64	-0.06956938
170	0x3d970e70	0.073758006
171	0x3cec8be2	0.028875295
172	0xbd438ddc	-0.04774271
173	0xbd9d6c03	-0.07686617
174	0x3d1ec227	0.038759377
175	0x3e4aa137	0.19788061
176	0x3d03a651	0.032141034
177	0xbd2043c6	-0.039127134
178	0x3cb97433	0.022638416
179	0x3cd86b85	0.026418457
180	0x3dc1f1c4	0.09469941
181	0x3daa5527	0.08317023
182	0x3e031423	0.1280065
183	0xbc33e822	-0.010980638
184	0x3d5571a2	0.05211032
185	0x3e7ddc9a	0.24791184
186	0x3c4363a4	0.011925612
187	0xbd81b18c	-0.063326925
188	0xbe08ba9d	-0.13352437
189	0xbd91b8c9	-0.07115323
190	0x3d719fa8	0.05899015
191	0x3cc68501	0.024233343
192	0xbd0bdc81	-0.034145836
193	0xbdb044a4	-0.08606842
194	0x3d60ddbb	0.05489896
195	0x3c9082fd	0.017640585
196	0xbc80f065	-0.015739629
197	0x3da49bf7	0.080375604
198	0xbbfe815c	-0.0077668857
199	0xbd18dd7d	-0.037320603
200	0xbe2e0adb	-0.16996329
201	0x3cccfba4	0.025022335
202	0xbb8b0d06	-0.004243496
203	0xbd25f35a	-0.04051528
204	0x3d81e81d	0.063431
205	0x3de1f792	0.110335484
206	0xbd2eb5e0	-0.04265392
207	0x3b05e5be	0.0020431126
208	0x3d137a0d	0.03600507
209	0x3dc3619b	0.09540101
210	0x3daf7a41	0.0856824
211	0x3e82c555	0.25541177
212	0x3d471c87	0.04861119
213	0xbdc03439	-0.09384961
214	0x3ba09d5b	0.0049015707
215	0xbd7f63de	-0.0623511
216	0xbd48239d	-0.04886209
217	0x3c9aef7e	0.018913027
218	0x3d7cbb78	0.06170222
219	0xbded48db	-0.11586162
220	0xbd8e7c49	-0.06957299
221	0x3d63e765	0.055640597
222	0x3d16208a	0.036652125
223	0x3cbc572d	0.022990787
224	0xbd0a53ba	-0.033771254
225	0x3d43752d	0.04771917
226	0x3da17cb2	0.07885112
227	0xbcfad29d	-0.030618006
228	0xbd582b46	-0.052775644
229	0xbde99a33	-0.11406364
230	0x3b1d3cbb	0.0023992497
231	0x3e156680	0.14589882
232	0xbde5e326	-0.11224966
233	0x3e6d2f8e	0.23162672
234	0x3d9e15f8	0.07719034
235	0x3e49a18f	0.19690536
236	0xbce4d53a	-0.027933706
237	0xbc8de3e9	-0.01732059
238	0xbd41674d	-0.047217656
239	0x3dade337	0.084906034
240	0xbd76b259	-0.06022868
241	0xbd0cd683	-0.03438426
242	0x3bb81a90	0.005618401
243	0xba105295	-0.000550547
244	0x3e3aff4a	0.18261448
245	0xbd14c158	-0.0363172
246	0x3d0f0e6a	0.034925856
247	0x3ca08504	0.019594677
248	0xbcdefd61	-0.02722043
249	0x3c1e913b	0.00967818
250	0x3c8eebd9	0.017446445
251	0x3e097905	0.13425072
252	0xbb7bea0b	-0.003843906
253	0xbd1ec92d	-0.038766075
254	0x3c92f909	0.017941015
255	0x3d9c599b	0.076342784

lstm.weight_ih_l1 f4 [512, 128]
0	0x3e1e2238	0.15442741
1	0x3e68a01d	0.22717328
2	0xbb10eaa3	-0.002211251
3	0x3d5375cb	0.051626008
4	0x3e70702b	0.23480289
5	0xbdae0024	-0.084961206
6	0xbd12fcb1	-0.035885517
7	0xbcaef51c	-0.021357112
8	0x3cd71b9e	0.026258286
9	0x3e326cc5	0.17424305
10	0x3ca1c95b	0.019749334
11	0x3d738798	0.059455484
12	0x3980ddb8	0.00024579256
13	0xbc5df67e	-0.013547538
14	0xbd8d9f02	-0.06915094
15	0x3e4a7261	0.19770195
16	0x3dd6f04b	0.10495051
17	0x3c770cda	0.015078748
18	0xbc669384	-0.014073256
19	0x3d8ee559	0.06977338
20	0xbde6d86c	-0.11271748
21	0x3d5070c5	0.050888795
22	0xbc3298de	-0.010900704
23	0x3da5f82f	0.08103978
24	0x3dea9b9e	0.11455463
25	0xbc9141d1	-0.017731579
26	0x3d11df1a	0.035613157
27	0xbbbc1f78	-0.005741056
28	0xbe165eb8	-0.1468457
29	0xbdad9804	-0.0847626
30	0x3c2dff99	0.010620021
31	0x3e302eb4	0.17205316
32	0x3d9766a6	0.073926255
33	0x3d730afb	0.059336644
34	0x3da549a2	0.08070685
35	0xbd335301	-0.04378033
36	0x3c90b487	0.017664207
37	0xbd32ef49	-0.04368523
38	0xbd815aaa	-0.06316121
39	0xbc2f33b8	-0.010693483
40	0xbd439d1b	-0.04775725
41	0xbd877e09	-0.06615836
42	0x3d39ffa4	0.045409814
43	0x3d77266c	0.060339376
44	0x3dcd2d0f	0.1001836
45	0xbcd23def	-0.025664298
46	0xbd20b9d1	-0.03923971
47	0xbce6f268	-0.02819176
48	0xbddce0b6	-0.10785048
49	0x3c92f77d	0.017940277
50	0xbcca1b69	-0.024671273
51	0x3d2a9cb2	0.041653343
52	0xbb84340e	-0.0040345257
53	0xbd070e98	-0.032972902
54	0xbd21925f	-0.03944623
55	0xbd213462	-0.039356597
56	0x3dff33dc	0.12461063
57	0x3e1e779a	0.15475312
58	0xbc2de398	-0.010613345
59	0x3d82f434	0.06394234
60	0x3e044562	0.12917092
61	0xbd112dca	-0.03544406
62	0x3dc894e8	0.097940266
63	0x3d4928fd	0.049111355
64	0x3cba50a1	0.022743525
65	0xbda0e25b	-0.07855674
66	0xbd6e25c8	-0.0581415
67	0xbde31807	-0.11088567
68	0xbd90de3c	-0.07073638
69	0x3debda96	0.11516301
70	0xbda27701	-0.079328544
71	0xbd610919	-0.054940317
72	0x3e195141	0.14972402
73	0xbd4f25ee	-0.050573282
74	0xbdfe2474	-0.12409297
75	0xbdc73715	-0.09727303
76	0x3d2e9259	0.042620037
77	0xbcb44ef3	-0.022010302
78	0x3dfccdca	0.12343939
79	0x3da499b7	0.08037131
80	0x3dcb06bb	0.09913393
81	0xbde56545	-0.11200956
82	0x3c8c0271	0.017091008
83	0x3c34b759	0.011030042
84	0xbd75752c	-0.059926197
85	0xbdaa4fc8	-0.08315998
86	0xbc1eb212	-0.00968601
87	0x3d98185b	0.074265204
88	0x3d055411	0.032550875
89	0xbdae5c6c	-0.08513722
90	0xbca7e3e4	-0.020494409
91	0x3db0e0fd	0.08636663
92	0x3cc69878	0.024242625
93	0xbdd2dac4	-0.102956325
94	0xbdc3d8c1	-0.09562827
95	0x3d9ee102	0.077577606
96	0x3d89040a	0.066902235
97	0x3d46c3e1	0.04852665
98	0xbd8bba6a	-0.06822665
99	0x3d83d9d6	0.06438033
100	0x3df27236	0.1183819
101	0x3cb1ab07	0.021687998
102	0x3d55e713	0.052222323
103	0x3cadda93	0.021222388
104	0xbdbce7da	-0.0922391
105	0xbd19c68d	-0.03754287
106	0xbe188abd	-0.14896674
107	0x3d4c1e5c	0.04983364
108	0xbd19a0d4	-0.037506893
109	0xbcb07bc6	-0.021543395
110	0x3dcede06	0.10100941
111	0xbd713bc3	-0.058894884
112	0x3cb36051	0.021896513
113	0xbdf639de	-0.12022756
114	0xbd953705	-0.07285885
115	0xbd929222	-0.07156779
116	0xbd7e3841	-0.062065367
117	0xbdbaafe5	-0.091155805
118	0xbc8e64e4	-0.017382093
119	0x3ca6e9aa	0.020375092
120	0xbe057151	-0.13031508
121	0x3d1ca7b4	0.03824587
122	0x3d9835ab	0.07432111
123	0xbd9564a7	-0.072945885
124	0x3b5bef3a	0.0033559338
125	0xbcaaa84b	-0.020832201
126	0xbd430e4e	-0.047621064
127	0x3ce8d94b	0.028423926
128	0x3c565052	0.013080673
129	0xbe2cc24c	-0.16870993
130	0x3e12eb10	0.14347482
131	0xbd6290b4	-0.05531378
132	0x3db68c94	0.08913532
133	0x3ce692c5	0.028146157
134	0x3e0374f2	0.1283758
135	0x3da44d43	0.08022549
136	0xbe37512d	-0.1790206
137	0xbde13011	-0.10995496
138	0x3cabeda4	0.02098734
139	0xbd4608e6	-0.04834833
140	0xbcafcc15	-0.021459619
141	0x3db011d3	0.0859715
142	0x3d0e192c	0.034691975
143	0xbd31172f	-0.043235
144	0xbb8c7f1a	-0.0042876126
145	0x3e3f4f65	0.1868263
146	0xbd5fe09b	-0.05465756
147	0xba91b624	-0.0011116904
148	0x3c180e0e	0.009280695
149	0x3dc53af6	0.096303865
150	0x3cc8f46f	0.024530618
151	0x3cb619ac	0.022229038
152	0x3cb0445c	0.021516971
153	0x3df0347d	0.11728761
154	0x3d097dce	0.033567242
155	0xbdf09270	-0.11746681
156	0x3d9773e2	0.0739515
157	0xbd3f6120	-0.046723485
158	0xbd84a4d8	-0.06476754
159	0xbc9d7d19	-0.01922469
160	0x3d1321ff	0.035921093
161	0x3c3bef5d	0.011470643
162	0x3b86c554	0.004112879
163	0xbe26b004	-0.16278082
164	0x3c9d29a8	0.019184902
165	0x3da4cb9f	0.0804665
166	0x3d3c54e8	0.04597941
167	0xbc47bfc0	-0.012191713
168	0x3d0e7115	0.034775812
169	0x39babe44	0.00035618444
170	0x3d656790	0.056006968
171	0x3c0f306b	0.008739571
172	0xbd8d762d	-0.06907306
173	0x3d7bcbda	0.061473705
174	0x3db02b7b	0.08602043
175	0x3aad4317	0.0013218847
176	0xbdbaa5e5	-0.09113673
177	0xbd691194	-0.05690153
178	0xbd845988	-0.06462389
179	0x3da8d73f	0.0824418
180	0xbda6cb17	-0.08144205
181	0xbdcb6947	-0.099321894
182	0x3de0a62a	0.10969193
183	0x3ac85ef9	0.0015287093
184	0xbccd21b8	-0.025040492
185	0xbdf9955a	-0.1218669
186	0x3cd0d0ce	0.02549019
187	0xbddb4cee	-0.107080325
188	0xbcf2e13a	-0.029648412
189	0xbcc9e359	-0.02464454
190	0x3d83e13d	0.06439445
191	0x3e22e20c	0.15906543
192	0x3b6c6f9c	0.0036077267
193	0xbd8f5fa4	-0.07000664
194	0xbd89357f	-0.06699657
195	0xbbd01ec2	-0.006351323
196	0x3da93760	0.08262515
197	0x3d0ca2b6	0.03433486
198	0xbe27ad78	-0.16374767
199	0xbe1de753	-0.15420274
200	0x3cfd377e	0.03091025
201	0x3cb01c6d	0.02149793
202	0x3db1c419	0.08679981
203	0x3d8472bb	0.064671956
204	0xbcf11d2c	-0.029432856
205	0xbd0a6b18	-0.03379354
206	0xbd66cca3	-0.0563475
207	0x3d834897	0.0641033
208	0xbc12fee4	-0.0089719035
209	0xbc898965	-0.016789148
210	0x3da10220	0.078617334
211	0x3d5a5a7e	0.053308956
212	0x3e1ae271	0.15125443
213	0x3e0f38d8	0.13986528
214	0xbc5b9812	-0.013402956
215	0xbce78cae	-0.028265323
216	0xbdd209d4	-0.10255781
217	0x3df56611	0.11982358
218	0xbd22bc02	-0.03973008
219	0x3d94217b	0.072329484
220	0xbd3e5334	-0.046466067
221	0x3d7e816c	0.062135145
222	0xbdf1921f	-0.117954485
223	0x3ca6d312	0.020364318
224	0xbb285b5e	-0.0025689225
225	0xbd5038cd	-0.05083542
226	0x3e65c5ed	0.22438784
227	0xbd782710	-0.060584128
228	0xbd1f68b7	-0.038918223
229	0xbd3ac579	-0.04559848
230	0xbcc5dffb	-0.024154654
231	0xbd0ecf76	-0.03486582
232	0x3db85b9e	0.090018496
233	0x3c09d02b	0.0084114475
234	0x3dbf8364	0.09351233
235	0x3dd1f9d4	0.10252729
236	0x3d6a2287	0.057161834
237	0x3ceae113	0.028671777
238	0xbd621f64	-0.055205718
239	0xbdf6668b	-0.12031277
240	0x3cca34e9	0.024683433
241	0xbc969b65	-0.018384645
242	0x3c31919a	0.010837937
243	0x3da7aa8d	0.08186827
244	0x3e02cebf	0.1277418
245	0xbc8ad209	-0.016945856
246	0x3ce160bd	0.027511949
247	0xbd7b933d	-0.061419714
248	0x3ca288cb	0.019840619
249	0xbd55ff98	-0.052245706
250	0x3d5ab653	0.053396534
251	0xbcd17b5a	-0.025571514
252	0x3d586e98	0.052839845
253	0x3deec686	0.11658959
254	0x3dc670cc	0.09689483
255	0xbda7e996	-0.0819885

lstm.weight_hh_l1 f4 [512, 128]
0	0xbd890286	-0.066899344
1	0x3e3afc4d	0.18260308
2	0x3c813be2	0.015775625
3	0xbeb80e5e	-0.3594846
4	0xbccd0486	-0.025026571
5	0x3e436cd0	0.19084477
6	0x3d08b145	0.033372182
7	0xbd3657fd	-0.044517506
8	0xbd4eacbe	-0.05045771
9	0x3ce76ed4	0.02825109
10	0x3db7f6f4	0.089826494
11	0x3de23142	0.110445514
12	0xbd975a80	-0.073903084
13	0xbd516eb4	-0.051130965
14	0xbe10976e	-0.14120266
15	0x3e00ed04	0.12590414
16	0x3da86c66	0.082238
17	0x3d59b631	0.053152267
18	0xbe07a1ab	-0.13245265
19	0xbe25871a	-0.16164818
20	0xbddd7f73	-0.10815325
21	0x3cf2d13f	0.029640792
22	0xbbba08e2	-0.0056773284
23	0xbd88ab01	-0.066732414
24	0xbe2cf850	-0.16891599
25	0xbda69632	-0.08134116
26	0x3da337e9	0.079696484
27	0x3e47a143	0.1949511
28	0xbca54cb2	-0.020178173
29	0xbdd920d6	-0.10601966
30	0xbd11b937	-0.035577025
31	0xbd0a1b29	-0.03371731
32	0xbe2e3593	-0.17012624
33	0x3dce95cc	0.10087165
34	0x3aebcdcb	0.0017990408
35	0xbe023da7	-0.12718831
36	0xbce78c45	-0.028265128
37	0xbdb166c6	-0.086621806
38	0x3e26f480	0.16304207
39	0x3c716a70	0.014734849
40	0xbe07620b	-0.13220994
41	0xbbff2208	-0.0077860393
42	0x3c57bc6c	0.013167482
43	0xbddbcc90	-0.107323766
44	0x3c364caf	0.011126681
45	0x3dde92b8	0.10867828
46	0xbdad76a2	-0.08469893
47	0x3d6e200d	0.058136035
48	0xbd08085e	-0.033211105
49	0x3d87e90f	0.06636249
50	0xbcf6b1fe	-0.03011417
51	0xbc0576df	-0.008146017
52	0x3d69390f	0.05693918
53	0xbdf10228	-0.117679894
54	0xbe0a6e69	-0.1351868
55	0xbd878221	-0.06616617
56	0x3c24c9d9	0.01005789
57	0x3c1f9c74	0.009741891
58	0x3cae0fdc	0.021247797
59	0xbe07c4b1	-0.13258626
60	0x3e6e128a	0.2324926
61	0xbd118853	-0.0355304
62	0xbd146fae	-0.03623932
63	0xbcf8a968	-0.030354217
64	0x3e41912e	0.18903038
65	0x3d892aeb	0.06697639
66	0x3ddd2b3c	0.10799262
67	0xbd8800e3	-0.06640794
68	0xbde95c59	-0.11394567
69	0x3cbfa9a7	0.023396326
70	0xbd175523	-0.036946427
71	0xbde3e446	-0.11127524
72	0xbb83e571	-0.0040251543
73	0x3d0105bc	0.03149961
74	0xbcb1fd2d	-0.021727169
75	0x3e1bdf56	0.15221915
76	0xbdcbc657	-0.0994994
77	0xbcc616f3	-0.024180865
78	0x3e681788	0.22665226
79	0xbd2842f1	-0.041079465
80	0x3dd7508d	0.10513411
81	0xbd84457e	-0.06458567
82	0x3dba685b	0.091019355
83	0xbe64e82a	-0.22354189
84	0xbbfdd167	-0.00774591
85	0x3d77ac71	0.060467187
86	0xbd275d49	-0.040860448
87	0xba05d165	-0.00051047496
88	0xbc1ee3ec	-0.0096978955
89	0xbcaca7a7	-0.021076037
90	0x3d1ea250	0.038729012
91	0x3e25e9bb	0.16202442
92	0x3d352e33	0.044233512
93	0x3c9cffe8	0.019164994
94	0x3dc308ea	0.095231846
95	0x3d72a942	0.059243448
96	0x3dbcb3c2	0.092139736
97	0xbc09c925	-0.008409773
98	0xbdd2f88f	-0.10301315
99	0x3e0cc361	0.13746406
100	0x3d8b647b	0.068062745
101	0xbdc521ad	-0.09625564
102	0x3d244bdc	0.040111408
103	0xbdc1cf44	-0.09463361
104	0xbd0f28dd	-0.03495108
105	0xbceb8c2d	-0.028753364
106	0x3d57fcbb	0.052731257
107	0xbbfff251	-0.007810869
108	0x3d73763d	0.059438933
109	0x3d6d3446	0.05791118
110	0xbe0c2149	-0.13684572
111	0xbdd70cbb	-0.10500475
112	0x3ce22b71	0.027608605
113	0xbc17c9f3	-0.009264457
114	0x3db7307f	0.08944797
115	0xbcc55487	-0.024088157
116	0x3e009b6f	0.12559293
117	0x3d67108f	0.056412276
118	0xbe1a2310	-0.15052438
119	0xbd63a34e	-0.05557566
120	0xbc88ce17	-0.016699834
121	0x3e0b5137	0.136052
122	0xbc63e3eb	-0.01390932
123	0xbbf5d1d6	-0.007501821
124	0xbe3e0165	-0.1855522
125	0x3d6f6b52	0.058451958
126	0x3dbde7b9	0.09272713
127	0x3c89de8d	0.016829753
128	0x3da8ae8c	0.08236417
129	0xbd52c2b2	-0.051455207
130	0x3e28c75f	0.16482304
131	0x3d36d0d3	0.044632744
132	0xbc8cd922	-0.01719338
133	0x3df425ae	0.11921249
134	0x3d3046a6	0.043036126
135	0xbde915b3	-0.11381092
136	0xbe14cc03	-0.1453095
137	0x3e22dd31	0.1590469
138	0xbd729c7f	-0.059231278
139	0xbbabaf0a	-0.005239372
140	0x3da71d7c	0.081599206
141	0x3c94ed6c	0.018179618
142	0xbdf36550	-0.11884558
143	0xbe2d214d	-0.16907234
144	0x3d2e3981	0.04253531
145	0x3da516cd	0.080609895
146	0xbddbd2f1	-0.10733593
147	0x3ca3fe04	0.020018585
148	0xbd5a839d	-0.053348172
149	0x3cfae174	0.030625083
150	0xbcdc41ba	-0.02688681
151	0xba9e43f4	-0.0012074695
152	0xbcbc4f00	-0.022986889
153	0x3ca72b4f	0.020406393
154	0x3d4f711e	0.050644986
155	0xbc9edc06	-0.019392025
156	0x3dc770cf	0.097383134
157	0xbd8c7a23	-0.06859233
158	0x3ca97e7a	0.020690192
159	0xbdfe5139	-0.12417836
160	0xbcae4850	-0.021274716
161	0x3c229ef0	0.009925589
162	0xbc6b8536	-0.014375022
163	0x3be48ade	0.006974562
164	0x3d36a26d	0.044588495
165	0x3ce10f12	0.027473006
166	0xbd1b8193	-0.03796537
167	0x3cd7d29e	0.026345547
168	0xbd939f44	-0.07208112
169	0xbd93cff1	-0.07217396
170	0x3db5379f	0.088484995
171	0x3ce2b4bd	0.027674073
172	0x3d859f80	0.06524563
173	0x3cf251f5	0.029580096
174	0x3d55d633	0.05220623
175	0x3e1e1d82	0.15440944
176	0x3c2667ce	0.010156585
177	0x3c5a3da2	0.0133203585
178	0xbdd2448d	-0.10266981
179	0x3db04540	0.086069584
180	0x3dec0c27	0.115257554
181	0x3e05ce70	0.13067031
182	0xbd4b3515	-0.04961117
183	0xbdd15dac	-0.102229446
184	0x3c5c7dba	0.01345771
185	0xbdc3f7df	-0.09568762
186	0x3c6bb74a	0.014386961
187	0xbded83fa	-0.11597438
188	0xbb206431	-0.0024473781
189	0x3d549b2c	0.051905796
190	0x3e106243	0.14099984
191	0xbd8c5e37	-0.068539076
192	0x3c8c9d97	0.017164988
193	0x3e1b2e5c	0.15154403
194	0x3cce3901	0.025173666
195	0xbd9d2bfc	-0.07674405
196	0x3dcff077	0.10153287
197	0x3e092e9b	0.13396685
198	0x3d8b14d9	0.06791086
199	0xbd2ceaa5	-0.042215962
200	0x3d51cbdc	0.051219806
201	0xbd8dec0d	-0.06929789
202	0x3ddda68e	0.108227834
203	0xbd3a409b	-0.04547177
204	0xbda1c42e	-0.078987464
205	0x3d469ae5	0.048487563
206	0xbdc5237e	-0.0962591
207	0xbd4e0893	-0.050301146
208	0x3d132c4a	0.03593091
209	0x3dd6e196	0.10492246
210	0x3e0e90a8	0.1392237
211	0xbe052105	-0.13000877
212	0x3dc73e2b	0.097286545
213	0xbdc2c700	-0.095106125
214	0xbc8d699d	-0.017262274
215	0xbca2a59e	-0.019854363
216	0xbcd4182c	-0.025890432
217	0x3db5e0c1	0.08880759
218	0x3cd7932c	0.026315294
219	0x3c6cc63f	0.014451562
220	0x3a9afdd3	0.0011824913
221	0xbd29b96a	-0.04143659
222	0xbd235702	-0.0398779
223	0xbe2ea285	-0.17054184
224	0xbd5837c7	-0.05278757
225	0xbcda603e	-0.02665722
226	0x3d9b1404	0.07572177
227	0x3d0786fd	0.03308772
228	0xbe0081d9	-0.12549533
229	0xbd97a3ef	-0.07404315
230	0xbe092320	-0.13392305
231	0xbd41d68c	-0.04732375
232	0x3e2c8ce0	0.16850615
233	0xbda902db	-0.08252498
234	0xbdfbc59e	-0.12293552
235	0xbd5df2a0	-0.054186463
236	0xbe113188	-0.14179051
237	0x3dbac741	0.09120036
238	0xbcb34d2c	-0.021887384
239	0x3d5c18c3	0.053734552
240	0x3cfd7e83	0.030944115
241	0xbb39a611	-0.0028327743
242	0xbcfe73ab	-0.031061014
243	0xbd8cc5fd	-0.06873701
244	0xbdb7b22c	-0.089695305
245	0x3dc33669	0.09531862
246	0xbd1efb03	-0.038813602
247	0xbd8b8a3e	-0.06813477
248	0xbdbaced7	-0.09121483
249	0xbd352303	-0.044222843
250	0x3d3e9a09	0.046533618
251	0x3c9e5c67	0.01933117
252	0x3d9336ee	0.071882114
253	0xbd99de99	-0.0751316
254	0xbdf5a06b	-0.11993488
255	0x3d311b87	0.043239143

lstm.bias_ih_l1 f4 [512]
0	0xbd173582	-0.036916263
1	0xbd8c7817	-0.06858843
2	0xbd9dda00	-0.07707596
3	0xbd2472e2	-0.040148623
4	0xbdf1576c	-0.117842525
5	0x3d13d55b	0.036092144
6	0xbe04db15	-0.12974198
7	0xbc8d0c24	-0.017217703
8	0xbd9e6f5f	-0.07736086
9	0x3be7cc22	0.007073895
10	0xbdebde0d	-0.11516962
11	0xbc641803	-0.01392174
12	0xbdda7892	-0.10667528
13	0xbd9874e7	-0.07444172
14	0x3d6e984a	0.058250703
15	0x3da506e6	0.080579564
16	0xbbef08ca	-0.007294749
17	0xbdaa8cb1	-0.08327616
18	0xbe04d841	-0.1297312
19	0x3c73f15f	0.01488909
20	0x3decddc9	0.1156574
21	0xbc5bb4d4	-0.013409812
22	0x3c8a60e1	0.016891899
23	0xbe0dafcb	-0.13836591
24	0xbdfd376c	-0.123640865
25	0xbd5cb853	-0.053886723
26	0x3c79085f	0.01519975
27	0xbda0380c	-0.0782319
28	0x3cb8dba9	0.02256568
29	0xbe0f5d59	-0.14000453
30	0xbd7cff89	-0.061767135
31	0x3c521cf2	0.012824284
32	0xbc08184b	-0.008306573
33	0xbe209954	-0.1568349
34	0x3d0799ce	0.033105664
35	0xbdb1618e	-0.08661185
36	0x3d2e570e	0.04256349
37	0x3ca2205c	0.01979082
38	0xbdbb878b	-0.09156712
39	0xbd3d76cd	-0.046255875
40	0xbdb290ae	-0.08719002
41	0xbe07360f	-0.13204215
42	0x3cf1edd2	0.029532347
43	0x3d2eacdf	0.04264533
44	0xbc1bfad7	-0.009520254
45	0x3e02b02c	0.12762517
46	0xbdc42d80	-0.09578991
47	0xbe6d81ae	-0.23194
48	0x3d1e06bc	0.03858064
49	0xbd854c25	-0.06508664
50	0x3d3b48af	0.045723613
51	0xbce75b33	-0.02824173
52	0x3d90d92a	0.07072671
53	0x3d279c89	0.040920768
54	0x3cd4996b	0.025952062
55	0xbe18f6c9	-0.14937891
56	0xbdc4b8fa	-0.09605594
57	0xbb652cc4	-0.003496931
58	0xbd82c5f3	-0.06385412
59	0xbc7f08e8	-0.015566088
60	0xbd615188	-0.055009395
61	0xbd180e55	-0.037123043
62	0xbd716b5c	-0.058940277
63	0x3caa40dd	0.020782882
64	0x3d9e6c37	0.07735484
65	0x3d6efbc4	0.05834557
66	0x3c738f55	0.014865716
67	0xbe0d9e27	-0.13829862
68	0xbe1ffdb4	-0.15624124
69	0x3cc4aa93	0.024007117
70	0xbd628afa	-0.05530832
71	0xbe466bc2	-0.19377044
72	0xbda9ef78	-0.08297628
73	0x3cf21a08	0.029553428
74	0xbdb5f7f8	-0.08885187
75	0xbd990536	-0.07471697
76	0xbd2ac34f	-0.041690167
77	0xbe6ef1fa	-0.23334494
78	0xbda36409	-0.079780646
79	0xbc6d658c	-0.014489543
80	0xba1ee254	-0.0006060947
81	0xbdc77c38	-0.0974049
82	0x3d8d1104	0.06888011
83	0xbe5559e5	-0.20835073
84	0xbd1e8b7b	-0.038707238
85	0xbd9a6c27	-0.0754016
86	0x3cd86306	0.026414406
87	0xbc0b5d1e	-0.008506088
88	0x3da55ee6	0.08074741
89	0xbc0119b5	-0.007879664
90	0xbdc02e64	-0.09383848
91	0xbb9fb38f	-0.0048737
92	0x3cad3595	0.021143714
93	0xbc838dc3	-0.016058808
94	0xbe8d37c5	-0.2758161
95	0x3d9c3a76	0.07628338
96	0xbdfcc5f6	-0.123424456
97	0xbd6b7694	-0.05748613
98	0xbd558cef	-0.052136358
99	0xbddae7e2	-0.106887594
100	0x3b612c55	0.00343587
101	0xbe1057ac	-0.14095944
102	0xbd0588f4	-0.03260131
103	0xbdb04ae5	-0.08608035
104	0x3d23d9a1	0.04000247
105	0x3c96921d	0.01838022
106	0xbd65dde2	-0.056119807
107	0xbd15ba2d	-0.036554504
108	0x3c0d5c87	0.008628017
109	0x3dc260f9	0.09491152
110	0xbdc7e226	-0.09759931
111	0xbdb45f0f	-0.088071935
112	0x3bcd0bdf	0.0062575187
113	0xbdd1052b	-0.10206064
114	0x3c875e39	0.016524421
115	0xbd55a702	-0.052161224
116	0xbd34ba5b	-0.044123035
117	0xbbbdd413	-0.0057931035
118	0x3d5c26b7	0.05374786
119	0xbd9f75f6	-0.07786171
120	0x3c838d2a	0.016058523
121	0x3cfc8d2b	0.030829033
122	0x3d560b42	0.05225683
123	0x3c7051c9	0.014667937
124	0xbd525d5d	-0.05135857
125	0x3ddfdf63	0.109312795
126	0xbd23f8b4	-0.040032104
127	0xbcf86cf6	-0.030325394
128	0xbd91a741	-0.07111979
129	0xbb793835	-0.0038027887
130	0x3da1fd02	0.079095855
131	0x3c0600bc	0.008178886
132	0x3ea2b891	0.31781438
133	0x3d249d43	0.04018904
134	0x3b3bad03	0.0028637059
135	0xbcd932e8	-0.026513532
136	0x3d8db9a9	0.069201775
137	0x3cd6a317	0.026200814
138	0x3e36d7bd	0.17855735
139	0xbda46cbf	-0.08028554
140	0x3e874419	0.26419142
141	0x3d136345	0.035983343
142	0x3da85556	0.082194015
143	0x3cdb8a01	0.026799204
144	0xbd92e379	-0.07172293
145	0xbd14b460	-0.03630483
146	0x3bc1ff62	0.0059203366
147	0x3b35815a	0.0027695508
148	0x3e873b98	0.26412654
149	0x3d02055e	0.0317434
150	0xbddaac16	-0.10677354
151	0xbc12b02d	-0.008953136
152	0xbaa1f646	-0.001235672
153	0x3dc1cd7e	0.09463023
154	0xbd234b2c	-0.03986661
155	0xbd36cf40	-0.044631243
156	0xbdd69d78	-0.104792535
157	0x3d321ae0	0.04348266
158	0x3ddad295	0.106846966
159	0xbd866c45	-0.065636195
160	0x3ea9428c	0.33058584
161	0xbd3e23b6	-0.046420775
162	0x3de25e22	0.11053111
163	0x3ad73cab	0.0016421279
164	0x3df395dc	0.11893818
165	0x3e853c1a	0.26022416
166	0x3e0a36f0	0.1349752
167	0xbdba0c37	-0.09084361
168	0xbdca36bd	-0.09873722
169	0xbdaad8a7	-0.083421044
170	0x3d953c8c	0.07286939
171	0x3d817cb2	0.06322612
172	0xbd91fd2d	-0.071283676
173	0x3c916518	0.0177484
174	0x3e94edca	0.2908767
175	0x3e67af7f	0.2262554
176	0x3dc915d1	0.09818614
177	0xbda77be8	-0.0817793
178	0xbcd8bacb	-0.026456257
179	0x3a95b979	0.0011423073
180	0x3cf96d61	0.030447664
181	0x3ea3b445	0.31973472
182	0x3d88def2	0.066831484
183	0xbc8093bc	-0.015695445
184	0x3e2b11d5	0.16706021
185	0xbe072a25	-0.1319967
186	0x3cdad724	0.026713915
187	0x3e17e98f	0.1483519
188	0xbb0fe12a	-0.0021954277
189	0xbd3569f3	-0.044290494
190	0xbdd78d95	-0.105250515
191	0x3e30f77c	0.17281908
192	0x3d2657c9	0.040611062
193	0x3d789f93	0.060699057
194	0x3e3b6f1f	0.18304108
195	0xbd780d88	-0.06055978
196	0xbdbba39e	-0.09162067
197	0xbcb7eee8	-0.022452787
198	0x3d403b0c	0.04693131
199	0xbcb68f21	-0.022285046
200	0xbca144c8	-0.019686118
201	0xbd36b00c	-0.044601485
202	0xbd89bab9	-0.06725068
203	0xbdd21a3e	-0.102589116
204	0xbd697814	-0.05699928
205	0x3deb5dce	0.11492501
206	0x3e19c83a	0.15017787
207	0xbdef8b02	-0.116964355
208	0x3e6eca89	0.23319449
209	0x3e306fc0	0.17230129
210	0xbcb8da66	-0.022565078
211	0x3ec81f14	0.3908621
212	0x3d9273b8	0.07150978
213	0xbcb6d81e	-0.02231985
214	0x3cbd4a98	0.023106858
215	0xbd59bbec	-0.053157732
216	0xbcd1acc5	-0.025595078
217	0x3d284919	0.041085336
218	0x3e763094	0.24041969
219	0xbde3dc78	-0.111260355
220	0xbd94916d	-0.072543
221	0xbc5bd5e5	-0.013417696
222	0x3ed558e6	0.41669387
223	0xbd49a4d4	-0.049229458
224	0x3d4e2acc	0.050333783
225	0x3cc24532	0.023714636
226	0xbd9a04ba	-0.07520433
227	0x3d7a31c5	0.06108262
228	0x3d89bfc4	0.067260295
229	0xbaa6a5b7	-0.0012714182
230	0x3c4ac822	0.012376817
231	0xbd467228	-0.04844871
232	0xbd8905a9	-0.06690533
233	0xbd954fcc	-0.07290611
234	0x3cbe90da	0.02326243
235	0xbd81c713	-0.063367985
236	0xbcb68771	-0.02228138
237	0xbb2a4a5d	-0.0025984265
238	0x3d8f648e	0.07001601
239	0xbb0b4d77	-0.002125589
240	0x3c553ad5	0.013014515
241	0x3e68172f	0.22665094
242	0x3e52e9ff	0.20597075
243	0xbdccd528	-0.10001594
244	0x3e03e6f8	0.12881076
245	0x3afcf5ae	0.0019299292
246	0xbd7858a4	-0.06063141
247	0xbd395978	-0.04525134
248	0xbd97e501	-0.07416726
249	0x3d418fcf	0.047256287
250	0x3e2720ee	0.16321155
251	0x3d4d2ea7	0.05009332
252	0x3a041e46	0.00050399115
253	0x3e33bd24	0.1755262
254	0x3cc68984	0.024235494
255	0x3c7f7cf7	0.015593759
