model_checkpoints/collection/best_lstm_fold_4.pth (torch, 908401 bytes, 15 tensors)

lstm.weight_ih_l0 f4 [512, 3]
000000 3b f8 e9 3d bc 98 2c bd 94 da 05 bd 95 83 8c 3d
       0.11424299 -0.042137846 -0.032679155 0.06861035
000010 79 99 31 3d e3 e4 f3 3d f4 79 d0 3d f6 f0 6e bd
       0.043359254 0.11908891 0.10179511 -0.058335267
000020 e9 d9 ac 3d d1 71 6e 3d c3 31 80 3d ec 83 aa 3d
       0.084400006 0.058214013 0.06259491 0.08325943
000030 f8 c9 06 be da 19 47 3e c8 3c 73 3e 86 ac 22 3e
       -0.13162982 0.19443455 0.23753655 0.15886125
000040 1a dd 72 bd 51 b6 5e 3c f3 e6 43 3e 54 71 a0 3d
       -0.05929289 0.013593272 0.19131069 0.078341156
000050 40 db ab 3d 50 cb 97 bc 5b e0 a1 3d 48 31 ce 3d
       0.08391428 -0.018529564 0.079041205 0.100679934
000060 33 6f 86 3d d6 93 89 3d d5 ad 38 3c 37 08 a9 3d
       0.06564178 0.067176506 0.011271914 0.0825352
000070 e6 45 cf 3d d9 04 e6 3d d1 ea ea bb 16 20 4d 3c
       0.10120754 0.11231393 -0.0071691056 0.012519857
000080 2e 56 68 3a c6 d0 f9 bd 4d 04 4c 3d f5 72 95 bd
       0.00088629394 -0.121980235 0.04980879 -0.07297317
000090 7f 09 e4 3d 97 3b 77 3d f1 72 1c 3e d8 c1 c2 bb
       0.11134624 0.060359564 0.15278222 -0.005943518
0000a0 cb cb 9a 3a 58 e6 71 3e 00 45 4e bc 56 c2 8d 3d
       0.0011810003 0.23623025 -0.012589693 0.06921832
0000b0 2c 9e 30 3d 43 4a ad 3d 57 96 a0 3d 01 44 14 3e
       0.043119594 0.0846143 0.07841175 0.14479066
0000c0 e6 56 0e 3d b2 ed 55 3d 2b a0 a3 3b 4f 81 1a be
       0.03475084 0.052228637 0.0049934587 -0.1508839
0000d0 30 41 b9 bd 1d 1c 0d bd e2 26 fd 3d 88 50 ac bc
       -0.09045637 -0.03445064 0.12360932 -0.021034494
0000e0 48 82 23 3e 57 f0 62 bb 82 14 3c 3c 35 1a 4e 3d
       0.15967667 -0.0034628117 0.011479499 0.05031796
0000f0 09 0f 7c 3d 32 fc a8 bc 69 02 42 3d f4 c6 4f bd
       0.061537776 -0.020628069 0.04736558 -0.050726846
000100 e2 64 61 3d ac a9 9a 3c cb c1 a3 bd ca 4f 30 bd
       0.05502785 0.018879734 -0.079959475 -0.043044843
000110 52 cd aa ba ad 8a 02 3e d6 73 72 3d d5 c6 ab bd
       -0.0013031161 0.12748213 0.0591925 -0.083875336
000120 b0 ca 49 bc a3 60 91 3a 19 26 05 bd 1e 0c 47 3d
       -0.012316391 0.0011091422 -0.032507036 0.04859554
000130 78 9e a1 3d d4 e9 da 3d 21 fb 35 3d 02 9d 39 3c
       0.07891554 0.106891304 0.04442895 0.0113289375
000140 27 83 a3 3d 46 3e 76 3d 09 44 ba 3d de 1e 45 3e
       0.07984 0.060117982 0.09095008 0.19250056
000150 42 26 2c 3e 02 3b 9c 3d fe 56 b3 bc a3 17 0b 3e
       0.16811469 0.07628442 -0.021892067 0.13583235
000160 60 3a 6a 3d 24 65 44 bc 01 7f 1f 3d dd d7 eb 3d
       0.057184577 -0.011987004 0.03893948 0.11515782
000170 65 13 bd 3c a9 34 30 bd bd fe 53 bd b4 3a 90 3d
       0.023080537 -0.04301897 -0.05175661 0.07042447
000180 f8 a7 05 3d 18 5b 70 3d 9b 28 21 3d 03 83 93 3c
       0.03263089 0.058680624 0.039345365 0.018006807
000190 29 9e 23 bb 20 ce 61 3d 72 4a 09 3e d8 31 b3 3d
       -0.0024966097 0.055128217 0.13407305 0.08749741
0001a0 2e 8a d9 3d f7 dc 5d bd 8e 34 9e bd 5d d6 58 3d
       0.10622059 -0.054165807 -0.07724868 0.052938808
0001b0 01 40 3d 3c 83 79 32 3d 03 f9 b6 3d 23 3c ea 3d
       0.011550904 0.043572914 0.08934214 0.114372514
0001c0 ea e7 f7 3d 2f 73 b1 bc ec d9 97 3d 70 d3 44 bc
       0.12104781 -0.02166137 0.07414612 -0.012013301
0001d0 18 37 4b 3c bb 9f 16 3d 40 e9 f2 bc e6 c3 fc 3b
       0.012403272 0.036773425 -0.029652238 0.0077137826
0001e0 5c b9 e0 3d 51 e5 49 3d 98 8d c7 3d 4c 09 6d 3c
       0.109728545 0.04929096 0.09743804 0.014467549
0001f0 03 0a 55 3d a3 28 1b 3e 98 5d a3 3c af 2a 35 bd
       0.0520115 0.1515222 0.01994209 -0.04423016
000200 66 96 8e bb 8b 44 a9 bc 5d b8 7a 3c 79 40 f3 3c
       -0.004351425 -0.020662567 0.015302745 0.029693829
000210 04 bc a6 bc 35 9d 70 bd 36 c8 9c 3c 5d 1c 10 3e
       -0.020353325 -0.058743674 0.019138437 0.1407332
000220 c3 aa 49 bd e9 17 7d bd 7f 6b aa bc 4e c3 8d 3d
       -0.049235117 -0.06179038 -0.020803211 0.06922017
000230 02 3f 4c 3d 2f 9c 1c 3e 05 59 13 3d 40 02 05 3e
       0.049864776 0.15293954 0.035973568 0.1298914
000240 93 6f 8e 3c 39 f7 72 bd a2 23 14 3e ae e7 f0 bd
       0.017387187 -0.0593178 0.14466718 -0.117629394
000250 a5 d2 4a bc 8a 52 32 be f7 e2 45 3d b9 d2 a4 3b
       -0.012379323 -0.17414299 0.048312154 0.005030003
000260 2b 87 58 3d be ce 24 3e d0 ad 13 3d e8 a3 04 3e
       0.05286328 0.16094491 0.036054432 0.1295315
000270 e4 f6 5d 3d fd af de 3c ca 82 b3 3d c4 62 9a bd
       0.05419053 0.027183527 0.087651804 -0.07538369
000280 33 f7 f4 bd c9 7c d4 bd bf fa ff 3c 40 cf 81 3d
       -0.11961212 -0.103753634 0.031247495 0.06338358
000290 34 51 df bc 1b 5f a5 3c 37 2d e9 3d 82 c2 65 bd
       -0.0272604 0.020186951 0.11385577 -0.0560937
0002a0 31 3a ba 3d 9d 05 f4 bc 59 98 19 3e b3 83 ca bd
       0.090931304 -0.029787833 0.14999522 -0.09888401
0002b0 b7 f8 ca bd fc ed 3b 3d 58 5f 15 3e 7d 6e 18 3e
       -0.0991072 0.045881256 0.14587152 0.14885898
0002c0 9d 32 02 3d 7d d5 4d 3d c6 5c a8 3d cd 6c 52 3d
       0.03178655 0.050252426 0.0822082 0.05137329
0002d0 23 7a 5d bd a8 22 ea 3c 82 e3 c6 3d 67 85 49 3d
       -0.054071557 0.028580979 0.097113624 0.049199488
0002e0 36 67 83 3c 57 d5 f5 3d d3 e4 b7 3d 05 6d 58 bd
       0.016040426 0.12003582 0.08979192 -0.052838344
0002f0 7a 88 9c 3d 49 e5 82 bd ca 6f 01 39 76 41 65 bc
       0.07643218 -0.06391389 0.00012344043 -0.013992658
000300 3c a8 56 bd 91 6f c2 bc 63 a6 e2 bc 47 ff 64 bd
       -0.052406535 -0.02373484 -0.02766723 -0.055907514
000310 cd 92 05 3c 25 93 6b 3d 65 97 0e 3e f2 13 83 3d
       0.008152676 0.057513375 0.1392494 0.06400289
000320 96 a6 a6 3e bc 9f 41 3e 91 1c db ba 35 a2 83 bc
       0.3254897 0.1890859 -0.0016716887 -0.016068557
000330 89 f7 f3 3d 2e c9 8b bc 04 4b d0 3d d8 5d 71 3d
       0.11912448 -0.017063703 0.10170558 0.058927387
000340 60 b2 79 3d 10 aa 92 3d 04 64 f6 3d d7 77 3a bd
       0.060961127 0.07161343 0.12030795 -0.045524444
000350 85 5a ee bd 91 cf 37 bc 3d 42 88 3d 4b 06 10 3d
       -0.11638359 -0.011218921 0.06653259 0.03516225
000360 96 c2 96 bd 29 27 cf 39 3f c6 da 3d bb d0 34 3d
       -0.07361333 0.00039511293 0.10682344 0.044144373
000370 e1 69 59 bd 8b 33 ce 3d d6 c2 d2 bc 05 be 81 3d
       -0.05307949 0.10068425 -0.02572767 0.063350715
000380 d2 6b 13 3e 40 5f 22 bc 99 2b 8e 3d 9c b0 7d bb
       0.14396599 -0.009910405 0.06941909 -0.0038710004
000390 fb f9 ac bd ab 55 e3 3c 3c c1 bc bc 8f 39 4a 3d
       -0.084461175 0.02775081 -0.02304136 0.0493713
0003a0 d8 07 ac 3a f3 63 f5 3d 13 3f 4f 3d f4 95 16 3d
       0.0013124896 0.119819544 0.05059726 0.0367641
0003b0 63 96 b3 3a 11 40 5d bd a4 46 88 3d 4e 14 ba 3c
       0.0013701435 -0.054016177 0.06654099 0.02271476
0003c0 2b 23 2a 3d 3d fd 3a 3c fd d8 15 3e e0 8e f8 3d
       0.041537445 0.011412916 0.14633556 0.12136626
0003d0 cc 7c 13 3e e4 57 7e 3d 54 ca 7e bd 81 8a db ba
       0.14403075 0.062095538 -0.062204674 -0.0016749651
0003e0 a0 e5 b4 3d 29 9a 81 bd 66 cb 10 3e 84 5a ce 3d
       0.0883286 -0.06328232 0.1414009 0.10075858
0003f0 ac 7e 0b bd de aa ad 3d 15 43 1a 3e 1a 39 8c 3d
       -0.03405635 0.08479856 0.15064652 0.06846829

lstm.weight_hh_l0 f4 [512, 128]
000000 d7 34 8f bc 0f 38 c5 3d ee 13 d6 3d fa 28 12 3d
       -0.01748125 0.09629833 0.1045302 0.03568361
000010 fc e7 b8 3d 50 13 4a 3c d0 ed ae ba 6f 3d aa 3d
       0.090286225 0.012333706 -0.001334602 0.08312499
000020 f0 50 35 3d e7 8c a1 bd ad 72 16 be 56 5a 24 3d
       0.04426664 -0.07888203 -0.14692183 0.040125214
000030 d0 06 0d 3c cb 69 ab 3d ab 9b 33 3d 5b c3 90 bd
       0.008607581 0.08369788 0.04384963 -0.07068511
000040 de 71 d1 3c 16 5d 51 bd 32 55 c5 bd b3 e0 50 bd
       0.025566991 -0.051114164 -0.0963539 -0.05099554
000050 e6 61 3e be af d3 b5 bc 8c b8 c5 3d 18 f7 36 3d
       -0.18592033 -0.022195665 0.0965434 0.04466924
000060 e2 43 56 3d 64 7a bd bd 9b 85 f3 bd b1 cc 2d bd
       0.05231083 -0.0925186 -0.118907176 -0.042431537
000070 8a ae 99 bd 1c ff fb 3d f1 87 06 3d 69 ae b2 bc
       -0.07503994 0.123045176 0.032844488 -0.02181168
000080 96 1f 1f bd af c6 00 3e ae e5 88 3c e1 11 53 bd
       -0.038848482 0.12575792 0.016711082 -0.051530723
000090 e5 af 41 bd 4f 74 64 bc 32 03 6b bd 80 b0 99 3c
       -0.047286887 -0.013943746 -0.057376094 0.01876092
0000a0 09 24 91 3c e4 2d 14 3d bd 8c 3b bd f9 e2 9d bb
       0.017717378 0.036176577 -0.045788515 -0.004818317
0000b0 6e 69 bf bd 43 25 f6 bd de 68 02 bd fa 1b 49 bc
       -0.09346281 -0.12018826 -0.03183829 -0.012274737
0000c0 70 db a0 3d 52 b2 aa bd 2e 9c db 3c eb 08 43 3d
       0.078543544 -0.08334793 0.02680787 0.047615927
0000d0 10 8f 10 3e 64 31 ff 3d 39 bb 22 3c a8 7a be 3d
       0.14117074 0.124605924 0.009932333 0.093007386
0000e0 b2 41 98 3d 98 89 f4 bd 43 3a c7 3c 57 74 48 3d
       0.074344054 -0.119403064 0.024319774 0.048939075
0000f0 ca 5d f4 bc 69 d1 b1 bd 9d e3 b2 3d 2c 0b 19 3c
       -0.029829878 -0.0868252 0.0873482 0.0093410425
000100 fb 94 8c bd 25 4b 43 bd 1c 34 78 bb 6b 3a c5 3d
       -0.06864353 -0.047679085 -0.0037872856 0.09630283
000110 7f 1d 3e bd d4 f8 52 bd 9a f6 cb bc e1 a6 d9 bc
       -0.04641485 -0.051506832 -0.024897862 -0.026568832
000120 b4 ec e4 3d aa 7d 17 3d 00 d7 c1 ba 66 65 07 bd
       0.1117796 0.036985077 -0.0014788806 -0.033055685
000130 4a 55 86 bd 6c f7 94 3c 61 f5 f1 3c 8e 9d 8d 3d
       -0.06559236 0.018184386 0.029535951 0.06914817
000140 e8 3e e6 3d 60 02 83 bc d7 c9 6a bc 05 8b c4 bd
       0.11242467 -0.015992343 -0.014330349 -0.09596828
000150 01 74 72 3d 2c b0 8f 3c dd 63 3c 3d 67 33 a5 bc
       0.05919266 0.01754006 0.045993675 -0.020166112
000160 f7 8f 6c 3d 08 fb ad bd 94 6f 89 bc 23 4a d0 3d
       0.057754483 -0.08495146 -0.016776837 0.101703905
000170 4a 89 e7 bc ea be 43 3d 34 a9 82 3c 1e ba c0 3d
       -0.028263707 0.04778949 0.015949823 0.09410499
000180 e4 70 12 bd e2 9c 78 3c 88 43 7c bd ff 1d c7 3c
       -0.035752192 0.0151741225 -0.06158784 0.024306295
000190 73 99 57 3d 2d 14 1e bd da c3 40 3c da c6 55 3d
       0.052636575 -0.03859346 0.011765445 0.052191593
0001a0 3d 5d f0 bd ab 9e d7 bd c0 30 0a be 6f f5 71 bc
       -0.11736534 -0.105283104 -0.13495159 -0.014767989
0001b0 d7 70 d6 3d ac 82 85 bd 2a 29 89 3d 04 4a 27 3d
       0.10470741 -0.06519064 0.066973045 0.04084207
0001c0 f8 d4 cf bd ea 28 5f 3a cb 32 f0 bd 5e 67 03 bd
       -0.101480424 0.00085128716 -0.11728438 -0.032081
0001d0 c7 61 1e 3d a4 d3 39 3d ab 51 a5 bc 55 ac d1 3d
       0.038667466 0.04536785 -0.020180544 0.10237948
0001e0 24 4e 13 bd 18 48 84 bc 2b 56 4d bd f4 df 99 3d
       -0.035963193 -0.016147658 -0.050131004 0.07513419
0001f0 6b 2e ca 3c 0a 8f 8a bd 28 bb 20 3c 97 0e 9d bd
       0.024680337 -0.06765564 0.0098102465 -0.076687984
000200 c4 ef c1 3d 99 bb 9a 3d 6f 42 88 bd 8c 21 b5 bd
       0.0946956 0.07555313 -0.06653296 -0.08844289
000210 5d fd 00 3d 34 c4 ac bd f8 de be 3d 55 4c 86 3d
       0.031491626 -0.0843586 0.09319872 0.06557528
000220 6f 8d a4 bd 3a 15 20 3d 35 5f 01 bd 08 36 06 bd
       -0.08034789 0.039082743 -0.031584937 -0.032766372
000230 f1 0f ee 3c 84 0d 07 3d 3c 20 56 3d ac 15 21 bd
       0.029060336 0.032971874 0.052276835 -0.03932731
000240 4e 62 22 bb 36 e2 52 bd 47 64 32 bc a8 7d b4 bc
       -0.0024777832 -0.051485263 -0.010888166 -0.022032574
000250 b4 09 fb 3b b1 be a4 3d 51 27 86 bc 0a 1d 31 bd
       0.007661069 0.08044184 -0.01637617 -0.043240584
000260 4e 81 aa 3c 75 08 75 3d 03 ca 9f bd 5b a9 98 bc
       0.02081361 0.05982252 -0.078022026 -0.018635442
000270 48 c4 d8 bc 50 2b 2f 3d 58 c0 29 bd 71 d6 31 3d
       -0.026460782 0.042765915 -0.0414432 0.043417398
000280 4c 24 a6 3d f0 81 52 3c f6 12 2c bc c4 b9 7f bd
       0.08112392 0.012848362 -0.0105025675 -0.06243302
000290 42 57 d5 3c 39 e3 ac 3c 35 5e be 3c f8 0d cf bd
       0.026042584 0.021104442 0.02323828 -0.10110086
0002a0 02 60 ad bd ca 96 9b b8 01 af 84 3d 21 15 c4 3c
       -0.08465578 -7.4190626e-05 0.06478692 0.023935856
0002b0 56 7d 61 3d 71 0a 8e 3d ef 71 c5 bc c6 67 bc 3d
       0.05505117 0.06935585 -0.02410218 0.09199481
0002c0 58 e6 dd 3d 0a b5 cf bc 39 4e 07 bd 72 3e c2 bc
       0.1083495 -0.02535488 -0.033033583 -0.023711417
0002d0 26 f3 ef 3b 28 7c d7 bc 4e 52 a5 3c 15 18 4c bc
       0.0073226867 -0.02630432 0.020180847 -0.0124569135
0002e0 75 0e 32 3d 1d bb b2 bd 21 1c 6f bd 52 f8 97 3d
       0.04347082 -0.08727095 -0.058376435 0.0742041
0002f0 85 34 2d bd 13 61 1e 3d bb a3 44 bd 8e 47 bc bc
       -0.042286415 0.038666796 -0.048007708 -0.022983339
000300 9e 6d 5f bd 86 70 09 bd 50 4f 56 bc db 5c 1b 3c
       -0.0545479 -0.033554576 -0.013080433 0.009482588
000310 44 1f 72 bd ae 0d ae bd 5a 6e e9 bd 3f 79 33 bd
       -0.05911185 -0.08498703 -0.11398001 -0.0438168
000320 74 fc 95 3d c0 67 c2 bc 14 58 f2 bc ce 29 f6 39
       0.07323542 -0.023731112 -0.029583015 0.00046951923
000330 15 69 2d 3d 0d 9d b5 3d 3b 5c 50 bd d8 44 51 3d
       0.042336542 0.08867846 -0.050869208 0.051091045
000340 15 0b 8e 3d a0 01 41 3d 9b c5 60 bc 05 ba 58 bd
       0.069357075 0.04712069 -0.013718988 -0.052911777
000350 b5 d3 89 3a 33 45 ef bb 00 73 6f 3d a1 6a 5a 3c
       0.0010515364 -0.0073019504 0.058459282 0.013331086
000360 ea a6 85 bd fd c2 8f bd 11 b9 1c bc b6 62 29 bd
       -0.06525977 -0.07019613 -0.009565608 -0.041353904
000370 0c 87 16 bd ab 2d 57 3d 23 24 a5 bd de 27 ad 3b
       -0.036749884 0.052533787 -0.08063533 0.0052842936
000380 26 51 97 bd cc 1a 86 3d 55 69 57 3d 5a 6c a5 bb
       -0.07388525 0.0654808 0.052590687 -0.005048317
000390 dc 7f e6 bc 9c 8e 8a 3d 13 62 fc 3d df da 87 3d
       -0.02813714 0.06765482 0.12323394 0.06633543
0003a0 ab 0a 92 bd 1e 09 41 3d 2f cd 15 3d 95 dd 6c 3d
       -0.07130941 0.047127835 0.03657263 0.057828505
0003b0 12 f5 96 3d f6 39 c4 3c 9d e3 97 bd 2c 5b 2e 3d
       0.07370962 0.02395342 -0.07416461 0.042567417
0003c0 a8 b1 ed bd 36 a5 5d bd 27 8b 1f 3d 0c 04 c1 bd
       -0.11606151 -0.054112636 0.038951065 -0.094246
0003d0 43 5c ed 3d f7 32 a1 bd d6 10 c1 bd 28 91 31 bd
       0.11589863 -0.07871049 -0.09427039 -0.043351322
0003e0 3c 01 47 bd 9c e0 28 3d f3 ba e8 bc 91 76 87 3d
       -0.04858516 0.04122983 -0.028409457 0.066144116
0003f0 83 cc 14 3d 25 0d 77 3d 29 3d 00 3d 35 09 04 3d
       0.03632785 0.06031527 0.031308327 0.032235343

lstm.bias_ih_l0 f4 [512]
000000 14 6e ac 3d 79 a9 08 bd 1b 81 d5 3d d3 83 eb 3d
       0.08419433 -0.033364747 0.104250155 0.11499753
000010 34 21 92 bd 40 7a 59 ba c7 dd a9 bb eb 31 cf 3d
       -0.07135239 -0.000829611 -0.0051839086 0.10116943
000020 cb d4 9d bc e1 61 c2 3d cc 63 95 3d 72 8d 19 3d
       -0.019266507 0.09491325 0.07294425 0.03748841
000030 be 8c d0 3d a0 f5 61 3d 65 a7 fc 3d 6e d3 92 3d
       0.101830944 0.055165887 0.123366155 0.07169233
000040 9b 7a 54 3d 77 55 05 3b 7b 47 2c 3d 60 4b 7c 3d
       0.05187474 0.002034513 0.042060357 0.06159532
000050 be 70 6f bd e0 8a 6e bd 18 79 50 3c 4f e4 9f 3d
       -0.05845713 -0.05823791 0.0127241835 0.07807218
000060 92 91 68 bd 89 2e d1 bc e7 27 a2 3d f1 3e 38 3d
       -0.05677945 -0.025534885 0.07917767 0.0449819
000070 f0 ed e0 bc f8 7f 93 3d 3c 57 c5 3d b1 d4 8b 3d
       -0.027457207 0.072021425 0.09635779 0.06827677
000080 57 d1 b9 3d f6 11 18 bd 81 14 87 3a fd 46 40 bd
       0.090731315 -0.037126504 0.0010305793 -0.0469427
000090 1d ac 1e bc d3 e2 8a bd 67 7b ec 3d 62 1c 15 bc
       -0.00968459 -0.067815445 0.11546975 -0.009101005
0000a0 83 a2 60 bd cd 4f 40 3d 08 94 5a bd bc b5 b1 3c
       -0.054842483 0.046951104 -0.05336383 0.021693103
0000b0 a6 de 08 bd 2d a7 43 3d 25 ab f3 3d e3 57 83 3d
       -0.03341546 0.047766853 0.118978776 0.064132474
0000c0 e1 05 08 3d b5 f6 b2 3d e6 68 6b bd 9e 24 4a bd
       0.03320873 0.08738462 -0.057473086 -0.049351327
0000d0 e2 12 7f bb ed 0f 02 3b 88 e9 a7 3c 13 6d 8f 3c
       -0.0038921167 0.0019845918 0.020497099 0.017508065
0000e0 a9 48 3d be 75 32 b4 bd 9d f3 7d 3d 27 79 a3 bc
       -0.18484749 -0.087986864 0.061999906 -0.01995523
0000f0 e9 c8 c2 3d dc 48 d4 3d 3f fd 9e 3d 60 ac d6 3d
       0.09510977 0.10365459 0.077631466 0.10482097
000100 1e 97 3f 3d b4 07 c1 3d 99 f3 82 bd 7c 0b 09 3d
       0.046774976 0.094252974 -0.06394119 0.033458218
000110 4e 03 e5 3d 38 b2 a8 3c ea 23 12 be a4 13 69 bc
       0.11182271 0.020592794 -0.14271513 -0.014225874
000120 e3 e4 cd 3c b8 4b 2a bd e8 f4 13 bc b8 59 b8 bd
       0.025133556 -0.041576117 -0.009030558 -0.090014875
000130 2f 63 84 3d ea bc 8b 3d b3 5f fe 3c 1d 4e ca 3c
       0.0646423 0.06823142 0.031051492 0.02469545
000140 21 c0 28 3e 5c 2c cd 3d 0a a7 08 bb 0d 99 c9 3d
       0.16479541 0.100182265 -0.0020851516 0.09843645
000150 ff b2 de 3d 84 a6 87 bd 6a 31 05 3d 0f ed 70 3d
       0.108739845 -0.06623557 0.032517828 0.058819827
000160 49 fb e9 3d dc fc e8 bc 9e 5b 08 bd 14 df 80 3d
       0.11424882 -0.028440885 -0.033290498 0.06292549
000170 b7 72 c0 3d ea 57 25 3c bd fb c2 3d ef 1a 24 3d
       0.0939688 0.010091761 0.095206715 0.04006475
000180 7d e4 9d 3d b9 23 e2 3c 7e 10 90 3d 06 a0 c5 bd
       0.07709596 0.027604925 0.07034396 -0.09649663
000190 53 c5 1b 3d 06 71 1b bd ff 40 2e 3d ca e6 03 bd
       0.03802998 -0.037949584 0.042542454 -0.03220252
0001a0 06 fa 69 3d b7 4b 85 3d e4 5a 5c 3d 0a 7e 9e bc
       0.057123207 0.06508582 0.053797618 -0.01934721
0001b0 c5 0b 8f 3d 3e 07 c2 bc 8e 5f 13 3d c7 54 10 3d
       0.06984667 -0.023685094 0.0359798 0.0352371
0001c0 5e 55 d0 3a 07 dc fb ba 93 d1 85 bb 67 89 a5 bc
       0.0015894582 -0.0019215354 -0.004083821 -0.02020712
0001d0 03 eb 04 bd cc 9d 90 bc 5a bf 48 bd 3e ca d6 3d
       -0.032450687 -0.017653368 -0.049010612 0.104877934
0001e0 95 02 bf bc 11 26 69 3d 3b e8 0f bd 2d 6b 42 3d
       -0.02331666 0.05692107 -0.03513358 0.047465492
0001f0 26 6d 40 bd 43 d2 8c 3d 07 b9 15 3d 33 7e 18 3c
       -0.046979092 0.06876042 0.03655341 0.009307432
000200 a0 e7 6d bc c8 df b0 3d 2d 01 d7 3d 78 a2 2d 3d
       -0.014520556 0.08636433 0.10498271 0.04239127
000210 ee 93 ee 3d af 1b 89 3d ef f0 50 3c 58 d0 30 3c
       0.11649309 0.06694733 0.012752756 0.0107918605
000220 10 05 e0 3d f5 c2 d9 bc 14 21 07 3d 75 74 f1 3d
       0.109384656 -0.02658222 0.03299053 0.117897905
000230 45 0b 34 bd 10 8c 88 3b 62 17 a9 bc ba 42 a9 3c
       -0.04395606 0.0041670874 -0.020641033 0.0206617
000240 d7 23 89 bd 21 9a 7d 3d 0a a1 21 3c 74 08 e7 3c
       -0.06696289 0.061914567 0.009865055 0.028202273
000250 73 23 20 3e fb c8 13 bc 70 88 04 bd 5b c0 56 3d
       0.15638523 -0.009020085 -0.03235668 0.05242954
000260 59 94 a3 bb bd d4 a8 3d 07 43 9a 3d 2e ff e1 bc
       -0.0049920497 0.082437016 0.07532316 -0.0275875
000270 c6 40 d8 3d 45 e5 d6 bc f0 b4 c3 3d 52 0e ce bc
       0.105592296 -0.026232371 0.095559955 -0.025153313
000280 19 39 4d 3d 23 4b d6 3d b3 cd a0 3d 88 a1 c7 3d
       0.05010328 0.1046355 0.07851734 0.097476065
000290 35 a8 2a bd 26 c0 ad 3d 05 11 cc bc 15 29 60 3d
       -0.04166432 0.08483915 -0.02491046 0.05472668
0002a0 96 78 13 3d 54 86 9b 3c 75 80 8d bb f0 2d cb 3c
       0.03600367 0.018984951 -0.004318292 0.024802178
0002b0 24 05 75 bd ee dc 99 3d 6c 57 99 3d 48 6c c6 3d
       -0.059819356 0.07512842 0.074873775 0.09688622
0002c0 26 bb cc bb f4 32 20 bd c7 b4 b1 3c 07 6a b0 3d
       -0.006247896 -0.039111093 0.021692647 0.08613973
0002d0 a8 75 d3 3c 93 f8 74 bc 2b 9d e2 bc 35 5b 4f 3d
       0.025812939 -0.014951843 -0.027662834 0.05062409
0002e0 a6 22 c5 3c db 4c 1e 3c 32 37 30 3d 9a a1 be 3c
       0.024064373 0.009661878 0.04302139 0.023270417
0002f0 a0 ac 8b 3c f5 75 55 bd 7b cf d9 3d e9 c1 a6 3d
       0.017050087 -0.052114446 0.10635277 0.08142454
000300 31 51 55 3d 73 82 bd 3d 4d b1 5b 3c a1 d5 c0 3d
       0.052079383 0.09253397 0.013408971 0.094157465
000310 1e c3 8b 3d 68 c9 7b bd 67 f4 76 3d e7 b0 de 3d
       0.06824325 -0.061471373 0.060291674 0.10873585
000320 31 fb 99 3d fa cb 95 3c 1e e6 53 bd 5c 10 ed bc
       0.07518614 0.01828574 -0.05173313 -0.028938465
000330 6e 5c 66 3c 00 04 a2 3b 0e 52 28 3d 99 0b 25 bd
       0.014060123 0.0049443245 0.04109388 -0.040294264
000340 1f 14 dd 3d 7a bc 81 3d ae 67 87 3d 28 39 4b 3d
       0.107948534 0.06334777 0.06611572 0.049615055
000350 bb 01 a6 3d 3b 71 42 bd f7 cb 66 3d a3 02 49 bd
       0.08105799 -0.047471266 0.05634686 -0.04907478
000360 2a dc 01 bd d9 25 99 bc 3b 0a 34 bd 47 3f c2 3d
       -0.031704105 -0.018694805 -0.04395507 0.094847254
000370 27 a0 f4 3d d1 fa 4c 3d f2 6e 79 bd 93 84 84 bd
       0.11944609 0.050043885 -0.06089682 -0.06470599
000380 9c 8d 98 3d ec 17 b5 3c c8 ff 24 3e 60 bd 8b 3d
       0.07448885 0.022106133 0.16113198 0.0682323
000390 9b 5a 77 bd c2 68 74 3d 6c 37 e2 3d b5 89 51 3d
       -0.060389142 0.059670217 0.11045727 0.05115672
0003a0 f6 50 06 bd 23 a7 d5 3d ca 57 e0 3d d3 aa 0a 3d
       -0.032792054 0.104322694 0.109542444 0.033854317
0003b0 56 8b 4d ba 17 73 12 bd 03 8d 2a 3d 07 91 c1 3c
       -0.0007840892 -0.03575429 0.041638386 0.023628725
0003c0 6a b6 21 bd ef e3 c8 bc e9 27 93 bd f0 1b 91 bc
       -0.039480604 -0.02452275 -0.07185347 -0.017713517
0003d0 91 3d c1 3d 71 91 95 3d 6b 1c fe bc e1 04 d8 3d
       0.09435571 0.07303131 -0.03101941 0.105478056
0003e0 5c 2d a1 3d 2e 09 21 3a 99 ba 7a 3d 94 b4 11 3d
       0.0786998 0.00061430305 0.06121311 0.035572603
0003f0 e9 e1 06 bb c1 fa 11 bc 49 ba d4 3d 6e 41 a4 bc
       -0.002058143 -0.008909882 0.103870936 -0.02005073

lstm.bias_hh_l0 f4 [512]
000000 b9 19 6e bd 9f 9b 1a bd 6d 36 85 3d c8 49 fa bc
       -0.05813 -0.037746068 0.065045215 -0.03055276
000010 6a 9a 57 bc 1a d3 0a 3d 07 7d cd bd 0d 8b 07 3e
       -0.013159374 0.03389273 -0.10033613 0.13236637
000020 12 72 30 3d d0 c7 d5 3d d8 1f a6 3d bf 58 71 bc
       0.043077536 0.10438502 0.081115425 -0.014730631
000030 eb c4 ea 3d b3 ac 64 3d 43 90 d2 3d fc ae 81 bd
       0.1146334 0.05582876 0.10281422 -0.06332204
000040 7b c2 ab 3d 4c 8e 78 3d 80 1f 31 3a 32 68 02 bd
       0.083867036 0.06068258 0.0006756708 -0.03183765
000050 87 46 d0 bd 75 9c 48 bd 42 6c 90 3d c8 55 a9 3c
       -0.10169702 -0.048977334 0.070518985 0.020670786
000060 73 e8 93 bd 0b 79 22 3d c7 5d d5 bc 91 06 c6 bd
       -0.072220705 0.039666217 -0.026045693 -0.09669221
000070 d7 20 b1 bc 2c 7a 82 3d 12 c9 ad 3c d5 d7 8f 3d
       -0.021622105 0.06370959 0.021214042 0.070235886
000080 72 45 03 3d 83 31 a3 3c 81 5b 9a bd 75 1e 37 bd
       0.03204865 0.01992107 -0.07536984 -0.04470678
000090 34 62 9d 3c 26 a2 11 3c 01 e2 05 3e d4 e7 81 bd
       0.019211866 0.008888757 0.13074495 -0.06343046
0000a0 55 4d b6 bc bc 06 5a bd 06 45 ba 3c 0a 9c 70 bd
       -0.022253672 -0.05322908 0.022737991 -0.05874256
0000b0 03 85 8e bb 38 7b c6 3d 11 38 be 3d 61 e2 b1 3c
       -0.0043493523 0.09691471 0.092880376 0.021714391
0000c0 eb 02 dc 3c 9d f4 b2 3d 2e c0 8b bd 80 23 db bd
       0.02685686 0.087380625 -0.06823765 -0.107001305
0000d0 b3 27 76 bd bd 4e 41 bc ae 08 15 bd 77 4e 34 3d
       -0.060096454 -0.011798558 -0.03638523 0.044020142
0000e0 71 84 19 be fa 90 b8 bd 7a 53 e5 bc 82 7b 88 bc
       -0.14991929 -0.09012027 -0.027993906 -0.016660456
0000f0 e3 56 35 3d c7 76 b2 bc 95 80 11 bd 97 40 73 3d
       0.044272315 -0.021785153 -0.035523016 0.05938777
000100 c4 13 cd 3d ef 28 ea 3d 1b 78 81 bd 0b 2d a4 bd
       0.100135356 0.11433589 -0.063217364 -0.08016404
000110 75 46 d2 bc 33 0f 2a bd 4f 06 c4 bd ab 3a 35 bd
       -0.025668362 -0.0415184 -0.09571516 -0.044245403
000120 af 93 df bc 2a 12 b1 3c 81 3a b4 3d 90 19 10 bd
       -0.0272921 0.021615107 0.08800221 -0.03518063
000130 45 60 5d bc fe 7a 44 3d 4f 43 66 3c d9 c0 11 3d
       -0.013511722 0.047968857 0.014054134 0.035584304
000140 76 14 37 3d ce 78 44 bd 13 fe c0 3d 26 f1 f1 3d
       0.044697247 -0.04796677 0.09423461 0.118135735
000150 15 e1 90 3c 74 8a 81 3d 14 d3 7e 3d 31 be 24 bd
       0.017685452 0.06325236 0.06221302 -0.040220443
000160 95 ba c0 bc 40 0b a0 ba a2 1c 40 3c 28 de aa 3d
       -0.02352647 -0.0012210384 0.011725577 0.08343154
000170 f6 88 41 3d d1 20 5e 3d bc 18 ad 3d 6e 2d d4 bc
       0.047249757 0.054230515 0.08451983 -0.025900569
000180 66 5f de bb 5d 30 24 bd 92 74 80 bd fc 60 ac bd
       -0.0067862747 -0.040085185 -0.06272234 -0.08416936
000190 ed 0a 84 3d a0 d3 45 3d 4f 5f 86 3b bd f8 88 3d
       0.064473964 0.048297524 0.004100717 0.06688068
0001a0 0b 4e ae 3d 05 39 6f 3c 7e ba 8d 3b 12 c8 c9 bc
       0.08510979 0.014600997 0.00432521 -0.024631534
0001b0 3b 3f 73 3c eb a2 5a 3d b0 a0 82 3b 92 0f 6b 3d
       0.014846618 0.053378027 0.0039864406 0.057387896
0001c0 08 20 1a bd fc 8f 92 3b e3 7d bc bd 45 04 d5 3c
       -0.037628204 0.0044727307 -0.092036985 0.026003012
0001d0 e9 d2 d0 bd d6 c3 dc 3d 9b 14 2c 3d bb ed 84 3d
       -0.10196478 0.1077954 0.04201184 0.06490656
0001e0 16 56 0d 3d 6a 08 b7 3d cf 17 59 3d 26 e2 05 3d
       0.034505926 0.08937152 0.05300122 0.032686375
0001f0 7a 2f 0c be 50 82 1b bd 95 c9 a0 bb 19 96 28 3c
       -0.13689986 -0.037966073 -0.004906843 0.010289692
000200 38 80 ec bc 3f 3d 09 bd fe ef f8 bc e1 7f a2 3d
       -0.028869733 -0.033505674 -0.030387875 0.07934547
000210 0a 3f 48 bc 29 39 79 bd 86 a3 00 3e 58 41 16 3d
       -0.012222061 -0.060845528 0.12562379 0.03668341
000220 e2 ba 72 bd 3d 98 c3 3d 45 6d 28 3d bc cd 8f 3d
       -0.059260257 0.095505215 0.041119833 0.070216626
000230 45 ed 01 bd 9f 6d 75 bd 2b 79 33 bd a7 dc 64 bd
       -0.03172042 -0.059918996 -0.043816727 -0.055874493
000240 a0 4f 1c 3d bc c7 ab 3d 2a cc 0a 3d 95 29 0d bd
       0.038161874 0.08387706 0.033886112 -0.034463484
000250 d5 e3 f3 3d 45 3a c1 3d fe 3c 3e 3d 81 c0 e4 3b
       0.1190869 0.09434942 0.046444885 0.006980956
000260 37 bc b3 3b 45 ab a3 3c 2d d2 63 bd 5d 33 05 bd
       0.0054850834 0.019979129 -0.05562036 -0.032519687
000270 59 58 67 bc 25 a5 9f 3d a4 fc b2 3d 59 34 b0 3d
       -0.014120185 0.07795171 0.087395936 0.086037345
000280 f0 61 5a 3d d6 13 60 bc 6e 17 d0 bc 04 89 a4 3d
       0.053316057 -0.013676604 -0.025401797 0.08033946
000290 f6 37 63 bd de 6a 18 bb 1b 0e ff 3d 7b ae 88 bd
       -0.05547329 -0.0023257057 0.12453862 -0.066739045
0002a0 8a 43 40 bc 44 10 99 3b 22 54 3e 3d b9 97 99 3d
       -0.011734853 0.0046711285 0.046466954 0.07499642
0002b0 b0 4f e6 3b 1c 72 e3 3d 75 ee 86 3d f6 e4 68 3d
       0.0070285425 0.11105749 0.06588451 0.05685898
0002c0 bc e4 68 3d 25 01 a3 3d 31 68 59 3d 85 aa f3 bc
       0.056858763 0.07959203 0.05307788 -0.029744396
0002d0 94 d6 83 3d ee 2a 1e bd da c6 91 3c 34 db 5a 3d
       0.06437412 -0.03861516 0.017795015 0.053431705
0002e0 c5 a6 7c bc c3 c8 91 3d f2 3f 7d bc 3b d1 5a 3d
       -0.01542062 0.071183704 -0.01545714 0.053422194
0002f0 64 64 5c bd 50 f5 2d 3d 4a 90 d7 3d a5 c2 b5 3d
       -0.053806677 0.042470276 0.10525568 0.08875016
000300 d0 ee 41 bd ab c9 b1 3d 8e c6 84 3c 35 27 cc 3d
       -0.04734689 0.08681043 0.01620796 0.09968416
000310 9e 90 9e 3c 5d 26 52 3d 3d c7 2c 3e d6 de cb bc
       0.019356068 0.051306117 0.16872878 -0.02488653
000320 6c 4b a4 3d 89 21 2c 3d 3d d5 2e bd ff 7f c8 3d
       0.08022198 0.04202417 -0.04268383 0.09790038
000330 83 3f 72 bd 26 fa 88 3d df b9 7a bd 61 c8 7f bd
       -0.0591426 0.06688337 -0.061212417 -0.062446956
000340 2c 20 59 3d 0d ed b0 3d 58 b2 98 bc 3f ee aa 3c
       0.053009197 0.08638964 -0.018639728 0.020865558
000350 6b 09 a0 bb f1 ad 84 bd 9b 68 07 bd f2 f8 ac bc
       -0.004883935 -0.06478489 -0.033058744 -0.0211148
000360 06 74 6a 3d d3 71 f8 bb ce 7f 98 bc 05 ef 83 3d
       0.057239555 -0.0075819283 -0.01861563 0.06442074
000370 37 68 c6 bc 97 76 58 bc 13 28 07 3d af 63 5b 3d
       -0.024219615 -0.013211868 0.032997202 0.053561863
000380 ff bc 0d 3c f4 23 a1 3d be b7 bf 3d e8 eb 9b 3c
       0.008651017 0.07868186 0.09361218 0.019033387
000390 19 fa 4c 3d 47 d7 e7 3d fc 0e 43 3d ca 36 e5 3d
       0.0500432 0.11320358 0.047621712 0.11192091
0003a0 21 59 5e bd 8a 50 8f 3d 22 be 4c bd 81 92 48 bd
       -0.05428422 0.069977835 -0.049986012 -0.048967842
0003b0 df c9 c7 3d c9 cb fe 39 2e 1c e7 3c 55 97 a1 3c
       0.09755301 0.00048598487 0.02821168 0.019725481
0003c0 d0 2f 8e 3c 0a 13 c2 3c 9b 60 22 3d d7 e0 1a 3d
       0.017356783 0.02369072 0.03964291 0.03781208
0003d0 44 b1 a6 bb 45 8d 46 3c 96 c5 86 bc ec 25 3b 3d
       -0.0050870497 0.012118642 -0.016451638 0.045690462
0003e0 10 e9 e5 bc f5 8e 23 3d d2 56 e0 3d 8f 6a 2d bd
       -0.028065234 0.039931256 0.1095406 -0.04233795
0003f0 13 e7 9e bb b4 9c 4e bd b1 54 a4 3c 9e 64 aa bd
       -0.0048493235 -0.050442412 0.020059915 -0.083199725

lstm.weight_ih_l1 f4 [512, 128]
000000 e2 2e ac 3d 85 3c 6a bd 85 9e 18 3d 6b d4 1d 3d
       0.0840738 -0.057186622 0.03726055 0.038532656
000010 70 99 b3 bd 3f 0c 00 3d 29 16 a4 bd 38 3e a7 3d
       -0.087695 0.03126168 -0.08012039 0.08166164
000020 03 a5 d4 bc 4d 8f c1 bc 33 ad 84 bd 28 80 83 bc
       -0.02595759 -0.023627901 -0.06478348 -0.01605232
000030 3f e7 b6 3c 68 70 31 bd 49 c9 ae bc 92 21 61 3c
       0.022327064 -0.04332009 -0.021336215 0.013740914
000040 8b 74 9a 3d 2b e8 b8 3b e8 f2 67 3d d2 e8 77 3d
       0.0754176 0.005642911 0.056628138 0.06052477
000050 43 1c 1b be 4c 19 20 3d 34 ce 02 bd bc a0 7d 3a
       -0.151475 0.039086625 -0.031934932 0.00096751354
000060 d1 83 e3 3c 27 72 c6 3c 0d 1a e3 39 d7 64 b1 bd
       0.027772816 0.024224354 0.00043316223 -0.08661812
000070 e6 c7 db bc 7a c0 25 bd 67 d3 43 bd 19 50 d5 3c
       -0.026828717 -0.040466763 -0.04780903 0.02603917
000080 ad 70 16 3d 9e c5 9d 3c 43 2d b2 bd 6b 84 8c 3c
       0.03672855 0.01925927 -0.08700039 0.017152986
000090 45 26 42 bd 50 ea 99 3c 7f 10 82 bd bc 80 49 3c
       -0.047399778 0.018788487 -0.06350803 0.012298759
0000a0 d5 a1 bc bc 67 79 c1 3c fa 03 1c 3d 6e 98 8f bd
       -0.023026386 0.02361746 0.03808973 -0.070114955
0000b0 e2 5c 70 3c 93 4b 8d 3c b0 77 9b bd 6e d2 e1 3d
       0.0146705825 0.01724795 -0.07591188 0.110264644
0000c0 cd 34 3e 3d 96 86 c8 bc f6 06 80 3b 17 07 87 bc
       0.046437073 -0.024478238 0.00390708 -0.016482873
0000d0 c0 e8 4d bd 00 42 5f 3d ce 5c 0d 3d 9f 7d 20 bb
       -0.050270796 0.054506302 0.034512334 -0.0024488939
0000e0 30 0b bc 3d 0a 42 f6 3c 93 22 b4 bd e0 89 90 bd
       0.09181821 0.030060787 -0.08795657 -0.070575476
0000f0 75 c1 94 bd f6 02 ae 3c a2 ac 80 3d e1 92 a5 bd
       -0.072634615 0.021241646 0.06282927 -0.080846556
000100 84 6c 95 bd f1 a7 7b 3d 4d 46 3a 3c 5e 48 17 ba
       -0.07296088 0.06143946 0.0113693 -0.00057709764
000110 bf 1f 8f 3d 19 82 79 bd d0 9a 56 be eb b1 95 bd
       0.06988477 -0.060915086 -0.20957494 -0.07309326
000120 0b 2d 8d 3b 90 89 4c bc 25 a0 3c bd 2f 36 8d bd
       0.004308348 -0.012483969 -0.046051163 -0.068951
000130 fd 5d e9 3a de 7d 45 bd 57 4e 8b 3d 68 89 d5 bc
       0.00178045 -0.04821574 0.068020515 -0.026066497
000140 e5 3c 18 3e ed 73 b9 3c d0 ea d2 3c 7a e5 95 bd
       0.1486698 0.022638286 0.025746733 -0.0731916
000150 05 7a 17 3a f2 bd 4f bd 60 23 be bd cf 9d 7d 3d
       0.0005778375 -0.050718255 -0.09284091 0.061918076
000160 47 91 58 bd b0 3b b0 bd 72 0e c6 3d 8c f6 51 3b
       -0.052872922 -0.086051345 0.09670724 0.0032037823
000170 5e 29 6d 3c 28 4d 56 bd b9 40 5d 3d d0 b3 88 3d
       0.014475195 -0.052319676 0.054016802 0.066749215
000180 c3 b8 76 3d e2 67 90 3d 28 3f 4f 3d e0 25 49 3d
       0.060234796 0.07051064 0.05059734 0.049108386
000190 37 40 9e 3d af f0 af 3d a3 17 19 3e 78 c7 2e 3d
       0.07727092 0.085908286 0.14950423 0.042670697
0001a0 3b 75 96 bd c1 02 1f bd ad 57 a0 bd 58 ea 38 3c
       -0.07346579 -0.038820986 -0.07829223 0.011286341
0001b0 b4 c4 27 bd 00 1e a2 bd c5 dd eb 3b de 65 91 bd
       -0.040959075 -0.07915878 0.007198068 -0.07099508
0001c0 3d f4 e2 3c 62 e3 d3 bc 52 65 7c 3c 15 ef e3 3c
       0.027704353 -0.02586526 0.015405016 0.027823964
0001d0 f4 8d 8a bd 09 40 a6 bd eb 0a 02 3d 1a 69 71 bd
       -0.06765357 -0.081176825 0.031748693 -0.058938123
0001e0 2e 1c af bc fa c7 77 3d 7b 84 55 bd 21 41 4d bd
       -0.021375742 0.060493447 -0.052128296 -0.05011094
0001f0 ba 1c c0 bd 39 c6 83 bd 2f a9 1f 3d fd b0 f6 bc
       -0.09380479 -0.06434292 0.038979705 -0.030113691
000200 c5 91 8c 3d 67 94 1c bd a9 8c 31 bc 08 36 82 3c
       0.06863741 -0.038227465 -0.010836759 0.015894905
000210 02 6a 92 3c 27 52 03 bd f4 aa 0e 3d 0d f6 32 bd
       0.017872814 -0.03206077 0.034831002 -0.043691684
000220 11 83 82 3d 9c 2a 99 bd e4 f2 3b 3d 76 ac 1f 3d
       0.06372655 -0.0747883 0.045885935 0.03898283
000230 7e a5 8b bd 55 6d 75 3d 44 8e c5 bd 5c dc be 3c
       -0.068186745 0.05991872 -0.09646276 0.023298435
000240 45 56 d3 bc ec c4 44 3b 99 4b 1d 3d 29 95 63 bd
       -0.025797972 0.00300246 0.038402174 -0.055562172
000250 8d 73 92 bd e3 cf 16 bd 6d 4f 7c bd 53 fb 98 bb
       -0.07150946 -0.03681935 -0.061599184 -0.004668632
000260 20 41 3a bd 00 17 bf bd 90 83 88 3d 6a 74 81 3d
       -0.045472264 -0.09330559 0.066657186 0.06321032
000270 08 b1 59 3d 9c fa 6d bd 9f 1c 74 bd 46 58 3a 3b
       0.053147346 -0.058100328 -0.059597608 0.0028433963
000280 b9 db fd bc 86 06 7b 3d c1 41 43 bd 29 c1 89 bd
       -0.030988561 0.061285518 -0.04767013 -0.067262955
000290 c3 71 dd bd 52 79 31 3d 40 e4 55 bd 54 b8 38 bd
       -0.10812714 0.04332859 -0.05221963 -0.045097664
0002a0 18 b7 82 3c 68 3f ab bc d4 10 bd bd ea 80 a0 3d
       0.015956447 -0.020904258 -0.09231725 0.078370884
0002b0 4c 66 91 bd f8 41 43 3d e8 27 f5 bb cf 5a 07 3d
       -0.0709959 0.047670335 -0.007481564 0.033045586
0002c0 65 6c 22 bd b0 5f f9 bc 7d 65 aa 3d 47 6b 3c bc
       -0.039654154 -0.030441135 0.083201386 -0.011500186
0002d0 83 10 3b 3d d3 d7 8d 3d e1 59 3a bd c8 52 79 3c
       0.045670044 0.06925931 -0.04549587 0.0152174905
0002e0 7b 2a 6d 3d 6d 87 a2 3d b6 29 3d 3d 4c 5b 46 bc
       0.05790184 0.07935987 0.046182357 -0.012106728
0002f0 56 c9 c3 3c 6d dd ce bd 4d 09 70 3c 4d d8 ce 3b
       0.023899715 -0.10100827 0.014650655 0.006312406
000300 61 23 bc 3d 4b f8 53 3d cc c2 3e bd 22 22 32 3d
       0.091864355 0.051750463 -0.04657249 0.043489583
000310 d1 cc 97 3d a0 22 2c 3d 7a 56 68 3d ad 23 0e 3d
       0.074121125 0.04202521 0.056723095 0.03470199
000320 91 72 d0 3d ae 8c 47 bd cc 9a cf bd b6 24 01 3d
       0.10178102 -0.048718147 -0.10136947 0.03152915
000330 fa 6e 32 bd 4f 94 aa 3a fa 77 19 bd 3f c1 5c bd
       -0.043562867 0.001301417 -0.037467934 -0.05389523
000340 a8 25 df bc c8 6c 09 bd 78 0e 0e bd eb 65 78 3d
       -0.027239636 -0.033551008 -0.034681767 0.06064407
000350 38 8a 9c 3d 40 77 2e 3d d8 7c 0e 3a a0 0e b8 bd
       0.07643551 0.042594194 0.0005435473 -0.089871645
000360 71 40 e2 3d 77 2d b7 bc 17 9b 6b 3d af f1 7f 3d
       0.110474475 -0.022360547 0.057520952 0.062486347
000370 58 9b bb bc 7d d4 b0 bc 4c d7 5d bd 87 59 33 bd
       -0.022901222 -0.021585697 -0.0541604 -0.04378655
000380 7f 0f 4a 3d ee b8 f5 3c f1 81 2c bd a4 88 5b bc
       0.049331184 0.029995408 -0.04211611 -0.013399277
000390 7f 08 33 bd 64 25 a6 3d 4e 40 b5 3c ad 56 1b bd
       -0.043709274 0.081126004 0.02212539 -0.037924457
0003a0 37 05 c8 bd 63 9f 57 3d cd 40 76 bd 7b 89 6b bd
       -0.0976662 0.052642237 -0.060120393 -0.05750416
0003b0 c4 2d 40 3d 94 46 47 bd 9a cc 17 3d 49 2b 39 3c
       0.046918646 -0.048651293 0.037060358 0.011301824
0003c0 d2 0b b4 3c dc 7f e3 3d 56 eb a2 3c b3 cd b3 bc
       0.021978293 0.111083716 0.019887608 -0.021948671
0003d0 95 84 c7 3d 85 8b 97 3c ab c6 c8 bd 08 f1 24 3d
       0.09742085 0.018499145 -0.09803518 0.040268928
0003e0 93 87 ad bc 83 ad 67 3d dd e3 36 3d a5 65 db bc
       -0.02118281 0.056561958 0.0446509 -0.026781866
0003f0 ce 6d df bc f2 a1 5a 3d 88 29 35 3d 90 a2 5e bd
       -0.027274039 0.0533771 0.04422906 -0.05435425

lstm.weight_hh_l1 f4 [512, 128]
000000 77 25 ca bc a4 7b 62 bd 64 62 4b bd 58 d6 df 3c
       -0.024676068 -0.055293694 -0.04965438 0.027323887
000010 f4 96 af 3d 12 db 16 bd ee 12 99 bd 05 da 8c bd
       0.08573714 -0.036830015 -0.07474314 -0.068775214
000020 71 9f d4 bd 1a ee 58 3c 0b 92 b5 bb cc c4 12 bd
       -0.103819735 0.013240362 -0.0055410913 -0.03583221
000030 88 0f 3a 3d 72 a4 ef bc 96 7d 2a 3c 51 77 e7 bc
       0.045424968 -0.029253218 0.010405919 -0.028255137
000040 e0 68 7f 3d 7a 00 4b bd a9 3d 39 3d 9b a7 ab 3c
       0.062355876 -0.049561 0.04522482 0.020953944
000050 75 28 6a bd 9f 18 97 bd 81 0a 52 bc 47 42 04 bd
       -0.05716749 -0.07377743 -0.012819887 -0.03228977
000060 1b 82 22 bc 9a dd 9e bb b8 4e 2f 3d ee 00 99 3d
       -0.009918715 -0.0048481943 0.04279968 0.074708804
000070 3b 8e b2 3c 10 ff 4e 3b ff 28 af 3d e8 ee 70 3c
       0.021796336 0.0031585135 0.08552741 0.014705397
000080 ad 07 96 bc 2f 2e be bd f0 18 39 3d 69 4c 5d 3d
       -0.018314207 -0.092861526 0.045189798 0.05402795
000090 a1 20 87 bd 6f 99 81 bd 8b 6a 62 3d ba 14 b2 3d
       -0.0659802 -0.06328093 0.05527739 0.086953595
0000a0 9c b9 dd 3d ca f9 40 3d 74 75 3b 3d 36 67 42 bc
       0.10826418 0.047113217 0.04576631 -0.011865428
0000b0 e6 03 16 bc 72 8e c4 3d 58 79 85 bb 1e bd 82 bd
       -0.009156203 0.09597482 -0.004073303 -0.063837275
0000c0 53 d7 83 3c 2a c8 ca 3d e2 90 f9 3c c0 1e 34 bc
       0.016093886 0.099014595 0.030464593 -0.0109936595
0000d0 be 7c 09 bd df 68 96 bd ad 34 43 bc be d1 a5 3d
       -0.03356623 -0.07344221 -0.011914414 0.08096646
0000e0 37 0d ac 3c 00 9d 24 bd d8 58 9e bd 2a 74 e8 3d
       0.021002395 -0.04018879 -0.07731789 0.113502815
0000f0 5c c9 82 3d 3f ad df 3c 6c 74 23 bc f7 94 9f 3d
       0.063860625 0.02730429 -0.009976488 0.07792085
000100 96 64 05 3d d4 65 ae 3d 2b 72 f8 bc 78 0b 7e bd
       0.03256663 0.08515516 -0.030327877 -0.062022656
000110 c5 b7 59 3d 61 6b 19 3d 9f 14 8d bd f2 01 46 bd
       0.053153772 0.03745592 -0.06888699 -0.0483417
000120 d4 53 73 3d 97 82 ac bc cf 96 0c bd 46 58 89 3d
       0.059406117 -0.021058364 -0.03432351 0.0670629
000130 d8 78 68 bd ed b8 97 3c 7f 28 2f 3d d4 4c 53 3d
       -0.05675587 0.018520797 0.04276323 0.05158694
000140 55 6c c1 bd b6 e8 e4 3c 80 70 76 bd 14 55 84 bd
       -0.09444491 0.027942996 -0.060165882 -0.0646154
000150 4b ad 87 bd 7a 5a a7 bd c0 59 a1 bd dc 7d fb 3d
       -0.0662485 -0.08171554 -0.078784466 0.12279865
000160 0b 76 4d bc dd 78 91 3c 20 7b a2 bd 43 b9 b9 bd
       -0.012540351 0.017757827 -0.079336405 -0.09068539
000170 3f 5d 8e 3d 20 d8 8b bd 8c b8 1b 3c a0 43 0c 3d
       0.06951379 -0.06828332 0.009504449 0.03424418
000180 0c 3f a7 3c a6 32 86 bd 55 89 91 3d 91 84 f8 bc
       0.020415805 -0.06552629 0.07106272 -0.03033665
000190 11 9b 98 3d 91 a2 6d bd 13 60 d0 3d 91 e7 a6 bd
       0.074514516 -0.058016364 0.10174575 -0.081496365
0001a0 a0 e0 49 3d f4 96 c7 bc 12 7c a0 3c 25 4b e3 bc
       0.049286485 -0.024363972 0.019590411 -0.027745793
0001b0 19 8c 22 bc a6 7a 58 3c 6b d9 40 bd 87 66 fb 3c
       -0.009921097 0.013212835 -0.047082346 0.030688537
0001c0 1e ab 6e bc 0d dd 3d bd e8 09 60 bd e6 7e 1e bc
       -0.014567165 -0.04635339 -0.054696947 -0.00967381
0001d0 19 9e 06 3d 54 87 bb bd 5e 6e 6c 3d 24 e8 99 bd
       0.032865617 -0.09156671 0.05772244 -0.075149804
0001e0 57 4d 4c bd 0f 7c cb bd cc 84 e5 bc c4 7c f7 3b
       -0.049878445 -0.09935772 -0.028017424 0.007552715
0001f0 aa ba a4 3c 37 34 b9 bd 86 dd 83 3d f6 9f 8a bd
       0.02010854 -0.09043162 0.064387366 -0.067687914
000200 7d 40 16 bd 73 1c bc 3c 03 ae 97 bd 8d e1 d4 3c
       -0.036682595 0.022962784 -0.07406237 0.025986457
000210 45 1e eb 3b 79 b8 7d 3d bf f0 52 3d e8 95 a6 3c
       0.0071752393 0.061943505 0.051499125 0.020335153
000220 be c6 e0 bc ce 5c a5 3d 7a aa 2b bd f8 44 d4 3d
       -0.027438518 0.08074342 -0.041910626 0.10364717
000230 be 00 e2 bd de 61 64 bc b6 fd 6e 3b ae 56 1c 3d
       -0.11035298 -0.013939349 0.0036467141 0.0381686
000240 b5 c2 31 3d 48 14 78 3d e7 f8 84 3d 85 12 42 3d
       0.043398578 0.060566217 0.06492787 0.047380943
000250 91 cf 34 bd 15 a6 51 bd 8d bf 98 bd 76 28 92 bd
       -0.044143263 -0.05118378 -0.074584104 -0.071366236
000260 22 b2 21 bb cb 6e b3 bc 37 e4 4b 3d 6c 54 12 bd
       -0.0024672826 -0.021903416 0.04977819 -0.035725042
000270 7e 16 c0 bd 4e aa 5a 3d a2 86 04 3d df f9 44 bd
       -0.0937929 0.05338507 0.03235496 -0.04808986
000280 f6 33 8a 3d e4 81 ae bd 39 f2 07 bd 5a ec a4 bd
       0.06748192 -0.085208684 -0.033189986 -0.08052893
000290 6a aa a9 3d 70 c9 46 bd 15 5c 3c 3c 5c ec 52 bd
       0.08284457 -0.04853195 0.011496563 -0.05149494
0002a0 e8 c4 02 bc f0 80 8b 3d c0 0b b3 3d 37 00 17 bb
       -0.007981516 0.06811702 0.087424755 -0.00230409
0002b0 81 00 8b 3d a1 c7 64 bd 09 cb 36 3d 27 69 42 bc
       0.067872055 -0.055854443 0.044627223 -0.011865891
0002c0 e3 24 04 3d 6c c9 6b 3b 5d 12 8f bc ed 96 7b 3d
       0.03226174 0.003597821 -0.017464811 0.06142323
0002d0 15 0b cb bd a2 de 2e 3d 76 81 49 3d a4 eb b4 3c
       -0.09914223 0.042692788 0.04919573 0.022085018
0002e0 fd a0 24 bd d3 c6 95 bc 63 ff e3 bc 56 4e 76 bd
       -0.040192593 -0.018283283 -0.027831739 -0.0601333
0002f0 61 8a 28 bd 3f 82 6e bd 9a a4 cc 3d e8 18 3c bd
       -0.041147593 -0.05822968 0.09992333 -0.04592219
000300 15 3e 84 bd 44 4d 21 bd 50 5b e0 bc df 0c 71 bd
       -0.06457154 -0.039380327 -0.027387291 -0.058850165
000310 ec b5 2b bc 42 ab 2f bc 95 68 48 bc 97 1f 1b bd
       -0.010480385 -0.010721983 -0.012231966 -0.037871923
000320 37 11 1b bd 3c 44 13 bd d5 bf 79 bd f3 12 35 3c
       -0.037858214 -0.035953745 -0.06097396 0.011051881
000330 5e 7b 11 bc 18 ef 8e 3c 82 df 5a bd 8f eb 85 3d
       -0.008879511 0.017447993 -0.05343581 0.0653907
000340 09 aa 2c bd 8f 7b e9 bc bf 71 20 3d 82 24 47 bd
       -0.042154346 -0.0285013 0.039170977 -0.0486188
000350 07 2b b9 3c c7 27 26 3c 57 72 41 bd 2c cd 8c bc
       0.022603525 0.01014132 -0.047228184 -0.017187677
000360 79 f5 72 bd 01 20 a1 3d b4 e2 f4 bc 05 db 23 3d
       -0.059316132 0.078674324 -0.029893257 0.040003795
000370 08 ee 2d bb f0 c2 ca 3c 7c 85 5f 3d 5c c9 62 bd
       -0.0026539583 0.024751157 0.05457066 -0.055367813
000380 00 e5 c5 3c fa 79 31 bc e9 c5 20 bd 3c ed a5 3c
       0.024157047 -0.010832304 -0.03925124 0.020254724
000390 c9 47 a8 bd a7 e3 24 bd a0 ae 27 3d 68 42 30 3d
       -0.08216817 -0.04025617 0.04093802 0.04303208
0003a0 cb e3 9c 3d 26 af a0 bd d0 82 cb bc 63 fc 12 bc
       0.076606356 -0.07845907 -0.02484265 -0.0089713065
0003b0 10 00 ad 3d 77 be 50 3c 27 e3 36 bd 1f c7 80 bd
       0.084472775 0.012740723 -0.044650223 -0.06287979
0003c0 82 7d dc bd c3 f3 b0 3d 92 eb 86 3d 60 17 c3 bb
       -0.10766126 0.08640244 0.065879 -0.0059537143
0003d0 92 d3 8a 3d 9e d6 4b 3c 08 58 82 bd 45 79 2c bc
       0.06778635 0.012441305 -0.06364447 -0.01052696
0003e0 06 dc 9b 3c bb b9 6d bd d2 33 6f 3d 43 7c f4 3c
       0.019025814 -0.058038455 0.05839903 0.029844409
0003f0 08 8d 3b bd 6a 13 89 3d af 60 7b 3c 58 f3 df 3c
       -0.045788795 0.06693156 0.015342875 0.027337715

lstm.bias_ih_l1 f4 [512]
000000 01 cf 88 3c 8a 26 8b 3c d3 06 7b 3d ba ef 6c bd
       0.01670027 0.01698615 0.061285805 -0.05784581
000010 5f 37 c8 3d 55 f6 a2 3d 07 f7 d7 bc c0 53 8d bd
       0.09776186 0.0795714 -0.026362909 -0.0690074
000020 1e f2 ba 3d 29 35 04 bd 64 7a 6d bd 33 37 cc 3a
       0.091282114 -0.03227726 -0.05797805 0.0015580415
000030 77 b5 01 bd d5 78 02 3d d9 81 b5 3d e9 8a 91 3d
       -0.0316672 0.031853516 0.08862657 0.07106573
000040 51 25 1d bd b5 bb 82 bd d6 d7 8c bb e0 9f 6e bd
       -0.038365666 -0.063834585 -0.0042981906 -0.058257937
000050 55 47 c8 3d 75 61 ed bb a5 18 d5 3c 4d 57 f3 bc
       0.097792305 -0.007244284 0.026012728 -0.029704714
000060 f8 28 f7 bc 4f 50 83 bd 36 49 7c bd 1b c1 97 bd
       -0.030170903 -0.06411802 -0.061593257 -0.07409879
000070 65 24 50 3d ac b3 99 bd 9c ef bd b9 8a a1 74 3d
       0.05081596 -0.07504973 -0.00036227412 0.05972437
000080 3c 6c 21 3d b7 bf 62 bd 3e 77 85 bd aa 94 cd bd
       0.03940986 -0.055358615 -0.06516884 -0.10038121
000090 53 43 b2 3d 90 df 3e bd fc fb 77 3d ec 3a 29 bd
       0.08704247 -0.046599925 0.060543045 -0.041315958
0000a0 8a 3e 14 3d de d9 79 bd 9d a7 04 bc 47 df 9e 3d
       0.036192454 -0.06099879 -0.008096603 0.077574305
0000b0 06 9a a7 bc 2f 4a ad bc 42 02 3f bd 19 7a 83 3d
       -0.020459186 -0.021153538 -0.046633013 0.06419773
0000c0 ff 3b a9 3d 97 cb 94 3c b1 94 55 bd 51 b1 c7 3d
       0.082633965 0.018163485 -0.052143756 0.09750617
0000d0 27 d7 10 3d 92 cb b2 3b 10 53 7d 3c c7 cb 23 3d
       0.035361435 0.0054563964 0.015461698 0.03998926
0000e0 fb 30 5a bd 81 98 4c 3c 5b 5c 6b 3d 8a e8 55 bd
       -0.053269368 0.012487532 0.057461124 -0.05222372
0000f0 ef 29 a5 3d 9b 56 3e 3c 95 3d 43 3d 5b d6 13 3d
       0.08064639 0.011617328 0.04766615 0.036093097
000100 ab 09 e3 bc 47 80 d1 3c c6 8b 5e bd bc 65 bf 3d
       -0.027714571 0.025573863 -0.054332517 0.09345576
000110 fb 0b eb bc e6 ce 46 bd 45 08 ee bc 89 f5 92 3d
       -0.028692236 -0.048537157 -0.029056678 0.07175738
000120 a0 12 e7 bc 7e d8 85 3d 5b 7a d6 3d 55 b7 87 bd
       -0.028207123 0.06535433 0.10472556 -0.06626765
000130 6b 94 09 3d 18 c0 6e bd c0 07 8f bd 48 29 72 3d
       0.033588808 -0.058288664 -0.069839 0.0591214
000140 09 19 07 3d 34 8e eb bc ad 6b 3f 3d 97 5a 82 3d
       0.03298286 -0.028754331 0.046733547 0.06364935
000150 e9 08 7b 3d 00 eb 2c 3c db 4a 82 3c 63 62 1d 3d
       0.061287794 0.010554075 0.015904834 0.038423907
000160 2b 28 c5 3c 31 2b 8c 3d 8f 8a 93 3d 47 1c 0f bd
       0.024067005 0.068441756 0.07204162 -0.034939077
000170 9e 21 36 bd b1 f2 03 3d 2e 7e 9f 3d 3a c3 96 3c
       -0.044465654 0.03221387 0.07787739 0.018403638
000180 e3 e3 82 bd 13 d3 31 bd 6d 59 6b bd a7 ea d3 3d
       -0.06391122 -0.043414187 -0.05745833 0.10347491
000190 12 d0 97 3d 50 07 88 3d d0 ba 25 3d 92 79 c6 3d
       0.07412733 0.0664202 0.04046136 0.096911564
0001a0 d4 2d 3a 3d 55 5c 40 3c 72 c4 6a 3d c1 5d 15 bc
       0.04545386 0.011740764 0.05731625 -0.009116591
0001b0 dc fc ca 3d 59 d3 a9 3d f2 81 89 3b 1c a9 b4 3c
       0.0991151 0.082922645 0.004196399 0.022053294
0001c0 8e be 93 3d 73 8d 97 3d d7 c8 d2 bc c1 d6 f7 3c
       0.0721408 0.07400026 -0.025730534 0.03025377
0001d0 a8 b4 cd bc 12 87 52 3d 22 32 17 bd f2 65 10 3c
       -0.025110558 0.051398344 -0.036913045 0.008813368
0001e0 3f cf 5b bc 20 58 a7 3d c8 83 49 3d 40 6c 5e ba
       -0.013416111 0.081711054 0.049197942 -0.00084847584
0001f0 29 86 5b bd da d5 63 3d 11 fb af bc de d4 16 3d
       -0.053594742 0.055623867 -0.021482022 0.0368241
000200 7f 34 59 3c fe ac 2f bd a8 be f5 3c e5 ed df bc
       0.013257145 -0.042889588 0.029998139 -0.027335117
000210 ce bd aa 3d a5 1e 68 bd 5e 13 c1 3d 1d e0 6a 3d
       0.083369836 -0.05666985 0.09427522 0.057342637
000220 b1 9f bf 3d 1c 49 ae 3c 8b 1b 72 bd 25 cf ff 3c
       0.093566306 0.021275096 -0.0591083 0.031226704
000230 0b 19 79 3d 39 f3 82 bd 2a 47 45 bd f0 45 e2 3d
       0.0608149 -0.06394047 -0.04816357 0.11048496
000240 c6 61 ab 3d 45 d6 6a bd b3 ae 30 bd cc 68 d0 bc
       0.08368258 -0.05733325 -0.043135356 -0.025440596
000250 18 99 97 3d 6d c5 52 3b 16 98 3f bd 50 88 b5 3d
       0.07402247 0.0032161132 -0.0467759 0.0886389
000260 0d 8f 77 3d 7e 5c c2 3d b3 3b b6 3c 50 69 25 bd
       0.06043916 0.09490298 0.022245264 -0.040383637
000270 d1 86 87 3d 66 55 65 bd f6 71 a3 bb 2c f2 93 bd
       0.06617511 -0.055989645 -0.0049879504 -0.07223925
000280 5e c1 94 3d e2 9e 29 3d 93 d7 2f 3d 47 22 d9 bd
       0.07263444 0.041411288 0.042930197 -0.10602241
000290 41 2a 08 bc 6e 56 3b 3d af 9a 5a bd 5a 69 88 bd
       -0.008310855 0.045736723 -0.053370174 -0.06660719
0002a0 ac 1c 7b 3d de 2d 6e 3a 8a b4 21 bc 84 cc b6 bc
       0.06130664 0.0009085814 -0.009869704 -0.022314318
0002b0 e6 5f 0b 3d df b9 cf 3d 6d fd 0d bd 9a 2f 82 bd
       0.034027003 0.10142874 -0.034665514 -0.063567355
0002c0 89 d3 21 bd 97 ed 9b bc fc 5b bd bd 3d ee fb bb
       -0.039508376 -0.01903419 -0.0924606 -0.0076883123
0002d0 3e 28 87 bd 2a db 3e 3d 43 c9 b8 3d b2 73 18 3e
       -0.065994725 0.04659573 0.090227626 0.14887884
0002e0 59 2b c9 3d 6e fc 8f 3d 10 ac 86 bd 45 8e c1 3c
       0.09822721 0.07030569 -0.06575787 0.02362741
0002f0 af e8 70 3d 37 f3 19 3d 04 f3 89 3d 47 3a a4 3d
       0.058815654 0.037585463 0.06735805 0.08018928
000300 e1 10 cb 3d c1 9e 88 bd bf 34 0b bc 35 6f 83 bd
       0.09915329 -0.06670905 -0.008496462 -0.064176954
000310 70 b9 c2 3d 3a 0c c8 bb ab dd ab 3d e5 90 d8 3d
       0.09508026 -0.006104973 0.08391889 0.105745114
000320 55 6b 01 bd 0d 2c 26 bc 00 c4 14 bd 9c 1c 98 3c
       -0.0315965 -0.010142338 -0.036319733 0.01856833
000330 18 36 ad 3d 34 32 c2 3d 48 ca b3 3d 42 66 bc 3d
       0.08457583 0.09482232 0.087788165 0.09199192
000340 7e e7 a8 3d d6 da f7 3c bd 0a c9 bc 85 80 8b 3c
       0.08247279 0.030255716 -0.024541253 0.017029056
000350 82 52 b2 bc f5 ca dc bc b1 14 4f bc 16 b9 5e bd
       -0.021767858 -0.026952246 -0.012639211 -0.05437573
000360 03 5b 85 bc 10 53 c5 3d 50 5d a9 bb 7d d3 dd 3b
       -0.01627875 0.096349835 -0.0051685944 0.006769596
000370 b8 0a 8b bd ee 4d 1f bd a5 87 be 3d ab 83 72 3d
       -0.06789154 -0.03889268 0.09303216 0.0592076
000380 a5 ea bb 3c 32 74 67 3d 4e ff 96 bc ae 0a f8 bc
       0.022939036 0.056507297 -0.018432286 -0.03027853
000390 e7 50 82 bd 02 27 31 3d 4e ff 2d bd bd e3 4d 3d
       -0.06363087 0.04325009 -0.042479806 0.050266016
0003a0 9f 8d a3 bc 3a 9d 81 3d 49 a1 51 3d b2 7d 44 bc
       -0.019964991 0.06328817 0.051179204 -0.011992859
0003b0 4c bc ad 3c db 3c bb 3d b1 3d 72 3d 23 68 a8 3d
       0.021207951 0.09142467 0.059140865 0.082229875
0003c0 8b 0b 37 3d 47 b7 63 bd a7 22 8e bb 8b d6 62 3c
       0.044688743 -0.05559471 -0.004337627 0.013845096
0003d0 d2 28 02 3d a1 a5 47 3c 30 8e f1 3c f5 f9 19 3d
       0.03177721 0.012185485 0.029486746 0.037591893
0003e0 5e 44 45 3c e4 34 19 bb a0 9a 99 3d 24 af 71 bd
       0.012040226 -0.0023377473 0.075001955 -0.059004918
0003f0 75 c7 a9 3c d3 3e 23 3c 36 35 5d bd 92 9c bd 39
       0.020724991 0.009963709 -0.054005824 0.00036165543
