model_checkpoints/collection/best_lstm_fold_1.pth (torch, 908401 bytes, 15 tensors)

lstm.weight_ih_l0 f4 [512, 3]
0.09433116 -0.023816654 0.008830119 -0.01740821 0.07750803 -0.007674367 -0.008958157 0.07257584
-0.026342643 0.032083623 0.02121933 -0.05465111 -0.056556933 -0.059593137 0.018169839 0.008081731
-0.0022077085 0.04463625 0.01035404 0.021436874 -0.000275112 0.14592722 0.022295456 -0.0382558
0.01927822 0.036756463 0.0620554 -0.12483154 0.08930581 0.016671434 -0.027645823 -0.05234146
0.06762492 -0.0018957369 -0.014215505 0.04771793 -0.03946123 -0.043546274 0.059645064 0.07437052
0.009689222 -0.0046112994 0.054204304 0.0047120736 0.020188928 0.023864845 0.07231575 -0.08231614
0.018620072 0.027298577 0.078856185 -0.055117078 0.03646694 0.12155819 0.06368235 0.003181703
0.026048923 0.09333553 -0.07970652 0.004159299 0.05713813 -0.050335266 -0.0043044467 0.04643823
0.010436013 0.06076314 -0.0056223804 -0.07719674 0.053434074 -0.07738448 0.015382993 0.115526065
0.045919836 0.09919342 -0.022163088 0.10595013 -0.045539215 -0.025176346 -0.042444993 0.094416395
0.03632395 0.045494933 -0.059999377 0.032795466 -0.0069639557 -0.115468696 -0.0842123 0.006811923
0.02590704 0.028966235 -0.0012845807 -0.051928557 -0.0064905095 -0.010987226 0.028807184 0.05927372
0.15197878 0.084042564 -0.06786699 -0.05336014 -0.08605578 -0.09110419 -0.044693384 -0.070505686
0.020381924 -0.09597343 0.08638359 -0.03081395 0.10216739 -0.013351774 0.032592975 0.070062846
0.0043832213 0.028902255 -0.030470029 0.021416869 -0.0065453546 -0.051798414 -0.01402079 0.08256572
-0.07004218 0.0066112326 0.04566502 -0.046149638 -0.004170649 0.10389375 -0.0074911 -0.005648972
0.063797764 0.008965268 -0.033061463 0.02978309 0.12857711 0.06638015 -0.03553995 0.08535249
-0.0072029345 -0.035586104 -0.031806745 0.08981359 0.025473699 0.06513636 0.086166196 0.006174274
-0.010350638 0.06963311 -0.023088967 0.019847002 0.092139274 0.08949989 0.1366762 -0.025167061
-0.056601163 -0.013761124 0.02648327 0.11794146 0.09478619 0.08460439 0.17559662 -0.026596848
0.010248352 0.08599562 0.08829551 -0.034676787 -0.020663628 0.061197452 -0.03097732 -0.029868033
-0.026818853 -0.0063323327 0.15375648 -0.024216639 0.0791716 0.063783556 -0.01951148 0.06838292
0.13354011 0.034927864 -0.09436799 0.13303961 0.005811283 -0.0073658964 0.017718468 0.032628316
-0.052713677 0.06511243 -0.047460727 -0.075382166 0.13324337 0.028895356 0.039124787 -0.0125648
-0.020595223 0.04874113 0.060918886 0.1015812 -0.00735898 0.07838034 -0.03411696 -0.012759403
0.04081167 0.17093347 0.06239185 0.14732309 -0.064598516 0.07758899 0.090239026 0.15088259
0.03430565 0.04158261 0.06058855 -0.024956677 -0.027747897 -0.08176339 0.10009877 0.11614304
-0.0072776387 0.013054947 0.13315372 0.10301266 -0.017235246 0.018742695 -0.08901075 -0.0649022
0.0137049025 0.0380818 0.11783821 0.011343552 -0.027759485 -0.03776332 -0.026239036 0.02522132
0.0016984616 -0.015692968 0.024972742 -0.03130054 -0.006314979 0.0693044 -0.0016304117 0.036886774
-0.07756491 0.07616511 0.058262408 0.033860512 -0.04699528 0.06553399 0.04160251 0.03280725
0.023208233 -0.040993404 -0.1022466 -0.05457751 0.005835245 0.0834473 -0.01307249 0.20033474
00000000: b230 c13d 251b c3bc 34ac 103c aa9b 8ebc
00000010: 88bc 9e3d 4279 fbbb 3cc5 12bc a4a2 943d
00000020: 87cc d7bc 1e6a 033d 29d4 ad3c d8d9 5fbd
00000030: 3ea8 67bd ef17 74bd ead8 943c 3d69 043c
00000040: 34af 10bb 80d4 363d fea3 293c 629c af3c
00000050: e83c 90b9 f26d 153e f6a4 b63c 1db2 1cbd
00000060: 5ced 9d3c f28d 163d ce2d 7e3d aea7 ffbd
00000070: f7e5 b63d 8892 883c 7e79 e2bc 0064 56bd
00000080: ef7e 8a3d 607a f8ba 26e8 68bc e073 433d
00000090: 19a2 21bd 945d 32bd 624e 743d 924f 983d
000000a0: 8bbf 1e3c 621a 97bb 5505 5e3d bd67 9a3b
000000b0: 4063 a53c 3580 c33c 481a 943d 5d95 a8bd
000000c0: 1f89 983c 44a1 df3c 5a7f a13d 72c2 61bd
000000d0: 5c5e 153d 80f3 f83d e46b 823d 1e84 503b
000000e0: 8d64 d53c b326 bf3d 2c3d a3bd bb4a 883b
000000f0: ac09 6a3d 5a2c 4ebd 510c 8dbb 0336 3e3d
00000100: d0fb 2a3c c5e2 783d f23b b8bb 5319 9ebd
00000110: b0dd 5a3d c17b 9ebd f308 7c3c ee98 ec3d
00000120: 7016 3c3d eb25 cb3d 5d8f b5bc 62fc d83d
00000130: 5487 3abd a03e cebc cdda 2dbd 625d c13d
00000140: 6cc8 143d e558 3a3d e8c1 75bd 8a54 063d
00000150: e531 e4bb da7a ecbd 8077 acbd 8d36 df3b
00000160: 003b d43c 994a ed3c 605f a8ba 0ab3 54bd
00000170: 57ae d4bb c403 34bc 0bfd eb3c 00c9 723d
00000180: 53a0 1b3e 821e ac3d d9fd 8abd 2a90 5abd
00000190: 033e b0bd d594 babd 6910 37bd 4965 90bd
000001a0: fef7 a63c b88d c4bd e1e9 b03d 896d fcbc
000001b0: 233d d13d 66c1 5abc 3680 053d 1c7d 8f3d
000001c0: 20a1 8f3b 6cc4 ec3c 489c f9bc 6e72 af3c
000001d0: 6a7a d6bb 932a 54bd 75b7 65bc 3718 a93d
000001e0: 4672 8fbd 0aa3 d83b 3e0b 3b3d 6707 3dbd
000001f0: f1a9 88bb 3fc6 d43d e777 f5bb 031b b9bb
00000200: 67a8 823d 0fe3 123c 756b 07bd abfb f33c
00000210: b8a9 033e 51f2 873d 5792 11bd 49cd ae3d
00000220: 9806 ecbb bcc2 11bd ca47 02bd 30f0 b73d
00000230: 38ae d03c 3666 853d e777 b03d 9051 ca3b
00000240: b995 29bc ce9b 8e3d 1325 bdbc 2e96 a23c
00000250: 84b3 bc3d b84b b73d d9f4 0b3e 272b cebc
00000260: 9fd6 67bd 5676 61bc 71f3 d83c 4b8b f13d
00000270: 431f c23d 1145 ad3d 9acf 333e a2e1 d9bc
00000280: b4e8 273c 791e b03d 47d4 b43d 3f09 0ebd
00000290: c546 a9bc 2eaa 7a3d 26c4 fdbc cead f4bc
000002a0: 36b3 dbbc 757f cfbb 5772 1d3e f961 c6bc
000002b0: b824 a23d f4a0 823d 8ad6 9fbc 580c 8c3d
000002c0: bdbe 083e 8510 0f3d 0144 c1bd 893b 083e
000002d0: 936c be3b 9e5d f1bb 5226 913c 45a5 053d
000002e0: 4cea 57bd aa59 853d 2e66 42bd f761 9abd
000002f0: f370 083e f4b5 ec3c 5041 203d 97dc 4dbc
00000300: 50b7 a8bc c7a4 473d 1586 793d ce09 d03d
00000310: 9923 f1bb df85 a03d 3abe 0bbd d10c 51bc
00000320: 232a 273d 2f09 2f3e 998e 7f3d dddb 163e
00000330: 3a4c 84bd fae6 9e3d 3dcf b83d f780 1a3e
00000340: 1584 0c3d 8752 2a3d b32b 783d f271 ccbc
00000350: 8f4f e3bc 9073 a7bd 9500 cd3d 67dc ed3d
00000360: 4279 eebb 6be4 553c 7359 083e 4df8 d23d
00000370: ee30 8dbc 488a 993c 454b b6bd 72eb 84bd
00000380: 878a 603c a9fb 1b3d 2955 f13d 4eda 393c
00000390: dc67 e3bc b6ad 1abd 3ff3 d6bc f19c ce3c
000003a0: ea9e de3a 8a8e 80bc a393 cc3c ff34 00bd
000003b0: e2ed cebb 77ef 8d3d 8ab3 d5ba 9616 173d
000003c0: 5ada 9ebd 74fc 9b3d 90a4 6e3d 52b1 0a3d
000003d0: 1f7e 40bd af36 863d 6567 2a3d e560 063d
000003e0: 311f be3c b3e8 27bd aa66 d1bd ab8c 5fbd
000003f0: 9535 bf3b 6be6 aa3d ff2d 56bc 8d24 4d3e

lstm.weight_hh_l0 f4 [512, 128]
0.04711251 0.087505154 -0.059348784 -0.063251115 0.09698731 -0.011560003 0.04034211 -0.00048158667
-0.0018927876 0.035939857 0.01634367 0.016764104 -0.022302976 -0.096677825 0.0890605 -0.059699807
0.04557273 0.009898635 -0.024636887 0.03840808 0.008251925 0.09880534 0.06378066 -0.06289449
0.09110607 -0.06307329 -0.10609593 -0.057050206 0.0060247816 0.09889705 -0.09870119 -0.03647948
0.029975917 0.024876324 -0.0010388144 0.051795166 -0.10041688 -0.019893622 0.06117406 0.03215241
-0.017764261 0.04058364 -0.0069165044 -0.035431016 0.05331727 0.026251137 0.045778345 0.03309489
0.080226585 -0.0058927755 -0.011892453 -0.029829647 -0.09027873 0.020165838 -0.10997856 0.0095012495
0.067179546 -0.10883803 -0.0033684291 -0.06330658 0.071893126 0.056581832 0.034251835 -0.0048970617
0.003030711 0.026855083 -0.07266648 -0.04915082 0.03266425 0.08781156 -0.06190777 -0.038858734
-0.02616113 0.07191606 -0.09765229 -0.05826571 -0.027029343 -0.091274455 0.043385893 0.021304859
-0.033946153 -0.0578493 0.068838425 -0.048249718 -0.020385133 0.080018684 -0.03375867 0.1331051
0.0558887 0.02183324 -0.04062403 0.04190121 -0.02172177 -0.03510431 -0.13382693 -0.04424181
-0.019334156 0.042545125 -0.03792572 -0.05383574 0.07143872 0.10879669 -0.07728777 -0.08219748
-0.053602174 -0.08863898 0.03529309 -0.010898338 0.104776695 0.0977794 0.047478322 0.07375833
0.09823491 -0.09479614 0.09411177 0.12005048 0.08401211 -0.09495141 0.065887414 -0.064020686
-0.11024294 -0.0021841123 0.108771004 0.042103384 0.051920466 -0.015002201 -0.107949235 0.015385106
0.10784984 0.042423043 0.10608715 -0.07608543 0.070101276 -0.068847254 -0.04770916 0.02421399
0.11152643 -0.10081335 0.07754353 -0.05523701 -0.041509185 -0.04269233 -0.064860106 -0.045796514
-0.09179329 -0.09640792 -0.0030948296 -0.036098197 0.023146654 0.09370593 -0.039961554 -0.01107433
-0.036580317 -0.043760926 -0.10334221 0.014091248 -0.07718713 0.036767274 0.035062097 -0.014810031
0.029269254 -0.07993661 -0.03990656 0.084323816 -0.014910146 -0.11190682 0.066267766 -0.002241315
-0.005752684 0.010214996 0.0040841997 -0.016101548 0.039369103 0.06590587 0.059036072 -0.021524359
0.042987935 0.11568767 0.07643433 0.04241478 0.027882587 0.035435893 -0.089234486 0.08577001
-0.05326989 0.028796548 0.040378343 -0.006776667 -0.0063324682 -0.022166202 -0.04375296 0.0075801606
0.062447395 0.047580563 0.048988685 -0.011314178 0.068071306 0.11022038 -0.09363041 0.05479684
-0.06663562 0.09986559 -0.083538815 -0.0585556 0.04086818 -0.0043701897 0.107898585 -0.03321239
0.008066636 0.025459412 0.022661095 0.09031047 -0.030421777 0.030222837 0.092985354 0.05969155
-0.020826235 0.010709424 0.048082378 0.07384609 -0.026759524 -0.17063797 -0.1539933 0.04758374
-0.025632394 -0.0015755536 -0.030348275 0.024888571 0.0061631813 0.0017780188 0.06020042 -0.031271346
-0.10524845 -0.07260298 0.01473688 -0.030361753 -0.051684834 0.06864818 -0.029995032 0.011469583
-0.04641405 -0.082444526 0.0030449252 -0.013051853 0.05160622 -0.082418285 0.025081404 -0.05091719
-0.0418068 0.057366937 -0.038953412 0.057456754 0.05193431 -0.037973907 -0.08268692 0.03698214
00000000: 0cf9 403d e735 b33d b617 73bd cd89 81bd
00000010: 48a1 c63d 2b66 3dbc c53d 253d 787d fcb9
00000020: 6a17 f8ba ac35 133d 29e3 853c e054 893c
00000030: bbb4 b6bc 06ff c5bd 5a65 b63d c987 74bd
00000040: 79aa 3a3d e22d 223c 4cd3 c9bc ca51 1d3d
00000050: 1533 073c 745a ca3d 6f9f 823d d4ce 80bd
00000060: d295 ba3d 922c 81bd d348 d9bd 7aad 69bd
00000070: 886b c53b 898a ca3d d923 cabd 826b 15bd
00000080: 0e90 f53c 6fc9 cb3c d428 88ba 2b27 543d
00000090: 5da7 cdbd f3f7 a2bc a791 7a3d 3fb2 033d
000000a0: 5b86 91bc 083b 263d d8a3 e2bb 1d20 11bd
000000b0: 3663 5a3d a00c d73c 1382 3b3d 828e 073d
000000c0: d64d a43d 2f18 c1bb 90d8 42bc 4e5d f4bc
000000d0: 0ee4 b8bd d432 a53c 703c e1bd 21ab 1b3c
000000e0: 6e95 893d 79e6 debd ddc0 5cbb e1a6 81bd
000000f0: b43c 933d 5ac2 673d a74b 0c3d 8877 a0bb
00000100: e59e 463b 31ff db3c 2ad2 94bd 5f52 49bd
00000110: f3ca 053d 8cd6 b33d 0093 7dbd 562a 1fbd
00000120: de4f d6bc ba48 933d ecfd c7bd 06a8 6ebd
00000130: a46c ddbc 1aee babd 68b5 313d 8787 ae3c
00000140: 1f0b 0bbd 63f3 6cbd 29fb 8c3d 7fa1 45bd
00000150: b9fe a6bc d6e0 a33d 8846 0abd b44c 083e
00000160: 8deb 643d 9fdb b23c 6265 26bd 9aa0 2b3d
00000170: daf1 b1bc 89c9 0fbd ed09 09be e636 35bd
00000180: aa62 9ebc cc43 2e3d 0058 1bbd dd82 5cbd
00000190: 774e 923d cdd0 de3d 0d49 9ebd 2757 a8bd
000001a0: f48d 5bbd 5b88 b5bd 7d8f 103d f18e 32bc
000001b0: 2a95 d63d 9140 c83d a178 423d 9b0e 973d
000001c0: 622f c93d 7b24 c2bd acbd c03d 07dd f53d
000001d0: 8b0e ac3d e375 c2bd fbef 863d 471d 83bd
000001e0: 0dc7 e1bd 5323 0fbb 55c3 de3d 9974 2c3d
000001f0: 8eaa 543d cbcb 75bc 7d14 ddbd d011 7c3c
00000200: 60e0 dc3d c9c3 2d3d 3844 d93d aed2 9bbd
00000210: 4291 8f3d caff 8cbd ae6a 43bd 6b5c c63c
00000220: f867 e43d 3b77 cebd 24cf 9e3d 3440 62bd
00000230: 8905 2abd 27de 2ebd 60d5 84bd 2095 3bbd
00000240: 1ffe bbbd 8471 c5bd a0d2 4abb b4db 13bd
00000250: 0d9e bd3c e5e8 bf3d baae 23bd 1b71 35bc
00000260: 3ed5 15bd a83e 33bd 15a5 d3bd fade 663c
00000270: 4914 9ebd 4899 163d 469d 0f3d c6a5 72bc
00000280: 13c6 ef3c ceb5 a3bd 1075 23bd f7b1 ac3d
00000290: af49 74bc 672f e5bd 65b7 873d 07e3 12bb
000002a0: 0381 bcbb cc5c 273c c0d4 853b 65e7 83bc
000002b0: 7f41 213d a8f9 863d cfcf 713d da53 b0bc
000002c0: 1e14 303d a8ed ec3d 9a89 9c3d 1fbb 2d3d
000002d0: 066a e43c 3a25 113d 92c0 b6bd 30a8 af3d
000002e0: 8731 5abd bde6 eb3c c363 253d ce0e debb
000002f0: 9880 cfbb e595 b5bc 4e36 33bd ff62 f83b
00000300: d7c8 7f3d d6e3 423d 5ca8 483d 1a5f 39bc
00000310: f868 8b3d 39bb e13d 4dc1 bfbd a772 603d
00000320: 4278 88bd 5586 cc3d 6616 abbd ffd7 6fbd
00000330: 6565 273d cf33 8fbb eff9 dc3d b709 08bd
00000340: ec29 043c 4290 d03c c3a3 b93c b2f4 b83d
00000350: 1737 f9bc e295 f73c 1b6f be3d 207f 743d
00000360: c89b aabc 9476 2f3c 07f2 443d 9e3c 973d
00000370: ca36 dbbc b8bb 2ebe 6bb0 1dbe 2be7 423d
00000380: 07fb d1bc ce82 ceba f29c f8bc 1ee3 cb3c
00000390: 83f4 c93b 690c e93a b794 763d 6216 00bd
000003a0: 808c d7bd dfb0 94bd f472 713c 36b9 f8bc
000003b0: 7ab3 53bd 6b97 8c3d 24b8 f5bc ebea 3b3c
000003c0: a91c 3ebd add8 a8bd 5e8d 473b 70d7 55bc
000003d0: 0b61 533d ebca a8bd 8477 cd3c 8b8e 50bd
000003e0: 9b3d 2bbd 98f9 6a3d 9d8d 1fbd c657 6b3d
000003f0: 12b9 543d 878a 1bbd c357 a9bd 967a 173d

lstm.bias_ih_l0 f4 [512]
-0.016030403 -0.039494287 -0.052771017 -0.05637551 0.03323477 0.12211946 -0.052640107 0.027536076
0.06828123 0.011873982 0.04092532 0.02081115 0.07613667 -0.031765655 0.019387955 0.05801648
0.08606961 0.004707219 0.09575324 -0.032635037 0.08725221 0.08130355 0.033826258 0.0015537475
-0.021397078 -0.011828184 -0.058646165 -0.079781614 -0.029615432 0.07720621 0.010477322 0.057807118
-0.0015607268 -0.029720506 -0.061016615 0.07956379 0.08848399 -0.06571878 0.052325603 0.06957699
0.028736228 -0.059304122 0.10815357 -0.026402045 -0.033957552 -0.0349175 0.031105746 -0.06875276
0.11833581 -0.0016881566 -0.04730997 -0.0017278705 -0.020755768 0.034944844 -0.027320934 -0.0048842896
0.045382474 0.0337904 0.0030284561 0.07064741 -0.05336271 0.049757313 0.04897924 -0.039588857
-0.0015017154 -0.064095184 0.019499883 0.02417345 0.06264685 0.014545219 -0.012699311 0.11719611
0.05590491 -0.012154706 -0.095689304 -0.031522963 0.059877835 0.03510152 -0.18381786 0.0990366
-0.016641509 -0.0036306765 -0.067091666 -0.05017594 -0.022812827 0.027122762 0.097692944 -0.026071655
0.015655879 -0.034001563 0.057804517 0.02374926 -0.06310606 -0.12680973 0.06489341 -0.0042876066
0.08744713 -0.0073696687 0.010934537 0.01931878 -0.052370794 0.05142245 0.088494904 0.07783901
-0.04680433 -0.0169328 -0.0085561825 0.014345363 -0.05048084 0.058175858 0.04759299 -0.0610919
-0.049191095 -0.064957134 0.042194866 -0.056669254 -0.001730312 0.02767404 -0.056740016 0.09938091
-0.013806125 0.058626734 0.0013133133 0.011209713 0.01993423 0.040919308 0.040422577 0.03671308
-0.02443555 0.087352134 0.04745405 0.015781935 -0.005706732 0.11964525 -0.053335924 -0.054048363
0.0021883594 0.08934711 -0.022114942 -0.00014726086 0.04902853 -0.034993496 0.07141521 0.08502704
-0.010269262 -0.03610121 0.0045450465 0.04957073 0.015912889 0.061340857 -0.029306313 0.00713808
0.12490977 -0.04777271 0.019985743 -0.06835509 0.15524384 0.0047540176 -0.05063942 0.02040861
0.09856777 0.026509747 -0.00598013 0.12328176 0.0817669 0.05077812 -0.025828136 -0.051312868
0.025121761 0.09426755 -0.046177246 0.05275214 0.023748508 0.06514913 -0.060989007 -0.017032236
0.118288234 0.0857386 0.11105128 0.0017034964 0.04405985 0.025955027 0.09961644 0.10855715
0.040979896 -0.032710273 -0.023788428 -0.0092925485 -0.036090165 0.10137518 -0.016650554 -0.0628276
-0.01842942 0.017632946 -0.008081576 -0.00479723 0.102547586 -0.0042223698 0.07805547 0.02480574
0.050516754 0.06437942 0.16955808 0.06237313 0.04083059 -0.053462237 0.07200421 -0.025121806
0.03968963 -0.04831459 0.11531636 0.048397884 -0.02298121 0.09541718 -0.045582846 0.053700197
0.068957046 0.03894067 0.06758366 0.05580229 -0.008107459 0.16111909 0.15178186 -0.06195498
0.05565348 0.012506869 0.10869614 0.07541926 -0.009337244 0.09862804 0.05100943 -0.0146653745
-0.035718918 0.041211404 0.10837673 0.069304876 0.047452036 0.02032026 0.07560695 0.08252158
0.030957801 -0.06480778 -0.030432792 -0.039384652 -0.041354835 -0.026496576 -0.04394068 -0.05275298
0.03549052 0.067649156 -0.03242529 -0.047029115 0.103435755 -0.03687955 0.09362007 0.0966371
00000000: 3152 83bc c3c4 21bd 6c26 58bd 02ea 66bd
00000010: 2f21 083d c419 fa3d 279d 57bd 5693 e13c
00000020: 08d7 8b3d 178b 423c 4fa1 273d 257c aa3c
00000030: 8bed 9b3d b41c 02bd 7dd3 9e3c b0a2 6d3d
00000040: 4445 b03d 043f 9a3b 461a c43d 51ac 05bd
00000050: 49b1 b23d 7a82 a63d 678d 0a3d 1da7 cb3a
00000060: ed48 afbc 00cb 41bc f636 70bd 8b64 a3bd
00000070: 109c f2bc 4a1e 9e3d 13a9 2b3c 28c7 6c3d
00000080: 4d91 ccba 6b78 f3bc 8fec 79bd 57f2 a23d
00000090: 1837 b53d 9197 86bd 5f53 563d 627e 8e3d
000000a0: 3d68 eb3c e1e8 72bd 9e7f dd3d 1a49 d8bc
000000b0: 1317 0bbd a705 0fbd 7ad1 fe3c 3fce 8cbd
000000c0: 0c5a f23d 2345 ddba 19c8 41bd b779 e2ba
000000d0: 0008 aabc 5322 0f3d 27d0 dfbc 640c a0bb
000000e0: f9e2 393d cd67 0a3d 1079 463b 97af 903d
000000f0: db92 5abd 53ce 4b3d 759e 483d ed27 22bd
00000100: 35d5 c4ba 5644 83bd 38be 9f3c 6607 c63c
00000110: fe4c 803d 124f 6e3c c510 50bc 8404 f03d
00000120: 8cfc 643d 8824 47bc c1f8 c3bd 391e 01bd
00000130: 7642 753d 9dc6 0f3d c03a 3cbe b3d3 ca3d
00000140: c653 88bc a5f0 6dbb 5b67 89bd 4985 4dbd
00000150: f7e1 babc 8e30 de3c 3d13 c83d 3994 d5bc
00000160: c240 803c 3945 0bbd 6ec4 6c3d cf8d c23c
00000170: c03d 81bd 69da 01be d6e6 843d 0d7f 8cbb
00000180: 7b17 b33d 437d f1bb c626 333c 6b42 9e3c
00000190: c282 56bd 59a0 523d d13c b53d 0f6a 9f3d
000001a0: e6b5 3fbd a8b6 8abc 3b2f 0cbc d008 6b3c
000001b0: ffc4 4ebd cf49 6e3d def0 423d 803b 7abd
000001c0: 9a7c 49bd 3f08 85bd 86d4 2c3d 051e 68bd
000001d0: a3cb e2ba abb4 e23c 3868 68bd 3888 cb3d
000001e0: 1633 62bc 9622 703d 7b23 ac3a f2a8 373c
000001f0: 1c4d a33c 019b 273d 2592 253d 7460 163d
00000200: 102d c8bc ade5 b23d 2e5f 423d 1e49 813c
00000210: 8aff babb 9208 f53d c576 5abd d161 5dbd
00000220: 946a 0f3b 9efb b63d 652a b5bc 096a 1ab9
00000230: 24d2 483d 5755 0fbd 2342 923d a822 ae3d
00000240: 6840 28bc ddde 13bd 9dee 943b ae0a 4b3d
00000250: bf5b 823c 8d40 7b3d cb13 f0bc 8ee6 e93b
00000260: b2d0 ff3d 51ad 43bd 24b9 a33c c1fd 8bbd
00000270: 3ef8 1e3e 97c7 9b3b 486b 4fbd f52f a73c
00000280: e6dd c93d f82a d93c f7f4 c3bb 267b fc3d
00000290: 6875 a73d b8fc 4f3d 8795 d3bc 712d 52bd
000002a0: 27cc cd3c 580f c13d 5a24 3dbd a112 583d
000002b0: 3b8c c23c e86c 853d 9ccf 79bd 3087 8bbc
000002c0: 1a41 f23d b897 af3d da6e e33d db47 df3a
000002d0: 1a78 343d a39f d43c b403 cc3d 3653 de3d
000002e0: 89da 273d 35fb 05bd f3df c2bc c63f 18bc
000002f0: 48d3 13bd ca9d cf3d be66 88bc c2ab 80bd
00000300: 4cf9 96bc f872 903c 9668 04bc 1532 9dbb
00000310: 7804 d23d ce5b 8abb 8cdb 9f3d 6835 cb3c
00000320: a8ea 4e3d 5bd9 833d a2a0 2d3e f87a 7f3d
00000330: fa3d 273d 38fb 5abd f176 933d 3fcc cdbc
00000340: 9891 223d 85e5 45bd fc2a ec3d dc3c 463d
00000350: 1743 bcbc 156a c33d 14b5 3abd bdf4 5b3d
00000360: 5a39 8d3d 4180 1f3d 4d69 8a3d f190 643d
00000370: 26d5 04bc 67fc 243e b46c 1b3e 81c4 7dbd
00000380: e7f4 633d 9ce9 4c3c 159c de3d 6a75 9a3d
00000390: 3dfb 18bc 7ffd c93d 44ef 503d 0a47 70bc
000003a0: 004e 12bd 4acd 283d 9ef4 dd3d b7ef 8d3d
000003b0: 115d 423d ad76 a63c d1d7 9a3d 1301 a93d
000003c0: 379b fd3c f1b9 84bd 314e f9bc cd51 21bd
000003d0: b063 29bd 590f d9bc 24fb 33bd 8213 58bd
000003e0: 825e 113d a48b 8a3d 62d0 04bd 9aa1 40bd
000003f0: 20d6 d33d 030f 17bd e1bb bf3d ace9 c53d

lstm.bias_hh_l0 f4 [512]
-0.029968267 0.079495355 -0.022074204 0.018397376 0.002361629 0.07651972 0.06499264 -0.12351246
-0.029801553 0.041428346 -0.0180134 -0.06256834 -0.0054950886 -0.07582974 0.11065179 -0.039852627
-0.015293428 -0.033231083 0.085395776 0.036126122 0.013135 0.03991847 0.0895919 0.06703481
-0.028408298 0.113018736 0.06796241 -0.04548329 0.08743698 -0.0015314051 -0.017948143 0.10139015
-0.061415438 0.07159345 0.02028789 0.08974621 0.07569028 0.079955004 0.046483573 0.048705097
-0.06180789 0.023822175 0.01611378 0.016566152 -0.059570532 -0.04985617 -0.0042182133 0.034587637
0.021576617 -0.032630935 -0.012608575 -0.049587786 -0.022588124 0.056137227 0.095096074 -0.029457342
-0.007807832 -0.041105103 0.013058141 0.04560755 -0.010819677 0.06840026 0.005912522 0.052388176
0.018566523 -0.041284807 -0.036777027 -0.06788609 0.017724285 -0.03883508 -0.06964507 -0.0024766896
0.051436562 -0.02129989 -0.11577501 -0.07713903 0.09703705 -0.0385045 -0.09670433 0.0058956943
0.077755325 -0.05915343 0.07857751 0.015260002 -0.0046095713 -0.107589506 -0.07247382 0.09807662
-0.07299741 -0.064970955 0.09934235 0.08630952 0.015591972 -0.15570216 -0.07470107 -0.019700639
-0.02596653 -0.030509738 -0.0008039624 0.030159505 0.054922007 0.05061907 -0.016689198 0.018839296
0.06900553 -0.0025204811 0.059584785 -0.07187772 0.05721618 0.103331625 0.06678261 -0.034150437
0.044041514 0.016570732 0.03673057 -0.028513659 -0.018263144 -0.04477605 -0.033535972 0.03444426
-0.05653905 -0.020907927 -0.017473951 -0.0053101643 -0.0547174 0.022319537 -0.0014586998 0.023187006
-0.039016344 0.06344488 0.07119039 0.0033956598 0.00090228877 0.13132812 0.102257445 -0.06656353
0.054536305 0.025093373 -0.017465688 0.07897535 -0.016236737 0.009261298 0.024986712 0.036276158
0.08515593 0.10081817 0.0010481722 0.061164435 0.10990668 0.09447052 -0.028328868 0.07913414
0.111776434 0.0192894 0.0708502 -0.04067476 0.0626219 0.049536034 0.015122751 0.022120414
-0.03962877 0.07357199 0.04386255 0.044625707 0.08440813 -0.070126496 -0.02007205 -0.06342852
-0.0013360234 0.11503031 0.08019609 0.036309928 0.027508724 0.056362327 0.03296993 0.052172206
0.07719314 0.083475105 0.006335185 -0.037250962 0.05792995 0.053659625 0.045283835 0.027810441
0.046052407 -0.006448136 -0.029134868 0.01820934 0.060941726 -0.03221231 0.03917486 0.099803664
0.079008564 -0.04268631 0.015021761 0.10446848 0.08761757 0.043272883 -0.08575495 0.0046512713
0.049606424 -0.0034680208 0.16999017 -0.045874294 0.10741686 -0.04586578 0.00074719463 -0.0070681744
-0.038853247 -0.013903108 0.09708245 -0.02127408 -0.052057195 0.046016824 -0.031590402 0.14669648
0.07469065 -0.021408018 0.039047495 0.06429269 -0.060022656 0.033711538 0.17474137 -0.04420685
0.041766282 0.005728567 -0.041378543 0.042348098 0.017813493 0.07043677 0.084927596 0.079376034
0.0688136 0.10485828 0.09888066 0.023640769 0.10484264 0.0195247 -0.007015394 0.017535547
-0.041004937 -0.05743959 0.017346691 0.07931439 0.11114243 -0.0067041153 0.056851916 -0.01457274
0.0008142969 -0.04374253 0.07470409 0.002828613 0.07737535 -0.02728319 0.047104467 -0.040982805
00000000: 0380 f5bc 76ce a23d f6d4 b4bc 18b6 963c
00000010: 8fc5 1a3b 5fb6 9c3d dc1a 853d 1af4 fcbd
00000020: 6322 f4bc c5b0 293d d690 93bc d423 80bd
00000030: 2510 b4bb 9f4c 9bbd 689d e23d 823c 23bd
00000040: 4991 7abc 511d 08bd fbe3 ae3d fcf8 133d
00000050: 2f34 573c 8d81 233d f57b b73d 8c49 893d
00000060: 85b8 e8bc 5e76 e73d e02f 8b3d b04c 3abd
00000070: 2912 b33d 6eb9 c8ba fc07 93bc a4a5 cf3d
00000080: c18e 7bbd 969f 923d ca32 a63c dccc b73d
00000090: 8103 9b3d 73bf a33d 8f65 3e3d ff7e 473d
000000a0: 452a 7dbd b926 c33c 0c01 843c bdb5 873c
000000b0: 3b00 74bd fc35 4cbd f038 8abb c4ab 0d3d
000000c0: 72c1 b03c 04a8 05bd 3294 4ebc 901c 4bbd
000000d0: bb0a b9bc 26f0 653d bbc1 c23d 8650 f1bc
000000e0: d8d8 ffbb d35d 28bd d0f1 553c fbce 3a3d
000000f0: 0445 31bc 6f15 8c3d d4bd c13b fc94 563d
00000100: d218 983c 421a 29bd 82a3 16bd dd07 8bbd
00000110: 8532 913c 8811 1fbd 13a2 8ebd f54f 22bb
00000120: 25af 523d 1b7d aebc 731b edbd 11fb 9dbd
00000130: 5cbb c63d e5b6 1dbd eb0c c6bd ab30 c13b
00000140: 2f3e 9f3d de4a 72bd 3fed a03d 1605 7a3c
00000150: e30b 97bb e357 dcbd 276d 94bd 65dc c83d
00000160: ab7f 95bd 7e0f 85bd 0174 cb3d 0cc3 b03d
00000170: 7875 7f3c 6370 1fbe e0fc 98bd 3c63 a1bc
00000180: c3b7 d4bc 8fef f9bc 01c1 52ba 1111 f73c
00000190: e6f5 603d f155 4f3d c9b7 88bc de54 9a3c
000001a0: c552 8d3d a82e 25bb 2d0f 743d a034 93bd
000001b0: 835b 6a3d 889f d33d 52c5 883d 54e1 0bbd
000001c0: e064 343d 58bf 873c cb72 163d 7a95 e9bc
000001d0: 979c 95bc 1767 37bd 045d 09bd 6d15 0d3d
000001e0: 7e95 67bd 1a47 abbc 8825 8fbc e300 aebb
000001f0: 5a1f 60bd 76d7 b63c d831 bfba adf2 bd3c
00000200: 9acf 1fbd 64ef 813d 44cc 913d b889 5e3b
00000210: 9387 6c3a e17a 063e 5a6c d13d 7652 88bd
00000220: 7661 5f3d 9e90 cd3c 3414 8fbc d4bd a13d
00000230: e802 85bc b3bc 173c efb0 cc3c 4f96 143d
00000240: 3b66 ae3d c279 ce3d d362 893a 8f87 7a3d
00000250: c116 e13d c379 c13d f111 e8bc 1411 a23d
00000260: 0beb e43d ce04 9e3c e919 913d 949a 26bd
00000270: e93f 803d 4ce6 4a3d 6ac5 773c df35 b53c
00000280: c751 22bd e9ac 963d 38a9 333d 72c9 363d
00000290: 2bde ac3d 7b9e 8fbd 246e a4bc d0e6 81bd
000002a0: 821d afba 0395 eb3d d93d a43d b8b9 143d
000002b0: fa59 e13c 2fdc 663d 7a0b 073d 86b2 553d
000002c0: 7017 9e3d fff4 aa3d 6297 cf3b 7794 18bd
000002d0: f547 6d3d 32ca 5b3d 8b7b 393d b9d2 e33c
000002e0: 73a1 3c3d e34a d3bb 3fac eebc c12b 953c
000002f0: 089e 793d 0ef1 03bd d175 203d dd65 cc3d
00000300: 3ecf a13d d7d7 2ebd d51d 763c 92f3 d53d
00000310: d770 b33d e83e 313d 4ba0 afbd b169 983b
00000320: 1b30 4b3d bc47 63bb e711 2e3e afe6 3bbd
00000330: 5ffd db3d c2dd 3bbd 62df 433a 259c e7bb
00000340: 9524 1fbd ddc9 63bc 2ad3 c63d fb46 aebc
00000350: ed39 55bd 237c 3c3d f064 01bd 9a37 163e
00000360: 69f7 983d de5f afbc 44f0 1f3d e3ab 833d
00000370: 51da 75bd 1c15 0a3d 67ef 323e 3e12 35bd
00000380: 1f13 2b3d b4b6 bb3b 8c7c 29bd 3375 2d3d
00000390: 9aed 913c 2741 903d 85ee ad3d e78f a23d
000003a0: 25ee 8c3d f0bf d63d f281 ca3d 49aa c13c
000003b0: bdb7 d63d 43f2 9f3c 64e1 e5bb b5a6 8f3c
000003c0: cbf4 27bd c745 6bbd a61a 8e3c 956f a23d
000003d0: a49e e33d 32ae dbbb 8edd 683d 80c2 6ebc
000003e0: 8a76 553a 5e2b 33bd 75fe 983d 4060 393b
000003f0: f876 9e3d ff80 dfbc 9df0 403d 96dd 27bd

lstm.weight_ih_l1 f4 [512, 128]
0.025804453 0.03511167 -0.06906849 0.0074168453 -0.11400179 -0.07073238 0.06609479 0.105794296
-0.031799197 -0.0034503194 0.055999044 0.028752055 0.089690715 0.062017955 -0.108382314 -0.017238624
0.02730773 0.014067871 0.024393452 0.08831879 0.008917703 -0.08119503 -0.06978261 -0.059793666
-0.0070125125 0.1083081 0.05764804 -0.031363714 -0.043756954 0.008900345 -0.0062166057 0.015012878
-0.060186215 0.047561556 -0.007572625 -0.06699026 -0.042941716 0.054006964 0.05243839 0.027916849
0.017307539 0.088235416 0.04100094 -0.016377846 0.00722781 0.04523102 -0.10050722 0.02301221
-0.09154725 0.018618083 0.11167515 0.006295692 0.020282974 0.009932789 0.09496883 -0.010299041
-0.005092144 0.014644247 0.04527033 0.0645577 -0.0039116815 -0.036399506 0.025440166 -0.050460916
0.019756865 0.060898688 0.021465158 0.08847363 -0.0027130148 -0.041417558 0.015081742 0.037217874
0.065414995 -0.04764533 0.06776502 0.117240585 0.110641375 0.024521062 0.06654175 -0.052738763
-0.0908391 -0.035378255 0.0339014 -0.093835145 -0.0074425624 -0.028447641 -0.061804753 0.21076186
-0.0018230239 -0.04192237 0.006720127 0.0061286506 -0.04725751 0.07394114 0.021336848 -0.104249135
-0.053012054 -0.04601228 0.0064308587 0.062111128 0.0271127 -0.016500207 0.016127659 -0.015874112
-0.050064385 0.08108764 0.046290196 -0.0055046612 -0.08148071 -0.10442021 -0.054115575 -0.087155275
-0.037030052 0.10813123 -0.030409675 -0.032793593 2.2948878e-05 -0.014347734 0.025591223 0.098882355
-0.03778039 -0.09992982 0.052270707 -0.055957623 -0.04573143 -0.042036485 0.10595813 0.06890782
-0.043237902 0.027999949 0.055063944 -0.10913623 0.010240202 0.025423404 0.016392378 -0.074377865
0.094557315 -0.052269407 -0.06427559 -0.06726596 -0.016611593 -0.012480289 0.113713995 -0.0531206
-0.01654845 -0.085153565 0.016080162 -0.042209648 -0.043629553 -0.0066480846 0.06510991 -0.074028686
0.016050361 -0.010927667 -0.07091036 -0.024470564 -0.09065839 0.10217144 -0.01687737 -0.0365777
0.0033092147 -0.02632119 0.028981784 0.10902669 -0.01809336 -0.065741785 0.104390636 -0.0689625
-0.105006486 -0.022333762 0.021700647 0.060867615 0.048091955 -0.07607379 0.06943804 -0.02126818
-0.002963024 -0.043803833 -0.02973051 0.020971492 -0.052561052 -0.043933447 -0.06543641 0.016108584
0.0887082 -0.0032100882 -0.10787859 -0.0108192405 0.020977018 0.083914876 -0.007992369 -0.0573033
-0.05062872 0.039070703 0.10553754 0.0460832 0.020738836 0.08893252 0.047261458 0.083835475
-0.035058986 -0.006092482 -0.09123299 -0.10331967 0.015860312 0.054650225 -0.031408593 0.007618851
-0.026439847 0.0649668 0.09463348 0.07346663 0.089417584 0.092055894 -0.012150337 -0.010716455
-0.05425976 -0.035587143 -0.0009114996 0.011592358 -0.008099819 0.004966313 -0.07000481 0.065332234
-0.092699654 0.070594326 -0.042033866 -0.02950931 0.10053819 -0.027224628 -0.041758083 -0.024208749
-0.079362996 -0.06273659 0.04469885 -0.114527956 -0.042315103 -0.027442934 -0.044952955 -0.042306278
-0.043222103 -0.061161578 -0.03252723 0.1071025 0.035907466 -0.093529716 -0.05843215 -0.065472834
-0.011347934 0.06567897 -0.07295441 -0.0774646 -0.0070614894 -0.0015550329 0.052458383 -0.10405436
00000000: dc63 d33c 41d1 0f3d c873 8dbd 0209 f33b
00000010: c579 e9bd 23dc 90bd b55c 873d aeaa d83d
00000020: e03f 02bd c11e 62bb 415f 653d 6e89 eb3c
00000030: c4af b73d 8a06 7e3d 8cf7 ddbd 0438 8dbc
00000040: 76b4 df3c ed7c 663c c7d4 c73c 7be0 b43d
00000050: 8f1b 123c 9449 a6bd 2fea 8ebd 34ea 74bd
00000060: 38c9 e5bb a3d0 dd3d 5a20 6c3d 3d77 00bd
00000070: 7e3a 33bd c1d2 113c abb4 cbbb 93f8 753c
00000080: d285 76bd e8cf 423d c823 f8bb 3032 89bd
00000090: a7e3 2fbd 6836 5d3d a3c9 563d e0b1 e43c
000000a0: 8ac8 8d3c c5b4 b43d 9af0 273d d52a 86bc
000000b0: 44d7 ec3b 2944 393d bbd6 cdbd 1a84 bc3c
000000c0: 207d bbbd f384 983c f1b5 e43d 184c ce3b
000000d0: 7b28 a63c 23bd 223c 057f c23d 4fbd 28bc
000000e0: 00dc a6bb 6cee 6f3c 626d 393d d436 843d
000000f0: 902d 80bb a617 15bd e567 d03c 1bb0 4ebd
00000100: 26d9 a13c e770 793d b3d7 af3c aa31 b53d
00000110: d6cc 31bb 75a5 29bd 6919 773c c571 183d
00000120: 4cf8 853d c027 43bd 63c8 8a3d d51b f03d
00000130: f297 e23d 65e0 c83c 0b47 883d 9a04 58bd
00000140: da09 babd cae8 10bd 32dc 0a3d a42c c0bd
00000150: bde0 f3bb 070b e9bc fb26 7dbd f5d1 573e
00000160: 88f2 eeba cbb6 2bbd 8334 dc3b d9d2 c83b
00000170: 1791 41bd 746e 973d 9dca ae3c 9280 d5bd
00000180: 2b23 59bd 5f77 3cbd f4b9 d23b 3d68 7e3d
00000190: 741b de3c 712b 87bc 271e 843c 6d0a 82bc
000001a0: 5010 4dbd 4711 a63d ca9a 3d3d 7260 b4bb
000001b0: 5cdf a6bd 43da d5bd 4ba8 5dbd 777e b2bd
000001c0: d3ac 17bd e873 dd3d b61d f9bc 9352 06bd
000001d0: 5782 c037 c212 6bbc afa4 d13c d582 ca3d
000001e0: 9cbf 1abd 01a8 ccbd cf19 563d d233 65bd
000001f0: e150 3bbd 732e 2cbd 9300 d93d 8b1f 8d3d
00000200: 3a1a 31bd 2660 e53c bb8a 613d d182 dfbd
00000210: 85c6 273c be44 d03c 4f49 863c 6c53 98bd
00000220: 44a7 c13d 7218 56bd eca2 83bd bcc2 89bd
00000230: 0915 88bc 207a 4cbc e2e2 e83d fc94 59bd
00000240: 9d90 87bc fe64 aebd 8bba 833c 06e4 2cbd
00000250: e7b4 32bd 2dd8 d9bb 5858 853d 5a9c 97bd
00000260: 0c7c 833c f509 33bc 7339 91bd 7e76 c8bc
00000270: 1bab b9bd 433f d13d 6942 8abc 80d2 15bd
00000280: 69df 583b 899f d7bc 356b ed3c 6349 df3d
00000290: 8738 94bc a1a3 86bd c2ca d53d 363c 8dbd
000002a0: a40d d7bd 4bf5 b6bc 8ec5 b13c 5250 793d
000002b0: 12fc 443d 93cc 9bbd 8835 8e3d 9b3a aebc
000002c0: 4b2f 42bb a66b 33bd 668d f3bc 68cc ab3c
000002d0: 424a 57bd 8ff3 33bd 8603 86bd 26f6 833c
000002e0: a5ac b53d 5860 52bb 73ef dcbd 2f43 31bc
000002f0: ffd7 ab3c 90db ab3d 6df2 02bc ddb6 6abd
00000300: 1060 4fbd 9a08 203d 1124 d83d bdc1 3c3d
00000310: 7ee4 a93c 4122 b63d 3b95 413d efb1 ab3d
00000320: 039a 0fbd 71a3 c7bb 5dd8 babd 4399 d3bd
00000330: 7ced 813c ead8 5f3d 4ca6 00bd 8ea7 f93b
00000340: 6198 d8bc 500d 853d 33cf c13d ac75 963d
00000350: 9120 b73d cd87 bc3d 3512 47bc 1294 2fbc
00000360: 7b3f 5ebd d3c3 11bd b4f1 6eba e0ed 3d3c
00000370: 1ab5 04bc 74bc a23b af5e 8fbd e8cc 853d
00000380: 51d9 bdbd c293 903d b42b 2cbd 82bd f1bc
00000390: f7e6 cd3d 2f06 dfbc 860a 2bbd 6d51 c6bc
000003a0: 1189 a2bd 0b7c 80bd 2416 373d a28d eabd
000003b0: 9a52 2dbd 01d0 e0bc 9720 38bd 5949 2dbd
000003c0: a909 31bd 9084 7abd 463b 05bd 8e58 db3d
000003d0: b513 133d 828c bfbd 8d56 6fbd 9f16 86bd
000003e0: afec 39bc b282 863d 1f69 95bd c3a5 9ebd
000003f0: 1164 e7bb 3fd2 cbba 9ade 563d 741a d5bd

lstm.weight_hh_l1 f4 [512, 128]
0.046955395 -0.01705852 -0.09026883 0.042063475 -0.018704323 0.015982164 0.111771114 0.048803065
-0.09535797 -0.027240723 0.028994525 -0.054266144 0.019164188 -0.002212659 0.080016054 -0.085254356
-0.09339477 0.043429807 -0.048792407 -0.012988163 -0.09612562 0.09475124 -0.03501589 -0.010395937
0.0994454 -0.08785992 -0.00037411283 -0.028887933 -0.011385124 -0.08195617 -0.009688101 0.08534492
-0.06531766 -0.00021174621 0.09938285 -0.026140077 -0.04943538 0.056239627 0.058505885 -0.03237867
0.0021207621 -0.010401999 0.049396425 0.04839827 -0.004623625 -0.05281454 -0.040379565 -0.009314738
0.031684607 -0.047238346 0.011556898 -0.07349314 0.046443023 0.005083237 0.030736664 0.030228164
0.077387854 -0.023664437 -0.016409704 -0.022215001 0.0033093668 0.036009774 -0.050745323 0.037171744
-0.038689375 0.03979481 -0.034324028 0.086295374 0.02959582 0.051584844 0.056285657 0.07668588
0.057867948 0.065478295 -0.097343445 0.007971266 -0.046314817 0.054598793 0.052037332 0.09787321
-0.10143689 -0.002944872 -0.010901953 -0.018731019 -0.04084568 0.016785108 -0.106644206 -0.057202827
0.034688316 0.10433266 -0.08105513 0.07831304 0.022848781 0.017001744 -0.03218873 -0.014128038
-0.038343504 -0.048338395 0.0467317 0.0091985315 -0.029565552 -0.04062743 0.043088514 -0.06751977
0.05342342 0.093535006 -0.014272682 -0.015088286 0.07327311 -0.07681402 0.08888951 0.057477996
-0.04821365 0.057327867 0.09894879 0.08482484 0.00097610423 0.004406099 0.03028343 0.04424525
0.016291536 0.08467628 0.05524321 -0.046591524 0.041399036 0.08765106 -0.08790418 0.076471515
0.07044582 -0.04423853 0.04197064 0.043533728 -0.041641552 -0.044023436 0.023875982 0.043707218
0.08322407 0.025148582 0.042709127 0.056764457 0.093272254 0.044428654 -0.06813833 -0.031076096
0.0116742365 -0.026139066 -0.0018842475 -0.021932783 0.023826944 -0.01059016 0.07203653 -0.0371734
-0.023257347 -0.011947303 -0.09966349 -0.011044063 0.054650284 0.008148884 -0.019674333 0.008635164
0.07567267 0.07712455 0.021610027 0.03740289 -0.0953728 -0.07970859 0.049895395 -0.031122664
-0.0077794604 0.007885495 0.050521497 -0.009478801 0.0146139385 0.08335656 -0.0453092 -0.07969866
0.064915106 -0.054406773 -0.013590344 0.015557494 0.022201017 0.033878524 0.011228639 -0.05647858
-0.018095989 -0.006727851 0.011568551 0.0012691431 0.09393926 -0.08490565 0.056562822 0.0967744
0.037303947 -0.04600051 -0.03732044 0.0023628713 -0.042516675 -0.024379017 -0.06574972 -0.040308807
0.062215537 -0.0075078025 0.07259348 -0.03066477 -0.077711314 -0.011621812 0.10686913 0.010010327
-0.055493616 -0.059549965 0.041719694 -0.106430374 0.0570537 0.07415013 -0.069850005 -0.013957503
-0.037626408 -0.064436324 0.07979422 0.0063416925 -0.03582675 -0.044967797 -0.02341444 -0.0009938551
0.06609323 0.08064067 0.043724615 -0.062344868 -0.061605487 0.086077034 -0.058233168 0.052564938
0.016769648 -0.10464438 0.00023239621 0.02219253 -0.017374666 -0.018024903 -0.025852947 0.04376026
0.04554406 0.051901586 -0.03013661 -0.07660493 0.0046510445 0.022251457 0.11369822 0.033116743
-0.050434195 -0.062924474 -0.051620804 0.017052926 -0.007615602 0.01607807 0.033013295 0.05199487
00000000: 4d54 403d 4fbe 8bbc ddde b8bd c04a 2c3d
00000010: cf39 99bc 07ed 823c 41e8 e43d b9e5 473d
00000020: 0a4b c3bd f027 dfbc ed85 ed3c 2d46 5ebd
00000030: 37fe 9c3c 4202 11bb 75df a33d d699 aebd
00000040: c245 bfbd 74e3 313d 8cda 47bd 4ecc 54bc
00000050: 82dd c4bd f00c c23d d26c 0fbd b853 2abc
00000060: 08aa cb3d e7ef b3bd 9324 c4b9 63a6 ecbc
00000070: ac88 3abc a3d8 a7bd d7ba 1ebc 51c9 ae3d
00000080: 44c5 85bd 3108 5eb9 3c89 cb3d b723 d6bc
00000090: c17c 4abd 865b 663d dea3 6f3d 7f9f 04bd
000000a0: 7cfc 0a3b 256d 2abc e853 4a3d 443d 463d
000000b0: c781 97bb 0f54 58bd 0b65 25bd d89c 18bc
000000c0: b8c7 013d ff7c 41bd 2559 3d3c 9283 96bd
000000d0: 0a3b 3e3d 4891 a63b 75cb fb3c 0ea1 f73c
000000e0: 867d 9e3d ecdb c1bc a56d 86bc 3cfc b5bc
000000f0: f6e1 583b fc7e 133d 54da 4fbd 6641 183d
00000100: c078 1ebd e2ff 223d 5a97 0cbd a1bb b03d
00000110: ef72 f23c a14a 533d ca8b 663d 7d0d 9d3d
00000120: f106 6d3d 7c19 863d 005c c7bd ea99 023c
00000130: 9bb4 3dbd fca2 5f3d 1925 553d c071 c83d
00000140: 25be cfbd c1fe 40bb 1b9e 32bc cb71 99bc
00000150: cd4d 27bd ec80 893c 4768 dabd 834d 6abd
00000160: 5615 0e3d 5dac d53d 3b00 a6bd 9662 a03d
00000170: 5e2d bb3c 3e47 8b3c 54d8 03bd 4979 67bc
00000180: 140e 1dbd 7bfe 45bd bd69 3f3d 70b5 163c
00000190: 7533 f2bc f368 26bd 957d 303d ce47 8abd
000001a0: 84d2 5a3d 488f bf3d f8d7 69bc dc34 77bc
000001b0: 3610 963d ab50 9dbd b40b b63d 0c6e 6b3d
000001c0: ad7b 45bd a0d0 6a3d aaa5 ca3d a5b8 ad3d
000001d0: 3fe1 7f3a 0a61 903b f514 f83c 823a 353d
000001e0: d475 853c c26a ad3d b446 623d c1d6 3ebd
000001f0: 0992 293d 6682 b33d 1b07 b4bd 199d 9c3d
00000200: e645 903d 7633 35bd 68e9 2b3d 6c50 323d
00000210: 5590 2abd eb51 34bd 9097 c33c 5706 333d
00000220: 6271 aa3d 6604 ce3c c4ef 2e3d d981 683d
00000230: 8605 bf3d d2fa 353d 1c8c 8bbd 4c93 febc
00000240: 4c45 3f3c 9821 d6bc dbf8 f6ba 61ac b3bc
00000250: b930 c33c 5a82 2dbc e387 933d 2343 18bd
00000260: 3186 bebc 9fbe 43bc 5f1c ccbd 28f2 34bc
00000270: fad8 5f3d e682 053c 112c a1bc 817a 0d3c
00000280: 46fa 9a3d 7af3 9d3d 8307 b13c c633 193d
00000290: d152 c3bd 423e a3bd 1d5f 4c3d f5f4 febc
000002a0: d8ea febb 2a32 013c a1ef 4e3d f94c 1bbc
000002b0: 4d6f 6f3c d8b6 aa3d 2496 39bd 0d39 a3bd
000002c0: 36f2 843d a3d9 5ebd 09aa 5ebc dce4 7e3c
000002d0: e8de b53c 35c4 0a3d 53f8 373c 1556 67bd
000002e0: 0a3e 94bc 4e75 dcbb 058a 3d3c 6059 a63a
000002f0: 3a63 c03d 03e3 adbd 6bae 673d a831 c63d
00000300: 06cc 183d 086b 3cbd 51dd 18bd 67da 1a3b
00000310: f725 2ebd 81b6 c7bc caa7 86bd d91a 25bd
00000320: b8d5 7e3d 0304 f6bb e4ab 943d af34 fbbc
00000330: 1c27 9fbd 6a69 3ebc 34de da3d 5b02 243c
00000340: 464d 63bd aaea 73bd 45e2 2a3d 2bf8 d9bd
00000350: 24b1 693d 06dc 973d 850d 8fbd 03ae 64bc
00000360: 261e 1abd 31f7 83bd 276b a33d f9cd cf3b
00000370: 12bf 12bd 2730 38bd a4cf bfbc 3e44 82ba
00000380: e35b 873d f026 a53d 9518 333d 555d 7fbd
00000390: 0956 7cbd 2849 b03d e785 6ebd 554e 573d
000003a0: 8060 893c cb4f d6bd 62af 7339 1ccd b53c
000003b0: 5155 8ebc f6a8 93bc 8fc9 d3bc f53d 333d
000003c0: 698c 3a3d c296 543d 0de1 f6bc 0ce3 9cbd
000003d0: ca67 983b b048 b63c 9dda e83d 6ca5 073d
000003e0: 1694 4ebd 8cde 80bd 5670 53bd 94b2 8b3c
000003f0: 4d8c f9bb 28b6 833c f338 073d 93f8 543d

lstm.bias_ih_l1 f4 [512]
0.052074037 -0.06051203 0.029511886 0.088895656 0.042690087 0.101897724 0.009123994 0.01891173
0.105329014 -0.0641028 -0.058067292 0.08421716 0.093645565 0.036310893 0.06341772 0.035562012
0.03339887 0.02520605 0.047589965 0.016778052 -0.0315079 0.019353772 0.017546393 -0.02053715
0.03687201 0.0013468962 0.061144203 -0.023264183 -0.024276782 -0.06389733 -0.016396394 -0.025417589
-0.057856403 -0.0047778296 0.007910287 0.075695 0.057906866 0.018472102 0.08847251 0.006961166
0.09312815 -0.020652866 -0.054376736 -0.00590952 -0.03995282 0.051323738 0.02477839 0.01565143
-0.05804538 -0.06355119 -0.022868821 0.011034922 0.040527713 -0.03919077 0.029072065 -0.05845062
0.08995063 0.07754643 0.04051844 -0.014922645 -0.06769252 0.016864019 0.04114996 -0.023894763
-0.015584975 0.07204751 0.02320845 -0.030670192 -0.05780168 -0.054359995 0.0065440694 0.024547271
0.10246179 0.07223489 0.0020641787 -0.049974922 -0.031736188 -0.016946949 0.00961878 -0.06310418
-0.018164547 -0.03148732 0.015897524 -0.0057032323 0.038579214 0.042368583 0.0326483 -0.07131734
0.035681535 -0.070497535 0.049499903 0.031972174 -0.06299152 -0.04709914 0.09939603 0.081528634
-0.03265834 0.09859601 -0.03784881 0.061437745 -0.055589344 -0.005383077 0.01125431 0.0697801
0.011179492 -0.089133225 0.021019856 -0.06841563 0.017003814 -0.037079368 -0.030018955 -0.039814357
0.0019925188 0.08307647 -0.02776796 0.0510301 0.02388788 0.004733002 -0.038669795 0.028709086
0.0058808695 0.09273218 -0.052406155 -0.03173894 0.09989453 0.01963528 -0.047242828 0.033575784
0.053369693 -0.015161002 0.02906201 0.072993435 -0.021359373 -0.046496086 0.098046206 -0.053396683
-0.05615519 -0.05247995 0.059632916 0.049222104 -0.020997105 0.005980568 0.10132087 0.074481465
0.012714614 0.020477714 0.042323966 0.08379098 0.009450579 0.074313976 0.052079696 -0.025800701
0.097152546 0.038529657 -0.00300346 -0.05041091 -0.026118476 0.0025008211 -0.021265993 0.08642347
-0.01923241 0.01812948 -0.038495105 0.05313964 -0.067640595 0.05388373 -0.050754633 -0.05175281
-0.017393531 -0.023978658 -0.0014282183 0.05095274 0.0787857 -0.0033228276 -0.007549422 0.0070762536
-0.020244813 0.0015609043 0.00745529 -0.06732856 0.07728167 -0.04905617 0.09103367 0.058972146
-0.06641047 -0.03585673 0.0003397188 0.09150717 0.021406122 0.061055228 -0.0077595976 -0.040265676
0.07712747 -0.021384744 0.031643912 0.034294143 -0.043554243 -0.04254476 -0.024429586 0.050659984
0.038505413 0.06812385 -0.0230485 -0.04546967 0.10502375 -0.07304883 0.0065881168 0.09035664
-0.015720502 0.12085139 0.09581141 0.023430573 -0.069576584 -0.025598424 0.097587384 0.042585295
-0.002872937 -0.030126141 0.0824279 -0.054367784 -0.04978487 0.012160324 -0.0006520857 -0.019639257
0.04519852 0.016220823 -0.007102789 -0.00662301 -0.029214902 0.044432662 0.028502746 0.07593125
-0.0047679776 -0.00866655 0.02098084 0.02220092 0.054206505 -0.05888261 0.015807977 0.09973083
-0.071572684 -0.05538476 -0.037119858 -0.02663061 -0.041189007 -0.007641415 -0.03228512 0.055686668
-0.03954731 0.07248194 -0.03047718 0.021249441 0.0104992185 -0.052098576 0.021330088 0.10610722
00000000: 964b 553d 76db 77bd e9c2 f13c ed0e b63d
00000010: cddb 2e3d c1af d03d ce7c 153c c6ec 9a3c
00000020: bdb6 d73d 5448 83bd f8d7 6dbd 0c7a ac3d
00000030: 3fc9 bf3d bbba 143d 26e1 813d 79a9 113d
00000040: 41cd 083d eb7c ce3c b2ed 423d 2072 893c
00000050: 6e0e 01bd cd8b 9e3c 74bd 8f3c 863d a8bc
00000060: 1b07 173d 568a b03a 5872 7a3d 8794 bebc
00000070: 1ae0 c6bc 9adc 82bd bb51 86bc 8c38 d0bc
00000080: d6fa 6cbd 578f 9cbb 269a 013c fb05 9b3d
00000090: c02f 6d3d ce52 973c 1331 b53d 7e1a e43b
000000a0: f9b9 be3d 3330 a9bc 24ba 5ebd a6a4 c1bb
000000b0: 91a5 23bd d738 523d 0dfc ca3c 6d37 803c
000000c0: fec0 6dbd 2027 82bd 6557 bbbc d1cb 343c
000000d0: 6300 263d 8086 20bd 8a28 ee3c eb69 6fbd
000000e0: 0938 b83d aad0 9e3d aaf6 253d 1c7e 74bc
000000f0: 60a2 8abd 6926 8a3c dc8c 283d f3be c3bc
00000100: 1f58 7fbc a58d 933d a61f be3c 0e40 fbbc
00000110: 74c1 6cbd 96a8 5ebd a26f d63b 5c17 c93c
00000120: 7dd7 d13d e3ef 933d 2c47 073b 81b2 4cbd
00000130: cefd 01bd 54d4 8abc 1698 1d3c c43c 81bd
00000140: d1cd 94bc d9f8 00bd 863b 823c 2ee2 babb
00000150: 3d05 1e3d ae8a 2d3d 39ba 053d d30e 92bd
00000160: cd26 123d 0361 90bd 69c0 4a3d 41f5 023d
00000170: b301 81bd 07eb 40bd 2590 cb3d 7cf8 a63d
00000180: c0c4 05bd b4ec c93d 5b07 1bbd 25a6 7b3d
00000190: a7b1 63bd 8664 b0bb ff63 383c dee8 8e3d
000001a0: 302a 373c 7b8b b6bd d531 ac3c 7e1d 8cbd
000001b0: 954b 8b3c 89e0 17bd 50ea f5bc 6114 23bd
000001c0: eb94 023b ff23 aa3d a279 e3bc f004 513d
000001d0: 84b0 c33c 4c17 9b3b 3864 1ebd 512f eb3c
000001e0: 4fb4 c03b 5fea bd3d d6a7 56bd b100 02bd
000001f0: 8195 cc3d 2bda a03c b281 41bd c386 093d
00000200: 2e9a 5a3d da65 78bc 7413 ee3c 957d 953d
00000210: daf9 aebc ae72 3ebd 73cc c83d 7bb6 5abd
00000220: fc02 66bd 37f5 56bd a541 743d 1e9d 493d
00000230: 1f02 acbc a4f8 c33b 5181 cf3d bd89 983d
00000240: f550 503c e1c0 a73c e55b 2d3d 9b9a ab3d
00000250: 9ad6 1a3c ed31 983d 8551 553d fe5b d3bc
00000260: eaf7 c63d 46d1 1d3d b2d5 44bb ac7b 4ebd
00000270: 6af6 d5bc d1e4 233b 0536 aebc cafe b03d
00000280: 498d 9dbc 4684 943c 0bad 1dbd f3a8 593d
00000290: 2787 8abd 30b5 5c3d 17e4 4fbd c1fa 53bd
000002a0: e17c 8ebc e46e c4bc 0e33 bbba d2b3 503d
000002b0: 665a a13d ccc3 59bb 2461 f7bb ebdf e73b
000002c0: 73d8 a5bc 4297 cc3a 814b f43b 8ee3 89bd
000002d0: da45 9e3d 1fef 48bd dc6f ba3d c78c 713d
000002e0: 3602 88bd 82de 12bd 491c b239 1c68 bb3d
000002f0: e45b af3c 0c15 7a3d 3944 febb 9fed 24bd
00000300: 02f5 9d3d 0f2f afbc 0c9d 013d 0478 0c3d
00000310: ef65 32bd 6a43 2ebd 8e20 c8bc d880 4f3d
00000320: dab7 1d3d 8484 8b3d 35d0 bcbc 683e 3abd
00000330: b116 d73d a09a 95bd 21e1 d73b e70c b93d
00000340: 48c8 80bc ef80 f73d c638 c43d 79f1 bf3c
00000350: 2b7e 8ebd c9b3 d1bc e5db c73d eb6d 2e3d
00000360: e247 3cbb 19cb f6bc f5cf a83d c1b0 5ebd
00000370: 38eb 4bbd 183c 473c bbf0 2aba 82e2 a0bc
00000380: 1522 393d 88e1 843c 83be e8bb d605 d9bb
00000390: 1754 efbc 06ff 353d 977e e93c d881 9b3d
000003a0: b23c 9cbb 25fe 0dbc 03e0 ab3c b4de b53c
000003b0: a407 5e3d e42e 71bd bb7f 813c ad3f cc3d
000003c0: b394 92bd 21db 62bd fe0a 18bd 7028 dabc
000003d0: ceb5 28bd d664 fabb 673d 04bd b417 643d
000003e0: 5cfc 21bd 6971 943d 47ab f9bc 4f13 ae3c
000003f0: ea04 2c3c 5165 55bd 70bc ae3c be4e d93d
