model_checkpoints/collection/best_lstm_fold_5.pth (torch, 850865 bytes, 16 tensors)

lstm.weight_ih_l0 f4 [512, 4]
0	0x3e4b1fc1	0.19836332
1	0x3cbaa342	0.022782926
2	0x3e7c4b37	0.24638067
3	0x3e6c10d5	0.23053296
4	0x3e0fdabd	0.14048286
5	0xbd9a8791	-0.075453885
6	0x3d3c22cb	0.04593162
7	0x3dcd300c	0.1001893
8	0xbd832791	-0.06404031
9	0x3ddc420b	0.10754784
10	0xbdfed1ca	-0.12442358
11	0x3d94d69a	0.072674945
12	0xbca3c821	-0.01999289
13	0x3c8ad1b8	0.016945705
14	0x3ddaa3c7	0.10675769
15	0x3eb6b053	0.356814
16	0x3dc8c8b9	0.0980391
17	0x3b643adb	0.003482512
18	0x3e55fd67	0.20897447
19	0x3e370fab	0.1787707
20	0xbca2f03b	-0.019889941
21	0x3d6e608d	0.058197547
22	0xbd880bee	-0.066429004
23	0x3dc55c4b	0.09636744
24	0x3d2aa843	0.041664373
25	0xbe1edbd0	-0.1551354
26	0xbd94afcc	-0.07260093
27	0x3ea919e5	0.33027568
28	0x3db5378c	0.08848485
29	0x3d24d918	0.0402461
30	0x3d998042	0.07495166
31	0x3d5d3280	0.05400324
32	0x3c9704ea	0.01843496
33	0xbda414eb	-0.08011802
34	0x3c8a970a	0.016917724
35	0x3dc073e7	0.093971066
36	0x3e37b95e	0.17941806
37	0xbd2eebc1	-0.0427053
38	0x3e227dd8	0.15868318
39	0xbd5eea67	-0.054422762
40	0xbe1bcf2c	-0.15215749
41	0xbc83e32e	-0.016099539
42	0xbe6096ad	-0.21932478
43	0xbd73aeed	-0.059492994
44	0xbd3b9f8c	-0.045806453
45	0x3da052fe	0.078283295
46	0xbc7c3248	-0.015392847
47	0xbcf951aa	-0.030434448
48	0xbf05e21a	-0.5229813
49	0x3daadb9a	0.08342667
50	0xbdb03ee2	-0.08605744
51	0x3ed4fc47	0.41598722
52	0x3e018bc5	0.12650974
53	0x3da5a61e	0.08088325
54	0x3dfaa354	0.122381836
55	0x3e086309	0.13319029
56	0xbe5a6f62	-0.21331552
57	0x3e83c635	0.25737157
58	0x3d569513	0.052388262
59	0xbdfba766	-0.12287788
60	0x3e7fe16c	0.24988335
61	0x3e26ea98	0.16300428
62	0x3e801ff7	0.25024387
63	0x3e7bcf3e	0.24590775
64	0xbddd893c	-0.10817191
65	0x3e8f769d	0.28020182
66	0x3ea121f9	0.31471232
67	0xbd9b9fc6	-0.07598834
68	0xbdab3604	-0.08359912
69	0x3bd1bc95	0.0064006546
70	0x3d54eba9	0.051982556
71	0xbc7686e8	-0.015046813
72	0xbe301f38	-0.17199409
73	0xbb872510	-0.0041242912
74	0xbe185f4c	-0.14880103
75	0x3b97d296	0.004633258
76	0x3da5a968	0.08088952
77	0x3e070986	0.13187227
78	0x3d6d9e17	0.058012094
79	0x3d79d3e4	0.06099309
80	0x3e434362	0.19068673
81	0xbcfa2b23	-0.030538147
82	0xbcd6589b	-0.026165297
83	0x3e779417	0.24177586
84	0xbd262e1b	-0.040571313
85	0x3da83359	0.08212919
86	0x3dc77a4d	0.09740124
87	0xbd27d10b	-0.040970843
88	0xbc9b715d	-0.018974954
89	0x3e2ac169	0.16675343
90	0x3daac936	0.08339159
91	0xbbcad0bc	-0.006189434
92	0x3d279510	0.04091364
93	0x3e50bd2f	0.20384668
94	0x3e205332	0.15656736
95	0xbe368b5a	-0.17826596
96	0xbe7aab90	-0.24479508
97	0x3e1b249f	0.15150689
98	0xbe71ac3e	-0.23600861
99	0x3e6b6e12	0.22991207
100	0xbc8c981b	-0.017162373
101	0x3e9f94d2	0.31168228
102	0xbe162d0d	-0.14665623
103	0x3bb3e7d2	0.0054902816
104	0x3dcdc35b	0.10047027
105	0x3de801ac	0.11328444
106	0x3e2a65b5	0.1664036
107	0x3e6dd157	0.23224388
108	0x3e3856b8	0.1800183
109	0x3dcf8e83	0.10134604
110	0x3e47be75	0.19506247
111	0x3e7250d0	0.2366364
112	0xbcae1e15	-0.021254579
113	0xbe0ff8aa	-0.14059702
114	0x3c59adb5	0.013286044
115	0x3e767090	0.24066377
116	0x3e24fbbd	0.16111656
117	0x3d00db17	0.03145894
118	0x3d4b3253	0.04960854
119	0x3d8fa3b5	0.070136465
120	0x3e0c3717	0.1369289
121	0x3da5ced2	0.080960885
122	0x3dfb3634	0.12266198
123	0x3e19ff7a	0.15038863
124	0x3c9f90bb	0.019478193
125	0x3e190302	0.14942554
126	0x3de40bf1	0.1113509
127	0xbce68c5c	-0.0281431
128	0xbd83c2e3	-0.06433656
129	0x3e64a4a1	0.22328426
130	0x3d325700	0.04354
131	0xbe7c8288	-0.24659169
132	0xbcc42055	-0.023941198
133	0x3dd199d9	0.10234422
134	0xbdb581dc	-0.08862659
135	0xbd7c123e	-0.061540835
136	0xbe13c97c	-0.14432329
137	0xbe6a924b	-0.22907369
138	0xbdf6651f	-0.12031006
139	0x3d6ee893	0.05832727
140	0x3e21673a	0.15762034
141	0xbd254c88	-0.04035619
142	0x3e4ec09e	0.20190665
143	0x3dea7b7f	0.11449336
144	0xbdad8ee9	-0.084745236
145	0x3e297e31	0.16552044
146	0xbc87a545	-0.016558299
147	0xbdcca209	-0.09991843
148	0xbefd63a1	-0.49490073
149	0x3e512270	0.20423293
150	0x3dba9c86	0.09111886
151	0xbeadb214	-0.33924925
152	0x3ddeec91	0.10884965
153	0x3c8c5104	0.017128475
154	0x3e6ee4df	0.23329495
155	0x3e51d19e	0.20490119
156	0x3d3157ca	0.043296613
157	0xbd070562	-0.032964118
158	0x3e58d754	0.21175891
159	0xbd0c3c99	-0.034237478
160	0x3e5d73df	0.21626233
161	0x3e27d55c	0.16389984
162	0x3e311bac	0.17295712
163	0x3ddc7933	0.107653044
164	0xbf277de7	-0.65426487
165	0x3e03dcc1	0.1287718
166	0xbe4e70be	-0.20160195
167	0x3d67dc4b	0.056606572
168	0x3dadcd66	0.08486442
169	0x3cc2afd4	0.023765482
170	0x3df85a27	0.1212657
171	0x3c960313	0.018312013
172	0x3d8e9617	0.06962221
173	0x3dacbc72	0.084343806
174	0x3da2682c	0.079300255
175	0x3d5b55d8	0.053548664
176	0x3e460ef0	0.19341636
177	0x3ddf5da0	0.109065294
178	0x3e84810e	0.2587971
179	0x3e223662	0.15841058
180	0x3b9f1448	0.0048547126
181	0x3e44a3f9	0.19203176
182	0x3db65cc6	0.08904414
183	0xbd76b975	-0.06023546
184	0x3e08f172	0.13373354
185	0x3dededf3	0.11617651
186	0x3e7e7101	0.24847795
187	0x3d3ebd44	0.046567217
188	0xbdf39cd8	-0.1189515
189	0x3e88125c	0.26576507
190	0x3e72775e	0.23678347
191	0xbd8c453d	-0.06849144
192	0x3de5331b	0.11191388
193	0x3e6fc743	0.23415856
194	0x3e4798e7	0.19491921
195	0x3b987bc7	0.0046534273
196	0x3c8cda04	0.017193802
197	0x3d0a5c3d	0.03377937
198	0x3e302127	0.17200147
199	0xbe0d3181	-0.13788415
200	0x3e002d1d	0.1251721
201	0xbc32691c	-0.010889318
202	0x3e455435	0.19270404
203	0x3e615324	0.22004372
204	0xbe3eb2d2	-0.18622902
205	0xbdc5b029	-0.096527405
206	0x3eadd74a	0.33953315
207	0xbd7d9bc8	-0.061916143
208	0xbe07fdfb	-0.1328048
209	0xbcb9a466	-0.0226614
210	0x3d0fbf4d	0.035094548
211	0x3bdc2642	0.006718428
212	0xbdf3132e	-0.118688926
213	0xbd1138ee	-0.035454683
214	0xbe531665	-0.20614012
215	0x3f26539c	0.6497133
216	0x3d754f26	0.059889935
217	0x3dd67701	0.10471917
218	0x3de0ccd3	0.10976567
219	0xbd4ed09f	-0.050491925
220	0xbdb2421a	-0.08704014
221	0x3c84e7b2	0.016223762
222	0xbe1791ed	-0.1480176
223	0xbf0fcf6e	-0.5617589
224	0x3ccdf774	0.025142409
225	0x3e8f76f3	0.2802044
226	0x3de0bef3	0.10973921
227	0x3dbe046a	0.09278186
228	0xbe3bca84	-0.18338972
229	0x3dcfcb8e	0.10146247
230	0x3c18c1a0	0.009323508
231	0xbe5463bf	-0.20741175
232	0xbe022dcc	-0.12712783
233	0x3dc386d8	0.09547204
234	0x3d6490d3	0.055802178
235	0xbe80bdcf	-0.25144812
236	0x3dc07c07	0.09398656
237	0x3e1a6555	0.15077718
238	0x3d826f5b	0.063688956
239	0x3dff9a4c	0.12480602
240	0x3e8ac19d	0.2710084
241	0x3d64b39e	0.05583536
242	0x3e72bcd0	0.23704839
243	0x3e599eb9	0.21251954
244	0x3e8f3baf	0.27975222
245	0x3e916b8e	0.2840237
246	0x3e9ba63e	0.3040027
247	0x3e361398	0.17780912
248	0x3dde2fe5	0.10848979
249	0x3da21e64	0.07915953
250	0xbd341597	-0.043965902
251	0x3dd4efa5	0.10397271
252	0x3e209f6b	0.15685813
253	0x3e9cd0de	0.30628103
254	0x3e4d3a60	0.200418
255	0x3d95b9e7	0.07310849

lstm.weight_hh_l0 f4 [512, 128]
0	0x3e680a20	0.22660112
1	0x3e1daaf9	0.15397252
2	0xbdeac89c	-0.114640445
3	0xbca4d4af	-0.020120947
4	0xbdf338f4	-0.11876097
5	0xbc9a56bb	-0.018840184
6	0xbdab629f	-0.0836842
7	0x3dc21330	0.09476316
8	0x3dcf7fff	0.10131835
9	0x3dc8930f	0.09793674
10	0xbd2e9569	-0.042622957
11	0x3cc56936	0.02409802
12	0x3e068274	0.13135701
13	0x3e853ca3	0.26022825
14	0x3e1394fc	0.14412302
15	0xbe47c05d	-0.19506975
16	0x3dcc9ff6	0.09991448
17	0x3d4e700a	0.050399818
18	0x3cdd9ab4	0.027051307
19	0xbe2fd88f	-0.17172454
20	0xbd5e5cec	-0.054287836
21	0xbd8c36bd	-0.06846378
22	0xbcda9e7d	-0.026686901
23	0x3e47b344	0.19501978
24	0xbe1f0886	-0.15530595
25	0x3dec8801	0.11549378
26	0xbd87826c	-0.06616673
27	0xbe3567ff	-0.17715453
28	0xbd8e457c	-0.06946847
29	0xbca4baa1	-0.020108523
30	0xbcba1e6f	-0.02271959
31	0xbe0089df	-0.12552594
32	0x3d4cd1eb	0.05000488
33	0x3d2e799e	0.042596452
34	0xbd4f002c	-0.050537273
35	0x3e6504bb	0.22365086
36	0x3d1111db	0.03541742
37	0xbde73fb3	-0.112914465
38	0xbcb1fb09	-0.021726148
39	0xbc5766f0	-0.013147101
40	0x3c878f6e	0.016547885
41	0xbe14eb15	-0.14542802
42	0x3c093007	0.008373267
43	0xbd8145b2	-0.063121215
44	0xbd7c8aad	-0.06165569
45	0x3e419410	0.18904138
46	0xbe8408cf	-0.2578797
47	0xbe1ac7da	-0.151153
48	0xbd0559d7	-0.03255638
49	0xbe7fe08e	-0.24988005
50	0xbe034203	-0.1281815
51	0xbe4941d1	-0.19654013
52	0x3e239c65	0.15977629
53	0x3d9894e7	0.07450276
54	0xbe333263	-0.1749969
55	0x3d3e0835	0.046394546
56	0xbdc9a49f	-0.09845852
57	0x3df1c353	0.11804833
58	0x3ddf6efe	0.10909842
59	0xbe369029	-0.1782843
60	0xbdd9a775	-0.10627643
61	0xbe401f12	-0.18761852
62	0x3e0c2640	0.13686466
63	0xbd5ab8b5	-0.053398807
64	0x3e4eda34	0.20200425
65	0xbe768a4f	-0.24076198
66	0x3dcc2874	0.09968653
67	0x3e839cfd	0.2570571
68	0xbe1afa58	-0.15134561
69	0xbc3a570e	-0.0113732945
70	0x3d0bd5a7	0.0341393
71	0x3dfb89ff	0.1228218
72	0x3bc5b192	0.006033131
73	0xbd6ab39c	-0.057300195
74	0x3e3d2f3f	0.18475054
75	0x3ce2b5d7	0.027674599
76	0x3c858f77	0.01630376
77	0xbe304a75	-0.17215903
78	0x3d6b038b	0.057376426
79	0xbe66ff3f	-0.22558306
80	0x3e0a3de1	0.13500167
81	0x3da13816	0.07872026
82	0xbdee6970	-0.11641204
83	0x3d990a12	0.07472624
84	0x3d8d6f6e	0.06906019
85	0xbe4ed980	-0.20200157
86	0x3cc3ba37	0.023892505
87	0xbe06c1c5	-0.13159855
88	0xbd881493	-0.06644549
89	0x3b308819	0.002693659
90	0x3ce44007	0.027862562
91	0xbc02831a	-0.007965827
92	0x3e8bb82e	0.27288955
93	0xbc29fff9	-0.01037597
94	0x3dc98945	0.09840635
95	0xbdcc1112	-0.099641934
96	0x3e1a994c	0.1509754
97	0xbdd753a0	-0.10513997
98	0x3c29f107	0.010372407
99	0x3d42d1fb	0.047563534
100	0x3e012c05	0.12614448
101	0xbd31f8fc	-0.04345034
102	0x3df1e37d	0.11810968
103	0x3c49216e	0.012276037
104	0xbd8ad9c5	-0.067798175
105	0x3d6330fb	0.055466633
106	0xbd67d397	-0.056598272
107	0xbd94bde6	-0.07262783
108	0x3e53cffd	0.2068481
109	0x3be4a9da	0.0069782557
110	0xbda9413a	-0.08264394
111	0xbe80d435	-0.251619
112	0xbe158a5c	-0.14603561
113	0x3c8aab0a	0.01692726
114	0xbdbb85e8	-0.091564
115	0xbe7e21ba	-0.24817553
116	0xbd6143b5	-0.05499621
117	0xbce388c2	-0.027775172
118	0xbe3925b5	-0.1808079
119	0xbcc23634	-0.023707487
120	0x3cb09ada	0.021558214
121	0x3c61c383	0.013779524
122	0x3e38c26d	0.18042918
123	0x3d2d8599	0.042363737
124	0xbdedcd35	-0.11611406
125	0xbe12d000	-0.14337158
126	0xbc6c5781	-0.014425159
127	0xbdc046dc	-0.09388515
128	0x3e54d8f5	0.20785888
129	0xbd414fc3	-0.047195207
130	0x3e0d6905	0.13809593
131	0x3d36770e	0.044547133
132	0xbd5b549b	-0.053547483
133	0xbdfcb32c	-0.12338862
134	0x3c4c9aac	0.0124880485
135	0xbe2d59c1	-0.1692877
136	0xbd132607	-0.035924938
137	0x3d559d85	0.052152175
138	0x3c079c39	0.0082769925
139	0x3d1c2b4f	0.03812724
140	0xbcafabb3	-0.021444177
141	0xbce91333	-0.028451538
142	0x3e715f7b	0.23571579
143	0xbe1753ca	-0.14778057
144	0x3d6f1375	0.058368165
145	0x3e07da86	0.13266954
146	0x3dce360b	0.10068902
147	0xbe0af173	-0.13568668
148	0x3ac47d89	0.0014991026
149	0x3c119593	0.008885759
150	0xbe1b139c	-0.15144199
151	0x3e13e0d3	0.14441232
152	0xbd8f7abf	-0.07005834
153	0x3d2e53df	0.042560454
154	0x3d3a64ed	0.045506407
155	0xbcd804a7	-0.026369406
156	0xbe20490a	-0.15652862
157	0x3c4db132	0.012554454
158	0x3d0c74cf	0.034291085
159	0xbe0f1f7a	-0.13976851
160	0xbd1267d0	-0.035743535
161	0xbca8990b	-0.02058079
162	0x3d30037b	0.04297207
163	0x3d5ce305	0.05392744
164	0xbe1982eb	-0.14991347
165	0x38cddb56	9.816016e-05
166	0xbc6a2f6b	-0.014293532
167	0xbd4ce56e	-0.05002349
168	0x3e0c21bc	0.13684744
169	0x3d8a3be2	0.06749703
170	0xbe0aaf6c	-0.1354348
171	0xbd882847	-0.06648307
172	0xbe3622c7	-0.17786704
173	0xbcaf7fc7	-0.021423234
174	0xbe1279d2	-0.14304283
175	0xbda60765	-0.08106879
176	0xbd84b2b6	-0.06479399
177	0xbe1b786b	-0.15182655
178	0xbdef63f9	-0.1168899
179	0x3be545cb	0.0069968454
180	0xbde2aaf9	-0.11067767
181	0xbbb7143f	-0.0055871303
182	0xbd747b66	-0.059687994
183	0x3d792bdd	0.060832847
184	0xbda1f71c	-0.079084605
185	0x3e0f438d	0.13990612
186	0x3e124308	0.14283383
187	0xbe368517	-0.17824207
188	0xbdf0a75c	-0.11750671
189	0xbdc78828	-0.097427666
190	0x3e028c90	0.12748933
191	0x3d7def24	0.06199564
192	0x3d939982	0.07207014
193	0xbda3d0b5	-0.07998792
194	0x3d9e7e92	0.07738985
195	0x3e1bc1b7	0.15210615
196	0xbdd7e2ae	-0.105412826
197	0xbdc7b439	-0.097511716
198	0xbd500a7b	-0.050791245
199	0xbdaa7b1b	-0.08324262
200	0x3e136f4e	0.14397928
201	0x3bdc7f1e	0.0067290207
202	0x3da9e290	0.082951665
203	0x3d910a74	0.07082072
204	0x3db49e62	0.088192716
205	0xbdce5984	-0.100756675
206	0x3e13362f	0.14376138
207	0xbd8829d9	-0.06648607
208	0xbdbf232e	-0.09332882
209	0x3d6247bf	0.055244204
210	0xbd9aae20	-0.07552743
211	0xbe361062	-0.17779687
212	0xbe0abe2c	-0.13549107
213	0x3b897895	0.0041952827
214	0xbb9088d8	-0.0044108443
215	0x3dbf05ee	0.09327303
216	0x3d0df9ae	0.03466194
217	0xbd04dacb	-0.03243522
218	0xbd886731	-0.06660307
219	0xbc432ba9	-0.011912265
220	0x3d682b25	0.05668177
221	0xbe3657e5	-0.17806967
222	0xbd4f3607	-0.050588634
223	0xbdb359ab	-0.08757337
224	0x3d8ed0a0	0.06973386
225	0x3cbdbba6	0.023160767
226	0xbe2d1dc2	-0.16905883
227	0xbc0ae2f3	-0.0084769605
228	0x3d907c01	0.07054902
229	0x3da09b85	0.07842163
230	0x3c46f5a0	0.0121435225
231	0x3cf37edf	0.029723583
232	0x3d94b458	0.0726096
233	0x3d32bb2c	0.043635532
234	0xbe19d040	-0.15020847
235	0xbd611c43	-0.054958593
236	0xbd5719f0	-0.05251497
237	0xbd1009d0	-0.035165608
238	0x3d8ded1a	0.06929989
239	0x3c303027	0.010753668
240	0xbcf7fcfc	-0.030272
241	0x3d675358	0.056475967
242	0xbd64b190	-0.0558334
243	0xbe217fc4	-0.15771395
244	0xbd390b1d	-0.045176614
245	0x3e26c7cb	0.16287152
246	0x3d52780c	0.051384017
247	0xbd91e4c1	-0.071237095
248	0xbe25d707	-0.16195308
249	0x3dd2797a	0.10277076
250	0xbe044375	-0.12916358
251	0x3c6c3292	0.014416354
252	0x3dba025f	0.090824835
253	0x3d1951ad	0.037431408
254	0xbcea4d0b	-0.02860119
255	0xbcbfca82	-0.023411993

lstm.bias_ih_l0 f4 [512]
0	0x3e274a12	0.1633685
1	0xbd830ec1	-0.063992985
2	0x3e07551e	0.13216063
3	0x3c06eeb5	0.008235623
4	0x3d81a0dc	0.063295096
5	0xbd3e0755	-0.04639371
6	0x3c038e29	0.008029499
7	0xbdc8c3ec	-0.09802994
8	0xbd8d25a7	-0.06891947
9	0xbb362539	-0.0027793183
10	0x3deb9f03	0.115049385
11	0x3dabe09c	0.0839245
12	0xbd1ba5a3	-0.03799976
13	0x3e046656	0.12929663
14	0x3d5e5f67	0.0542902
15	0x3d9aac7d	0.07552431
16	0x3dbf4192	0.093386784
17	0x3d16b985	0.03679802
18	0xbd063269	-0.03276292
19	0x3e36925c	0.17829269
20	0xbe0b2851	-0.13589598
21	0xbd40a508	-0.047032386
22	0x3d524ee1	0.051344756
23	0x3dcf96cf	0.10136186
24	0xbd52d53a	-0.05147288
25	0x3d8d08e8	0.06886464
26	0xbca678b0	-0.02032122
27	0x3de6eaad	0.112752296
28	0x3c83a502	0.016069893
29	0xbb299db9	-0.0025881364
30	0x3c6ffc98	0.014647625
31	0x3d0c6fb7	0.034286227
32	0xbd2b68dd	-0.041848052
33	0xbc67384f	-0.014112546
34	0xbe1c60d6	-0.15271315
35	0xbaf988c0	-0.0019037947
36	0x3d4925b6	0.04910823
37	0xbdf8e22b	-0.12152513
38	0xbd967b86	-0.07347779
39	0x3d412979	0.047158692
40	0x3db7528e	0.08951293
41	0xbe1272eb	-0.1430165
42	0xbc5351b5	-0.012897898
43	0xbcb2fa29	-0.021847801
44	0x3e2bf547	0.16792785
45	0x3e60c346	0.21949491
46	0x3e2bb5b8	0.16768539
47	0xbd03fb08	-0.032221824
48	0x3dbb09c1	0.0913272
49	0x3d63a205	0.055574436
50	0x3c91ee1d	0.017813737
51	0xbc8b8907	-0.017033113
52	0x3e4a3c5a	0.19749585
53	0xbc1d6acc	-0.009607982
54	0x3e0797b6	0.13241467
55	0x3c72b264	0.014813039
56	0x3decfd7b	0.11571785
57	0x3c9240cc	0.017853163
58	0x3d3252bb	0.04353593
59	0x3dd94c66	0.10610275
60	0x3ce3dc60	0.027815044
61	0x3da8717f	0.08224773
62	0x3e09a70f	0.13442634
63	0x3d2e1363	0.042498957
64	0x3e611cf5	0.21983702
65	0x3bafa75d	0.0053605274
66	0x3dbf66ac	0.09345755
67	0x3e0ad85f	0.13559102
68	0xbd175592	-0.03694684
69	0x3daf40bd	0.0855727
70	0xbd12f2e8	-0.035876185
71	0x3d3a9d96	0.045560442
72	0x3d481351	0.048846547
73	0xbc842250	-0.016129643
74	0x3d9e94a9	0.077431984
75	0xbc946b0a	-0.018117446
76	0x3e191b2e	0.14951774
77	0x3e3d0912	0.18460491
78	0xbc5866e1	-0.013208122
79	0x3a1ab034	0.000590089
80	0x3d2dc2e8	0.042422205
81	0xbdd0cb77	-0.10195058
82	0xbddce4bd	-0.10785816
83	0x3db1e137	0.086855344
84	0xbd9d89e9	-0.0769232
85	0xbdff8cbd	-0.124780156
86	0xbd77f9e5	-0.060541052
87	0x3dae489d	0.08509944
88	0x3cadd5be	0.021220084
89	0xbd0aeb3d	-0.033915747
90	0x3df47ebf	0.119382374
91	0x3bd7bfc6	0.0065841405
92	0x3de4f704	0.11179927
93	0x3d015e3e	0.031584017
94	0x3dead078	0.114655435
95	0x3e0798e5	0.13241918
96	0x3e205154	0.15656024
97	0x3d24f4e2	0.0402726
98	0x3de6e083	0.11273291
99	0x3d375325	0.044757027
100	0x3c9dcf50	0.019263893
101	0x3e375ad9	0.1790575
102	0xbeba344d	-0.36368027
103	0xbcf30a28	-0.029667929
104	0xbd31b301	-0.043383602
105	0x3d58068b	0.052740615
106	0xbd950917	-0.072771244
107	0xbd391b28	-0.045191914
108	0x3dd9002d	0.10595737
109	0x3d9dc0a7	0.07702761
110	0xbc150009	-0.009094247
111	0xbd1be853	-0.03806336
112	0xbc5be677	-0.013421646
113	0xbd6d6293	-0.057955336
114	0xbe5ac66f	-0.21364759
115	0x3e29164e	0.16512415
116	0x3dae6189	0.08514697
117	0xbd26341a	-0.04057703
118	0xbccec1e5	-0.02523894
119	0x3e07e48c	0.13270777
120	0x3da03c53	0.07824006
121	0x3dc2be40	0.095089436
122	0x3dac3f9b	0.08410569
123	0xbab4bb6f	-0.001378877
124	0x3d063c67	0.032772448
125	0x3befe31d	0.007320775
126	0x3d96ebb3	0.07369175
127	0xbeaaa09e	-0.33325666
128	0x3d916466	0.070992276
129	0x3d488edd	0.04896437
130	0x3d9d494b	0.07679995
131	0x3c9f9266	0.019478988
132	0x3dced46c	0.1009911
133	0x3db6c6d3	0.089246415
134	0x3e2d490c	0.16922396
135	0x3e64b695	0.22335275
136	0x3cc6a376	0.024247866
137	0x3da0fc55	0.078606285
138	0x3e72da72	0.23716143
139	0x3d0589e3	0.032602202
140	0x3d71d2a0	0.05903876
141	0x3dfe0ec6	0.124051616
142	0xbdba1c64	-0.09087446
143	0xbd11b688	-0.035574466
144	0x3e4c074a	0.19924656
145	0x3d7765ee	0.060399942
146	0xbd138512	-0.036015578
147	0x3d72f5a3	0.05931629
148	0x3d021d0b	0.03176598
149	0x3d8571d5	0.06515852
150	0x3dfae385	0.12250427
151	0x3e18a16c	0.14905328
152	0xbbf8f521	-0.007597581
153	0x3da1b2fc	0.07895467
154	0x3e1e061b	0.15432017
155	0x3d3d9509	0.04628471
156	0xbcc4efa4	-0.02404005
157	0xbd800531	-0.0625099
158	0x3b41e98b	0.0029588665
159	0x3d0e3b1b	0.034724336
160	0x3da6763f	0.081280224
161	0x3cfc0cef	0.030767886
162	0xbd0fda8d	-0.035120536
163	0x3db26e7b	0.08712479
164	0xbc9509f4	-0.018193223
165	0xbda7ee6f	-0.081997745
166	0xbd5ad218	-0.053423017
167	0x3e5e400d	0.21704121
168	0xbd93586f	-0.07194602
169	0x3c43a727	0.011941708
170	0xbc8d1530	-0.017222017
171	0xbd8266ba	-0.0636725
172	0xbdb28a9f	-0.08717846
173	0x3db74e38	0.08950466
174	0x3da992a9	0.08279926
175	0xbd3fb8e7	-0.046807196
176	0xbca4ead7	-0.020131512
177	0x3d38cea9	0.04511896
178	0x3dd29c27	0.1028369
179	0xbdb0b081	-0.086274154
180	0x3cc1ebcf	0.023672013
181	0x3db9edb2	0.0907854
182	0xbd4dede6	-0.050275706
183	0x3e267e3a	0.16259089
184	0x3cf88b3c	0.03033983
185	0x3e0ada41	0.1355982
186	0x3d52fba7	0.051509526
187	0x3d50ea54	0.051004723
188	0xbcb83b9d	-0.022489363
189	0x3c13d1ca	0.009022186
190	0x3d94b953	0.0726191
191	0x3d3c2026	0.045929097
192	0x3dc91f61	0.09820438
193	0x3daf1018	0.085479915
194	0xba1d22a8	-0.0005994239
195	0x3d785e3a	0.060636736
196	0xbd3ae082	-0.045624264
197	0x3c891f0c	0.016738437
198	0xbdf3da93	-0.11906924
199	0x3d49ef55	0.04930051
200	0x3e24c080	0.16089058
201	0x3db77ed0	0.089597344
202	0x3d4cb5fb	0.049978238
203	0x3e1e3c87	0.15452777
204	0x3e507a26	0.20359096
205	0x3e3311d8	0.17487276
206	0x3e3b30ed	0.18280382
207	0x3d285aeb	0.04110233
208	0xbda9d7be	-0.08293103
209	0x3c7c537e	0.015400765
210	0xbd994a90	-0.07484925
211	0x3d17de64	0.037077323
212	0x3d3017ae	0.042991333
213	0x3d971849	0.07377679
214	0x3c9a9d8b	0.01887395
215	0x3e1f00a8	0.15527594
216	0x3d276ef7	0.04087731
217	0xbadb4c0a	-0.0016731035
218	0x3d94a853	0.07258668
219	0xbd996613	-0.07490172
220	0x3e1ce0a4	0.15320069
221	0x3d8ef346	0.069799945
222	0x3e32c432	0.17457655
223	0x3dc27dde	0.094966635
224	0x3e36bf94	0.17846519
225	0x3c85817b	0.016297093
226	0x3d66fe3d	0.056394804
227	0x3d8bfaa3	0.068349145
228	0xbd292e19	-0.041303728
229	0x3de4575d	0.11149476
230	0xbdecd4a3	-0.11563995
231	0x3dcac3f1	0.09900654
232	0xbbe43171	-0.0069639017
233	0xbc451f70	-0.012031421
234	0x3c1afdd9	0.009459936
235	0x3e2a0dd9	0.16606845
236	0x3ddf1999	0.10893554
237	0x3d353beb	0.044246595
238	0x3df30a36	0.11867182
239	0xbde0b5d0	-0.10972178
240	0x3d72a0dc	0.05923544
241	0xbc4b64f1	-0.012414203
242	0x3d4ef48f	0.050526198
243	0x3df19a96	0.11797063
244	0xbd8a055a	-0.06739302
245	0x395128e0	0.0001994702
246	0xbbae3145	-0.005315932
247	0x3b0e3ce7	0.002170378
248	0x3dc7aaa3	0.09749343
249	0xbc7ac404	-0.015305523
250	0xbc23e3cb	-0.010003041
251	0xbd13037a	-0.035891987
252	0xbb058b33	-0.0020377159
253	0x3cc0618c	0.023484014
254	0x3d67b3a2	0.056567796
255	0xbe7ba5fb	-0.24575035

lstm.bias_hh_l0 f4 [512]
0	0x3e401dc9	0.18761362
1	0x3d9b5f07	0.075864844
2	0x3d8c6d6c	0.06856808
3	0xbdb196d5	-0.08671347
4	0x3d7500ec	0.059815332
5	0xbd3ec25d	-0.046572078
6	0xbbc19748	-0.0059079267
7	0x3c0f69df	0.008753269
8	0x3bf65292	0.0075171674
9	0x3c985598	0.018595502
10	0x3d890a15	0.06691376
11	0x3d46f63e	0.04857468
12	0x3cdb91bb	0.026802888
13	0x3d9bca23	0.07606914
14	0x3d7ebf8d	0.062194396
15	0x3e0f74e2	0.14009431
16	0xbbbe6164	-0.0058099497
17	0x3d8839cf	0.06651651
18	0xbcf068b4	-0.029346801
19	0x3e0753ed	0.13215609
20	0xbdc1178c	-0.09428319
21	0xbcf71679	-0.030162083
22	0x3db0b07c	0.08627412
23	0x3dc841b0	0.09778154
24	0x3cbfb2d3	0.0234007
25	0x3cb8e6e2	0.022571031
26	0x3ca1a448	0.019731656
27	0x3da4757c	0.08030221
28	0xbd8f4142	-0.06994869
29	0x3c55aa48	0.0130410865
30	0x3d367bb0	0.04455155
31	0x3de62b00	0.1123867
32	0x3d843b1c	0.06456587
33	0x3db1a88b	0.08674725
34	0xbe47d1ef	-0.19513677
35	0x3dfb5611	0.12272275
36	0x3e02c9c1	0.12772276
37	0xbe46d7bd	-0.19418235
38	0xbde1d77d	-0.11027429
39	0xbdd4cf36	-0.10391085
40	0x3e630a3c	0.22171873
41	0xbcee50af	-0.029091207
42	0x3d64f786	0.05590012
43	0x3ca70b6e	0.020391192
44	0x3e0114eb	0.12605636
45	0x3e1bc5a9	0.1521212
46	0x3deca336	0.115545675
47	0xbdee7587	-0.1164351
48	0x3cddf913	0.027096307
49	0x3db8912f	0.090120666
50	0xbc96dd9b	-0.018416217
51	0x3dd2a015	0.102844395
52	0x3db1d727	0.08683615
53	0x3d677bd4	0.056514576
54	0xbcb9c4a1	-0.022676768
55	0xbc120de3	-0.008914444
56	0x3d566af4	0.052348092
57	0x3e1e0f46	0.15435514
58	0x3c5c1edf	0.013435095
59	0x3e5a5279	0.21320523
60	0x3c682158	0.014168106
61	0x3e6f1a90	0.23349977
62	0x3d9a2ca8	0.07528049
63	0x3dcb38f8	0.09922975
64	0x3d6b46d0	0.05744058
65	0x3d1dfb7d	0.038569916
66	0x3dda0f1d	0.10647414
67	0x3df01586	0.11722855
68	0x3b96e8ec	0.004605403
69	0x3dacb116	0.08432214
70	0xbd365efb	-0.044524174
71	0x3d219ba6	0.03945508
72	0x3e03f6ad	0.12887068
73	0xbdecc8e4	-0.11561754
74	0x3c1d9ad3	0.0096194325
75	0x3e112071	0.14172532
76	0x3e99004d	0.29883042
77	0x3dabf4a0	0.08396268
78	0x3d9289c7	0.07155185
79	0x3dbdff00	0.09277153
80	0x3d13f182	0.03611899
81	0xbe02ad2d	-0.12761374
82	0x3c8f8e83	0.01752401
83	0x3e1fb527	0.15596448
84	0xbd0ca948	-0.034341127
85	0xbdd0d6ea	-0.101972416
86	0xbd4bee85	-0.049788017
87	0x3cd401aa	0.0258797
88	0x3d1863eb	0.037204664
89	0xbde2b355	-0.11069361
90	0x3dbf8459	0.09351415
91	0x3d74549e	0.05965101
92	0x3b68c7fa	0.0035519586
93	0x3db41e8a	0.08794887
94	0x3dff5154	0.12466684
95	0x3d82688c	0.06367597
96	0x3e62ff2e	0.22167656
97	0x3d20d2cd	0.039263535
98	0x3e0fe589	0.14052404
99	0x3d136b78	0.035991162
100	0x39297c6a	0.00016163444
101	0x3e1aa5cd	0.1510231
102	0xbeaa4925	-0.3325893
103	0xbd969032	-0.07351722
104	0x3c3105c0	0.010804594
105	0x3dca6081	0.09881688
106	0x3c5caaf3	0.013468492
107	0xbcf62845	-0.030048499
108	0x3dcb999e	0.099414095
109	0x3d851297	0.06497686
110	0x3da63b8d	0.08116827
111	0xbd6a4063	-0.05719031
112	0xbd0f394b	-0.03496675
113	0x3d4aa834	0.049476817
114	0xbdbcff6d	-0.09228406
115	0x3dc3b096	0.095551655
116	0x3dbccdbd	0.09218929
117	0xbccc0f34	-0.024909593
118	0xbd3e31cf	-0.04643422
119	0x3d76aafd	0.06022166
120	0x3c037ca5	0.008025323
121	0xbd3b9c9f	-0.045803662
122	0x3d57b2e1	0.052660827
123	0xbe0b4e02	-0.13603976
124	0xbd6cb624	-0.05779089
125	0xbb9d77cd	-0.004805541
126	0x3c7900f2	0.015197979
127	0xbeb414aa	-0.35172015
128	0x3c401f5c	0.011726227
129	0x3c6a6deb	0.014308433
130	0x3d33534c	0.04378061
131	0x3d710810	0.05884558
132	0xbcb520ae	-0.02211031
133	0x3d76dbec	0.060268328
134	0x3c2fc472	0.010727989
135	0x3e1b7a7b	0.15183441
136	0x3dad892b	0.08473428
137	0xbc3b73aa	-0.011441151
138	0x3e473e20	0.19457293
139	0x3e088d95	0.1333526
140	0xbbc9bd78	-0.0061566196
141	0x3d70cc5a	0.058788635
142	0xbda947f9	-0.08265681
143	0x3c850bb3	0.01624093
144	0x3e370103	0.1787148
145	0x3d01676b	0.031592768
146	0x3d94000e	0.07226573
147	0x3da9408a	0.08264263
148	0xbd3ebd1b	-0.046567064
149	0x3b053c0e	0.0020329985
150	0x3dff8b98	0.12477797
151	0x3e470d09	0.19438566
152	0xbd09932f	-0.03358763
153	0xbcf3f85b	-0.029781511
154	0x3cdfd668	0.027323917
155	0x3d5ab8fa	0.053399064
156	0xbbd3653f	-0.0064512785
157	0xbd210af9	-0.039317105
158	0x3d1e08b6	0.038582526
159	0x3d42036a	0.047366537
160	0x3dd43bcb	0.10362967
161	0x3ceca16b	0.028885564
162	0xbd4758ad	-0.048668552
163	0x3cea56ad	0.028605783
164	0x3bb9a585	0.0056654834
165	0xbd59679f	-0.053077336
166	0xbc452dc2	-0.012034835
167	0x3dd194e4	0.10233477
168	0xbbec8c92	-0.0072189057
169	0xbe02e21c	-0.12781566
170	0xbd22c2f3	-0.0397367
171	0x3d603f5f	0.054747935
172	0xbdead566	-0.11466484
173	0x3e0efdad	0.13963957
174	0x3ddaed51	0.10689796
175	0xbc647c9a	-0.013945723
176	0x3dfd6750	0.12373221
177	0x3e4d1c3d	0.20030303
178	0xbc760d22	-0.01501778
179	0xbd89d594	-0.0673019
180	0xbc28b9bb	-0.010298188
181	0x3df2ab43	0.11849072
182	0x3b9394ef	0.0045038383
183	0x3e821a71	0.25410798
184	0x3d15f4ce	0.036610417
185	0x3e53902a	0.20660463
186	0x3d6ac75c	0.05731903
187	0x3d7afa8a	0.06127409
188	0xbc92034e	-0.017823841
189	0x3d6b751d	0.057484735
190	0x3cd58823	0.026065892
191	0x3ca6e938	0.02037488
192	0xbc1e1d9f	-0.009650617
193	0x3df08d4d	0.11745701
194	0x3dc828dd	0.09773419
195	0x3e068365	0.1313606
196	0xbd1fbecb	-0.039000314
197	0x3d96102f	0.073273055
198	0xbd61a3ac	-0.05508773
199	0x3d58795b	0.05285011
200	0x3df8e234	0.1215252
201	0xbcc84beb	-0.024450263
202	0x3c814337	0.01577912
203	0x3d70682f	0.058693107
204	0x3df69372	0.12039842
205	0x3e4c2870	0.199373
206	0x3e279b34	0.16367799
207	0x3c84f55e	0.016230281
208	0x3d6775db	0.05650888
209	0xbbccaa09	-0.0062458557
210	0xbc90b378	-0.017663702
211	0x3da104cb	0.07862242
212	0xbccea021	-0.02522284
213	0xbd3e982b	-0.046531837
214	0xbc6dcb36	-0.014513781
215	0x3e09c358	0.13453424
216	0xbc286f5e	-0.010280458
217	0x3dbacc84	0.091210395
218	0x3d80f3c1	0.06296492
219	0xbd99da3d	-0.07512329
220	0x3dd8de33	0.10589256
221	0x3e079330	0.13239741
222	0x3dea17ff	0.11430358
223	0x3db99f31	0.090635665
224	0x3dd7e5d6	0.105418846
225	0x3cdf2fca	0.027244467
226	0x3df9bfca	0.12194784
227	0x3ce7d47f	0.028299568
228	0x3d63d514	0.05562313
229	0x3e30760c	0.17232531
230	0xbe113fb5	-0.14184459
231	0x3de1676b	0.110060535
232	0x3da9b9b4	0.08287373
233	0xbbd45f88	-0.006481115
234	0x3dd822bd	0.10553501
235	0x3dbb347e	0.091408715
236	0x3e0c6913	0.13711958
237	0x3d2c5729	0.04207531
238	0x3e088b05	0.13334282
239	0xbde4c364	-0.1117008
240	0xbdae85e3	-0.085216306
241	0x3d0fa952	0.035073586
242	0xbd711046	-0.05885341
243	0x3dd3e628	0.10346633
244	0x3cfdc84a	0.030979294
245	0xbcf67129	-0.030083256
246	0xbd40513a	-0.046952464
247	0x3de81a00	0.11333084
248	0x3e0ca53c	0.13734907
249	0xbd2f4fa0	-0.042800546
250	0x3bc37f88	0.0059661306
251	0xbe0fb49d	-0.14033742
252	0xbd06c74f	-0.03290492
253	0x3b097f96	0.0020980588
254	0xbd9f5e6a	-0.0778168
255	0xbea1ab24	-0.31575882

lstm.weight_ih_l1 f4 [512, 128]
0	0x3dc28ba0	0.094992876
1	0x3e333f15	0.17504533
2	0x3d14e80d	0.036354113
3	0x3e15a877	0.14615045
4	0xbe36ae3e	-0.17839906
5	0xbe391512	-0.18074444
6	0xbe3c451f	-0.18385743
7	0x3d219e60	0.03945768
8	0x3db917ac	0.09037718
9	0x3e3df576	0.18550667
10	0x3d8aa64b	0.06769999
11	0x3df57da6	0.11986856
12	0xbdd4c386	-0.10388856
13	0x3d7610a8	0.06007448
14	0x3d81e7ea	0.06343062
15	0xbe0daeb9	-0.13836183
16	0x3d665e74	0.05624242
17	0x3da982e1	0.08276916
18	0xbda0cf71	-0.07852066
19	0xbe2b170b	-0.16708009
20	0xbd8fef37	-0.070280485
21	0x3e31eb2e	0.1737487
22	0xbe470064	-0.19433743
23	0x3d81f65c	0.063458174
24	0x3bc346f6	0.005959387
25	0x3dd772de	0.10519956
26	0xbe291e80	-0.16515541
27	0xbdd8004a	-0.1054693
28	0xbe41cb4d	-0.1892521
29	0xbda36c9c	-0.079797
30	0x3a8fbed2	0.0010966903
31	0xbe266373	-0.16248874
32	0x3d8821db	0.066470824
33	0xbe666ad0	-0.22501683
34	0x3ba0a196	0.004902075
35	0x3d8b1eae	0.06792961
36	0xbe25fd8f	-0.16210006
37	0xbde904e8	-0.11377889
38	0x3dc544f6	0.09632294
39	0xbdcb05a2	-0.09913184
40	0x3d579a2e	0.05263727
41	0xbe3488d7	-0.17630325
42	0xbd308c1a	-0.04310236
43	0xbd3de508	-0.046361
44	0xbdb72483	-0.08942511
45	0x3e41846c	0.18898171
46	0xbd368c91	-0.04456765
47	0xbdc70686	-0.09718041
48	0xbe3e1764	-0.1856361
49	0xbda765b0	-0.08173692
50	0xbd0ca8ae	-0.034340553
51	0xbe08cb6c	-0.1335885
52	0xbce5280b	-0.027973196
53	0xbe5a18cf	-0.21298526
54	0xbe4574b7	-0.19282804
55	0x3d4adece	0.04952889
56	0xbde1ed2c	-0.11031565
57	0x3d94dd6f	0.072687976
58	0xbce34dde	-0.02774709
59	0xbe6146ee	-0.21999714
60	0xbe593b20	-0.2121396
61	0xbda38683	-0.079846404
62	0x3e3982d0	0.18116307
63	0x3e4d0d75	0.20024665
64	0x3e35b267	0.17743836
65	0xbd3933dd	-0.045215476
66	0xb98d0ef6	-0.00026904762
67	0x3e3f664c	0.18691367
68	0xbe6518a7	-0.22372685
69	0xbe03969b	-0.1285042
70	0xbd8954f7	-0.06705659
71	0xbe1f3a97	-0.15549694
72	0x3d55ebe5	0.05222692
73	0xbd340597	-0.043950643
74	0x3dcc8e83	0.099881195
75	0x3dc5f733	0.0966629
76	0x3e3d71a1	0.18500377
77	0xbdfbe628	-0.12299758
78	0x3dce2f33	0.10067596
79	0xbe18f589	-0.14937414
80	0x3cd3ccd6	0.02585451
81	0xbda717b8	-0.08158821
82	0xbe44af84	-0.19207579
83	0xbe1b05ea	-0.15138975
84	0xbd6cf08e	-0.0578466
85	0xbe0601cc	-0.13086623
86	0xbd608478	-0.054813832
87	0x3cdfaa17	0.027302785
88	0xbdd65b8e	-0.104666814
89	0xbd815041	-0.06314135
90	0xbe2af0aa	-0.16693369
91	0x3d86c250	0.06580031
92	0x3dab9b5b	0.08379241
93	0xbe08a5bf	-0.13344477
94	0x3d60e70c	0.054907843
95	0xbe2844ca	-0.16432491
96	0x3e214387	0.15748416
97	0x3dffa0ea	0.12481864
98	0xbdd64162	-0.104616895
99	0xbdaf3141	-0.08554316
100	0x3e42c859	0.19021739
101	0x3dc9d8d7	0.09855812
102	0x3e5224b2	0.2052181
103	0xbd953451	-0.07285369
104	0x3e05ed53	0.13078813
105	0x3d4a173e	0.04933857
106	0xbe0fa90a	-0.14029327
107	0xbe67f0cf	-0.22650455
108	0xbca67383	-0.020318752
109	0xbe4decfe	-0.20109937
110	0x3e32fc45	0.17479046
111	0x3aa3c1c2	0.0012493657
112	0xbd4d00b0	-0.050049484
113	0x3d608cb7	0.054821696
114	0x3dd449c6	0.10365634
115	0xbdbef7dc	-0.09324619
116	0xbe5e7e25	-0.21727808
117	0xbcd933cb	-0.026513955
118	0x3d8fd398	0.0702278
119	0xbd6957c1	-0.056968454
120	0xbe43685a	-0.19082776
121	0x3e13a1f4	0.14417249
122	0xbe26429a	-0.16236344
123	0x3e580391	0.2109511
124	0x3c9346c1	0.017978074
125	0xbe56d411	-0.20979334
126	0x3d836670	0.06416023
127	0xbe94748f	-0.28995177
128	0x3e9ba413	0.30398616
129	0x3e919f5c	0.28441894
130	0x3e764dc1	0.24053098
131	0x3e1784bd	0.1479673
132	0xbe7bd336	-0.2459229
133	0xbd2efd0b	-0.04272179
134	0xbe2059b8	-0.15659225
135	0x3e4d9c7e	0.20079228
136	0xbc369cd4	-0.011145789
137	0x3e8cb8b9	0.27484682
138	0x3c9e709b	0.019340804
139	0x3e5c8476	0.21534905
140	0x3c9dbbf5	0.019254664
141	0x3e8c1d1c	0.2736596
142	0x3e3f4128	0.18677199
143	0xbe63a0bb	-0.22229283
144	0xbdcd38e4	-0.10020617
145	0x3e5f2750	0.2179234
146	0x3d216dc6	0.03941133
147	0xbe5dd067	-0.2166153
148	0xbe269f2c	-0.16271657
149	0x3e1ac553	0.15114336
150	0xbe58b4a8	-0.21162665
151	0x3e11e264	0.14246517
152	0x3e2bc769	0.16775288
153	0x3e77eaa0	0.24210596
154	0xbe293c26	-0.16526851
155	0xbe94e530	-0.29081106
156	0xbd5389b6	-0.051645003
157	0xbeb1044e	-0.34573597
158	0x3e9f04ea	0.31058437
159	0xbe34235c	-0.17591614
160	0x3d8e6620	0.069530725
161	0xbe90aa3f	-0.28254887
162	0xbd7844d2	-0.060612507
163	0x3dcd56a5	0.10026292
164	0xbe29ffea	-0.1660153
165	0xbe9e0a97	-0.30867454
166	0x3d263c77	0.040585008
167	0xbe3dd4ee	-0.18538257
168	0xbe140819	-0.14456214
169	0xbe706ccb	-0.23479001
170	0x3d1dfce6	0.03857126
171	0xbe829133	-0.25501403
172	0xbe4365bb	-0.19081776
173	0x3e95ce43	0.29258928
174	0xbe801931	-0.2501922
175	0xbe683434	-0.22676164
176	0xbe79db38	-0.24400032
177	0xbe2c4a2f	-0.16825174
178	0xbe7f66fc	-0.24941629
179	0xbe67bc94	-0.2263053
180	0x3e01157c	0.12605852
181	0xbe19ed55	-0.15031941
182	0x3c8e3db7	0.017363412
183	0xbe3b9c71	-0.18321396
184	0xbe9be549	-0.30448368
185	0x3d83d1d3	0.06436505
186	0xbdfba9b1	-0.122882254
187	0xbe4310fc	-0.19049448
188	0xbe290d6e	-0.1650903
189	0xbe870157	-0.2636821
190	0x3e8893ac	0.26675165
191	0x3dc3e7e1	0.09565712
192	0x3e505420	0.20344591
193	0xbe2cf2cc	-0.16889495
194	0x3e604232	0.21900252
195	0x3e2c8eea	0.16851392
196	0xbeab79f8	-0.33491492
197	0xbe0b8f7b	-0.13628952
198	0xbdae5808	-0.085128844
199	0xbe3e0e2d	-0.18560095
200	0x3d97060a	0.07374199
201	0xbe57a011	-0.21057154
202	0x3e8a9f6a	0.27074748
203	0x3d8509b6	0.06495993
204	0x3e49192a	0.19638506
205	0xbdc5b6d7	-0.096540146
206	0x3e98190c	0.2970661
207	0xbe1ceb82	-0.15324214
208	0x3e6a99f3	0.2291029
209	0x3d82685b	0.063675605
210	0xbe8d5ef8	-0.27611518
211	0xbd50463f	-0.050848242
212	0xbe809254	-0.2511164
213	0xbe002f76	-0.12518105
214	0xbe84a671	-0.25908235
215	0xbe7c41b9	-0.24634446
216	0xbe8a6d3a	-0.27036458
217	0x3c8bad45	0.017050395
218	0xbce336d8	-0.027736112
219	0x3eb069a3	0.34455594
220	0x3e12e80c	0.14346331
221	0xbd2088bd	-0.039192904
222	0x3e3c57ae	0.18392822
223	0xbe4ddfa9	-0.20104851
224	0x3e24e6d0	0.16103673
225	0xbd133b7f	-0.03594541
226	0x3dedfec5	0.11620859
227	0xbe8469ab	-0.25861868
228	0x3e55bc96	0.20872721
229	0x3dd45568	0.103678524
230	0x3dd0095a	0.10158034
231	0xbeaf4405	-0.34231582
232	0x3dd2364d	0.10264263
233	0x3dc010af	0.09378182
234	0xbe487207	-0.19574748
235	0xbdffa68a	-0.12482937
236	0x3d71f2b9	0.05906937
237	0xbe8e2f5f	-0.27770516
238	0x3de22343	0.11041882
239	0xbe786852	-0.24258545
240	0xbc27c1b8	-0.010239057
241	0x3e7ccd4e	0.24687693
242	0x3dd8bc6d	0.10582814
243	0xbe190a8a	-0.14945427
244	0xbe932413	-0.2873846
245	0x3d08f3b8	0.033435553
246	0x3e40332d	0.18769522
247	0x3e4d0af1	0.20023705
248	0xbe51d41a	-0.20491067
249	0x3e959bdf	0.29220483
250	0xbd595b20	-0.05306542
251	0x3e9fcea6	0.31212348
252	0xbe33894e	-0.17532846
253	0xbe3ca9aa	-0.18424097
254	0x3dab0d82	0.08352186
255	0xbe2fe06c	-0.17175454

lstm.weight_hh_l1 f4 [512, 128]
0	0x3b9b76eb	0.0047444007
1	0xbcd2cf6d	-0.025733674
2	0xbc9a76be	-0.018855449
3	0xbdacd79d	-0.084395625
4	0x3e133cfa	0.1437873
5	0x3d55d637	0.052206244
6	0xbd8db5af	-0.06919419
7	0x3c8f14a1	0.017465891
8	0xbd9693d7	-0.07352417
9	0xbcabde82	-0.020980123
10	0xbe0933e9	-0.13398708
11	0xbdfc285e	-0.12312387
12	0xbc7930a4	-0.015209351
13	0xbd8ac0c3	-0.06775048
14	0x3ca4a064	0.020096011
15	0xbc0f4c4f	-0.008746221
16	0xbd1c9561	-0.038228396
17	0x3cb20774	0.02173207
18	0x3c58f750	0.013242558
19	0x3b4e7d8e	0.0031507942
20	0xbdc505cd	-0.09620247
21	0xbd9fc65b	-0.07801505
22	0x3d6bf57d	0.057607163
23	0xbd0cefa1	-0.034408215
24	0xbd9e08be	-0.07716511
25	0x3d5f7134	0.05455132
26	0x3d04815c	0.03234993
27	0xbd60795f	-0.05480325
28	0xbd106782	-0.035254963
29	0xbd5352d7	-0.051592674
30	0xbdb325fd	-0.0874748
31	0xbcce2ecd	-0.0251688
32	0x3daca0ba	0.08429094
33	0xbc160f28	-0.009158887
34	0xbe0a5dda	-0.13512364
35	0x3d2eafba	0.042648055
36	0x3d43d12a	0.047806896
37	0x3d9ff7b1	0.07810915
38	0x3d8c0b99	0.068381496
39	0xbdad8fce	-0.08474694
40	0xbbce907f	-0.0063038464
41	0x3bcfb3b2	0.00633856
42	0xbd885ca6	-0.06658296
43	0x3d02f036	0.031967364
44	0x3d30638f	0.043063696
45	0xbcbd23ef	-0.023088424
46	0x3d828816	0.063736126
47	0xbcb774ba	-0.022394527
48	0x3d8c1f9f	0.06841969
49	0x3cfb4c96	0.030676167
50	0x3cdd9f1a	0.027053405
51	0xbc8fefcf	-0.017570404
52	0x3d5a2f5e	0.05326783
53	0x3d923fa8	0.07141048
54	0x3d95b295	0.073094524
55	0x3c1ec515	0.009690543
56	0xbceda8a5	-0.02901108
57	0xbd287f54	-0.041137055
58	0x3da1dc85	0.07903389
59	0xbd9026dc	-0.07038662
60	0x3da36f01	0.07980157
61	0x3d151c30	0.036403835
62	0xbd26aac1	-0.040690187
63	0x3d0f6201	0.035005573
64	0x3c9f2920	0.01942879
65	0x3cbfc577	0.023409588
66	0xbd20b2b6	-0.039232932
67	0xbd9fd41f	-0.07804131
68	0x3dacd7df	0.08439612
69	0x3bbe3215	0.00580431
70	0xbcf9b2d3	-0.030480778
71	0x3ca54be9	0.020177798
72	0xbdbd71ee	-0.09250246
73	0xbcfc0b87	-0.030767215
74	0x3c71b3b2	0.014752315
75	0xbd379f71	-0.04482979
76	0xbe057e51	-0.13036467
77	0x3caad42d	0.020853126
78	0x3d5c5757	0.05379423
79	0x3d9d7878	0.07688993
80	0x3dd7dc05	0.10540012
81	0xbca65303	-0.020303255
82	0x3d78764b	0.060659688
83	0x3d20a4e4	0.039219752
84	0xbd104c5f	-0.035229083
85	0x3cab0409	0.020875948
86	0xbb6537d7	-0.003497591
87	0x3cbc094e	0.022953656
88	0x3d98b187	0.07455736
89	0xbd198267	-0.037477877
90	0xbcc09dd1	-0.023512753
91	0x3cd47102	0.025932793
92	0x3dd52bd7	0.104087524
93	0x3da9b1c7	0.082858615
94	0x3e1ce5b6	0.15322003
95	0x3c849ec3	0.016188985
96	0x3db062d5	0.08612601
97	0xbc94897e	-0.018131968
98	0xbb803550	-0.0039126053
99	0x3cc7fe25	0.024413178
100	0xbd78c3dc	-0.06073366
101	0xbcbc0651	-0.02295223
102	0x3cb6100a	0.022224445
103	0x3cb00441	0.021486403
104	0xbd136b9d	-0.0359913
105	0xbd599c74	-0.05312772
106	0xbbd958da	-0.0066329064
107	0x3e08d320	0.13361788
108	0x3c0c092e	0.0085471105
109	0x3ca944ec	0.020662747
110	0x3b0a2aaf	0.002108257
111	0x3cdf17bb	0.027232995
112	0xbda5f8b7	-0.08104079
113	0xbcad4325	-0.021150181
114	0x3d446cb4	0.04795523
115	0xbda12510	-0.07868397
116	0xbd2c9ae0	-0.042139888
117	0x3dd1859b	0.10230561
118	0xbd6a713f	-0.057236906
119	0x3c43c3e7	0.011948562
120	0x3d33dac5	0.043909807
121	0x3db8ac9d	0.09017298
122	0x3c8811ec	0.016610108
123	0x3d33729b	0.04381047
124	0xbc391560	-0.0112966
125	0xbd4baf22	-0.049727567
126	0x3ba41032	0.0050068134
127	0x3dc8b161	0.09799457
128	0x3de59c25	0.11211423
129	0xbe1cb724	-0.15304238
130	0xbced1e3e	-0.028945085
131	0x3dfc1c5a	0.12310095
132	0x3dbd12d0	0.09232104
133	0x3d1452d3	0.0362118
134	0xbd925d96	-0.07146756
135	0xbdad1263	-0.084507726
136	0x3df26bcd	0.118369676
137	0xbdc8aaf4	-0.09798232
138	0xbd26aa20	-0.040689588
139	0x3d9e2b87	0.07723146
140	0x3e395f91	0.18102862
141	0xbcb796eb	-0.02241083
142	0x3cbbbf14	0.022918262
143	0xbe3494a8	-0.17634833
144	0x3cbd51b0	0.02311024
145	0xbde646f6	-0.112440035
146	0x3e01b8bd	0.12668128
147	0x3e0f5f6e	0.14001247
148	0xbd142712	-0.036170073
149	0xbe0a4a59	-0.13504924
150	0xbd0158da	-0.031578876
151	0x3be3fda4	0.0069577266
152	0xbd0dd713	-0.03462894
153	0xbd03b4b5	-0.032154758
154	0xbd089c31	-0.03335208
155	0x3ce485f2	0.027895901
156	0x3dd1f740	0.10252237
157	0x3e1c7598	0.15279233
158	0xbde03f4e	-0.109495744
159	0x3b5200fb	0.0032044041
160	0x3d51b5af	0.051198658
161	0xbcc1e8d5	-0.023670593
162	0xbdb75ced	-0.08953271
163	0x3d85bbaf	0.065299384
164	0x3e6432ba	0.22284976
165	0x3d015022	0.03157056
166	0x3d6b8824	0.05750288
167	0x3e0d7c95	0.13817056
168	0x3e485285	0.19562729
169	0x3b21f1bb	0.0024710733
170	0xbd8327b8	-0.0640406
171	0xbd0e9343	-0.03480841
172	0xbd5a9fd6	-0.053375088
173	0xbdc50ae2	-0.09621216
174	0x3d36fe73	0.044676255
175	0xbd8df54e	-0.06931554
176	0x3e02a1ca	0.1275703
177	0x3da486d6	0.080335304
178	0x3debc6cc	0.11512527
179	0xbd7552e5	-0.059893508
180	0xbdf88ac1	-0.1213584
181	0xbc45a373	-0.012062895
182	0xbb79ce44	-0.0038117329
183	0x3d65d1ea	0.056108393
184	0x3d4393d5	0.047748405
185	0x3d11a2a9	0.035555515
186	0xbe3f3375	-0.18671973
187	0xbe1efe09	-0.15526594
188	0xbd626322	-0.05527032
189	0x3c74affa	0.014934534
190	0x3cacf263	0.021111673
191	0x3d8d6fcd	0.0690609
192	0x3e0d89d8	0.13822114
193	0x3be7a1e0	0.0070688576
194	0x3dcc64a0	0.0998013
195	0x3bb9ec5f	0.0056739296
196	0x3ddf0457	0.108895
197	0x3ced97aa	0.029002983
198	0xbd89002f	-0.06689488
199	0xbcdfbd42	-0.027311925
200	0x3c8f9733	0.017528152
201	0x3dd77328	0.10520011
202	0xbd971f0d	-0.07378969
203	0xbc80110d	-0.01563313
204	0xbd29e6d8	-0.041479915
205	0xbd38ece1	-0.04514778
206	0x3e41b0fa	0.18915167
207	0x3c9d8205	0.019227037
208	0x3d9fb6d3	0.07798543
209	0xbd5d0dbe	-0.053968184
210	0xbdfb27c7	-0.12263446
211	0x3e3d33d7	0.18476807
212	0xbde4b1f0	-0.111667514
213	0x3e272b46	0.16325101
214	0x3d8396d8	0.064252555
215	0x3d654585	0.055974502
216	0xbc82e5f4	-0.01597879
217	0xbdd66b51	-0.10469688
218	0xbcd4e9af	-0.025990335
219	0xbd540483	-0.051762115
220	0x3c74099b	0.014894868
221	0xbe2c723b	-0.1684045
222	0xbcde63cf	-0.027147202
223	0xbe0bc5e0	-0.13649702
224	0x3e3ff670	0.18746352
225	0x3e07c8f9	0.13260259
226	0x3d99d7f5	0.07511894
227	0xbd9684e1	-0.073495634
228	0x3da6eb86	0.08150391
229	0x3ce94d64	0.028479286
230	0x3dc16dd8	0.09444779
231	0x3cc768e7	0.024342014
232	0xbe1b2180	-0.15149498
233	0x3e119aeb	0.14219253
234	0x3d99e667	0.07514649
235	0x3de21d52	0.11040749
236	0xbce9bc90	-0.028532296
237	0x3b9bb5d0	0.0047518983
238	0xbe2cc1f4	-0.16870862
239	0xbce80623	-0.028323239
240	0xbdf8e877	-0.12153714
241	0x3d52b3bc	0.05144094
242	0xbd71fb02	-0.05907727
243	0xbe42fd28	-0.19041884
244	0xbdd9769c	-0.10618326
245	0x3e0d67e4	0.13809162
246	0x3d636143	0.055512678
247	0xbbe32178	-0.00693148
248	0xbdab652b	-0.08368906
249	0xbbd11b7e	-0.006381451
250	0xbdce10dd	-0.1006181
251	0x3d73f85f	0.059563037
252	0xbded7c25	-0.11595944
253	0xbe03e507	-0.12880336
254	0xbc42fb48	-0.01190073
255	0x3d93745d	0.07199929

lstm.bias_ih_l1 f4 [512]
0	0xbb273b65	-0.002551758
1	0x3e1a9c8d	0.15098782
2	0xbc6a58b5	-0.014303376
3	0x3d666bfa	0.05625532
4	0xbdd3135f	-0.10306429
5	0x3c29be7a	0.010360355
6	0x3d0a3bed	0.033748556
7	0xbdfd3adc	-0.12364742
8	0xbe26db24	-0.16294533
9	0x3e009d31	0.12559964
10	0xbdbcc07d	-0.09216402
11	0x3db1b5c9	0.08677251
12	0x3db2e851	0.08735717
13	0xbd8df28e	-0.06931029
14	0x3d05f265	0.03270187
15	0x3d5d1c7f	0.053982254
16	0x3c22740b	0.009915362
17	0x3e39dfda	0.18151799
18	0x3a45bf11	0.0007543425
19	0x3ce65ed6	0.028121393
20	0x3d6d4a51	0.0579322
21	0xbdf8f48c	-0.121560186
22	0x3e1a4218	0.15064275
23	0xbd3e9038	-0.046524256
24	0xbe162b16	-0.14664873
25	0x3ea78445	0.327181
26	0xbde04ae6	-0.10951786
27	0x3d903009	0.07040412
28	0x3cf383f3	0.029726004
29	0xbda6c453	-0.081429146
30	0x3de1f505	0.11033062
31	0xbd8a0343	-0.067389034
32	0xbd4d7dea	-0.05016891
33	0x3c81d8aa	0.015850384
34	0x3dbb943b	0.09159132
35	0x3d58c97d	0.05292653
36	0xbb561b59	-0.003267011
37	0xbe3969fa	-0.18106833
38	0xbe46c022	-0.1940923
39	0xbcd108f6	-0.025516968
40	0xbe3ee7e4	-0.18643147
41	0xbd909f12	-0.0706159
42	0xbd96ac4f	-0.07357084
43	0xbe3cf2a1	-0.1845193
44	0xba86376c	-0.0010239906
45	0x3dab0dab	0.08352216
46	0xbbea2d17	-0.0071464884
47	0x3da1647d	0.07880495
48	0x3dc73b08	0.09728056
49	0x3ccc7e70	0.024962634
50	0xbe0a3d49	-0.13499941
51	0x3d867861	0.06565929
52	0xbd8a4c5c	-0.06752846
53	0xbd4ed155	-0.050492603
54	0xbd597ebe	-0.053099386
55	0xbdaaaa7f	-0.08333301
56	0xbe075c3e	-0.13218781
57	0xbd0becc4	-0.034161344
58	0xbd615b0a	-0.055018462
59	0x3c624b66	0.013811922
60	0x3d939df9	0.07207865
61	0xbddb256e	-0.107004985
62	0xba93d9ab	-0.001128008
63	0x3d1bb75a	0.038016655
64	0x3dc54af2	0.09633435
65	0x3cbecb40	0.023290277
66	0xbd8972f3	-0.06711378
67	0x3e36f66b	0.17867438
68	0xbcfdda97	-0.03098802
69	0x3e5a6ebe	0.21331307
70	0xbba0e011	-0.0049095233
71	0xbc6b7c90	-0.01437296
72	0x3ced4877	0.028965218
73	0xbdad726b	-0.08469089
74	0xbc1a04c6	-0.009400552
75	0xbdc6952d	-0.09696422
76	0x3d8e8924	0.06959751
77	0x3d6c9f98	0.057769388
78	0x3d1d754d	0.038441945
79	0xbaa51011	-0.0012593289
80	0x3db07031	0.08615149
81	0x3d072ea0	0.03300345
82	0xbdd01685	-0.10160545
83	0x3c0d4b5c	0.008623924
84	0xbda33c2f	-0.079704635
85	0x3e34f455	0.1767133
86	0x3dc637fe	0.096786484
87	0xbdad6131	-0.084658034
88	0xbd0e2289	-0.034700904
89	0x3d07a97f	0.03312063
90	0x3d914a59	0.07094259
91	0x3d72f740	0.059317827
92	0x3d4e70bd	0.050400484
93	0x3d1df898	0.038567156
94	0xbc07439a	-0.008255864
95	0x3ded5a24	0.115894586
96	0xbd889e58	-0.06670827
97	0xbd47d9f5	-0.048791844
98	0x3ebc54d6	0.36783475
99	0xbc9af04f	-0.018913416
100	0x3d8e3611	0.06943906
101	0x3ea2c1b3	0.31788406
102	0x3d218e7c	0.039442524
103	0xbc07d5dd	-0.008290735
104	0x3df67bd5	0.12035338
105	0xbcc80bab	-0.024419626
106	0x3d9a5ce0	0.07537246
107	0xbc0f41e8	-0.008743741
108	0x3d2a68db	0.041603904
109	0x3c34145b	0.010991181
110	0xbd2cc31f	-0.04217827
111	0xbcb7676d	-0.022388184
112	0x3d6f1a51	0.058374707
113	0x3d09aa77	0.033609834
114	0xbdbc82a0	-0.09204602
115	0x3d2c226a	0.042025007
116	0x3cdb4e13	0.026770627
117	0x3e2907c9	0.16506876
118	0xbe249fbd	-0.1607656
119	0x3d9e3fd6	0.077270195
120	0xbe16d0f4	-0.14728147
121	0xbbf76b38	-0.0075506233
122	0x3d89edb5	0.06734792
123	0x3c3a1384	0.011357192
124	0x3d1903f2	0.03735728
125	0x3d0b0aa5	0.0339457
126	0x3d19c7c0	0.037544012
127	0x3da8283d	0.082108
128	0xbd05c822	-0.032661565
129	0x3db8ea67	0.09029084
130	0x3e9265db	0.28593335
131	0xbd63d3b9	-0.055621836
132	0x3e2512a8	0.16120398
133	0x3e10e919	0.1415142
134	0x3dbc3205	0.09189228
135	0xbe54375b	-0.20724241
136	0x3dc7336d	0.097266056
137	0x3d705a1d	0.05867969
138	0x3daac4bc	0.08338305
139	0xbcdecc2c	-0.027196966
140	0x3d2a0fb4	0.041518882
141	0xbc07781d	-0.008268383
142	0x3cae4f0c	0.021277927
143	0x3ddb3e12	0.10705198
144	0xba9c4aa5	-0.0011924101
145	0x3e35c502	0.17750934
146	0x3e183f16	0.14867815
147	0xbd126f26	-0.03575053
148	0x3e181ffa	0.14855948
149	0x3e08eaee	0.13370869
150	0x3d66ae38	0.05631849
151	0xbd48db72	-0.049037404
152	0x3cc17c2e	0.023618784
153	0x3e5de2e3	0.21668582
154	0x3d65a6f2	0.056067415
155	0xbb78eb46	-0.003798203
156	0x3cb5ac8e	0.022177007
157	0xbca230d9	-0.019798683
158	0x3d2b9827	0.04189315
159	0xbad832d3	-0.0016494639
160	0xbc9762c4	-0.018479712
161	0x3cfb8b0e	0.030705955
162	0xbcd98444	-0.026552327
163	0x3e1e8893	0.15481786
164	0xbd194a16	-0.03742417
165	0xbd7c9c7d	-0.061672676
166	0xbd80cfd6	-0.062896416
167	0x3e21ef43	0.15813927
168	0xbd4cb6d6	-0.049979053
169	0x3c673707	0.014112241
170	0xbd552873	-0.05204053
171	0x3cd61171	0.026131364
172	0x3e3ba4e5	0.18324621
173	0x3da80a68	0.0820511
174	0x3e9391c4	0.28822148
175	0x3d1475c7	0.036245134
176	0x3e1701fc	0.1474685
177	0x3c5914ff	0.013249635
178	0x3e713e2f	0.23558877
179	0x3e03d1d7	0.12873016
180	0x3d9b4704	0.075819045
181	0x3e842e76	0.25816697
182	0x3cbdcb81	0.023168327
183	0x3e63344c	0.22187918
184	0x3e99818f	0.29981658
185	0xbbe73b67	-0.007056642
186	0x3ba473db	0.005018694
187	0xbd3b8f53	-0.04579098
188	0x3e61b077	0.22039972
189	0x3adfe7d8	0.0017082645
190	0xbb8564c0	-0.004070848
191	0x3d01f4d2	0.03172762
192	0x3c87561f	0.016520558
193	0x3e441298	0.19147718
194	0xbbc8fa26	-0.0061333356
195	0x3e19b3ad	0.15009947
196	0x3d28d325	0.041216988
197	0x3d5eb9b8	0.054376334
198	0xbd509e55	-0.050932247
199	0x3e17229b	0.14759295
200	0x3c6c3ea8	0.014419235
201	0x3e2d1e23	0.16906027
202	0xbc9614a5	-0.018320391
203	0x3e3d13cd	0.18464585
204	0xbd6a012a	-0.057130016
205	0x3d51b93b	0.05120204
206	0x3e344529	0.17604508
207	0x3e71dfcf	0.23620532
208	0x3e3c208a	0.18371788
209	0x3dbf0b46	0.09328322
210	0xbe0accaf	-0.13554643
211	0xbd2aaf8f	-0.041671332
212	0x3dec46e1	0.115369566
213	0x3da99591	0.08280481
214	0x3e0b8dcb	0.13628308
215	0xbdb5639d	-0.0885689
216	0x3ccb9a08	0.024853721
217	0x3db73aa8	0.08946735
218	0x3dd59ecc	0.10430679
219	0x3de1bff2	0.11022939
220	0xbcf6c01f	-0.030120907
221	0x3b3a4605	0.0028423083
222	0x3e0a821d	0.13526197
223	0xbdc74c11	-0.097313054
224	0xbdddb4d6	-0.10825507
225	0x3d27d87d	0.040977944
226	0x3ddece8a	0.10879238
227	0x3e10da99	0.14145888
228	0x3c6e9595	0.01456203
229	0x3db4bc24	0.088249475
230	0x3d6c0a28	0.057626873
231	0xbcb08bdc	-0.021551065
232	0x3d61bc46	0.055111192
233	0xbd992492	-0.07477678
234	0x3e1a233f	0.15052508
235	0xbd24ee36	-0.04026624
236	0xbda72eda	-0.08163233
237	0x3df85a54	0.12126604
238	0x3d974910	0.073869824
239	0x3d10ab13	0.0353194
240	0x3e819b65	0.2531387
241	0x3e4d5519	0.20051993
242	0xbdc2f805	-0.09519962
243	0x3e4430eb	0.19159286
244	0x3d50d63f	0.05098557
245	0x3e2b7fd4	0.16747981
246	0x3d6eacb1	0.05827016
247	0x3e122835	0.1427315
248	0x3dea0563	0.11426809
249	0x3dc95fb4	0.09832707
250	0xbc115702	-0.008870842
251	0x3da1a7dc	0.07893345
252	0xbd049879	-0.03237197
253	0x3de1e4ec	0.110299915
254	0xbd29a79c	-0.04141961
255	0x3daec08c	0.08532819
