model_checkpoints/collection/best_lstm_fold_3.pth (torch, 908401 bytes, 15 tensors)

lstm.weight_ih_l0 f4 [512, 3]
0	0xbd067296	-0.03282412
1	0x3d3c499c	0.045968637
2	0x3d721687	0.059103515
3	0xbd86c3c3	-0.06580307
4	0xbd6f3fec	-0.05841057
5	0x3da85ebd	0.08221195
6	0x3c852c63	0.016256517
7	0x3d8438ec	0.064561695
8	0x3de85c94	0.11345783
9	0x3da15b8b	0.078787886
10	0xbdaebdc5	-0.085322894
11	0xb89ce47e	-7.48122e-05
12	0xbd5c83b2	-0.053836532
13	0x3dec36e6	0.115339085
14	0x3d53bac4	0.051691785
15	0x3da96448	0.0827108
16	0xbc4cd692	-0.012502329
17	0x3c42acb1	0.011881993
18	0x3d38419c	0.044984445
19	0xbc681fc9	-0.014167734
20	0x3de78352	0.11304344
21	0x3d154df7	0.036451306
22	0x3dc7ab96	0.09749524
23	0xbd4a3d59	-0.049374912
24	0xbdfbd105	-0.12295727
25	0x3d59a2c3	0.053133737
26	0x3c1b1291	0.009464876
27	0x3a661caa	0.0008778075
28	0xbc377cf2	-0.011199223
29	0xbbfaff35	-0.0076598176
30	0xbdd1e511	-0.10248769
31	0x3dc4d6cc	0.09611282
32	0x3dc1cdbf	0.09463071
33	0xbd177e28	-0.036985546
34	0xbd81d1f2	-0.06338872
35	0x3d60f0eb	0.054917257
36	0xbd6929d8	-0.05692467
37	0xbdfe222f	-0.12408864
38	0xbd9842a5	-0.074345864
39	0x3d467773	0.04845376
40	0x3dd0d903	0.10197642
41	0xbdd4f422	-0.10398127
42	0x3d42bb91	0.04754216
43	0x3cbf22b0	0.02333197
44	0x3e5aabe6	0.21354637
45	0x3e3787f3	0.17922954
46	0xbc27c854	-0.010240633
47	0x3d2a15e0	0.041524768
48	0xbe09ffe3	-0.1347652
49	0x3cb00ccf	0.021490483
50	0x3da3d0d8	0.07998818
51	0x3c884ab5	0.016637186
52	0x3e13f015	0.14447053
53	0x3b5ee32a	0.0034009912
54	0x3dbe39f3	0.09288397
55	0xbce6c492	-0.028169904
56	0x3d29a246	0.04141452
57	0xbd5dd98e	-0.054162554
58	0xbcce000a	-0.025146503
59	0xbd44b9e7	-0.048028853
60	0x3dc95c37	0.09832042
61	0x3d71c52d	0.059025932
62	0x3d258848	0.04041317
63	0xbdacca1d	-0.084369875
64	0xbc175b09	-0.009238013
65	0xbd9daee4	-0.07699373
66	0x3ca1bad0	0.0197424
67	0x3d118992	0.035531588
68	0xbcc8d5d7	-0.02451603
69	0xbd4f43f2	-0.050601907
70	0x3b73ff43	0.0037231005
71	0x3d131fee	0.035919122
72	0x3d874896	0.066056415
73	0x3da7cac5	0.08192972
74	0x3dcaff93	0.09912028
75	0x3d39631d	0.045260537
76	0x3d39b215	0.045335848
77	0x3dec3cac	0.1153501
78	0x3d3082f7	0.043093648
79	0x3caf6aa7	0.02141316
80	0x3cd0095e	0.025395092
81	0xbd68ac7e	-0.056805126
82	0xbd3f855b	-0.046758037
83	0x3d48ee35	0.049055297
84	0xbcc4b8dc	-0.02401393
85	0xbd8562ab	-0.0651296
86	0x3dc2aabe	0.09505223
87	0x3cd84e4e	0.026404526
88	0x3d3f5b82	0.046718128
89	0x3cad0374	0.02111981
90	0xbc28e6b6	-0.010308912
91	0x3d0909b8	0.033456534
92	0xbc72d199	-0.01482048
93	0x3cbeae1c	0.023276381
94	0xbd242ca8	-0.04008165
95	0xbd03ee78	-0.032209843
96	0xbb5398ab	-0.0032287042
97	0x3b736f49	0.0037145189
98	0x3b762b19	0.003756231
99	0x3da9b663	0.08286741
100	0x3d11d37e	0.035602085
101	0x3d9de4d2	0.0770966
102	0xbd4f6265	-0.050630946
103	0x3d524264	0.051332846
104	0x3c4d87bc	0.012544569
105	0x3da9d4f8	0.08292574
106	0xbd0bbc65	-0.034115214
107	0x3d947ccd	0.07250366
108	0xbe0eaacd	-0.13932343
109	0x3c98d654	0.018656887
110	0xbdfda4f0	-0.12384975
111	0xbd28cec2	-0.041212805
112	0x3d8caad8	0.06868523
113	0xbd65aedf	-0.056074973
114	0x3cf151ba	0.029457916
115	0x3d52f3a0	0.05150187
116	0xbd4dc8ef	-0.050240453
117	0xbd47da8b	-0.048792403
118	0x3dc541c7	0.09631687
119	0x39e89850	0.0004436397
120	0xbca76ad2	-0.020436678
121	0x3d3f5927	0.04671588
122	0x3c87bae4	0.016568609
123	0x3cf149b7	0.029454095
124	0x3d9bbe93	0.076047085
125	0xbd439d0f	-0.047757205
126	0x3ce36c00	0.02776146
127	0xbc9a4729	-0.01883276
128	0xbcff6512	-0.031176124
129	0xbb212d41	-0.0024593624
130	0xbd6b35c8	-0.057424337
131	0x3d50811a	0.05090437
132	0x3d0b2071	0.033966485
133	0x3d05ac65	0.03263511
134	0x3d6f211b	0.05838118
135	0xbd9177e0	-0.071029425
136	0x3c2ddecb	0.0106122
137	0xbb92101d	-0.0044574873
138	0xbda9fd8b	-0.083003126
139	0xbb84fd76	-0.004058535
140	0x3d4351bd	0.047685374
141	0xbd48b65e	-0.049002044
142	0xbd6ad642	-0.05733324
143	0x3cd242b1	0.025666567
144	0x3d27e9a1	0.04099429
145	0x3ce9d1a5	0.02854235
146	0xbd3ce893	-0.046120238
147	0xbad10c4f	-0.0015949103
148	0x3dabc5a3	0.083873056
149	0x3d5b823b	0.053590994
150	0x3bdae0c1	0.006679625
151	0x3cbcc59b	0.023043444
152	0x3dc82817	0.097732715
153	0xbd95144a	-0.072792605
154	0xbd35c8a5	-0.044380803
155	0xbba476da	-0.005019051
156	0x3cd4db53	0.025983488
157	0xbd6a2ac0	-0.057169676
158	0xbda50b82	-0.080588356
159	0x3d3fa8ec	0.046791956
160	0xbaedde6e	-0.0018147954
161	0x3cecbe57	0.028899355
162	0xbd179443	-0.037006628
163	0x3d170035	0.03686543
164	0xbc33482a	-0.010942498
165	0x3d359138	0.044327945
166	0x3dc32983	0.09529402
167	0xbd857115	-0.06515709
168	0xbd2befd0	-0.04197675
169	0x3c8a3006	0.016868602
170	0x3dcd31bc	0.10019252
171	0xbd6bce08	-0.057569534
172	0x3c87c8b5	0.016575197
173	0x3dd96a2f	0.10615956
174	0x3db38413	0.087654255
175	0x3d9301ab	0.071780525
176	0x3d8cee0a	0.0688134
177	0x3d11be4f	0.035581883
178	0xbc332e1e	-0.010936288
179	0x3dc7ac62	0.09749676
180	0xbcb91d61	-0.022597017
181	0xbcd529bb	-0.026020875
182	0xbc944e42	-0.018103722
183	0x3dbd0aee	0.092306
184	0xbd95b79c	-0.07310411
185	0x3d286c29	0.041118775
186	0x3d6745a6	0.056462906
187	0x3e02bf01	0.12768175
188	0xbd75f7a4	-0.06005062
189	0x3ccbc9de	0.024876531
190	0xbd219eca	-0.039458074
191	0x3da46e94	0.080289036
192	0xbd65db2d	-0.056117225
193	0x3cd349e0	0.025792062
194	0xbc87ce40	-0.01657784
195	0xbbd15c24	-0.006389158
196	0x3d1df9d7	0.038568344
197	0xbbe2ad25	-0.006917613
198	0xbd8e389d	-0.06944392
199	0x3d5ce770	0.053931653
200	0x3db5a460	0.08869243
201	0x3dbd8a98	0.0925495
202	0x39b49f99	0.00034451185
203	0xbd4c1e44	-0.04983355
204	0x3d77c695	0.060492117
205	0x3d3bbab1	0.04583234
206	0xbd4f491b	-0.05060683
207	0xbe32411a	-0.17407647
208	0xbe3d7953	-0.18503313
209	0xbe49db0b	-0.19712465
210	0x3c177a82	0.009245517
211	0x3dda61a2	0.10663153
212	0x3d64f1f7	0.05589482
213	0x3c95b935	0.01827679
214	0xbc665f3b	-0.014060791
215	0x3d1f9548	0.038960725
216	0x3e24f953	0.16110735
217	0x3dd14300	0.10217857
218	0x3e3a4774	0.1819132
219	0x3b4ca885	0.0031228375
220	0x3dc3ec8c	0.09566602
221	0xbd66443e	-0.056217425
222	0xbb809d11	-0.003924974
223	0x3d1f8e32	0.038953967
224	0x3ca68c13	0.020330464
225	0x3c51f0ac	0.012813728
226	0x3dd913ea	0.105995014
227	0x3d9cd5d0	0.07657969
228	0xbe0335fe	-0.12813565
229	0x3c2b4fd2	0.010456042
230	0x3c9ad209	0.01889898
231	0xbdf83140	-0.12118769
232	0xbd878897	-0.06617849
233	0xba98ae7b	-0.0011648679
234	0x3d75ff03	0.06005765
235	0x3d790d63	0.060803782
236	0x3cf73c0a	0.030179996
237	0xbcb1577a	-0.021648157
238	0x3d50a44b	0.050937932
239	0x3c6ca4e3	0.014443609
240	0x3bf94bd2	0.0076079154
241	0x3cd8058a	0.026369829
242	0x3d369483	0.044575226
243	0xbd8b1146	-0.06790404
244	0xbc9729fd	-0.018452639
245	0x3d8b2346	0.06793837
246	0xbab9c7c4	-0.0014173915
247	0xbd6ad16c	-0.057328627
248	0x3d0c52b0	0.034258544
249	0xbd8772b9	-0.066136785
250	0x3d269847	0.040672567
251	0x3c9823bc	0.018571727
252	0x3d9c6723	0.07636859
253	0x3db8c4c8	0.09021908
254	0x3caac8a4	0.020847626
255	0x3ca3777f	0.019954441

lstm.weight_hh_l0 f4 [512, 128]
0	0xbca601d8	-0.020264551
1	0xbcfe7dee	-0.031065907
2	0x3d30e09b	0.04318295
3	0xbb4f374c	-0.0031618653
4	0x3dd8e11c	0.10589811
5	0x3d7ec976	0.062203847
6	0xbdc34d19	-0.095361896
7	0x3d0c8e48	0.034315377
8	0xbd54a3ab	-0.0519139
9	0xbceae099	-0.02867155
10	0x3d189cc3	0.037258875
11	0x3dc999ba	0.09843774
12	0xbd859b6e	-0.065237865
13	0xbd579da4	-0.052640572
14	0xbd7fd362	-0.06245745
15	0x3d3c1cc3	0.045925867
16	0xbd0abf3a	-0.033873774
17	0x3dbd2915	0.092363514
18	0x3dcf563d	0.101238705
19	0x3a5a2f51	0.0008323091
20	0xbd157729	-0.036490593
21	0x3dd6387c	0.10459992
22	0x3d2256e4	0.039633647
23	0xbd72577a	-0.059165455
24	0x3df5fa9d	0.12010691
25	0x3cc9bc04	0.024625786
26	0xbd32c196	-0.04364165
27	0x3dfe675b	0.12422057
28	0xbd5ab826	-0.053398274
29	0xbdd1d4e3	-0.10245683
30	0xbd9d59e7	-0.07683163
31	0xbd4358c0	-0.04769206
32	0xbd9332c8	-0.0718742
33	0xbdb5c12a	-0.08874734
34	0xbccf2b7b	-0.025289288
35	0x3de169af	0.11006486
36	0x3d6b2d41	0.057416204
37	0x3d2db362	0.0424074
38	0xbdef4972	-0.116839305
39	0xbda98d1f	-0.0827887
40	0x3d6c6980	0.0577178
41	0x3c56025b	0.013062085
42	0x3cdbb602	0.026820187
43	0x3dbdb76e	0.09263502
44	0xbd120d4a	-0.035657205
45	0xbe053734	-0.1300934
46	0x3cda3e61	0.026641073
47	0x3bf5eeff	0.007505297
48	0xbd2eb229	-0.042650376
49	0xbdfdc5e1	-0.12391258
50	0x3cdbc996	0.026829522
51	0x3d975646	0.07389502
52	0x3c8b7ecf	0.01702824
53	0x3d577313	0.052599978
54	0xbcb37445	-0.021906028
55	0x3d3a8481	0.04553652
56	0x3ba86b99	0.0051397798
57	0x3dabd6cc	0.08390579
58	0xbdc9d125	-0.09854344
59	0xbde3c631	-0.111217864
60	0x3c46c7bf	0.012132584
61	0x3d2f1505	0.042744655
62	0xbd5861cf	-0.052827653
63	0x3d359da3	0.044339787
64	0xbc54206d	-0.012947184
65	0x3d3b126c	0.045671865
66	0xbde5708b	-0.112031065
67	0x3db77a24	0.08958843
68	0xbd4f72d0	-0.050646603
69	0xbdfd5a86	-0.123707816
70	0xbd74a6b5	-0.059729297
71	0x3ca57f85	0.020202408
72	0xbddd0a87	-0.107930236
73	0xbc7f9b4d	-0.015600991
74	0xbcf4b083	-0.029869324
75	0xbe03aa18	-0.12857854
76	0x3e04faf3	0.12986355
77	0x3daede31	0.085384734
78	0x3ddc2fe8	0.10751325
79	0xbba79888	-0.0051146187
80	0xbdb43994	-0.08800045
81	0x3b8e2a1b	0.0043385155
82	0xbd12d60d	-0.035848666
83	0x3b9a86ae	0.004715762
84	0x3da3b137	0.079927854
85	0x3e007d3b	0.12547772
86	0xbcbe41ed	-0.023224795
87	0xbc33d315	-0.010975619
88	0x3d08ef6a	0.033431448
89	0xbd0b3d55	-0.033994038
90	0x3c04af63	0.008098456
91	0x3dcff84c	0.10154781
92	0xbd7ef8d8	-0.062249035
93	0x3d7b371e	0.06133186
94	0x3dc5d7db	0.09660312
95	0xbdf2a49a	-0.118478015
96	0xbda6f307	-0.081518225
97	0xbbdb42eb	-0.006691327
98	0xbcb262b1	-0.021775575
99	0x3de384c0	0.111093044
100	0x3db091eb	0.08621582
101	0xbd703419	-0.058643434
102	0x3d2ee386	0.042697452
103	0x3cce1ddf	0.025160728
104	0xbded2dbf	-0.11580991
105	0xbdda7b59	-0.10668058
106	0x3d941e7c	0.07232377
107	0xbd7fe03b	-0.062469702
108	0xbd1aaf85	-0.037765045
109	0xbd1c50f1	-0.03816313
110	0xbdefeabc	-0.11714694
111	0xbe061fe4	-0.13098103
112	0xbc850dee	-0.016241994
113	0xbd718b79	-0.058970902
114	0xbaf3b2b9	-0.0018592692
115	0x3bf5f96f	0.0075065414
116	0xbdab6752	-0.08369316
117	0xbd9b4675	-0.07581798
118	0xbc851480	-0.016245127
119	0xbc7aa90f	-0.015299096
120	0xbbb48627	-0.0055091563
121	0xbbe93773	-0.0071172058
122	0xbdfb2c27	-0.12264281
123	0x3c60f777	0.013730875
124	0x3d450a46	0.0481055
125	0x3d0e662f	0.03476542
126	0x3dec99b6	0.115527555
127	0x3dc48dea	0.095973805
128	0x3db81a82	0.08989431
129	0xbd014d7a	-0.031568028
130	0x3c8ef6fe	0.01745176
131	0xbd8c4abe	-0.068501934
132	0xbd8c6a52	-0.068562165
133	0xbc38bbab	-0.011275212
134	0xbd77fcd4	-0.06054385
135	0xbd6cd5c5	-0.057821054
136	0x3d13e565	0.03610744
137	0x3d0eff49	0.034911428
138	0x3c199509	0.009373912
139	0xbca47bd9	-0.020078586
140	0x3d24d19e	0.04023897
141	0x3cd3b61c	0.025843672
142	0xbd66e97d	-0.056375016
143	0x3d6d46b6	0.057928763
144	0xbc43e511	-0.011956469
145	0x3dc5dab1	0.09660853
146	0x3dbcbcbb	0.09215685
147	0xbd3a791e	-0.045525663
148	0x3da9f934	0.08299485
149	0x3db54969	0.088518925
150	0x3d572cfe	0.052533142
151	0xbc1f4183	-0.009720209
152	0xbd37a50f	-0.044835147
153	0x3d56a1c4	0.052400365
154	0x3d294193	0.041322302
155	0xbc144c87	-0.009051449
156	0x3d71e1ba	0.05905316
157	0xbd71b9a0	-0.059014916
158	0xbd096371	-0.0335421
159	0xbcff7e22	-0.031188074
160	0x3c8d0c90	0.017217904
161	0x3cee1800	0.029064178
162	0x3cf6584d	0.030071402
163	0xbcc4fa0f	-0.024045018
164	0x3d68e24a	0.05685643
165	0xbd361aaa	-0.044459023
166	0xbd89cf3a	-0.067289785
167	0x3d03e1ee	0.032197885
168	0x3d9952ec	0.07486519
169	0x3c0480f9	0.00808739
170	0x3d3d1bed	0.04616921
171	0x3e064e99	0.1311592
172	0xbd4db0c0	-0.05021739
173	0x3c874884	0.01651407
174	0x3d996b47	0.07491165
175	0xbdbbc4c7	-0.09168392
176	0x3bd1ef14	0.006406674
177	0x3c3f45ce	0.011674358
178	0x3ce5bc20	0.028043807
179	0x3b8c4ea0	0.004281834
180	0x3d57624d	0.05258398
181	0xbd48474f	-0.04889613
182	0x3d039093	0.0321203
183	0xbdb3a854	-0.087723404
184	0x3caea73a	0.021319974
185	0xbbb50b2b	-0.005525013
186	0x3c43b8b6	0.011945894
187	0xbd827232	-0.06369437
188	0x3dabaa01	0.08382035
189	0x3cdae8e1	0.026722373
190	0xbd8e8812	-0.06959547
191	0x3d1f4cce	0.038891606
192	0x3d354742	0.04425741
193	0x3dc8364a	0.0977598
194	0xbdc41e76	-0.095761225
195	0x3da67b1c	0.0812895
196	0x3d908de9	0.07058317
197	0x3d403c44	0.046932474
198	0x3cf29342	0.029611234
199	0x3da3f0b9	0.080048986
200	0xbcb6f9d8	-0.022335932
201	0xbd849dc9	-0.06475408
202	0xbc1636b9	-0.00916832
203	0xbd9c7442	-0.07639362
204	0xbcaca620	-0.021075308
205	0x3cbe2da1	0.023215117
206	0x3dbee421	0.09320856
207	0x3c905989	0.017620819
208	0xbc894733	-0.016757583
209	0x3dd00a04	0.1015816
210	0xbdd10983	-0.10206892
211	0xbc5b8f11	-0.013400809
212	0xbcde4954	-0.027134575
213	0xbd1f6eb6	-0.03892394
214	0xbd385804	-0.045005813
215	0xbda3025a	-0.07959433
216	0xbd8c3756	-0.06846492
217	0x3c1e9a6a	0.00968037
218	0x3d21c46b	0.03949396
219	0x3c16f126	0.009212768
220	0xbda7f8a0	-0.08201718
221	0x3b6eba72	0.0036427048
222	0x3d9e9a13	0.07744231
223	0x3d250d95	0.040296156
224	0x3d052ebc	0.032515272
225	0x3d469898	0.04848537
226	0x3d8d68ef	0.0690478
227	0x3d548e28	0.051893383
228	0x3dcb0c15	0.09914414
229	0xbd8f3951	-0.06993354
230	0xbd9807a4	-0.07423332
231	0x3dc779b1	0.09740008
232	0xbd9649e0	-0.07338309
233	0xbc2f3aa0	-0.01069513
234	0x3d98fda7	0.07470255
235	0xbdb04f1e	-0.086088404
236	0x3daedd98	0.085383594
237	0xbd825a9d	-0.06364939
238	0xbd932b87	-0.071860366
239	0x3d847635	0.06467859
240	0x3d5d2b81	0.053996567
241	0x3beb3632	0.0071780914
242	0xbc0af28e	-0.008480681
243	0xbcc37c92	-0.02386311
244	0xbd96915e	-0.07351945
245	0xbdd3c36b	-0.103400074
246	0x3d25d873	0.040489625
247	0xbcdd2bb6	-0.026998382
248	0xbaa73411	-0.0012756606
249	0x3d242610	0.04007536
250	0x3c9e5774	0.01932881
251	0x3db4654e	0.08808385
252	0x3d922b9f	0.07137226
253	0x3c4231e6	0.011852717
254	0x3ca3ad98	0.019980237
255	0x3d67cc01	0.056591038

lstm.bias_ih_l0 f4 [512]
0	0x3d7acee5	0.061232466
1	0xbd57e23f	-0.052706
2	0xbcc249c1	-0.02371681
3	0x3cdf2713	0.027240312
4	0xbb4d1d67	-0.0031298043
5	0xbd87dac6	-0.066335246
6	0xbc901461	-0.017587842
7	0x3d23a82e	0.03995531
8	0xbc95aada	-0.018269945
9	0x3e015b85	0.12632568
10	0x3dd83d46	0.10558562
11	0x3d7b4690	0.06134659
12	0x3c85b60a	0.016322155
13	0xbcaa5f26	-0.020797323
14	0x3d30daae	0.0431773
15	0xbc961aad	-0.018323267
16	0xbbd2fc3e	-0.006438761
17	0x3a15725e	0.0005700941
18	0xbb97faa4	-0.004638033
19	0x3bb74f1a	0.0055941464
20	0xbc1bb436	-0.009503415
21	0x3c057d25	0.008147513
22	0xbd279e89	-0.040922675
23	0xbc4635ac	-0.012097757
24	0x3da885c2	0.08228637
25	0xbd5b2229	-0.053499375
26	0xbd02635b	-0.031833034
27	0xbb84146a	-0.004030754
28	0x3b820245	0.0039675557
29	0x3b3d1f3b	0.0028857726
30	0xbd095fb3	-0.03353853
31	0x3b528cc6	0.0032127365
32	0x3daf3541	0.08555079
33	0x3d58d8cf	0.05294114
34	0x3df9c9fb	0.12196728
35	0x3d2d46c5	0.04230382
36	0xbcef5e67	-0.02921982
37	0xbcd44120	-0.02590996
38	0xbc3d12ed	-0.011540157
39	0x3e00f1ec	0.12592286
40	0x3d9d5e19	0.07683963
41	0xbbf833c3	-0.00757453
42	0x3db799fb	0.08964916
43	0xbe27389d	-0.1633019
44	0x3dd4f119	0.10397548
45	0x3d2bf856	0.04198488
46	0x3d854deb	0.06509002
47	0x3db65fd3	0.08904996
48	0xbddf0782	-0.10890104
49	0x3b9747e9	0.0046167267
50	0xbd67e754	-0.056617096
51	0x3c01c592	0.00792064
52	0xbd1277d4	-0.03575881
53	0x3d64d095	0.05586298
54	0xbcd14a7f	-0.025548218
55	0xbc4d685a	-0.012537086
56	0x3d36a668	0.04459229
57	0x3d4ac440	0.049503565
58	0xbc4164b4	-0.011803795
59	0x3df6f1a6	0.120578095
60	0xbc850805	-0.016239176
61	0xbd86e8c8	-0.06587368
62	0x3e0152e2	0.12629274
63	0x3c81277b	0.015765896
64	0x3d8daa9f	0.06917309
65	0x3d102559	0.035191868
66	0xbd2bedc4	-0.041974798
67	0x3d0e4bf5	0.034740407
68	0x3dc9a58e	0.0984603
69	0xbe0155b4	-0.1263035
70	0x3d9ef059	0.077606864
71	0xbcee28e4	-0.029072233
72	0xbc59fe00	-0.013305187
73	0x3d7b4ad0	0.061350644
74	0xbcd0c813	-0.025486028
75	0x3ce4d890	0.027935296
76	0x3cd68fb7	0.026191575
77	0xbdaa6cde	-0.08321546
78	0x3dc6b5e3	0.09702661
79	0xbb1e1849	-0.0024123362
80	0x3d47d772	0.04878945
81	0xbd979caa	-0.07402928
82	0x3d34622a	0.04403893
83	0xbc460159	-0.012085282
84	0x3dac97d5	0.08427397
85	0x3c4a69fb	0.012354369
86	0x3dbbc108	0.09167677
87	0x3cef6fa9	0.029228048
88	0x3d88b5bb	0.06675287
89	0x3d82fdbc	0.06396052
90	0x3d306a82	0.043070324
91	0xb9ecde9d	-0.00045179288
92	0x3ba206c0	0.0049446523
93	0xbdd617ab	-0.10453733
94	0x3d62cdd2	0.055372067
95	0x3c9a1284	0.018807657
96	0x3d9b9b82	0.0759802
97	0xbd21f1ef	-0.039537366
98	0x3daa34ae	0.08310829
99	0x3d966a0c	0.073444456
100	0x3dc1adf0	0.09457004
101	0xbc1d2a11	-0.009592549
102	0x3ddcf4ab	0.10788854
103	0x3c86af2a	0.016440947
104	0x3cbf8e91	0.02338341
105	0xbd104296	-0.03521975
106	0x3db114c6	0.0864654
107	0xbd13bbdf	-0.03606784
108	0x3d9a9c03	0.07549288
109	0xbd7874df	-0.060658332
110	0x3d3bded5	0.045866806
111	0xbd02c134	-0.031922534
112	0x3ac43cbb	0.0014971712
113	0x3db807ea	0.089858845
114	0x3dd04324	0.10169056
115	0x3d735076	0.059402905
116	0x3c2377f5	0.00997733
117	0xbc77d048	-0.015125342
118	0xbd99c3c8	-0.075080454
119	0x3d1992ba	0.037493445
120	0x3dad1ec0	0.08453131
121	0xbce1c9f6	-0.027562123
122	0x3d9cb7b9	0.0765223
123	0x3a2286e9	0.0006199913
124	0x3da7338f	0.08164131
125	0xbd7f4ef5	-0.06233116
126	0xbb9d4311	-0.0047992547
127	0x3d869ebd	0.06573246
128	0xbc8df083	-0.017326599
129	0xbb540b29	-0.0032355285
130	0xbcfff721	-0.03124577
131	0xbd08e862	-0.033424743
132	0x3d4f54ed	0.0506181
133	0xbcde1897	-0.027111335
134	0xbd552769	-0.052039538
135	0x3d6dbac9	0.05803946
136	0x3d3e2d09	0.046429668
137	0x3c1d0c0b	0.009585391
138	0x3d24c518	0.040227026
139	0xbd16bdc5	-0.036802072
140	0x3e2e39e0	0.17014265
141	0x3d0c6bde	0.034282558
142	0xbd591252	-0.052995987
143	0xbd06885b	-0.032844882
144	0x39926fe2	0.0002793065
145	0x3dced858	0.10099858
146	0xbc772f95	-0.015087028
147	0xbce156c8	-0.0275072
148	0x3cf22bd5	0.029561916
149	0x3db86e14	0.09005371
150	0xbd00dd84	-0.031461254
151	0x3d8e13be	0.06937359
152	0x3c8f50f3	0.017494654
153	0x3d5e8104	0.054322258
154	0xbc980887	-0.018558754
155	0x3c9d9875	0.019237736
156	0xbd1b7af3	-0.03795905
157	0xbceb426c	-0.028718196
158	0xbcfd61cd	-0.030930424
159	0x3de93120	0.11386323
160	0x3dea803b	0.11450239
161	0x3d8935d8	0.06699723
162	0x3dcec0e1	0.100953825
163	0x3d8064af	0.06269204
164	0x3df6131b	0.12015363
165	0x3d8ac35e	0.067755446
166	0xbc144efb	-0.009052034
167	0xbd4da044	-0.05020167
168	0x3c90b8ed	0.017666304
169	0xbaaaf994	-0.0013044351
170	0x3ddaf92e	0.106920585
171	0x3b6cfe90	0.0036162473
172	0x3d16a822	0.036781438
173	0x3ddac6da	0.10682459
174	0xbc9e019a	-0.019287873
175	0x3ccb208b	0.024795791
176	0x3ca07c60	0.019590557
177	0x3dc43e2f	0.09582173
178	0x3dd813f2	0.10550679
179	0xbcb1f3e0	-0.021722734
180	0x3d54bb7a	0.051936604
181	0x3d6bffb8	0.05761692
182	0x3df4b192	0.11947931
183	0xbcc86f62	-0.024467174
184	0x3d5c7740	0.053824663
185	0x3da1ea5e	0.0790603
186	0x3c82dea1	0.015975298
187	0x3be73ae6	0.007056582
188	0xbd1cdea1	-0.038298253
189	0xbd3d9cd2	-0.046292134
190	0x3d70c3f6	0.058780633
191	0xbd4efef7	-0.050536122
192	0x3c80694d	0.015675211
193	0xbd8c2da2	-0.06844641
194	0x3db38e8b	0.08767422
195	0x3d21ec04	0.039531723
196	0xbc2851b5	-0.010273387
197	0xbc3802bf	-0.0112311235
198	0x3d75cfee	0.06001275
199	0x3d49b4ba	0.04924462
200	0x3df4bd65	0.11950187
201	0x3cbd7306	0.023126137
202	0x3c109ce6	0.00882647
203	0x3c89b939	0.016811954
204	0x3dc5a4a2	0.09650542
205	0x3ca341f7	0.019928915
206	0xbd803fa2	-0.06262137
207	0x3aa560c5	0.001261734
208	0x3d20313b	0.03910945
209	0x3d120aab	0.035654705
210	0x3da281bc	0.07934901
211	0x3d0566ed	0.03256886
212	0xbc83f544	-0.016108163
213	0x3c93ffc6	0.018066298
214	0x3d0af05f	0.033920642
215	0xbcf54537	-0.02994023
216	0x3d1d1501	0.03835011
217	0x3e02847f	0.12745856
218	0xbd8c8e2b	-0.06863054
219	0x3d02c602	0.031927116
220	0x3d08a09d	0.033356298
221	0x3d7d6fbc	0.061874136
222	0x3dca17df	0.09867834
223	0x3d0fb35a	0.035083152
224	0xbc1d1c94	-0.009589333
225	0xbc300694	-0.010743756
226	0x3d02c2ee	0.03192418
227	0x3a91a16b	0.0011110728
228	0x3d840c53	0.06447663
229	0x3cb55ac4	0.022138007
230	0x3d53b351	0.05168468
231	0x3d84a571	0.06476868
232	0x3b1e084d	0.0024113834
233	0xbd1ea06e	-0.038727216
234	0x3b793097	0.0038023347
235	0xbd07c4f6	-0.03314682
236	0x3d166331	0.03671569
237	0x3a54be36	0.0008115502
238	0xbd4c0d61	-0.049817447
239	0x3dd4de81	0.10394002
240	0xbd0c2259	-0.034212444
241	0xbd1cb9dd	-0.03826319
242	0xbbe93ebd	-0.0071180747
243	0x3d5f4ca9	0.05451647
244	0xbbfd7629	-0.007735033
245	0xbc63acac	-0.013896149
246	0x3dbec81d	0.09315512
247	0xbd314017	-0.04327401
248	0xbc91d4d0	-0.017801672
249	0x3ccf950d	0.025339628
250	0x3da7daf2	0.081960574
251	0x3d631fc3	0.055450212
252	0xbd26e0f9	-0.040741894
253	0x3dbc8791	0.09205545
254	0x3d0f6cb2	0.03501577
255	0xbc078c30	-0.008273169

lstm.bias_hh_l0 f4 [512]
0	0xbcd6e277	-0.026231034
1	0x3d94edc3	0.07271912
2	0xbd897977	-0.06712621
3	0x3cc50642	0.024050836
4	0x3d521526	0.0512897
5	0x3d77ffc8	0.060546666
6	0x3d498708	0.04920104
7	0x3de348fa	0.110979035
8	0x3d546034	0.05184956
9	0x3df4426c	0.119267315
10	0xbd6a5201	-0.05720711
11	0xbd531b74	-0.051539853
12	0x3d36cb73	0.044627618
13	0x3dab4df6	0.08364479
14	0x3cf2ce70	0.029639453
15	0xbcd716db	-0.026256016
16	0x3d40ccf5	0.047070462
17	0x3db35678	0.08756727
18	0x3c960a06	0.018315326
19	0xbcb5a8af	-0.022175161
20	0xbd56daba	-0.052454688
21	0xbd7ceb02	-0.06174756
22	0x3d69cea7	0.057081845
23	0x3cd90e34	0.02649603
24	0xbd3697c2	-0.04457832
25	0xbde25c8d	-0.11052809
26	0x3d2d2332	0.042269893
27	0x3d828fc7	0.063750796
28	0x3d8aa828	0.067703545
29	0x3dbe6d7d	0.09298227
30	0x3deede74	0.11663523
31	0x3d353c38	0.044246882
32	0xbce22c89	-0.027609127
33	0x3c587b71	0.0132130245
34	0x3d240ea7	0.040053036
35	0xbce82a92	-0.028340612
36	0x3d550d52	0.052014656
37	0xbd243ece	-0.040098958
38	0x3d2277bd	0.039664973
39	0x3ce995fe	0.028513905
40	0x3e1885df	0.14894818
41	0xbce68820	-0.028141081
42	0x3dced589	0.10099322
43	0xbe1f39c6	-0.15549383
44	0xbce11b81	-0.027478935
45	0xbd534efd	-0.051589
46	0x3d94aa61	0.0725906
47	0x3d753fb2	0.059875198
48	0xbdda7e1f	-0.10668587
49	0xbd6919dc	-0.056909427
50	0x3c65f09c	0.0140344165
51	0xbd2931bc	-0.041307196
52	0xbd7f708e	-0.0623632
53	0xbd126a04	-0.035745636
54	0x3dd34e59	0.10317678
55	0xbd2e0d1f	-0.042492982
56	0x3da15336	0.07877199
57	0x3df21d3c	0.11821982
58	0x3d8637ca	0.0655361
59	0x3cfe04a5	0.031008074
60	0xbbfacaef	-0.007653586
61	0x3d883635	0.06650964
62	0x3d6e8429	0.058231506
63	0xbd0e6576	-0.03476473
64	0xbcb0308f	-0.02150753
65	0x3b8627ef	0.004094116
66	0x3c6f8b44	0.014620606
67	0x3d8fd1e7	0.070224576
68	0x3d874132	0.06604232
69	0x3d04c611	0.032415453
70	0xbc33644e	-0.0109492075
71	0x3b9ab74a	0.004721557
72	0x3c8a7ed7	0.016906185
73	0x3a949b0b	0.001133771
74	0x3d8f3ece	0.06994401
75	0x3dc9084e	0.09816037
76	0xbc20079a	-0.009767437
77	0x3d536af1	0.05161566
78	0x3c35afaa	0.011089245
79	0x3d1266db	0.035742622
80	0x3d1b869d	0.037970174
81	0x3dc6fbba	0.09715982
82	0xbd81486a	-0.0631264
83	0xbd1316ba	-0.035910346
84	0x3dfc0255	0.12305132
85	0xbccfa71d	-0.02534824
86	0xbc3d38af	-0.011549159
87	0xbd016c5b	-0.031597476
88	0x3da8234d	0.08209858
89	0xbc18db21	-0.009329588
90	0xbd64169d	-0.05568563
91	0x3ad6ac2f	0.0016378219
92	0xbce01697	-0.027354522
93	0xbd4f3b9a	-0.05059395
94	0x3d85f7b5	0.06541387
95	0x3c78a4c7	0.015176005
96	0x3d680015	0.056640703
97	0xbc9369eb	-0.017994842
98	0x3d99af76	0.0750417
99	0xbca6284e	-0.02028289
100	0xbd15f45b	-0.03660999
101	0x3ddf1b5d	0.10893891
102	0x3da03402	0.0782242
103	0xbcd4a7ae	-0.025958862
104	0x3d978ac1	0.07399512
105	0xbd4d7f46	-0.050170206
106	0x3c5abffd	0.013351438
107	0x3c80df2a	0.015731413
108	0xbc608d83	-0.013705614
109	0x3d547269	0.051866923
110	0x3d8c7f81	0.06860257
111	0x3c9c2208	0.019059196
112	0x3d970620	0.07374215
113	0x3d0fb2af	0.035082515
114	0x3d55f8f7	0.052239385
115	0x3ddb1151	0.10696662
116	0xbc879546	-0.016550671
117	0xbc798c49	-0.0152312005
118	0xbdc030a3	-0.09384277
119	0x3d352af8	0.04423043
120	0xbd822ec5	-0.06356577
121	0xbb706763	-0.0036682717
122	0x3d8fe932	0.070269
123	0x3da3f1bf	0.08005094
124	0x3d866ab5	0.065633215
125	0xbda6dd79	-0.08147711
126	0x3da84001	0.08215333
127	0x3cff702e	0.031181421
128	0x3d3e81b2	0.046510406
129	0x3c3674b9	0.011136227
130	0xbcba2b3b	-0.022725692
131	0xbd302c8d	-0.043011237
132	0x3dfbb716	0.1229078
133	0x3d64d93b	0.05587123
134	0xbd37dcf5	-0.044888455
135	0x3d83f5d5	0.06443373
136	0xbd8f0d5b	-0.06984969
137	0xbcbeffdd	-0.023315364
138	0x3db3aa04	0.08772662
139	0x3cff7b4c	0.031186722
140	0x3d97d231	0.07413138
141	0x3d69330c	0.056933448
142	0x3cb871a3	0.022515124
143	0x3d3bd981	0.045861725
144	0x3dc2155d	0.09476731
145	0x3d63744d	0.055530835
146	0xbd440d80	-0.047864437
147	0xbcb16fd8	-0.021659777
148	0x3e22d90b	0.15903108
149	0x3d011c83	0.03152133
150	0x3d6f7a28	0.058466107
151	0x3cd76eef	0.026298014
152	0x3d9f389f	0.077744715
153	0x3df424b7	0.11921065
154	0xbd0c865e	-0.03430783
155	0xbcf973bb	-0.030450692
156	0x3dd0b9e1	0.101917036
157	0x3db794da	0.08963938
158	0xbd355561	-0.044270877
159	0x3ca9ccd5	0.020727554
160	0x3b9e3613	0.0048282235
161	0x3d6b423b	0.05743621
162	0x3d7a8d30	0.061169803
163	0x3c73ac67	0.014872647
164	0x3c909b60	0.017652214
165	0xbcc7d849	-0.024395125
166	0xbcdc4870	-0.02689001
167	0xbcdb9e8a	-0.026808996
168	0x3e01732b	0.1264159
169	0xbc3b9d43	-0.011451068
170	0xbc71a17c	-0.0147479735
171	0xbc800bb2	-0.015630577
172	0x3c9241d6	0.017853659
173	0x3d0b9087	0.03407338
174	0x3bf5f913	0.0075064986
175	0x3d5b7871	0.05358166
176	0x3dfadb8b	0.12248906
177	0x3dad34c3	0.08457329
178	0x3bbaab9b	0.0056967265
179	0x3b92974e	0.0044736033
180	0x3d071258	0.03297648
181	0xbc01cf90	-0.007923022
182	0xbd33d9a6	-0.043908738
183	0x3c461708	0.012090452
184	0x3dea345f	0.1143577
185	0x3da1e902	0.07905771
186	0x3c0270b6	0.007961443
187	0x3d9509fd	0.07277296
188	0x3c792159	0.015205705
189	0xbcc165fc	-0.0236082
190	0x3dc01eb0	0.09380853
191	0xbd3a7bf8	-0.045528382
192	0xbd06624c	-0.032808587
193	0xbd6c42ce	-0.057680897
194	0x3c95d135	0.018288234
195	0x3ba391b8	0.0049917363
196	0x3ceb32ac	0.028710686
197	0xbc5f0ab7	-0.013613394
198	0x3d4dabba	0.0502126
199	0x3d834b6a	0.064108685
200	0x3c1dd12f	0.009632393
201	0x3d2be4c5	0.04196622
202	0x3dbed20e	0.093174085
203	0xbd202f7f	-0.039107796
204	0x3cbae1c3	0.02281273
205	0xbd967ce4	-0.0734804
206	0x3d86acf5	0.06575958
207	0x3d52084c	0.051277444
208	0xbc61e586	-0.013787633
209	0x3d8037e9	0.06260664
210	0xbc9d7681	-0.019221546
211	0x3d99cbbb	0.07509562
212	0x3d2e5a13	0.04256637
213	0xbb24c9e3	-0.0025144748
214	0x3db85390	0.09000313
215	0xbd3cfa22	-0.046136983
216	0x3da53d9d	0.080683924
217	0x3d1d547a	0.03841064
218	0x3d0700bb	0.03295968
219	0xbd5b661c	-0.053564176
220	0x3a30468f	0.0006724381
221	0x3dcf1a58	0.101124465
222	0xbcf4b844	-0.029873021
223	0xbcd69999	-0.026196288
224	0xbd5fea63	-0.054666888
225	0xbc71df0f	-0.014762654
226	0x3cc68c1f	0.024236737
227	0xbd4e6008	-0.05038455
228	0x3da23212	0.079197064
229	0x39bccf6d	0.000360127
230	0xbb222561	-0.0024741518
231	0x3dd4facf	0.103994004
232	0xbc1660e5	-0.009178375
233	0xbc3a2565	-0.011361455
234	0x3d342eec	0.04399006
235	0xbd4ca2e4	-0.049960032
236	0x3e08b3d1	0.13349845
237	0xbd662bfc	-0.05619429
238	0x3ce85f15	0.028365651
239	0x3dd17570	0.102274776
240	0x3badcf51	0.005304255
241	0xbceb1fc7	-0.028701676
242	0x3de792d3	0.11307301
243	0x3d121e1b	0.035673242
244	0xbc4c1362	-0.012455793
245	0x3d099d32	0.03359718
246	0x3ddec66c	0.1087769
247	0x3d3635d1	0.044484917
248	0x3c948d6b	0.01813384
249	0x3daf162b	0.0854915
250	0x3d7e6d97	0.06211623
251	0xbd3d0faa	-0.046157517
252	0xbcb8868e	-0.022525098
253	0xbbead27f	-0.0071662064
254	0x3c2d0706	0.010560757
255	0xbcab4045	-0.02090467

lstm.weight_ih_l1 f4 [512, 128]
0	0xbc212b2d	-0.009836954
1	0xbd6c3f15	-0.057677347
2	0x3b610c00	0.0034339428
3	0xbd9a93c4	-0.07547715
4	0x3d0e2951	0.03470737
5	0x3de079d6	0.10960738
6	0xbd874f8e	-0.06606971
7	0x3c85e632	0.016345117
8	0x3d79fb90	0.061030924
9	0x3ca1d30f	0.01975396
10	0x3b89f795	0.0042104223
11	0x3db1fa43	0.08690312
12	0x3cece67d	0.0289185
13	0x3c951579	0.018198716
14	0xbd2f6502	-0.042820938
15	0x3b026d9a	0.0019901753
16	0xbcd84318	-0.02639918
17	0x3d2f7539	0.0428364
18	0x3c6626b2	0.014047312
19	0xbd273bb9	-0.04082844
20	0xbd6108e1	-0.05494011
21	0x3d28ef4b	0.041243833
22	0xbcd98be0	-0.026555955
23	0x3d1a9b93	0.037746023
24	0x3de4b1ab	0.111667
25	0xbd055659	-0.03255305
26	0x3c92924f	0.017892031
27	0x3d77e51b	0.060521226
28	0x3de4a122	0.11163546
29	0xbd222df9	-0.039594624
30	0xbdc2ce9e	-0.09512065
31	0xbd84ad53	-0.064783715
32	0x3bbef732	0.005827808
33	0x3c8abbaa	0.016935188
34	0x3b480ce5	0.0030525264
35	0x3a8c6569	0.0010711375
36	0x3c463c8c	0.012099396
37	0xbd202755	-0.03910001
38	0x3d028574	0.031865552
39	0xbd2f23f6	-0.042758904
40	0x3cee13d3	0.029062187
41	0x3c3044a9	0.010758557
42	0x3dbb39b9	0.09141869
43	0x3dd4c22f	0.103886
44	0xbc9860f7	-0.018600924
45	0xbd316e30	-0.043317974
46	0x3d3cb1a2	0.04606784
47	0xbd7e0b75	-0.062022645
48	0xbc8794bb	-0.016550412
49	0xbc4358aa	-0.011922995
50	0xbd6bf0b5	-0.057602603
51	0x3d0577f8	0.032585114
52	0xbc8f80a0	-0.017517388
53	0xbcf531cb	-0.02993097
54	0xbd576336	-0.05258485
55	0xbbc3ea08	-0.0059788264
56	0x3c5ffb03	0.013670686
57	0x3c946094	0.018112458
58	0x3d44b169	0.048020754
59	0x3a1cf3d9	0.0005987264
60	0xbd0a95b5	-0.033834178
61	0xbdc09c8a	-0.094048575
62	0x3c41c8b4	0.0118276365
63	0xbd8bfc1c	-0.068351954
64	0x3cbf93b7	0.023385866
65	0xbce10809	-0.027469652
66	0xbddda0c9	-0.10821683
67	0xbd5f9a0e	-0.054590277
68	0xbdd0a8e4	-0.10188463
69	0x3ce7ad8a	0.028280992
70	0xbd76b06a	-0.060226835
71	0x3dcb90bf	0.099397175
72	0xbd818a8c	-0.06325254
73	0xbde5d384	-0.11221984
74	0x3dd62836	0.104568884
75	0xbd71e102	-0.059052475
76	0xbcdefe72	-0.027220938
77	0x3d64b6f9	0.05583856
78	0xbd24e6c7	-0.04025915
79	0x3d4a003f	0.04931664
80	0xbd97f610	-0.074199796
81	0xbd4e0688	-0.050299197
82	0x3d7ec11a	0.062195875
83	0x3d833de3	0.06408288
84	0x3cf9c613	0.030489957
85	0xbcee4361	-0.029084863
86	0x3d140d38	0.03614542
87	0xbd83d204	-0.06436542
88	0xbd3648af	-0.04450291
89	0xbd581e85	-0.05276348
90	0xbd8dd097	-0.06924551
91	0x3c4dc97a	0.012560243
92	0x3d69b650	0.057058632
93	0xbddc0157	-0.10742443
94	0xbc594031	-0.013259933
95	0xbd1cb81a	-0.03826151
96	0xbd6d9331	-0.0580017
97	0xbc98d9cd	-0.018658543
98	0xbba0c9a4	-0.00490685
99	0x3d84d093	0.06485095
100	0xbd750c42	-0.059826143
101	0xbdb9b8d6	-0.09068458
102	0xbd8c51a3	-0.068515085
103	0x3c2b34b8	0.010449581
104	0xbc2ef4c5	-0.010678475
105	0x3c103d66	0.008803701
106	0xbc269a00	-0.010168552
107	0x3baa8eee	0.005205027
108	0x3d61bd55	0.0551122
109	0xbd0236ed	-0.031790663
110	0xbd89df92	-0.06732096
111	0xbdcaf6ff	-0.09910392
112	0x3c05a780	0.008157611
113	0x3cbffb43	0.02343524
114	0x3d5bde66	0.053678893
115	0x3de57a6c	0.11204991
116	0xbd11e7cb	-0.035621446
117	0xbc861d3f	-0.016371367
118	0x3d14a019	0.036285494
119	0xbd43b559	-0.04778037
120	0xbd2267e7	-0.03964987
121	0xbd2b260a	-0.041784324
122	0xbd380808	-0.044929534
123	0x3dda98c7	0.10673671
124	0x3b9d6a26	0.0048039136
125	0x3d942180	0.07232952
126	0x3b6d5806	0.0036215796
127	0xbd4a7344	-0.049426332
128	0x3d4cf32c	0.050036594
129	0xbca5f592	-0.020258699
130	0xbc159c55	-0.009131511
131	0xbc25c206	-0.01011706
132	0x3c8fba20	0.017544806
133	0xbc6f0ebd	-0.014590916
134	0xbda58264	-0.08081511
135	0x3d2f0efd	0.042738903
136	0xbd95043b	-0.072761975
137	0xbd789451	-0.06068832
138	0xbd023ce6	-0.03179636
139	0x3d619861	0.05507696
140	0x3c4ee3f6	0.012627592
141	0xbc9340fd	-0.017975325
142	0xbcae0cb8	-0.0212463
143	0x3cd632aa	0.026147205
144	0xbd8daa15	-0.06917206
145	0xbd14a124	-0.03628649
146	0x3d956f1b	0.07296582
147	0x3b443acf	0.002994228
148	0x3cb6e8a3	0.022327727
149	0xbd06e61d	-0.032934297
150	0xbdc5c604	-0.09656909
151	0x3d6224f3	0.05521102
152	0x3d3c0e22	0.045911916
153	0xbd3d2388	-0.046176463
154	0xbcf4e439	-0.029893981
155	0xbc035622	-0.008016141
156	0x3ce604fa	0.028078545
157	0xbd391cfc	-0.045193657
158	0xbccc3440	-0.024927258
159	0xbc94c1bb	-0.018158784
160	0xbc93ffee	-0.018066373
161	0x3d56c9e4	0.05243863
162	0xbc59fa31	-0.013304279
163	0x3dc485c8	0.09595829
164	0xbdc6e80a	-0.09712227
165	0x3d5d40bd	0.054016817
166	0xbddd84d0	-0.108163476
167	0xbcc780b6	-0.024353366
168	0xbd5efdd8	-0.054441303
169	0x3d514804	0.05109407
170	0xbd8190c2	-0.063264385
171	0x3dad2196	0.08453672
172	0x3d0d3157	0.034470882
173	0xbc6ce41e	-0.014458684
174	0x3d24d7b3	0.04024477
175	0xbd885f93	-0.06658854
176	0x3dc1d8df	0.09465193
177	0xbd37b1fa	-0.044847466
178	0x3dbeba8b	0.09312924
179	0x3d56fb0a	0.052485503
180	0xbd8e8bce	-0.069602594
181	0x3c8b3b1f	0.016995965
182	0xbd60a8c3	-0.054848444
183	0xbd8cd909	-0.06877334
184	0x3d1625e0	0.036657214
185	0xbd81f983	-0.06346419
186	0xbdc446b0	-0.09583795
187	0x3c91214d	0.017716074
188	0xbd2e49ce	-0.042550854
189	0x3d60dc13	0.05489738
190	0xbcfbaaeb	-0.030721148
191	0x3d4ade27	0.049528267
192	0x3dcfbf2b	0.10143884
193	0x3ddc3b61	0.10753513
194	0xbd404d22	-0.04694856
195	0x3db01c9b	0.08599206
196	0xbd4ed455	-0.050495464
197	0x3d4257f4	0.04744716
198	0xbd5c9b8c	-0.05385928
199	0xbd07d842	-0.033165224
200	0x3d186675	0.037207086
201	0x3ca66f90	0.020316869
202	0xbd125e33	-0.035734367
203	0x3d85eac2	0.06538917
204	0xbc2c6386	-0.010521775
205	0x3ca3082d	0.01990136
206	0x3d6ff86d	0.058586527
207	0x3cdedad6	0.027203958
208	0xbd97df5b	-0.074156485
209	0x3cc0a911	0.023518117
210	0x3d55666a	0.052099623
211	0x3dc10543	0.09424832
212	0x3c351a81	0.011053682
213	0x3dcabac1	0.09898902
214	0x3cc18f56	0.023627918
215	0xbdbb017e	-0.09131144
216	0xbd6501b1	-0.055909816
217	0x3d8f2f4d	0.06991444
218	0x3cf07969	0.029354768
219	0x3d69e2cb	0.057101052
220	0x3d5f3a51	0.054498974
221	0xbdd04c0d	-0.101707555
222	0x3c0a7c8e	0.008452548
223	0x3c37952e	0.011205001
224	0x3ccfbb06	0.025357734
225	0x3c2b44d9	0.010453426
226	0xbd084216	-0.03326615
227	0x3d930c40	0.07180071
228	0x3d8b919b	0.068148814
229	0xbdc8860d	-0.09791193
230	0x3b08b4d8	0.0020859744
231	0x3d1f5b09	0.038905177
232	0x3cf5c3cc	0.03000059
233	0xbd1726b4	-0.036902145
234	0x3dcdeeba	0.10055299
235	0x3d26956a	0.040669836
236	0x3c23116c	0.009952884
237	0xbcd0c589	-0.025484817
238	0x3d2cb361	0.042163257
239	0xbd38c5f4	-0.045110658
240	0xbcb8ae89	-0.022544162
241	0x3ccd769d	0.025080973
242	0x3d73fe02	0.059568413
243	0x3cf2cbd5	0.02963821
244	0x3be34a12	0.00693632
245	0x3d47aef8	0.048750848
246	0x3cdde097	0.027084632
247	0xbd64719d	-0.055772413
248	0xbc803994	-0.015652455
249	0xbd079fbc	-0.03311132
250	0xbda5fb7c	-0.081046075
251	0x3ba473ba	0.0050186785
252	0x3d49d610	0.04927641
253	0x3d997d30	0.07494581
254	0x3d9b8f87	0.07595735
255	0x3d218ae4	0.039439097

lstm.weight_hh_l1 f4 [512, 128]
0	0x3d56812f	0.052369293
1	0xbdbf7507	-0.09348493
2	0x3d89e2f9	0.06732745
3	0xbc90b770	-0.017665595
4	0x3d8818dd	0.06645367
5	0xbc326d0b	-0.010890256
6	0xbcd3ca55	-0.025853315
7	0xbd483f46	-0.048888467
8	0x3d81e854	0.06343141
9	0xbc9813a2	-0.01856405
10	0x3d02fe30	0.031980693
11	0xbd98b077	-0.07455533
12	0xbc853173	-0.01625893
13	0x3d86c8c2	0.0658126
14	0xbd1368bd	-0.035988558
15	0xbd58db59	-0.05294356
16	0x3cb6357c	0.0222423
17	0xbbbe2fba	-0.0058040293
18	0xbbbeff53	-0.005828777
19	0xbd4d5d11	-0.050137583
20	0x3c6fa47b	0.014626618
21	0xbceda757	-0.029010458
22	0xbd439ca3	-0.047756802
23	0x3cbd6f3c	0.02312433
24	0xbd96e9f5	-0.073688425
25	0xbbfb52b2	-0.00766977
26	0xbc616e01	-0.013759137
27	0x3d5047b4	0.05084963
28	0xbd865b1b	-0.06560346
29	0xbd9eb00f	-0.07748424
30	0x3d571646	0.052511476
31	0xbcf88936	-0.030338865
32	0x3d8b8806	0.06813054
33	0x3dbb4822	0.091446176
34	0x3d54c928	0.05194965
35	0xbd745bcd	-0.05965786
36	0xbca83266	-0.020531844
37	0x3ce7fb00	0.028317928
38	0xbd055a69	-0.032556925
39	0xbdd8f448	-0.10593468
40	0xbd6be95b	-0.057595592
41	0xbdbcce2a	-0.0921901
42	0xbd453d6a	-0.048154272
43	0xbc5341c9	-0.012894102
44	0x3dc87d9e	0.097895846
45	0x3cef4b4a	0.029210705
46	0xbc4e3f6a	-0.012588361
47	0xbd8a173a	-0.06742711
48	0xbd8f5b6b	-0.069998585
49	0xbd8676d0	-0.065656304
50	0xbdbc08d4	-0.09181371
51	0x3dbe6175	0.09295932
52	0x3d9435fa	0.07236858
53	0xbd6a1298	-0.05714664
54	0xbd0da86f	-0.03458446
55	0x3c1aa3aa	0.009438435
56	0xbd574ee0	-0.052565455
57	0x3d544b04	0.051829353
58	0xbd8238d1	-0.06358493
59	0x3db356b0	0.08756769
60	0xbd603d84	-0.054746166
61	0x3d2adfc8	0.04171732
62	0xbd1a768d	-0.037710715
63	0x3db5bb3d	0.088736035
64	0x3cc30bca	0.023809332
65	0x3d88064b	0.06641825
66	0x3d400941	0.046883825
67	0xbc2ee029	-0.010673561
68	0x3bf3660a	0.0074279355
69	0x3cdf0ccd	0.027227784
70	0x3d3b1220	0.045671582
71	0xbd314c27	-0.043285515
72	0x3d1b2f86	0.03788712
73	0x3d02f3a4	0.031970635
74	0x3d0d5117	0.03450116
75	0xbc8bc6f7	-0.017062647
76	0x3be09775	0.0068539926
77	0x3d8bf172	0.068331614
78	0x3dc85884	0.09782508
79	0xbda35e19	-0.07976932
80	0xbdc90053	-0.09814515
81	0xbd169d01	-0.036770824
82	0x3cff2967	0.031147672
83	0x3d253659	0.040335033
84	0xbdbc9b36	-0.09209292
85	0x3d141e53	0.036161732
86	0x3d4a1fcf	0.04934674
87	0xbdbf8117	-0.09350794
88	0x3d8143c1	0.06311751
89	0xbd239bda	-0.039943554
90	0xbca17d6e	-0.01971313
91	0x3d234152	0.039857216
92	0x3d28eac3	0.04123951
93	0xbd1efad9	-0.038813446
94	0xbc9903bc	-0.018678539
95	0x3cd11f16	0.025527518
96	0xbdac1e28	-0.08404189
97	0xbd7f4b57	-0.06232771
98	0xbac345e6	-0.0014898151
99	0x3d0d8d7b	0.034558754
100	0xbca8b2bf	-0.020593045
101	0xbb26e4b7	-0.0025465915
102	0xbd9cdb7a	-0.07659049
103	0x3d05f7db	0.032707077
104	0xbcad7c73	-0.021177506
105	0x3d83b6a6	0.06431322
106	0x3cc516b8	0.024058685
107	0xbbc67679	-0.0060566035
108	0xbd0923ae	-0.033481292
109	0xbda78f80	-0.08181667
110	0x3d17e81b	0.037086587
111	0xbbfb4c0a	-0.0076689767
112	0x3b89fd4e	0.0042111045
113	0xbbfc9664	-0.0077083576
114	0xbd1c71eb	-0.03819458
115	0x3c234007	0.009963996
116	0x3da8febe	0.08251713
117	0x3cbb1f55	0.022842089
118	0xbd5265b0	-0.051366508
119	0xbd153687	-0.036428954
120	0x3cbeae10	0.023276359
121	0xbd8e98d0	-0.069627404
122	0x3d85c32d	0.065313675
123	0xbc878873	-0.016544556
124	0x3cbeb52d	0.02327975
125	0xbd6ecbaf	-0.058299717
126	0x3d85e27d	0.0653734
127	0xbcc3e7cc	-0.02391424
128	0xbd8276a7	-0.063702874
129	0xbd5c0ee4	-0.05372514
130	0xbd6fe736	-0.05857011
131	0x3cff7949	0.031185763
132	0x3c9cf407	0.01915933
133	0xbdcd7b2d	-0.100332595
134	0xbd85620d	-0.06512842
135	0x3d6e744f	0.05821639
136	0xbc9be1f2	-0.019028638
137	0xbb054bd9	-0.0020339398
138	0x3d9dc010	0.07702649
139	0x3d7f8b07	0.062388446
140	0x3d90ac5d	0.07064126
141	0xbcb7d051	-0.0224382
142	0x3dad3e96	0.08459203
143	0xbdcb915e	-0.09939836
144	0xbd6910b8	-0.05690071
145	0x3c91a5e7	0.017779304
146	0x3c8b0017	0.016967816
147	0xbc3ccf75	-0.011524071
148	0xbc2c873f	-0.010530292
149	0x3d34cc42	0.044140108
150	0x3d4e6ffa	0.050399758
151	0x3d35aaa6	0.044352196
152	0xbddc043a	-0.10742994
153	0xbc63ab10	-0.013895765
154	0xbd8ba509	-0.06818587
155	0x3d49fac3	0.04931141
156	0xbda0d9b6	-0.07854025
157	0xbbb521be	-0.005527704
158	0x3d8bcf3f	0.068266384
159	0x3c824f0d	0.015906835
160	0xbd67c091	-0.05658013
161	0x3db47359	0.08811063
162	0xbd09946c	-0.03358881
163	0x3c8b58f0	0.017010182
164	0xbd89feff	-0.0673809
165	0x3d5b1fb0	0.053497016
166	0x3b943e15	0.0045240023
167	0xbddb2345	-0.107000865
168	0x3dde867d	0.10865495
169	0xbc20b2b4	-0.009808231
170	0x3d6ceed1	0.05784494
171	0x3d94ce5d	0.07265923
172	0x3d84b97d	0.064806916
173	0x3d226671	0.039648477
174	0x3d4eb94b	0.050469678
175	0xbccb3ef3	-0.02481029
176	0xbd166580	-0.03671789
177	0xbc0ed357	-0.0087173795
178	0xbdbe0fb0	-0.09280336
179	0xbd30d3ab	-0.043170612
180	0x3cc61ee9	0.024184661
181	0xbc8bb276	-0.01705287
182	0x3d86530e	0.0655881
183	0x3cc53cf9	0.024076926
184	0xbcb2969b	-0.02180033
185	0xbd397f6e	-0.045287542
186	0xbd4345f2	-0.047674127
187	0x3c9e7e5c	0.019347362
188	0x3d1fd47f	0.03902101
189	0x3daef614	0.085430294
190	0x3cec52f9	0.028848158
191	0xbce4dc16	-0.027936976
192	0x3b6ef969	0.0036464578
193	0x3d9cc265	0.07654265
194	0x3d6787a7	0.056525853
195	0x3ce40ae5	0.027837226
196	0xbccf732a	-0.02532347
197	0xbc81c8dc	-0.015842848
198	0xbdc0864b	-0.09400614
199	0x3ba91bd2	0.005160787
200	0x3dd7095a	0.104998305
201	0x3d82dc75	0.06389705
202	0xbd6a1e8c	-0.057158038
203	0x3d80e519	0.06293697
204	0xbcb0991d	-0.021557385
205	0xbdcbd4e7	-0.09952717
206	0x3cc647bc	0.024204127
207	0x3c6d158d	0.01447047
208	0xbd913f85	-0.070921935
209	0xbd830d7b	-0.063990556
210	0x3cce884f	0.025211481
211	0x3d97dbb4	0.07414952
212	0xbd658ad5	-0.056040604
213	0x3cc79130	0.024361223
214	0xbd3a5d1d	-0.045498956
215	0xbd8b739b	-0.06809159
216	0xbd369f8d	-0.044585753
217	0x3bc25007	0.00592995
218	0xbd8db96e	-0.069201335
219	0xbd54c4de	-0.05194556
220	0xbd1951a6	-0.03743138
221	0xbd591ef8	-0.05300805
222	0xbc2d5b62	-0.010580869
223	0x3c40b24e	0.011761261
224	0x3d59111f	0.052994844
225	0xbc8b9a5f	-0.017041383
226	0xbd5d02fe	-0.05395793
227	0x3da92865	0.08259658
228	0xbcb056b0	-0.02152571
229	0xbde142a9	-0.109990425
230	0x3d771ce4	0.060330287
231	0x3d535759	0.051596973
232	0x3c018e0d	0.007907403
233	0xbdd67687	-0.10471826
234	0x3d837a96	0.06419866
235	0xbda34f04	-0.079740554
236	0x3d1c2435	0.038120467
237	0x3d778283	0.0604272
238	0x3d19c003	0.037536632
239	0xbcba68be	-0.022755023
240	0x3d2186e2	0.039435275
241	0x3d0aa3c0	0.03384757
242	0x3cd61510	0.02613309
243	0xbb81c71d	-0.0039605037
244	0x3c5f5897	0.013631961
245	0x3d1a3802	0.03765107
246	0x3d79dc1a	0.06100092
247	0x3d623cbc	0.055233702
248	0xbd8fc5df	-0.07020163
249	0x3d8342bc	0.06409213
250	0x3d9d497c	0.07680032
251	0xbdcb3c8d	-0.099236585
252	0xbceb3b51	-0.028714808
253	0xbc63bf6b	-0.013900618
254	0x3d88e120	0.06683564
255	0xbd80a37f	-0.062811844

lstm.bias_ih_l1 f4 [512]
0	0xbd8124c6	-0.06305842
1	0x3db8c410	0.09021771
2	0xbd49f794	-0.049308375
3	0xbd607f5d	-0.054808963
4	0xbd1e7f5d	-0.03869568
5	0x3a76843a	0.00094038586
6	0x3d84af73	0.06478777
7	0x3ba7c621	0.0051200544
8	0x3d558159	0.05212531
9	0xbd2fd347	-0.0429261
10	0xbd0260c5	-0.031830568
11	0x3ccd975f	0.025096593
12	0x3d1de001	0.038543705
13	0x3dc7975b	0.09745666
14	0xbc3103f9	-0.01080417
15	0x3da76cdd	0.08175061
16	0x3cea83f2	0.02862737
17	0x3d56b422	0.05241788
18	0x3d08fd59	0.033444736
19	0x3d13ad7c	0.03605412
20	0xbd64b570	-0.055837095
21	0xbd99df32	-0.07513274
22	0x3d542532	0.051793285
23	0x3d187054	0.0372165
24	0x3d810c9d	0.06301234
25	0x3d8574b9	0.06516404
26	0xbd625780	-0.055259228
27	0x3dd48175	0.103762545
28	0x3d524c60	0.051342368
29	0xbd4039a6	-0.046929978
30	0xbc9fedde	-0.019522604
31	0xbcffd53a	-0.031229604
32	0xbcf14780	-0.02945304
33	0x3cdc0ead	0.026862467
34	0x3d067375	0.032824952
35	0xbc354ef9	-0.011066192
36	0x3c726a7a	0.014795894
37	0x3cb76dbe	0.022391196
38	0xbd6d46a9	-0.057928715
39	0xbd92c30f	-0.07166111
40	0xbd10994d	-0.03530245
41	0x3d26cc2a	0.04072205
42	0x3a64680e	0.0008713015
43	0xbccf0612	-0.02527145
44	0x3da68ead	0.08132682
45	0xbd4b3df8	-0.049619645
46	0xbc14fbb9	-0.0090932185
47	0xbd424c2f	-0.047435936
48	0x3d9b530a	0.07584198
49	0x3daebbc2	0.08531906
50	0xbd204c01	-0.039134983
51	0xbda4f752	-0.08054985
52	0x3cce1a33	0.025158977
53	0xbc76128a	-0.0150190685
54	0xbbcd69c6	-0.0062687127
55	0x3c7892c8	0.015171714
56	0x3db72c1f	0.08943962
57	0x3d662168	0.056184202
58	0x3c463715	0.0120980935
59	0xbd636ba5	-0.05552258
60	0xbc1138c1	-0.008863629
61	0xbb6c0875	-0.0036015783
62	0x3d941e3b	0.072323285
63	0x3d8efc07	0.06981664
64	0x3d838edc	0.06423733
65	0xbcf43063	-0.029808229
66	0x3cccb461	0.024988355
67	0xbd836fe5	-0.064178266
68	0x3ccddbd3	0.025129234
69	0x3d5db42e	0.05412691
70	0xbb118c73	-0.0022208958
71	0x3d7072d4	0.05870326
72	0xbb09c49c	-0.002102173
73	0x3ba396d1	0.004992344
74	0xbd189afc	-0.03725718
75	0xbc9ae246	-0.018906724
76	0x3dbb0bb9	0.09133095
77	0x3cefd3ea	0.029275853
78	0x3da4a74d	0.080397226
79	0x3d3511a4	0.044206277
80	0x3dd02b55	0.10164515
81	0x3d9a108b	0.075226866
82	0x3c3ce034	0.011528064
83	0xbdb860ae	-0.09002815
84	0xbccfcb0d	-0.025365377
85	0x3cc06ea6	0.023490261
86	0x3b4962a6	0.0030728965
87	0xbce68273	-0.028138375
88	0xbd8b211b	-0.06793424
89	0xbc8708c0	-0.016483665
90	0x3db0bfae	0.0863031
91	0xbcf172ff	-0.02947378
92	0x3d98fb39	0.07469792
93	0x3dddc6c3	0.108289264
94	0xbd8b209d	-0.0679333
95	0x3bfd77f4	0.007735247
96	0x3d022d77	0.03178164
97	0x3da9cf1a	0.082914546
98	0x3d94b8b2	0.0726179
99	0xbd46cc54	-0.048534706
100	0x3d0d8dcf	0.034559067
101	0x3d9c52ab	0.07632955
102	0x3c7feca6	0.015620386
103	0xbbabedea	-0.0052468674
104	0xbcd52151	-0.026016863
105	0xbad81c5a	-0.0016487942
106	0xbca48fcb	-0.020088097
107	0xbd676dd4	-0.056501225
108	0xbd6f16b2	-0.058371253
109	0x3d2ebbe2	0.042659648
110	0xbb68316d	-0.003542985
111	0xbdcd3170	-0.10019195
112	0x3d7b22aa	0.061312355
113	0x3dbaed31	0.09127272
114	0xbd7cfc93	-0.06176431
115	0x3dc9c5ae	0.098521575
116	0x3bef93e4	0.007311331
117	0xbd4d319b	-0.050096136
118	0x3befcfeb	0.007318487
119	0x3dcc42c8	0.09973675
120	0x3c734ec2	0.01485032
121	0x3d86e8ea	0.065873936
122	0x3dc57876	0.09642117
123	0x3dbaa1cf	0.09112894
124	0x3cc08cca	0.023504633
125	0x3d9fbea5	0.078000344
126	0x3d69ddaf	0.05709618
127	0xbd4a67e6	-0.04941549
128	0x3c6c0691	0.014405862
129	0x3d4ca944	0.04996611
130	0xbd45be30	-0.04827708
131	0xba8b0196	-0.0010605331
132	0x3ba656d9	0.005076271
133	0xbd7010ef	-0.0586099
134	0x3d1e7e6a	0.038694777
135	0x3b86d9b2	0.004115307
136	0x3db46359	0.088080116
137	0x3c8f9c87	0.017530693
138	0x3c504665	0.012712096
139	0x3cbf5019	0.023353623
140	0x3b80a5d3	0.003926018
141	0x3d13c7d4	0.036079243
142	0xbbcf9f5f	-0.006336137
143	0x3db713be	0.089393124
144	0xbc7470a0	-0.01491943
145	0x3cb49d27	0.022047592
146	0x3ddee5aa	0.10883649
147	0x3d7ee1aa	0.06222693
148	0xbcdcd06e	-0.026954856
149	0xbd903d35	-0.07042924
150	0x3dbff1f6	0.09372322
151	0xbcb5fbbe	-0.022214767
152	0x3ddb21fb	0.10699841
153	0xbcfe2c4b	-0.03102698
154	0x3b1d253a	0.0023978488
155	0xbcb82fa3	-0.022483652
156	0xbbd4f134	-0.00649848
157	0xbd983254	-0.07431474
158	0x3db38e11	0.087673314
159	0xbc3c0e17	-0.011477969
160	0x3d59e1fd	0.053194035
161	0x3d70cbcd	0.05878811
162	0x3c57fbc1	0.013182581
163	0xbd2da898	-0.04239711
164	0xbd8d8b38	-0.069113195
165	0x3dbd15cf	0.09232675
166	0xbbf87e58	-0.0075834207
167	0x3d0149e7	0.03156462
168	0x3cffb674	0.03121493
169	0x3d919c7d	0.07109926
170	0x3d827a4d	0.06370983
171	0x3c2fd6e7	0.010732389
172	0xbcda2dba	-0.026633132
173	0x3ab7006c	0.0013961918
174	0x3c3228d4	0.010873992
175	0x3bf1fb5f	0.007384702
176	0xbc98a32c	-0.018632494
177	0x3ca42485	0.020036945
178	0xbd722490	-0.0591169
179	0xbd479a87	-0.048731353
180	0xbd1d1ca1	-0.03835738
181	0x3da1bde5	0.07897548
182	0xbd849f34	-0.06475678
183	0x3d3a8573	0.045537423
184	0x3cf6a2f8	0.030107006
185	0xbd6e00aa	-0.058106102
186	0x3d982e5b	0.074307166
187	0x3d1d4e83	0.038404953
188	0x3d7ede92	0.06222398
189	0x3dbb7ec1	0.09155036
190	0x3cf00572	0.029299472
191	0xbd8f5c77	-0.07000058
192	0x3d87b75d	0.06626771
193	0xbd86ee49	-0.06588418
194	0xbd8b434e	-0.06799947
195	0x3d8005ce	0.06251107
196	0xbd43d16b	-0.04780714
197	0xbd371b67	-0.044703867
198	0x3daf2345	0.08551649
199	0x3d89d349	0.067297526
200	0xb910bb4f	-0.00013802688
201	0xbc47bc4f	-0.012190892
202	0x3d04237b	0.0322604
203	0x3d89afb9	0.067229696
204	0xbd4b2f30	-0.04960555
205	0x3d53ce55	0.051710445
206	0x3b815815	0.003947268
207	0xbcb1e084	-0.021713503
208	0x3d073495	0.03300913
209	0xbd246070	-0.040131032
210	0xbd35d55e	-0.044392936
211	0x3cdb2fd3	0.026756203
212	0xbd599d8d	-0.053128768
213	0x3ddd0d6f	0.10793578
214	0xbb6a4365	-0.0035745737
215	0x3c87c815	0.016574899
216	0x3c2c7275	0.010525336
217	0xbc86af7c	-0.0164411
218	0x3de2b369	0.11069376
219	0x3d9ac552	0.07557167
220	0xbd7f92d9	-0.062395904
221	0x3d62433e	0.05523991
222	0xbc25eabe	-0.010126768
223	0x3ccbcbae	0.024877395
224	0x3db46163	0.088076375
225	0x3d98fb83	0.07469847
226	0x3db8744f	0.09006559
227	0x3d0662eb	0.03280918
228	0xbb4bd430	-0.0031101815
229	0xbcd59902	-0.026073936
230	0xbd17e752	-0.03708584
231	0xbc7919d3	-0.015203911
232	0x3b81e1bd	0.0039636777
233	0xbd31264e	-0.04324942
234	0x3d85a4a4	0.06525543
235	0x3d2f7880	0.042839527
236	0x3cd89f79	0.02644323
237	0xbd134f03	-0.035964023
238	0xbd9d6b4c	-0.07686481
239	0x3cdae29a	0.02671938
240	0xbd46d8f7	-0.048546758
241	0x3b99ca33	0.0046932935
242	0x3d6cc543	0.05780531
243	0x3d12cec6	0.035841726
244	0x3def41bd	0.116824605
245	0x3d616c9b	0.055035215
246	0x3db71a0c	0.08940515
247	0xbbe8cdf6	-0.0071046306
248	0xbb98a021	-0.0046577607
249	0x3d333ce6	0.04375925
250	0x3d61d711	0.055136744
251	0x3dd709d2	0.1049992
252	0x3dab5a1c	0.083667964
253	0xbd8d969e	-0.069134936
254	0xbcdd4d96	-0.027014535
255	0x3d8de591	0.06928552
