result/11/model_epoch_120.pth (torch, 887460 bytes, 16 tensors)

gru.weight_ih_l0 f4 [384, 18]
0	0xbd8b1ce6	-0.06792621
1	0x3d73bae1	0.059504393
2	0x3db110fe	0.08645819
3	0x3d085078	0.033279866
4	0xbaacfa35	-0.0013197126
5	0xbcfe2693	-0.031024253
6	0xbd48825a	-0.048952438
7	0x3c971db3	0.018446779
8	0x3cdb906d	0.026802266
9	0xbd3227ec	-0.043495104
10	0xbd0419d6	-0.0322512
11	0xbdac0e84	-0.08401206
12	0xbd6bbb74	-0.057551816
13	0x3da76e8e	0.081753835
14	0x3d49313a	0.04911921
15	0xbd680930	-0.056649387
16	0x3d48cbdb	0.049022537
17	0x3daa9de4	0.083308965
18	0x3d74578a	0.059653796
19	0xbca4784c	-0.020076893
20	0xbd3097fa	-0.043113686
21	0xbda531d0	-0.080661416
22	0x3ad10a8c	0.0015948578
23	0x3d1f6af4	0.038920358
24	0x3d5039aa	0.050836243
25	0x3d54471c	0.051825628
26	0xbd7bd6e1	-0.06148422
27	0x3b6df950	0.0036311932
28	0x3d4c7ed9	0.04992566
29	0xbd89c978	-0.0672788
30	0xbb90e6d2	-0.004422047
31	0xbd5534ee	-0.05205243
32	0x3d83ba7c	0.064320534
33	0xbd83df1e	-0.064390406
34	0x3bd0ccad	0.0063720555
35	0xbdb0791b	-0.08616849
36	0x3d5799fb	0.05263708
37	0x3d9b7888	0.07591349
38	0xbb4d578e	-0.0031332704
39	0xbb476281	-0.0030423703
40	0x3db4921c	0.08816931
41	0x3d27799e	0.040887468
42	0xbdb25b08	-0.08708769
43	0x3d850d22	0.064966455
44	0x3b9ae895	0.004727433
45	0x3c86f0c0	0.01647222
46	0xbda16203	-0.078800224
47	0x3d1216ef	0.035666402
48	0xbdab9727	-0.083784394
49	0x3d50d34e	0.050982766
50	0x3a0154dc	0.00049336045
51	0x3d661861	0.056175593
52	0x3da7acc2	0.08187248
53	0x3d9ce23c	0.07660338
54	0x3d8aeee1	0.06783844
55	0xbd7e5ea5	-0.06210198
56	0xbd206340	-0.039157152
57	0xbd4a42e3	-0.049380194
58	0x3d672da2	0.056440003
59	0x3d53d5e3	0.05171765
60	0xbd802d99	-0.06258697
61	0xbd675f8d	-0.05648761
62	0xbd455d4f	-0.04818469
63	0xbd681519	-0.056660745
64	0x3d049f2b	0.032378357
65	0xbd8ea5de	-0.069652304
66	0x3d85e4f3	0.06537809
67	0x3c8e3942	0.017361287
68	0x3d597d52	0.05309803
69	0x3c71162e	0.014714761
70	0x3d37d737	0.04488298
71	0xbd04e444	-0.032444254
72	0x3d522fe3	0.0513152
73	0x3d66a08e	0.05630546
74	0xbda4b9ea	-0.08043273
75	0xbcca58fc	-0.024700634
76	0xbd7879d8	-0.060663074
77	0x3b7b3a5e	0.003833435
78	0xbcb54c8b	-0.022131225
79	0x3c235fb0	0.009971544
80	0xbdac769c	-0.084210604
81	0x3d529032	0.051407047
82	0xbcab7404	-0.020929344
83	0xbbc0d665	-0.005884933
84	0x3d01a282	0.03164912
85	0x3d94ef29	0.07272179
86	0x3d881449	0.06644494
87	0xbda896dd	-0.082319
88	0x3da8d7d1	0.08244289
89	0xbcd084ba	-0.025453914
90	0x3c49d6d0	0.012319282
91	0x3d5c7d8a	0.05383066
92	0x3d3c9776	0.046042882
93	0xbd5c4268	-0.053774267
94	0xbd2bd495	-0.04195078
95	0x3db21050	0.086945176
96	0x3cbc4181	0.022980453
97	0x3c9ce2c2	0.019151095
98	0xbd86f69b	-0.06590005
99	0xbd748bb0	-0.05970353
100	0xbdb5028d	-0.08838377
101	0x3ce9dcb8	0.02854763
102	0x3d39e709	0.045386348
103	0x3d91fd87	0.07128435
104	0xbd6993c4	-0.057025686
105	0xbc9829bd	-0.01857459
106	0x3db23b83	0.08702757
107	0x3cf4967b	0.02985691
108	0xbb84cc1a	-0.004052651
109	0xbceedf9c	-0.02915936
110	0xbca61a4f	-0.020276217
111	0xbc6fb117	-0.014629624
112	0xbce6ef8a	-0.028190393
113	0x3cddd97d	0.027081246
114	0xbd1614c5	-0.0366409
115	0xbd0958ad	-0.033531833
116	0xbcc6c0bb	-0.024261823
117	0x3d7fb4f1	0.06242842
118	0xbd928940	-0.071550846
119	0x3cf8e1b3	0.03038106
120	0x3d717845	0.05895259
121	0x3da4dc86	0.08049874
122	0xbd66cf0f	-0.05634981
123	0x3d820c76	0.06350033
124	0xbd7ac3fb	-0.061222058
125	0xbdb25723	-0.08708026
126	0x3d656e4f	0.0560134
127	0xbba06693	-0.0048950403
128	0xbd787aa4	-0.060663834
129	0xbd09ff7c	-0.033690915
130	0x3d98d935	0.07463304
131	0x3daedbe3	0.08538034
132	0x3d24413e	0.040101282
133	0x3d745b59	0.05965743
134	0xbda9b8fa	-0.082872346
135	0xbd0cac54	-0.034344032
136	0xbd143ef3	-0.036192846
137	0xbd8c4046	-0.06848197
138	0xbd332a3d	-0.043741453
139	0xbc8ba631	-0.01704702
140	0xbda71364	-0.08157995
141	0xbd8ed1b2	-0.0697359
142	0xbc00bd7f	-0.007857679
143	0xbd923ae9	-0.071401425
144	0x3ce2c40d	0.027681375
145	0x3d16aabb	0.036783915
146	0x3d4cefe9	0.050033484
147	0xbd365f63	-0.04452456
148	0xbcdb5d29	-0.02677782
149	0x3d1da60d	0.038488436
150	0x3da0f1fb	0.07858654
151	0x3d1803e0	0.03711307
152	0xbd8b5da7	-0.06804972
153	0xbd0ae2d8	-0.03390774
154	0xbda2d286	-0.079503104
155	0xbda79f54	-0.08184686
156	0x3da1f4cc	0.079080194
157	0xbcec4a1d	-0.028843934
158	0x3d11ba67	0.035578158
159	0xbd3cc186	-0.046082996
160	0xbc2bcc0d	-0.010485661
161	0xbd3bd822	-0.045860417
162	0xbae39287	-0.0017362394
163	0xbae11d8e	-0.0017174946
164	0x3c3f16ee	0.011663182
165	0xbd8e6a66	-0.06953888
166	0x3db17243	0.08664372
167	0xbd107ff6	-0.035278283
168	0xbd6f89e4	-0.058481112
169	0x3c868cfc	0.016424648
170	0x3d471fab	0.048614185
171	0xbc87c91b	-0.016575387
172	0x3c8338eb	0.016018352
173	0xbc1bc92d	-0.009508413
174	0xbd26b7ac	-0.040702507
175	0xbd9b0de0	-0.07571006
176	0xbca7cf03	-0.020484453
177	0x3c9e4d6a	0.019324023
178	0x38fd5d7d	0.00012081394
179	0xbd9eb7e8	-0.07749921
180	0x3db068b2	0.08613719
181	0xbd95e841	-0.073196895
182	0x3daaf947	0.08348327
183	0x3d3aa02d	0.04556291
184	0xbb9cc515	-0.004784236
185	0x3d46e974	0.048562482
186	0xbd4b920c	-0.049699828
187	0x3d25b38c	0.040454432
188	0xbcb5674e	-0.022143986
189	0xbbd5c780	-0.0065240264
190	0x3d6aa716	0.05728825
191	0x3d4a65d6	0.049413525
192	0xbd2668c1	-0.040627245
193	0x3d8b3a34	0.06798211
194	0xbcd7c41c	-0.02633863
195	0xbd8d6151	-0.06903327
196	0x3d597fd2	0.053100415
197	0xbb92af59	-0.0044764695
198	0x3be9b3dd	0.007132037
199	0x3c89232b	0.016740402
200	0xbcefd1d1	-0.029274853
201	0xbd135289	-0.035967384
202	0xbd8152ec	-0.06314644
203	0x3d415064	0.047195807
204	0x3d57fe0c	0.052732512
205	0xbd1def18	-0.038558096
206	0x3da7e78a	0.081984594
207	0xbd3631ca	-0.044481076
208	0xbca38891	-0.01996258
209	0x3a171334	0.00057630544
210	0xbd467cbf	-0.04845881
211	0x3c8157d4	0.01578895
212	0xbd2c907c	-0.04212998
213	0xbda427d0	-0.08015406
214	0x3c91a57b	0.017779103
215	0xbd1aa4b6	-0.037754737
216	0xbd8c9a45	-0.06865362
217	0xbd461d17	-0.048367586
218	0xbd96574b	-0.073408686
219	0x3d8dd9db	0.06926318
220	0x3ce9e271	0.028550358
221	0xbd6661b0	-0.056245506
222	0xbd0ef4b3	-0.034901332
223	0x3dad9705	0.0847607
224	0x3d745f4b	0.05966119
225	0xbc4b436a	-0.0124062095
226	0x3d0a424c	0.033754632
227	0x3d8b9799	0.06816024
228	0xbcac111b	-0.02100425
229	0xbd8859e1	-0.06657768
230	0x3c53d0f8	0.01292824
231	0x3bdd49c5	0.006753179
232	0xbd11fa8c	-0.03563933
233	0xbbdaadbb	-0.0066735423
234	0x3d8f2c81	0.0699091
235	0x3cb0e751	0.021594675
236	0xbd9e66fd	-0.07734487
237	0x3d6aabf8	0.05729291
238	0xbc9b5842	-0.018962983
239	0x3c93c84a	0.018039841
240	0x3c7bbc6e	0.015364749
241	0xba2c5ac1	-0.00065748027
242	0xbca1b2a6	-0.019738507
243	0x3da52b21	0.08064867
244	0xbc637f15	-0.013885279
245	0x3c550fd4	0.013004262
246	0xbd3cc399	-0.046084974
247	0xbc9575b9	-0.018244611
248	0x3c8133c2	0.01577175
249	0x3daaea49	0.083454676
250	0x3c966032	0.018356416
251	0x3cd58f76	0.026069384
252	0x3cf53753	0.029933607
253	0xbcefc6ae	-0.029269543
254	0xbcc0ccd3	-0.023535168
255	0x3d1480ae	0.03625553

gru.weight_hh_l0 f4 [384, 128]
0	0xbc362dab	-0.0111192865
1	0xbd91c88f	-0.07118332
2	0x3bd17032	0.0063915486
3	0x3d991f48	0.074766695
4	0x3da4036d	0.08008466
5	0xbc74a9b5	-0.014933039
6	0x3d8d3de8	0.06896573
7	0x3d93b941	0.07213069
8	0x3db0392d	0.086046554
9	0xbb7bcdcc	-0.0038422225
10	0xbd18bc2d	-0.037288833
11	0xbda24637	-0.07923549
12	0x3d2e83ef	0.04260629
13	0x3d79f29c	0.061022386
14	0x3c29e229	0.010368862
15	0xbcbb5c66	-0.022871207
16	0xbcd9561f	-0.026530324
17	0xbda24be7	-0.079246335
18	0x3db05c59	0.08611364
19	0xbda365de	-0.07978414
20	0xbd88f2aa	-0.066869095
21	0x3da09c71	0.07842339
22	0xbbe2b315	-0.006918321
23	0xbc799c50	-0.015235022
24	0xbd76352d	-0.060109306
25	0x3d65096a	0.05591718
26	0x3da13230	0.07870901
27	0x3d2411e0	0.04005611
28	0xbc1289d3	-0.008943993
29	0xbcbf88cb	-0.023380658
30	0x3d0cf307	0.034411456
31	0x3d971c38	0.07378429
32	0x3da35991	0.07976068
33	0xbda3b932	-0.079943076
34	0x3cb673c3	0.022271996
35	0x3c33de16	0.010978242
36	0xbd26f6e4	-0.040762797
37	0x3db1e70d	0.086866476
38	0xbc688955	-0.014192899
39	0x3d2c8df1	0.042127553
40	0x3d3ced63	0.046124827
41	0xbc146d39	-0.009059244
42	0x3d66062c	0.05615823
43	0x3d612f0c	0.054976508
44	0xbd10c5da	-0.035344936
45	0x3d84d43b	0.06485792
46	0xbbd41ff2	-0.0064735347
47	0x3cfbf5d1	0.030756863
48	0xbd4a410b	-0.049378436
49	0xbd3c03eb	-0.045902174
50	0xbd7e98df	-0.062157508
51	0xbd44af92	-0.048019
52	0xbc2e963b	-0.010655935
53	0xbbb01433	-0.0053735017
54	0xbd8deee4	-0.069303304
55	0xbd3aab2c	-0.0455734
56	0x3c2cbd66	0.010543203
57	0x3c168776	0.00918757
58	0x3d449968	0.047997862
59	0x3da830b5	0.08212415
60	0x3dab7d42	0.083735004
61	0xbd063cbd	-0.03277277
62	0x3da281b1	0.07934893
63	0x3d5853df	0.05281436
64	0x3d7e32df	0.062060233
65	0x3db4b5f1	0.08823765
66	0x3ca9a9f8	0.02071093
67	0xbcae9be3	-0.021314567
68	0x3d214523	0.039372575
69	0xbcf60310	-0.030030757
70	0xbcbeb87c	-0.023281328
71	0x3d5330d8	0.051560253
72	0x3d4ee6ed	0.050513197
73	0xbd256240	-0.0403769
74	0x3d4ca92a	0.049966015
75	0x3cba0b06	0.022710335
76	0xbca514b9	-0.020151483
77	0xbda16ab8	-0.07881683
78	0xbc0ed034	-0.008716632
79	0xbd3ba109	-0.045807872
80	0x3d2434e1	0.04008949
81	0x3c18134f	0.009281947
82	0x3d901908	0.07036024
83	0xbd19c533	-0.03754158
84	0x3bc78992	0.0060893977
85	0xbd573ffb	-0.05255125
86	0xbd12737c	-0.035754666
87	0x3d253b64	0.040339842
88	0xbc033601	-0.008008481
89	0x3d4e5ac4	0.05037953
90	0x3db48c37	0.08815806
91	0xbcee0d94	-0.029059209
92	0x3d77d9d1	0.06051046
93	0x3d8d1c3c	0.06890151
94	0x3d836913	0.06416526
95	0x3cf27624	0.02959735
96	0xbd979f25	-0.07403401
97	0xbd66004b	-0.056152623
98	0xbcf576e1	-0.029963912
99	0x3da9b8bf	0.08287191
100	0x3d86e2d3	0.06586232
101	0x3d358268	0.04431382
102	0x3cbd43cc	0.023103617
103	0xbd16beba	-0.036802985
104	0xbd1c53d6	-0.03816589
105	0xbcc6b78f	-0.02425745
106	0x3d2babfd	0.041912068
107	0xbc846a0f	-0.016163854
108	0x3d8320df	0.06402754
109	0xbce4cf5b	-0.027930906
110	0xbd8d6db1	-0.069056876
111	0xbd8cc4de	-0.06873487
112	0x3d5201ea	0.051271357
113	0xbd315d4b	-0.04330186
114	0x3d7d9a2e	0.061914615
115	0x3d92a629	0.07160599
116	0x3d369a08	0.04458049
117	0xbcb850a9	-0.0224994
118	0xbc75fac6	-0.015013402
119	0xbd2eb31c	-0.04265128
120	0x3da5f465	0.08103255
121	0x3d98ceb9	0.07461304
122	0x3ceadb09	0.028668897
123	0x3d44c386	0.04803803
124	0x3c1434b3	0.009045768
125	0x3d59d23b	0.053179007
126	0xbd8c4781	-0.06849576
127	0xbd654faf	-0.055984195
128	0xbda66002	-0.08123781
129	0xbcf0a6a8	-0.029376343
130	0xbd3037b3	-0.04302187
131	0x3d4054e2	0.04695595
132	0x3d36c6f8	0.044623345
133	0x3d992b64	0.07478979
134	0x3d176806	0.03696444
135	0xbd6fcc0a	-0.058544196
136	0x3d6edb75	0.05831476
137	0xbcc2aa91	-0.023762973
138	0x3d7174ca	0.05894927
139	0xbc0450cd	-0.008075905
140	0x3c6fdcd8	0.014640056
141	0xbd2495b5	-0.040181834
142	0x3d38b17d	0.04509114
143	0x3c2eba34	0.0106645115
144	0xbd8a6375	-0.06757251
145	0x3c6069d1	0.013697104
146	0xbb01479a	-0.0019726516
147	0x3d94e477	0.07270139
148	0x3d85a1e0	0.06525016
149	0xbd0de616	-0.034643255
150	0x3d924cae	0.07143532
151	0x3d4519e7	0.048120406
152	0x3d7cb519	0.061696146
153	0x3da3b572	0.07993592
154	0xbc8b3b6b	-0.016996106
155	0x3d84efb8	0.06491035
156	0x3c9fb2e1	0.019494476
157	0x3d96baa7	0.0735982
158	0x3d710108	0.058838874
159	0xbd8b3371	-0.06796921
160	0xbc1da2ac	-0.0096213035
161	0xbc5eb802	-0.013593676
162	0x3d86bcaf	0.06578957
163	0x3d19dcf9	0.03756425
164	0x3d888725	0.06666402
165	0xbd1eadd9	-0.038740013
166	0x3d8ee8f1	0.06978024
167	0x3cf60c47	0.030035151
168	0xbd1198cb	-0.035546105
169	0x3caf7399	0.021417426
170	0x3d3b9f7a	0.045806386
171	0x3d3e3899	0.046440694
172	0xbd4835da	-0.04887948
173	0xbd4ff8b8	-0.050774306
174	0xbd9cfdbd	-0.07665584
175	0x3d423f6b	0.04742376
176	0x3c0ee467	0.008721448
177	0xbd8db1dc	-0.069186896
178	0x3d9f0d32	0.07766189
179	0xbd1cc271	-0.03827137
180	0xbd8f1f99	-0.06988449
181	0xbd92eea2	-0.07174422
182	0xbd90cc7d	-0.07070253
183	0x3cc21e67	0.023696138
184	0xbcecdc7c	-0.028913729
185	0x3c54a990	0.01297988
186	0x3c1b6ac7	0.009485907
187	0x3ca98fbd	0.020698423
188	0x3d0bf5a4	0.034169808
189	0x3d5fc93a	0.054635264
190	0xbd7a09f2	-0.06104464
191	0x3caece72	0.021338675
192	0x3d09d73c	0.03365253
193	0x3cb7d2d1	0.022439392
194	0xbd1cfeef	-0.03832906
195	0x3d081fe4	0.03323354
196	0xbd49009a	-0.04907284
197	0x3d8e51f9	0.06949229
198	0x3c84882d	0.016178215
199	0xbd032d73	-0.032025766
200	0x3d9fea9b	0.07808419
201	0xbc40c879	-0.011766546
202	0x3cc25961	0.02372426
203	0x3d63a8ae	0.055580787
204	0xbc73bacb	-0.014876078
205	0x3d6c88d0	0.057747662
206	0xbd28e5ec	-0.041234896
207	0x3dad095b	0.0844905
208	0x3d9c4738	0.076307714
209	0x3ca99e52	0.020705376
210	0xbcc5f44f	-0.024164347
211	0x3d81b299	0.06332893
212	0xbd3ecc7c	-0.04658173
213	0xbd563835	-0.052299697
214	0xbd133224	-0.03593649
215	0x3d9bba01	0.07603837
216	0x3d6ebeb5	0.05828734
217	0xbd927a9b	-0.071522914
218	0xbd3de9ec	-0.046365663
219	0x3d5b06f6	0.053473435
220	0xbcc9514d	-0.0245749
221	0x3da1e3e0	0.07904792
222	0xbd1d0ebe	-0.038344137
223	0xbdaeccb6	-0.08535139
224	0x3d4f9554	0.05067952
225	0x3c2f8b27	0.010714329
226	0x3d8c0b68	0.06838113
227	0x3cb8f3b7	0.02257715
228	0xbca56478	-0.020189509
229	0xbd724ab0	-0.05915326
230	0xbda7b0d8	-0.08188027
231	0xbdb0e7fc	-0.086379975
232	0xbcbf82bd	-0.02337777
233	0x3cc76807	0.024341596
234	0x3bf0b5e1	0.0073459004
235	0x3c1c6f4d	0.009548021
236	0x3d09229d	0.033480275
237	0x3c8cd437	0.017191036
238	0x3cd69ae2	0.0261969
239	0x3bd2865a	0.0064247074
240	0xbbb7c05e	-0.0056076488
241	0xbc2a3d99	-0.010390663
242	0x3c404abe	0.01173657
243	0xbcafe5c1	-0.02147186
244	0xbcb5b4ee	-0.022181
245	0xbd87a164	-0.0662258
246	0xbd5bf59e	-0.053701036
247	0xbd334bdf	-0.04377353
248	0xbbd8a947	-0.0066119763
249	0x3d9229fe	0.071369156
250	0x3c81b4e5	0.015833328
251	0x3d6f7105	0.058457393
252	0x3cf6b2de	0.030114587
253	0xbd2c893a	-0.042123057
254	0xbda8ae6d	-0.08236394
255	0x3d49352e	0.04912298

gru.bias_ih_l0 f4 [384]
0	0xbc92cb85	-0.017919311
1	0xbc83d4a3	-0.016092604
2	0x3ba427cc	0.005009627
3	0x3d989407	0.07450109
4	0x3c29b0f9	0.010357135
5	0xbda029af	-0.078204505
6	0xbc2dd5ad	-0.010610026
7	0x3d9918a1	0.07475401
8	0x3d1ecb53	0.038768124
9	0x3d33fb99	0.043941114
10	0x3d786dd0	0.0606516
11	0x3cfd2a23	0.030903881
12	0xbc3b34c8	-0.011426158
13	0x3d586875	0.052833993
14	0x3b3aec91	0.0028522352
15	0x3da2dfde	0.079528555
16	0xbda6358f	-0.08115684
17	0x3cda10ee	0.0266194
18	0xbd224baf	-0.03962296
19	0x3cf1447f	0.029451607
20	0x3d8ba96c	0.06819424
21	0xbd6ffc1f	-0.05859005
22	0xbcfb2445	-0.030656943
23	0xbc155fc2	-0.009117069
24	0x3d1d4377	0.038394418
25	0xbd85af4a	-0.06527574
26	0xbd5f9b8b	-0.054591697
27	0xbdac2467	-0.08405381
28	0x3cd4acc5	0.02596129
29	0x3ce78e0e	0.02826598
30	0x3da35c66	0.07976608
31	0xbd007d3f	-0.031369444
32	0xbb829e49	-0.003986154
33	0xbd5526cd	-0.052038956
34	0x3cdeb7d5	0.027187267
35	0x3c2b18e4	0.010442946
36	0x3d8b6c67	0.068077855
37	0xbccd5367	-0.025064183
38	0x3d3101c4	0.043214574
39	0x3d442fd7	0.047897186
40	0x3d21ec11	0.03953177
41	0x3d08b657	0.033377018
42	0x3d6969e7	0.056985762
43	0x3c47e025	0.012199436
44	0x3d2d5c52	0.04232437
45	0xbd4883bb	-0.048953753
46	0xbd47f7dd	-0.048820365
47	0x3d7c202c	0.06155412
48	0x3d0ae2f1	0.033907834
49	0x3d54317b	0.051805
50	0x3cd17fe9	0.025573688
51	0xbd3bbddc	-0.04583536
52	0x3d5ee634	0.054418758
53	0x3dae2568	0.085032284
54	0xbda131da	-0.078708366
55	0x3d6a0180	0.057130337
56	0x3d5b72c8	0.05357626
57	0xbd8acc86	-0.06777291
58	0xbd890035	-0.066894926
59	0xbd19f1b6	-0.03758403
60	0x3da20d85	0.07912735
61	0x3cc02e75	0.023459652
62	0x3cdf2b5f	0.02724236
63	0xbd98c050	-0.07458556
64	0x3dbaf2a9	0.09128315
65	0xbd86e67a	-0.06586929
66	0x3acb2d02	0.0015501084
67	0xbd0ff41b	-0.035144906
68	0xbd07c06e	-0.0331425
69	0x3c094efc	0.008380648
70	0xbc10c0fe	-0.008835075
71	0x3d1dc269	0.038515482
72	0xbd673832	-0.056450076
73	0x3d0e5369	0.034747515
74	0x3bbead86	0.0058190254
75	0xbd4b063f	-0.049566504
76	0xbd733bef	-0.05938333
77	0x3d08dd46	0.033414148
78	0xbd18082d	-0.037117172
79	0x3dab8a08	0.08375937
80	0xbd93c5fb	-0.07215496
81	0xbcbf4a4e	-0.02335086
82	0xbd7ec979	-0.062203858
83	0xbd00e0e5	-0.031464476
84	0xbd8e3cb6	-0.069451734
85	0xbda6cf0e	-0.08144961
86	0xbc6121c1	-0.013740958
87	0x3c13572b	0.00899295
88	0xbc1010d3	-0.008793074
89	0x3db27a1b	0.08714696
90	0x3cb64c80	0.022253275
91	0x3bc7bbb0	0.006095372
92	0xbda46314	-0.0802671
93	0xbca37f6b	-0.019958219
94	0x3c93b3b8	0.018030033
95	0x3d0f99ee	0.03505891
96	0xbda01769	-0.07816965
97	0xbc2aa0d0	-0.010414317
98	0x3d73c0c7	0.05951002
99	0x3b94f3cb	0.004545664
100	0x3da1344f	0.07871305
101	0x3d9daaa6	0.07698564
102	0x3cec7b5e	0.02886742
103	0xbcc0fe20	-0.023558676
104	0x3cbccf91	0.023048194
105	0x3d9d70ac	0.07687506
106	0xbd553645	-0.05205371
107	0xbd3852fb	-0.04500101
108	0xbd8a471d	-0.06751845
109	0x3da89dc8	0.082332194
110	0x3d9570d6	0.07296912
111	0xbca4c022	-0.020111147
112	0x3d935abe	0.07195042
113	0xbdab02b8	-0.08350128
114	0x3d05b584	0.03264381
115	0xbd24eb8e	-0.040263705
116	0x3d14c40b	0.036319774
117	0xbcb57b97	-0.022153659
118	0xbd6edd03	-0.058316242
119	0xbd475807	-0.048667934
120	0xbc944f0a	-0.018104095
121	0x3d98cc61	0.07460857
122	0xbc3a3c30	-0.011366889
123	0x3d158732	0.036505885
124	0xbca72110	-0.020401508
125	0x3d30e10d	0.043183375
126	0x3bf01081	0.007326186
127	0x3cad73f6	0.021173459
128	0x3a726647	0.0009246808
129	0xbcd809a8	-0.026371792
130	0xbc2cd1a6	-0.010548031
131	0xbd5a6f52	-0.05332882
132	0xbc89a332	-0.01680145
133	0x3c4db6ed	0.01255582
134	0xbd538667	-0.051641848
135	0xbc4ad070	-0.012378797
136	0x3d682964	0.0566801
137	0xbd7723ae	-0.06033676
138	0x3d7a4d3b	0.06110881
139	0x3cb451a3	0.022011584
140	0x3c5bca6e	0.013414962
141	0xbc196374	-0.00936209
142	0xbcac9d1c	-0.02107101
143	0xbd49e22e	-0.049287967
144	0xbd27f089	-0.041000877
145	0xbd071df6	-0.032987557
146	0xbd4b7aec	-0.049677774
147	0x3d6b98d3	0.05751879
148	0xbd29cc38	-0.041454524
149	0xbda76b5b	-0.08174773
150	0x3ccf2fe6	0.025291394
151	0x3d312b57	0.043254223
152	0xbda17bff	-0.078849785
153	0xbc236957	-0.009973845
154	0x3d4810db	0.0488442
155	0x3c57ade2	0.0131640155
156	0xbdc375fa	-0.095439866
157	0xbb5cb3f2	-0.0033676592
158	0x3c1ef446	0.009701794
159	0xbd33a0d3	-0.043854546
160	0xbcde17a6	-0.027110886
161	0xbd0d32a2	-0.034472115
162	0x3b2eb015	0.0026655246
163	0x3d0f3ec2	0.03497196
164	0xbcaaab5b	-0.020833662
165	0x3d25fa71	0.040522043
166	0x3cee5afb	0.029096117
167	0x3db26458	0.08710545
168	0xbd964c13	-0.07338729
169	0xbd5f7619	-0.054555986
170	0xbd1aa319	-0.0377532
171	0x3d32c8c9	0.043648515
172	0xbd67a808	-0.05655673
173	0x3d89b883	0.06724646
174	0x3bd0d51b	0.0063730604
175	0x3d82ca28	0.063862145
176	0x3b83ccd8	0.004022222
177	0xbd5f2867	-0.05448189
178	0x3cf1afd1	0.029502781
179	0xbd91fe0d	-0.071285345
180	0x3d95f6d6	0.07322471
181	0xbd8f04a0	-0.06983304
182	0x3dcbacbf	0.09945058
183	0xbd8f27cd	-0.06990013
184	0x3d6e9f74	0.058257535
185	0xbcc9be3c	-0.024626844
186	0x3d8b4f86	0.06802277
187	0x3da8e7ec	0.082473606
188	0xbd9d1b89	-0.076712675
189	0x3c2618a4	0.010137711
190	0xbcbb390d	-0.022854352
191	0x3d8b92eb	0.06815132
192	0x3d01bb7e	0.031672947
193	0xbd59ded1	-0.05319101
194	0x3d97089c	0.07374689
195	0xbc61ab17	-0.013773701
196	0x3cbbade5	0.022910068
197	0xbdaf2999	-0.08552856
198	0xbc5ee692	-0.013604777
199	0xbd2cb95a	-0.042168953
200	0x3daea951	0.08528388
201	0x3d1ea5e4	0.038732424
202	0xbd726fc5	-0.059188623
203	0x3d402e37	0.046919074
204	0xbc4c0e73	-0.012454617
205	0x3d94b116	0.07260339
206	0x3da7b108	0.08188063
207	0x3d82fae1	0.063955076
208	0x3d9d8f73	0.076933764
209	0xbd4ca5d0	-0.04996282
210	0xbbd736b4	-0.0065678004
211	0x3d861f49	0.06548936
212	0xbca64a8d	-0.02029922
213	0xbada9013	-0.0016675018
214	0xbd451b11	-0.048121516
215	0x3c709b03	0.014685395
216	0xbdc68e72	-0.09695138
217	0x3d9488a5	0.072526254
218	0xbd46df51	-0.048552815
219	0x3d958350	0.073004365
220	0x3d6414eb	0.05568401
221	0x3d473aed	0.04864018
222	0x3d35fa9d	0.044428457
223	0xbda51d69	-0.0806225
224	0x3d0afed5	0.033934433
225	0x3db6ecd6	0.089318916
226	0xbd63635b	-0.055514675
227	0x3d3e7a26	0.04650321
228	0xbcbe58a6	-0.02323563
229	0x3d9852ee	0.074376926
230	0x3d638b2b	0.055552643
231	0xbc2b413a	-0.010452563
232	0xbd89d68c	-0.06730375
233	0x3cae9ccb	0.021315
234	0xbdb29ff7	-0.08721917
235	0x3d8bc151	0.068239816
236	0xbc0f86dc	-0.00876018
237	0x39319393	0.00016935011
238	0x3ccf224b	0.025284907
239	0x3d0e5001	0.034744266
240	0x3d6fc434	0.058536723
241	0x3c4b1546	0.012395209
242	0x3b921d3e	0.0044590523
243	0x3d2e89a2	0.042611726
244	0x3ba78c0c	0.0051131304
245	0x3cb0adbf	0.021567224
246	0x3c9c5df1	0.019087764
247	0x3caa351d	0.02077728
248	0x3b336fe1	0.0027379917
249	0x3c62b65a	0.013837421
250	0x3dacf383	0.08444884
251	0x3d833276	0.06406109
252	0xbd8c5146	-0.06851439
253	0xbc2f4c00	-0.010699272
254	0x3d2f199f	0.042749044
255	0x3cdbbcdd	0.026823455

gru.bias_hh_l0 f4 [384]
0	0xbd6cdde3	-0.057828795
1	0xbd6336c2	-0.055472143
2	0xbbb32243	-0.005466731
3	0xbd8f3ebc	-0.069943875
4	0x3b08917b	0.0020838666
5	0x3d4995b6	0.04921504
6	0x3c59df20	0.013297826
7	0x3d997f2f	0.074949615
8	0x3d8f34d7	0.069925
9	0xbd09aa17	-0.033609476
10	0x3d231992	0.039819308
11	0xbd563797	-0.05229911
12	0xbcb5ac0c	-0.022176765
13	0x3d7223da	0.059116222
14	0x3b91bddf	0.004447683
15	0xbd3d742b	-0.046253365
16	0x3cf8eb72	0.030385707
17	0x3d37d526	0.04488101
18	0xbd6a2519	-0.057164285
19	0xbc0025bb	-0.007821496
20	0xbd9c57f0	-0.0763396
21	0xbd0a8cf3	-0.033825826
22	0xbda0f293	-0.07858767
23	0xbd021b6d	-0.031764437
24	0x3cbf2579	0.023333298
25	0xbd8f18d6	-0.06987159
26	0xbb987f30	-0.004653834
27	0x3d0c5d47	0.034268644
28	0x3c9381de	0.018006261
29	0x3ce22130	0.027603716
30	0x3d755c33	0.05990238
31	0x3d17804c	0.036987588
32	0x3d930221	0.071781404
33	0xbd6dda0c	-0.058069274
34	0xbd465425	-0.04842009
35	0xbd8a5aa3	-0.06755569
36	0xbdadfc90	-0.08495438
37	0x3ced1e99	0.028945254
38	0xbd0a7b65	-0.033809084
39	0xbc501f9c	-0.012702849
40	0x3c40e47e	0.011773227
41	0xbd76e3cd	-0.06027584
42	0x3d98c6c5	0.07459787
43	0xbcd678e0	-0.026180685
44	0xbc9aeb96	-0.018911164
45	0xbc886023	-0.016647404
46	0xbcf6e01e	-0.030136164
47	0x3d52fe89	0.051512275
48	0xbd0d0e63	-0.03443755
49	0x3d33eeb7	0.043928828
50	0x3cffd9ea	0.03123184
51	0xbc626cfd	-0.01381993
52	0xbd80397a	-0.06260963
53	0xbd449dfe	-0.048002236
54	0xbd960b8c	-0.07326421
55	0xbd3fa1e6	-0.046785258
56	0x3d4f88be	0.050667517
57	0xbd6791aa	-0.0565354
58	0xbd7a07a7	-0.061042454
59	0x3db105c1	0.086436756
60	0x3da9197b	0.08256813
61	0x3d9d2496	0.07672994
62	0xbcdde749	-0.027087824
63	0x3c867af9	0.01641606
64	0xbd94c9d2	-0.07265057
65	0x3d7f3804	0.06230928
66	0xbd3c2048	-0.045929223
67	0x3d6189b3	0.05506296
68	0xbd252286	-0.040316127
69	0xbd5552af	-0.052080806
70	0xbd10a2d1	-0.035311524
71	0x3d4abaaf	0.04949444
72	0x3c4eaf08	0.012614973
73	0x3cc4eddd	0.024039203
74	0x3d23294e	0.039834313
75	0x3be998d1	0.007128813
76	0x3d02f3fa	0.031970955
77	0x3bf71b8a	0.0075411247
78	0xbdaf55c9	-0.08561284
79	0x3d81538a	0.06314762
80	0xbb976c3d	-0.0046210573
81	0x3d564e53	0.05232079
82	0x3d7c8416	0.061649404
83	0xbd5f5179	-0.054521058
84	0x3c4176f4	0.011808146
85	0xbd8ab0d6	-0.0677201
86	0x3d873d5d	0.06603501
87	0x3d86fdbc	0.06591365
88	0xbd773411	-0.06035239
89	0x3c1cda5f	0.009573548
90	0xbd05782d	-0.03258531
91	0x3949fd4e	0.00019263217
92	0x3c2f8459	0.0107127065
93	0xbd5f3dd9	-0.054502342
94	0x3d99f6fe	0.07517813
95	0xbd05f985	-0.032708663
96	0x3c0fc729	0.008775511
97	0xbd369565	-0.044576067
98	0xbc2fbcbe	-0.010726152
99	0x3d6f3eea	0.05840961
100	0xbd9add44	-0.07561734
101	0xbdaef3ba	-0.08542581
102	0xbd59ef96	-0.053207003
103	0x3d9d00d9	0.07666177
104	0x3acfc70c	0.0015852167
105	0xbd07f52a	-0.03319279
106	0xbd19d844	-0.037559763
107	0xbd4fe7b5	-0.050758082
108	0x3d9edfe6	0.07757549
109	0xbb9fa032	-0.0048713917
110	0xbc354a79	-0.011065119
111	0x3d8779ee	0.06615053
112	0x3d52c494	0.051457003
113	0xbc187cfa	-0.0093071405
114	0xbdb4b349	-0.088232584
115	0x3cc334f5	0.023828963
116	0xbd34ff72	-0.044188924
117	0xbdaaa084	-0.08331397
118	0x3d3ea3b4	0.04654284
119	0x3d9de2df	0.07709288
120	0xbc98d279	-0.018655049
121	0x3c200d4d	0.009768796
122	0x3d169d16	0.036770903
123	0x3c6e646e	0.0145503115
124	0xbda04ac1	-0.07826758
125	0x3dac3944	0.0840936
126	0xbd925db4	-0.07146779
127	0xbcc519d0	-0.02406016
128	0x3d602157	0.054719295
129	0xbc8df18f	-0.017327098
130	0x3d41ebea	0.047344126
131	0x3db6602a	0.089050606
132	0xbd0546a0	-0.032538056
133	0xbcb294d7	-0.021799488
134	0xbdb3ce7c	-0.08779618
135	0x3dcd7c4a	0.10033472
136	0x3cafd52f	0.021463959
137	0xbdc19845	-0.09452871
138	0x3d95d45f	0.07315897
139	0x3c0622cb	0.008187006
140	0xbbba17a4	-0.0056790877
141	0x3dc57c29	0.09642822
142	0x3d17078e	0.03687244
143	0xbd801f1a	-0.06255932
144	0xbcb708da	-0.022343088
145	0x3c22c491	0.00993456
146	0x3d8de4e8	0.06928426
147	0xbcbde775	-0.023181656
148	0x3d1a8d90	0.03773266
149	0xbd76041d	-0.060062516
150	0x3d6f7953	0.058465313
151	0x3d848468	0.06470567
152	0x3cd50315	0.026002446
153	0xbd9fd4d2	-0.07804264
154	0x3d3003b1	0.04297227
155	0x3d616239	0.055025313
156	0x3d9d55fb	0.07682415
157	0xbdabff61	-0.08398319
158	0x3d30fc17	0.04320916
159	0x3d0c2d64	0.034222975
160	0xbd4e111b	-0.05030928
161	0xbc97434b	-0.018464705
162	0x3c49d3a1	0.012318523
163	0x3d81b147	0.06332641
164	0x3d4e14bd	0.050312746
165	0x3db008da	0.08595438
166	0xbd804165	-0.06262473
167	0x3d22b1b1	0.03972024
168	0x3c87b9fe	0.01656818
169	0x3d8d9e97	0.06915014
170	0x3d2ccd46	0.04218795
171	0x3d4d7dcc	0.050168797
172	0xbd3f355d	-0.04668175
173	0xbd61a898	-0.055092424
174	0x3d9c9063	0.07644727
175	0x3d1815af	0.037130054
176	0x3c9c7378	0.019098029
177	0xbd4a0dd5	-0.049329598
178	0xbc2a93ed	-0.010411245
179	0x3da97a71	0.08275307
180	0x3b76021c	0.0037537878
181	0x3cba07d2	0.022708807
182	0xbd79f096	-0.061020456
183	0x3ba0a2fe	0.0049022427
184	0xbc8b8422	-0.01703078
185	0xbd91ad88	-0.071131766
186	0xbd8612a5	-0.06546525
187	0xbcf8d0a3	-0.030372923
188	0x3cf0bc8e	0.029386785
189	0x3d05fd00	0.032711983
190	0x3d1c9e84	0.03823711
191	0x3c99a87d	0.0187571
192	0xbda92078	-0.08258146
193	0xbd5d3ad0	-0.054011166
194	0x3d7f5c7f	0.06234407
195	0xbd401fcf	-0.046905335
196	0xbd7ddd69	-0.06197873
197	0x3d77cdd6	0.060499035
198	0x3d053d3a	0.032529093
199	0xbc8ab292	-0.016930852
200	0xbd966dcd	-0.073451616
201	0xbd4d71ff	-0.050157543
202	0x3d72a5fb	0.059240323
203	0x3d8e9fd3	0.06964078
204	0xbd4c18bb	-0.049828272
205	0x3c4bcf4d	0.012439561
206	0x3cd15a5a	0.025555778
207	0xbda35b52	-0.07976402
208	0x3cac6468	0.021043971
209	0xbb40d818	-0.0029425677
210	0x3d3add3e	0.04562115
211	0x3c050671	0.0081192115
212	0x3d260b9d	0.04053842
213	0x3d7c332e	0.061572246
214	0xbd5871a9	-0.05284277
215	0x3d184682	0.037176616
216	0xbd9f2708	-0.077711165
217	0x3da282f6	0.07935135
218	0xbd950355	-0.07276026
219	0x3dab2265	0.083561696
220	0x3c945774	0.018108107
221	0xbd895bce	-0.067069635
222	0x3d88d06d	0.06680379
223	0x3cb51ba4	0.022107907
224	0xbbffdea1	-0.007808522
225	0x3d1d9fa1	0.038482312
226	0x3cfafbbe	0.030637618
227	0xbc54f324	-0.012997422
228	0xbc5d5ee5	-0.013511394
229	0xbda55d0e	-0.080743894
230	0x3b70fb20	0.0036770776
231	0x3da23fca	0.07922323
232	0xbd04d844	-0.03243281
233	0x3db089d7	0.08620041
234	0x3c2d35c7	0.010571904
235	0xbd2baa1d	-0.04191028
236	0xbd791fd6	-0.060821377
237	0xbd78121d	-0.06056415
238	0x3ce7f012	0.028312717
239	0x3d1d3c8b	0.038387816
240	0x3d78dea4	0.0607592
241	0xbc6ecfbf	-0.014575898
242	0x3d12dd55	0.03585561
243	0xbd701721	-0.058615807
244	0xbd22cb24	-0.03974451
245	0x3d9d7f2b	0.07690271
246	0x3d776a56	0.060404144
247	0x3d77e001	0.06051636
248	0xbd8a1889	-0.06742961
249	0x3da05339	0.078283735
250	0xbcc51044	-0.024055608
251	0xbdb456db	-0.08805629
252	0xbd9937a0	-0.07481313
253	0xbd347e42	-0.04406572
254	0x3c23889f	0.0099813035
255	0xbd445a79	-0.047937844

gru.weight_ih_l0_reverse f4 [384, 18]
0	0xbd348afc	-0.04407786
1	0x3aa485c1	0.0012552069
2	0x3c67a193	0.014137643
3	0x3da5ea0f	0.08101284
4	0x3b650d5c	0.003495059
5	0x3cc42221	0.023942055
6	0x3cdaa534	0.026690103
7	0xbc4576d8	-0.01205226
8	0x3d980fba	0.074248746
9	0xbd1c9598	-0.0382286
10	0xbd1770c6	-0.036972784
11	0xbb91454f	-0.004433311
12	0xbd88e806	-0.0668488
13	0xbcea9305	-0.028634558
14	0x3ba7c868	0.005120326
15	0x3c579d3e	0.013160048
16	0xbcb38295	-0.021912852
17	0x3d8b1f88	0.067931235
18	0xbdada40d	-0.08478556
19	0xbd57b0c9	-0.05265883
20	0xbd177a06	-0.036981605
21	0xbda32bbf	-0.07967328
22	0xbb78f520	-0.0037987903
23	0x3d4dc87e	0.050240032
24	0x3c0a6bd1	0.008448557
25	0x3d67c437	0.05658361
26	0xbd91dfde	-0.071227774
27	0xbca7c758	-0.020480797
28	0x3b967733	0.0045918464
29	0xbc648576	-0.013947835
30	0x3c906f19	0.0176311
31	0xbdae0610	-0.0849725
32	0x3cfb0ad0	0.030644804
33	0xbd513028	-0.051071316
34	0xbd8ba898	-0.06819266
35	0xbdb27108	-0.08712965
36	0x3c72a055	0.014808734
37	0x3d0b13d1	0.033954445
38	0x3caab3cf	0.020837693
39	0x3d82926c	0.06375584
40	0xbc7b227e	-0.015328048
41	0x3d7cf310	0.06175524
42	0xbd4da198	-0.050202936
43	0xbcf45ac9	-0.029828446
44	0x3d0c8105	0.03430273
45	0xbcfa790a	-0.030575294
46	0x3c8e9012	0.017402682
47	0xbc96a0cf	-0.018387226
48	0xbaeda4e9	-0.0018130812
49	0xbcd27cf5	-0.02569435
50	0xbd95fd55	-0.0732371
51	0xbd20b863	-0.039238345
52	0x3d1b7c57	0.037960377
53	0x3daaa9cc	0.083331674
54	0xbdac9509	-0.08426864
55	0x39bfe9c7	0.00036604537
56	0xbd4c197d	-0.049828995
57	0xbd1117e6	-0.035423182
58	0x3c65ef0f	0.014034047
59	0xbbc59c30	-0.006030582
60	0x3ad19031	0.0015988407
61	0x3d7e58ab	0.06209628
62	0xbd84f227	-0.064914994
63	0xbd92a604	-0.07160571
64	0xbc4c36b4	-0.012464214
65	0xbcb0565c	-0.021525554
66	0x3c37b420	0.011212379
67	0x3dabce7a	0.08388992
68	0xbd032e31	-0.032026473
69	0xbd587540	-0.052846193
70	0x3d9ea7d1	0.07746852
71	0xbd71f471	-0.059071008
72	0xbda86848	-0.08223015
73	0xbc25ce9a	-0.010120058
74	0xbc51de48	-0.012809344
75	0x3daa4500	0.08313942
76	0xbcfb8371	-0.030702325
77	0x3bac8b75	0.005265648
78	0xbce9b672	-0.02852938
79	0x3cba035b	0.022706678
80	0x3d9dafef	0.07699572
81	0x3dab14e2	0.083535925
82	0xbbf8e09e	-0.007595136
83	0x3cfe5f1f	0.031051217
84	0x3d9edff1	0.07757557
85	0x3d102f15	0.03520115
86	0x3cdf6bae	0.027273025
87	0x3d485368	0.048907667
88	0xbd661486	-0.056171916
89	0x3dab62f0	0.0836848
90	0x3d0b7fc4	0.034057394
91	0xbd8e6a9a	-0.069539264
92	0x3d890d06	0.06691937
93	0x3dabcba6	0.08388452
94	0xbdac35c5	-0.08408693
95	0x3d05f248	0.03270176
96	0x3d6fe5e4	0.05856885
97	0xbc9b33b6	-0.018945556
98	0x3d4ef7d2	0.05052931
99	0xbda20571	-0.07911194
100	0xbd406d80	-0.046979427
101	0x3d745691	0.05965287
102	0x3d67a352	0.05655224
103	0x3bf89331	0.007585906
104	0xbd678c9b	-0.056530576
105	0xbdaa0869	-0.08302385
106	0xbd7205e6	-0.059087656
107	0x3d7e13a8	0.062030464
108	0xbd8825c2	-0.06647827
109	0xbda8e19a	-0.08246155
110	0xbcb159d3	-0.021649277
111	0xbc1c7c84	-0.009551171
112	0x3c61a4bf	0.013772189
113	0x3d25aa4f	0.040445622
114	0xbdad0cde	-0.0844972
115	0xbd06b812	-0.032890387
116	0x3d7760ae	0.060394935
117	0x3cc15c2b	0.02360352
118	0xbd89d51d	-0.06730101
119	0xbce78ee7	-0.028266383
120	0xbd7e48a3	-0.06208099
121	0xbd28f20e	-0.041246466
122	0x3b66ebf0	0.0035235845
123	0xbd39bff2	-0.04534907
124	0xbd76caf4	-0.060252145
125	0x3d744083	0.059631836
126	0x3cdcba8b	0.02694442
127	0x3d76c0a6	0.060242318
128	0xbd220bb5	-0.039561946
129	0xbbd8e63e	-0.006619244
130	0x3c14ec2d	0.009089512
131	0x3d79fbc2	0.06103111
132	0xbd71fa7c	-0.05907677
133	0x3c68728c	0.014187466
134	0xbd8d3e9b	-0.06896707
135	0xbda9df9b	-0.082946025
136	0x3d761e12	0.06008727
137	0x3c74a6bd	0.014932332
138	0x3c04eac0	0.008112609
139	0xbd2d068b	-0.042242568
140	0x3d83f7f8	0.06443781
141	0x3d084acf	0.033274468
142	0xbcf01d2d	-0.029310787
143	0x3dbe5e31	0.09295309
144	0x3d51b92b	0.05120198
145	0x3c77344a	0.01508815
146	0xbd6f5a73	-0.05843587
147	0xbd20fd3b	-0.039304
148	0x3d94d65b	0.072674476
149	0x3d9108bf	0.07081746
150	0x3cb5f279	0.022210347
151	0x3c941ce0	0.018080175
152	0xbcbe89e2	-0.023259107
153	0x3c82bf0e	0.015960243
154	0x3d22f2e4	0.03978242
155	0xbd77c881	-0.06049395
156	0x3b9ee21b	0.004848731
157	0xbc29a932	-0.010355281
158	0x3c850cef	0.016241519
159	0xbd8efd9d	-0.06981967
160	0xbd07c81c	-0.033149824
161	0xbda84106	-0.08215527
162	0x3c3aff21	0.0114133665
163	0xbdafa276	-0.08575909
164	0x3cbe0e34	0.023200132
165	0xbcd695ff	-0.02619457
166	0xbd128e6f	-0.035780367
167	0x3d120b39	0.035655234
168	0xbd24557c	-0.040120587
169	0x3d12097a	0.03565357
170	0xbcb54ac7	-0.022130383
171	0xbc03edac	-0.008052271
172	0xbd84acb1	-0.06478251
173	0x3ccd33b1	0.025049062
174	0x3d009a3d	0.031397093
175	0xbd704557	-0.058659878
176	0xbc4d56f0	-0.012532935
177	0xbd2d1b33	-0.042262267
178	0xbc0e34dd	-0.008679596
179	0xbd92b3c8	-0.07163197
180	0xbc23ca81	-0.009997011
181	0x3d9c31c8	0.076266825
182	0xbc9954ab	-0.01871713
183	0x3d7a2e6b	0.061079424
184	0xbcfc91c7	-0.03083123
185	0x3b8541d6	0.004066686
186	0xbc1bba3d	-0.009504852
187	0x3ccd77c6	0.025081526
188	0x3c8cae7f	0.01717305
189	0x3b0384b6	0.0020068116
190	0x3daa5b1d	0.0831816
191	0xbd5391fb	-0.05165289
192	0xbd8c6b3e	-0.06856392
193	0x3d9dc58d	0.077036954
194	0x3d5bd246	0.05366733
195	0x3d48ee4e	0.04905539
196	0x3cd6b4a0	0.026209176
197	0x3d0df35b	0.03465591
198	0xbd6acab2	-0.05732221
199	0x3d78990e	0.06069284
200	0x3d8f7bfb	0.07006069
201	0xbd8ca37d	-0.068671204
202	0xbd97af9a	-0.0740654
203	0x3cf5743a	0.029962648
204	0xbd88fdc6	-0.066890284
205	0x3cb522ef	0.022111384
206	0x3c2a26cb	0.0103852255
207	0xbd52e830	-0.051490963
208	0xbd8c7d5a	-0.068598464
209	0x3ce5fde8	0.028075173
210	0x3db07a6f	0.08617102
211	0xbb41eb51	-0.0029589722
212	0xbda74e16	-0.081691906
213	0xbc0f3fcb	-0.008743237
214	0x3daa3b6c	0.08312115
215	0xbc374d98	-0.011187933
216	0xbd0a562f	-0.033773597
217	0xbdaf1f99	-0.08550949
218	0xbda7d4b0	-0.08194864
219	0xbd363b0c	-0.044489905
220	0xbc40aadd	-0.011759487
221	0x3d834eb4	0.06411496
222	0xbdb2d476	-0.0873193
223	0xbd7c0f62	-0.061538108
224	0x3d5c1f1e	0.053740613
225	0xbdb34334	-0.08753052
226	0x3d975a6f	0.07390296
227	0x3d1a8412	0.03772361
228	0xbd88dccc	-0.06682739
229	0x3bca5639	0.0061748293
230	0xbda98c61	-0.08278728
231	0xbca9a241	-0.020707252
232	0xbd72bedd	-0.059264053
233	0xbdab883d	-0.08375595
234	0xbd110fbd	-0.0354154
235	0xbda16f93	-0.07882609
236	0x3db0dbcb	0.08635672
237	0x3c8db9f9	0.017300593
238	0xbdb141db	-0.08655139
239	0xbce2274e	-0.027606633
240	0x3d8b724f	0.06808912
241	0x3d594782	0.05304671
242	0xbca40e8e	-0.020026471
243	0xbd86a29f	-0.06573986
244	0xbd71db7d	-0.05904721
245	0xbd805682	-0.062665
246	0xbd496a4f	-0.04917365
247	0x3ca16ee3	0.019706195
248	0x3c6f3dc7	0.014602131
249	0x3d212797	0.039344396
250	0xbdb117fa	-0.08647151
251	0xbda496be	-0.08036564
252	0x3cb9cd70	0.022680968
253	0xbb90b6ea	-0.0044163363
254	0xbd11efad	-0.035628963
255	0xbc8172a0	-0.015801728

gru.weight_hh_l0_reverse f4 [384, 128]
0	0x3d9a6a01	0.0753975
1	0xbd836a99	-0.06416816
2	0x3d3ceaca	0.04612235
3	0xbd8b9e2e	-0.0681728
4	0x3ac6f815	0.0015180135
5	0xbda5a660	-0.08088374
6	0x3d800dcc	0.062526315
7	0x3d2bab21	0.041911248
8	0xbce764da	-0.028246332
9	0xbdabc243	-0.08386662
10	0x3cce61e4	0.025193162
11	0x3c87918d	0.016548896
12	0x3d2ab316	0.041674696
13	0xbdb07d1b	-0.08617612
14	0xbd64b0fe	-0.055832855
15	0xbd5636b7	-0.052298274
16	0x3db495c2	0.088176265
17	0x3c72eafe	0.014826534
18	0x3b94c892	0.0045405114
19	0x3ab8e560	0.0014106445
20	0xbd99a170	-0.07501495
21	0xbd59a44d	-0.053135205
22	0x3dadd043	0.084869884
23	0x3d750325	0.059817452
24	0xbd50c70a	-0.05097107
25	0xbc6d0415	-0.014466305
26	0x3bddfa48	0.0067742206
27	0x3da8808d	0.08227644
28	0x3da12c2f	0.078697555
29	0xbd4c0a79	-0.049814675
30	0x3daf5371	0.08560837
31	0xbb0e5de0	-0.0021723434
32	0xbd835b6c	-0.06413922
33	0x3da6b142	0.08139278
34	0x3c8b8a54	0.017033733
35	0x3d84b76e	0.06480299
36	0x3c5c6385	0.013451462
37	0xbd9e797a	-0.077380136
38	0xbd244626	-0.04010596
39	0x3c1886f7	0.009309522
40	0xbc8f1f8e	-0.017471101
41	0x3d611775	0.05495401
42	0x3d64f9dc	0.055902347
43	0x3db011b4	0.085971266
44	0xbc51d87e	-0.012807963
45	0xbcbd1636	-0.02308188
46	0xbc95220b	-0.01820471
47	0xbc61ee3d	-0.013789711
48	0x3d230ce9	0.039807234
49	0xbc561274	-0.013065923
50	0x3c82b7b2	0.015956733
51	0xbcfcaad6	-0.03084318
52	0xbcdeb117	-0.027184052
53	0x3d4668df	0.048439857
54	0xbd540b21	-0.051768426
55	0xbdadeac5	-0.08492044
56	0x3c6ed5ab	0.01457731
57	0x3d8eb6d1	0.06968463
58	0xbd597602	-0.053091057
59	0x3db07643	0.08616307
60	0xbd974ffa	-0.07388301
61	0xbda58c0f	-0.08083355
62	0x3c305bd7	0.010764084
63	0xbd8f4d1e	-0.06997131
64	0xbdb098df	-0.08622908
65	0x3d5cb1e0	0.053880572
66	0x3d69bd8a	0.057065524
67	0xbc999ace	-0.018750574
68	0x3c8dd21c	0.017312102
69	0x3a8f1ebd	0.0010919195
70	0x3d71be84	0.05901958
71	0x3cd56a8a	0.026051778
72	0xbc7f7c32	-0.015593575
73	0xbceb444e	-0.028719094
74	0x3d95e7b1	0.07319582
75	0xbd2a11a8	-0.041520745
76	0xbd97cf0b	-0.07412537
77	0x3ba75898	0.0051069967
78	0xbc84d852	-0.01621643
79	0x3d331591	0.04372174
80	0x3db2ac40	0.0872426
81	0xbcfd8f79	-0.030952202
82	0x3d5c1fbf	0.053741213
83	0xbd7289d2	-0.059213467
84	0xb9d8e7ae	-0.00041371345
85	0x3daca249	0.08429391
86	0x3dac1730	0.0840286
87	0x3d1b8926	0.03797259
88	0xbcdfc3d3	-0.027315056
89	0x3c952f69	0.018211083
90	0xbd816187	-0.0631743
91	0xbca9b86b	-0.02071782
92	0xbb2ff1a4	-0.002684691
93	0xbcefa1e9	-0.02925201
94	0x3cd933b7	0.026513917
95	0xbd4ae98b	-0.04953913
96	0x3d3d34ba	0.046192862
97	0xbd917553	-0.07102456
98	0xbcdd726e	-0.027032103
99	0x3c3ebf1d	0.011642245
100	0x3d148c78	0.036266774
101	0x3c0fbd4e	0.008773161
102	0xbd4777ea	-0.048698343
103	0x3d1e9755	0.03871854
104	0x3d6d13d0	0.057880223
105	0xbd68f52d	-0.056874443
106	0xba8f0e79	-0.0010914347
107	0x3c279677	0.010228745
108	0xbdb4528f	-0.08804809
109	0xbd25a36a	-0.040439047
110	0x3ca546c0	0.020175338
111	0xbd247236	-0.040147983
112	0xbd0b84c8	-0.034062177
113	0xbdaabf0b	-0.0833722
114	0xbbe913ca	-0.0071129547
115	0x3d95be53	0.07311692
116	0xbc45107d	-0.012027857
117	0xbc7c9402	-0.015416147
118	0x3d8ed141	0.06973506
119	0x3da0c9db	0.07851001
120	0xbd49e601	-0.049291614
121	0xbcb07d9a	-0.021544266
122	0xbd4e670d	-0.050391246
123	0xbda1df5a	-0.07903929
124	0x3d257e42	0.040403612
125	0xbd4a0ae2	-0.049326785
126	0x3d05b9fd	0.032648075
127	0xbd85d668	-0.06535035
128	0x3c39ad5a	0.011332834
129	0x3d14230b	0.036166232
130	0xbd1ffe4f	-0.039060887
131	0x3ce9bfe8	0.02853389
132	0xbd23887a	-0.039925076
133	0xbcd8af9f	-0.02645093
134	0xbc21a87c	-0.00986683
135	0x3c23e554	0.010003407
136	0xbc5881f2	-0.013214575
137	0xbd9a036e	-0.075201854
138	0xbd43e074	-0.047821477
139	0x3cc1580a	0.02360155
140	0xbc88984f	-0.016674189
141	0xbdace2d9	-0.08441705
142	0xbcc2b510	-0.023767978
143	0xbaf00c87	-0.001831428
144	0x3d616471	0.05502743
145	0x3d878b8c	0.06618413
146	0xbcc59bb3	-0.024122095
147	0x3d87f26e	0.06638037
148	0xbbd27973	-0.0064231693
149	0x3d9609b4	0.073260695
150	0x3d927679	0.07151503
151	0x3d3cd358	0.04609999
152	0xbd358cd6	-0.044323765
153	0xbd57f9d4	-0.05272849
154	0x3ce578e2	0.028011743
155	0xbd13fb55	-0.03612836
156	0x3d5b64c6	0.053562902
157	0xbd0211de	-0.03175532
158	0xbd9aa2ac	-0.075505584
159	0x3d547ad1	0.05187494
160	0xbcdacc29	-0.02670868
161	0xbd3ff1b0	-0.04686135
162	0x3cad4540	0.021151185
163	0xbcfe5f19	-0.031051205
164	0xbb6bb87e	-0.003596812
165	0x3be15d05	0.006877544
166	0xbd884ea1	-0.06655622
167	0x3d8dbee1	0.06921173
168	0x3d97d15e	0.074129805
169	0x3d83c476	0.06433956
170	0x3d258c5e	0.040417068
171	0xbda302e1	-0.079595335
172	0xbd37f755	-0.04491361
173	0x3bb40c39	0.005494621
174	0x3d6a259b	0.05716477
175	0xbda5716e	-0.080782756
176	0xbdad845f	-0.084725134
177	0x3d80b3de	0.06284307
178	0xbd7733bc	-0.060352072
179	0x3a61d184	0.0008614289
180	0xbda71d80	-0.081599236
181	0xbc28fe84	-0.0103145875
182	0x3ba7b87f	0.005118429
183	0xbcc8005d	-0.024414236
184	0xbdafd1b6	-0.08584921
185	0xbd997e4e	-0.07494794
186	0x3c7c8d12	0.015414493
187	0x3d04ff8b	0.032470267
188	0xbc3caaf9	-0.011515372
189	0xbda36d18	-0.07979792
190	0x3d7ab69a	0.0612093
191	0x3c6bc538	0.014390282
192	0xbd6e23cf	-0.05813962
193	0x3c48d1c1	0.0122570405
194	0x3d1f8b26	0.03895106
195	0x3b2f1341	0.0026714357
196	0xbd2397e1	-0.039939765
197	0xbd9d4f6a	-0.07681163
198	0xbbebdcff	-0.0071979756
199	0xbd21baac	-0.039484665
200	0xbd50839d	-0.050906766
201	0xbd8e8eed	-0.06960855
202	0xbd896a15	-0.06709687
203	0x3d288e92	0.04115159
204	0x3d56b1c0	0.05241561
205	0x3c407f77	0.01174914
206	0xbca3ea25	-0.02000911
207	0x3cedd9ea	0.029034574
208	0xbd9c6ca1	-0.07637907
209	0x3d92cbc4	0.071677715
210	0xbd40e259	-0.047090862
211	0xbc3ce374	-0.011528838
212	0x3c4c0693	0.012452739
213	0xbd100d79	-0.0351691
214	0x3d2801b4	0.04101725
215	0xbaa1b755	-0.0012337962
216	0x3cb4b47e	0.022058722
217	0x3d09c4d7	0.033634987
218	0x3cace2fc	0.021104328
219	0xbd2f06d1	-0.04273111
220	0x3d64d3f6	0.055866204
221	0xbd924918	-0.07142848
222	0xbd5b1273	-0.05348439
223	0xbd017c92	-0.03161294
224	0xbd3d767c	-0.046255574
225	0x3d83f618	0.06443423
226	0x3ca41b9f	0.020032702
227	0xbd8d40c8	-0.06897122
228	0x3ce38901	0.02777529
229	0xbcc8cb8c	-0.024511121
230	0xbd95bb23	-0.07311084
231	0xbd87200d	-0.0659791
232	0xbd5abb60	-0.05340135
233	0xbd2bd4a6	-0.041950844
234	0x3ae8a24d	0.0017748565
235	0x3d166b11	0.0367232
236	0x3d2e5e37	0.04257032
237	0xbcb4e921	-0.02208382
238	0xbd9ae61e	-0.075634226
239	0x3d9da708	0.07697874
240	0xbb90b772	-0.0044163996
241	0xbb42ebd1	-0.0029742608
242	0x3d4d6ad8	0.050150722
243	0xbdaf87d7	-0.08570831
244	0xbd89ac43	-0.067223094
245	0xbd433353	-0.04765637
246	0xbd6a8e72	-0.057264753
247	0x3d98b385	0.07456116
248	0xbd0cdbfe	-0.03438949
249	0xbd5071b4	-0.050889686
250	0xbd89674c	-0.067091554
251	0x3d33c617	0.043890085
252	0xbd8042fa	-0.06262775
253	0xbd503bf3	-0.050838422
254	0x3c90eddf	0.01769155
255	0x3c440578	0.0119641945

gru.bias_ih_l0_reverse f4 [384]
0	0x3b18ee61	0.0023335444
1	0xbcab661e	-0.020922717
2	0xbda16d86	-0.07882218
3	0xbc440cd9	-0.011965954
4	0x3d223eb0	0.039610565
5	0xbd1ebf43	-0.03875662
6	0x3ce203a1	0.027589621
7	0xbb5e6ae9	-0.0033938235
8	0xbc171c9e	-0.009223131
9	0x3ceaf16b	0.02867957
10	0x3bd512a8	0.006502468
11	0xbdad376c	-0.084578365
12	0x3d204420	0.03912747
13	0xbd0d4b77	-0.034495797
14	0xbd88c74b	-0.06678637
15	0xbd196db4	-0.037458137
16	0xbc01ee91	-0.007930414
17	0x39bf45e4	0.00036482431
18	0x3da0671b	0.07832166
19	0xbd4306a5	-0.04761376
20	0x3c57c2c3	0.013168993
21	0x3d18d61a	0.03731356
22	0x3ca7a934	0.020466425
23	0x3d3c4351	0.045962635
24	0xbd90a9d2	-0.07063641
25	0x3ca68f55	0.020332018
26	0xbcfe28be	-0.031025287
27	0xbcbf5324	-0.023355074
28	0x3dafd665	0.085858144
29	0xbcdd35fe	-0.027003285
30	0x3da70465	0.08155135
31	0xbc634574	-0.013871539
32	0x3dc4ed65	0.09615592
33	0x3d82b372	0.06381883
34	0xbcfc3ced	-0.03079077
35	0xbd991f5a	-0.07476683
36	0x3cd0f709	0.02550842
37	0x3c9fc697	0.019503875
38	0xbc678ee2	-0.014133187
39	0xbcb67625	-0.022273133
40	0x3d592204	0.053010955
41	0xbcd4e753	-0.02598921
42	0x3da0356a	0.07822688
43	0xb8240dbc	-3.9113438e-05
44	0xbd7d7ebb	-0.061888438
45	0x3d721ffc	0.059112534
46	0xbd751d24	-0.059842244
47	0x3d9991c4	0.07498506
48	0x3c392766	0.011300897
49	0xbb5380c2	-0.003227279
50	0x3c1180d6	0.008880815
51	0x3d9e2b48	0.07723099
52	0x3ba1fe7f	0.0049436684
53	0x3d1dd7e2	0.03853596
54	0x3c3abe4c	0.011397909
55	0xbd9ed9d8	-0.07756394
56	0x3d98547b	0.07437988
57	0x3c8ca97a	0.017170656
58	0x3da83965	0.08214072
59	0x3d282115	0.041047174
60	0x3d8d8c92	0.06911577
61	0x3daefc7d	0.08544252
62	0xbc7dd624	-0.01549295
63	0xbcb0f9c4	-0.021603473
64	0xbd892732	-0.06696929
65	0xbd05bd8a	-0.03265146
66	0x3d7fdc21	0.06246579
67	0x3d49b57d	0.049245346
68	0x3d428bf1	0.04749674
69	0x3da66967	0.08125573
70	0xbd810952	-0.06300606
71	0xbc5b1c83	-0.013373497
72	0xbd2eac1b	-0.0426446
73	0x3dad7fc5	0.08471636
74	0xbb1317bc	-0.0022444567
75	0x3d3cd8b9	0.04610512
76	0x3d84176b	0.06449779
77	0xbd5f9dbb	-0.054593783
78	0x3db0e58f	0.08637535
79	0x3d224dca	0.039624967
80	0xbd707914	-0.05870922
81	0x3ca63d66	0.020292949
82	0xbd09dab4	-0.033655837
83	0x3d84924a	0.06473215
84	0xbc885553	-0.016642248
85	0xbd9c3208	-0.0762673
86	0x3dad5730	0.08463895
87	0xbd4b11ba	-0.049577452
88	0x3d36d12a	0.04463307
89	0x3d4c16f7	0.04982659
90	0xbd36b550	-0.044606507
91	0x3c197538	0.009366326
92	0xbac6d8f8	-0.0015170863
93	0xb99a0c40	-0.00029382296
94	0x3d1414de	0.036152713
95	0xbd4b8140	-0.04968381
96	0x3b5a4ad3	0.003330876
97	0xbc8dffd4	-0.017333902
98	0xbc0a77f0	-0.008451447
99	0xbc7c6e22	-0.015407117
100	0x3cc59491	0.024118694
101	0xbcb1e027	-0.02171333
102	0xbc2a6307	-0.0103995865
103	0x3d7ba22e	0.061433963
104	0x3ca89c7a	0.020582426
105	0x3d763837	0.060112204
106	0xbd293b40	-0.04131627
107	0x3c23b1cc	0.009991121
108	0xbc5b1b33	-0.013373184
109	0x3bd54ec3	0.0065096333
110	0xbc6e16d6	-0.014531812
111	0x3c5bd989	0.013418564
112	0xbdb025bd	-0.08600948
113	0xbd384119	-0.044983957
114	0x3dafa550	0.08576453
115	0x3cb449cf	0.02200785
116	0x3d813b63	0.06310155
117	0xbc845cb0	-0.016157478
118	0x3d659673	0.056051683
119	0xbd882032	-0.06646766
120	0xbcda12a2	-0.026620213
121	0x3d9f4909	0.07777602
122	0xbd541409	-0.05177692
123	0xbda33597	-0.07969206
124	0xbd157014	-0.03648384
125	0xbd665a4f	-0.05623847
126	0xbd370d84	-0.044690624
127	0x3b3a41a0	0.0028420463
128	0xbd735579	-0.059407685
129	0xbd30fc6d	-0.043209482
130	0xbd78dc71	-0.060757104
131	0x3d638c8b	0.055553954
132	0x3d886879	0.066605516
133	0x3b090ba2	0.0020911475
134	0x3dae0125	0.08496312
135	0xbca09498	-0.019602105
136	0x3d5d013a	0.053956248
137	0x3ccdd6cb	0.025126835
138	0x3c781a44	0.015142981
139	0xbd959c95	-0.07305256
140	0xbd82ae1e	-0.063808665
141	0xbd54a781	-0.051917557
142	0xbd15b546	-0.03654983
143	0x3cb26adb	0.021779468
144	0x3d1032f6	0.03520485
145	0x3d2991c2	0.04139877
146	0x3d9defd7	0.077117614
147	0xbd3b2d6f	-0.045697626
148	0x3d6b9d62	0.05752314
149	0xbd14aa49	-0.03629521
150	0x3daf17da	0.08549471
151	0xbd19331c	-0.037402257
152	0x3d969822	0.07353236
153	0xbcd86e59	-0.026419805
154	0x3ca91768	0.020641044
155	0xbda59eb4	-0.08086911
156	0x3cc47a01	0.023983957
157	0xbd80e840	-0.06294298
158	0x3d906f0f	0.07052433
159	0xbc06d57f	-0.008229612
160	0xbdaa5d1c	-0.083185405
161	0x3b9f7f16	0.0048674447
162	0xbce07b78	-0.027402624
163	0xbd8fa0db	-0.070131026
164	0x3d49f530	0.049306095
165	0x3d070988	0.032968074
166	0xbcbd2843	-0.023090487
167	0x3a22305e	0.0006187017
168	0x3da61b66	0.081106946
169	0xbdb43fc3	-0.08801224
170	0xbd8b70c7	-0.0680862
171	0x3d0952d5	0.03352626
172	0xbd68e46c	-0.056858465
173	0x3d6e3201	0.058153156
174	0x3d11af00	0.035567284
175	0xbb83c357	-0.004021089
176	0xbd69d92a	-0.05709187
177	0x3cd071e1	0.025444927
178	0x3dad081b	0.084488116
179	0x3d5c54a6	0.053791665
180	0x3d963299	0.073338695
181	0x3d5f49c6	0.054513715
182	0xbd6268cd	-0.055275727
183	0xbbfe2d14	-0.0077568386
184	0x3d936a73	0.07198038
185	0x3d5ffe81	0.054686073
186	0x3d280312	0.041018553
187	0x3d54d7cc	0.051963612
188	0x3d9dde7b	0.077084504
189	0x3c8589a1	0.016300978
190	0xbdaa6f3a	-0.08321996
191	0xbd96d21f	-0.07364296
192	0x3dab5a1c	0.083667964
193	0xbcf6da18	-0.030133292
194	0x3c08860f	0.008332743
195	0xbd784690	-0.06061417
196	0x3ba4cfcc	0.005029654
197	0x3ccf89c9	0.025334256
198	0xbdc8c9e0	-0.098041296
199	0x3d03010a	0.031983413
200	0x3cb74e97	0.022376342
201	0xbd36c0a3	-0.044617306
202	0xbb7bf47f	-0.0038445292
203	0x3d93e6ac	0.072217315
204	0x3d75c2c5	0.0600002
205	0xbc9956a6	-0.018718075
206	0x3c8ff32e	0.017572012
207	0xbc98159f	-0.018564997
208	0x3b24b6ff	0.0025133488
209	0xbd6d2b73	-0.057902765
210	0x3c7cf2d6	0.015438756
211	0x3dac3603	0.084087394
212	0x3b3b70a8	0.0028601084
213	0xb9825745	-0.00024860553
214	0x3d195db5	0.03744288
215	0x3d6a136f	0.05714744
216	0x3cd36a99	0.025807666
217	0xbde2f213	-0.11081328
218	0x3d2e9286	0.042620204
219	0x3d9a410c	0.07531938
220	0xbd07fade	-0.03319823
221	0x3da34125	0.0797141
222	0xbbf15a74	-0.007365519
223	0x3d305a04	0.043054596
224	0x3c5b3c9c	0.01338115
225	0x3dd964e3	0.10614946
226	0x3bbe3b0a	0.005805378
227	0x3c06c686	0.008226043
228	0xba13c8cb	-0.00056375255
229	0xbd15c351	-0.03656322
230	0xbd063ebf	-0.032774683
231	0xbda2a605	-0.07941822
232	0xbd8ca3a2	-0.06867148
233	0x3d4e6f26	0.05039897
234	0xbd86c18f	-0.06579887
235	0x3d71fcc4	0.059078947
236	0xbd4d9111	-0.050187174
237	0x3d82c399	0.063849635
238	0xbd0afa03	-0.033929836
239	0xbd249871	-0.040184442
240	0xbc760f4c	-0.0150182955
241	0xbd7e2c72	-0.062054105
242	0xbd8cee97	-0.06881445
243	0xbcc9b5fb	-0.024622908
244	0x3b1ec7a6	0.0024227886
245	0xbc973cb2	-0.018461559
246	0xbd13bac1	-0.036066774
247	0xbcb75da4	-0.022383519
248	0xbb999d9d	-0.0046879784
249	0x3d8ad9b7	0.06779807
250	0x3db9759c	0.09055635
251	0xbbda5760	-0.006663248
252	0x3d93f3db	0.07224246
253	0xbd282e04	-0.04105951
254	0x3d210eb1	0.03932065
255	0x3d8dddd3	0.06927075
