a-storage/result/8/model_epoch_040.pth (torch, 67404 bytes, 6 tensors)

gru.weight_ih_l0 f4 [192, 18]
00000000: 6ceb a6bd 8cbb fc3d 9086 14bc 2ad8 e93d
00000010: b2db eb3d 7063 8cbc ac51 4cbd 5843 ba3c
00000020: d05b d0bc 40c9 2dbb 303d 2e3c c0de 9abc
00000030: 4c14 78bd 40f1 4d3d f069 34bd ace0 4cbd
00000040: 783b 023d 7476 41bd 0c54 763d e6f0 d53d
00000050: 104f 643c 80e3 40bb 02ac e2bd 8a3b af3d
00000060: e092 c53b 90c2 923d 6062 09bc 6e46 eabd
00000070: ae38 82bd 9876 fb3d e0ff a0bb f0fa 583d
00000080: cc92 5d3d e481 1e3d e074 70bc 7012 343d
00000090: 0849 0c3d b69b d8bd 80d7 953b 426f d2bd
000000a0: 30f8 7dbc 407e 453c 2e23 dbbd 2895 f8bd
000000b0: 10eb 32bd 20f0 43bc 0413 0abd d068 113d
000000c0: 28af 983c 563c c6bd 4eeb a23d 20b3 15bd
000000d0: 507d a2bd 1456 053d 60ac d9bb 12aa cb3d
000000e0: 4ada 903d 4cc0 083d e07f 40bd 903f b4bc
000000f0: e89d c53c ba3f 943d 3c89 483d f2b6 863d
00000100: ac66 cc3d 96a0 ae3d f2fb d6bd 9a20 a83d
00000110: 3cc0 203d 2081 d4bb 60dd 063c 9cee 753d
00000120: 098e c53c e7fd 4bbc 1adc d13d 89e3 ae3d
00000130: 623a 89bd d6a9 39bd 6e8b 81bd fbc1 e23c
00000140: 17fd c53d ae49 973d 4ae3 503d 350a a03d
00000150: ca8b 8e3d a175 39bc 9fa9 923d 19f0 10bd
00000160: 1776 513d c311 b7bd 4812 85bd dcfe 323d
00000170: 9ae0 a53d 9ac1 d23d e043 06bc ecc8 913d
00000180: 4c14 fd3d 0496 633d dcd9 443d 0e1e cdbd
00000190: 9cff 34bd ccd0 77bd f6e4 843d 98be ca3d
000001a0: 748d a83d e00c 98bb 007a 59bb faba f5bd
000001b0: 601d 3d3c 2023 2fbd 40c8 713b bc21 0a3d
000001c0: f071 d03d bc10 ecbd d89a 1f3d a492 e93d
000001d0: 94ba 9d3d 80a5 28bc 2cb5 823d 7220 adbd
000001e0: c494 f3bd 1c9f 503d 8014 bdbc ca9e 9abd
000001f0: 6439 f43d 263d 893d 8d94 6e3d 4637 03bd
00000200: ab83 89bd 2ef6 b2bc cec4 a83d 814d 01be
00000210: 8a8d bc3d 19fa 213d d6c1 f2bc d4bd d1bd
00000220: 4f85 80bd 9f77 bb3d a78c 343d e2da f5bc
00000230: 102b 813b bef1 74bd ed63 fb3b 4c05 49bd
00000240: 2207 d2bd 4a41 9d3d 6489 8b3d 7666 d3bd
00000250: a610 003d f2fb c53d 14f0 853c 10f6 9fbc
00000260: fb99 31bd d280 813d be1f a63b b19d 48bd
00000270: ae63 eb3a 269c 6abd 9708 51bd d45d a53c
00000280: 4467 3fbd ff68 983d 3453 d73d d4ce 8d3b
00000290: c344 f83c 9ee5 cb3d 6206 9f3c c2d8 a33d
000002a0: 4544 913d 821b 88bd 69ea 43bd 6e27 073e
000002b0: 99d8 c5bd 5830 693d feb0 abbc 1c03 97bd
000002c0: df46 21bd 18bc b43d ff5f 033e 9a0f 57bd
000002d0: 22fc bcbd d04c c93c 6097 a63b ace4 bebd
000002e0: 3a10 f63d 90d8 87bc f2a5 c13d 9299 823d
000002f0: f0cb f9bd 7e27 fbbd 689c b93c a019 94bb
00000300: 1e07 acbd b0bb 2abd 8838 f7bc c03c bfbb
00000310: dc4b 9e3d 3805 fcbd e269 b83d 6016 ff3b
00000320: 4e29 863d 5acf 9f3d a077 c13c 0427 c9bd
00000330: dc20 c5bd 9820 66bd f4c3 d03d 5e14 8abd
00000340: aca0 39bd b009 a33c 2a26 f53d 3cd6 2ebd
00000350: f04a eb3d 28d1 d63d 22cb ec3d a8d7 1f3d
00000360: a6d7 f23d 80ba 013d c487 e53d f89d af3d
00000370: 9460 debd c863 ff3d e0f0 8cbb 7656 87bd
00000380: a4fb 5abd 9804 97bc 52ae d1bd 60bc 21bc
00000390: 34d8 333d 2058 023d 66d5 bdbd c808 c7bd
000003a0: 9037 b03d 9839 76bd 5817 91bc d800 0abd
000003b0: d864 d13d 309b 313c 2224 e9bd b80f 84bd
000003c0: 0064 34bc d02a 8bbd 5c8f d93d e07b 00bd
000003d0: 5ae1 8dbd 8c8a 623d 6800 8fbd a830 25bd
000003e0: b268 933d aa62 cc3d 00fe 98ba 6c38 ce3d
000003f0: e0a4 43bc 24c9 793d 9453 7ebd cc4a fb3d
-0.08150372 0.12340459 -0.009065285 0.11418183 0.11516513 -0.01713726 -0.049882576 0.02273719
-0.025434405 -0.002651766 0.010634705 -0.018905044 -0.06056623 0.050278902 -0.044046342 -0.05001895
0.031794995 -0.047232106 0.060138747 0.10446338 0.013934866 -0.0029432476 -0.11067964 0.08556278
0.0060294718 0.07166016 -0.008385271 -0.11439215 -0.06358467 0.12278479 -0.004913315 0.052973688
0.054095075 0.038698092 -0.014676303 0.043962896 0.034249336 -0.105765745 0.0045728087 -0.10275127
-0.015501067 0.012054026 -0.10700069 -0.12137824 -0.043681204 -0.011959106 -0.03370954 0.035500348
0.018638209 -0.09679477 0.07955037 -0.03654778 -0.07934058 0.032552794 -0.006642863 0.09944548
0.07072885 0.033386514 -0.04699695 -0.022002965 0.024123147 0.072387174 0.048959002 0.06577863
0.099805206 0.08526723 -0.104972735 0.08209343 0.03924583 -0.0064851195 0.008231491 0.06004201
0.02411558 -0.012450672 0.10247059 0.08539493 -0.06700589 -0.045327984 -0.06325422 0.027680388
0.09667414 0.073871 0.05099801 0.07814447 0.069602564 -0.011319549 0.07161259 -0.035385225
0.05113801 -0.08938935 -0.064976275 0.043700084 0.0809948 0.10290833 -0.008194894 0.07118401
0.12357387 0.055562988 0.04805933 -0.10015498 -0.04418908 -0.06050186 0.06488983 0.09899634
0.08230105 -0.0046402067 -0.003318429 -0.119985536 0.011542648 -0.042758107 0.003689304 0.033723578
0.10177982 -0.11526629 0.03896603 0.114049226 0.077016026 -0.0102933645 0.06382212 -0.08453454
-0.11893609 0.05093299 -0.023081064 -0.07549818 0.11925009 0.06701116 0.058247138 -0.032035135
-0.06714567 -0.021845903 0.082406625 -0.12627222 0.09206684 0.039545152 -0.029633444 -0.10241285
-0.062754266 0.09153675 0.04407945 -0.030011598 0.003941901 -0.059800856 0.007671824 -0.049077317
-0.10255267 0.076784685 0.068133146 -0.10322277 0.031265877 0.096671954 0.01634983 -0.019526511
-0.043359738 0.06323399 0.005069702 -0.04897851 0.0017958784 -0.05727782 -0.051033583 0.020186342
-0.04672934 0.074419014 0.105139166 0.0043276343 0.030306226 0.099559054 0.019412223 0.08000328
0.070930995 -0.06645872 -0.047830973 0.13198635 -0.09660453 0.05693087 -0.02095842 -0.0737364
-0.03937423 0.088249385 0.12829588 -0.052505113 -0.09227778 0.02457276 0.0050839633 -0.093209594
0.12014814 -0.016582757 0.0945548 0.063769475 -0.12197101 -0.12263392 0.022657588 -0.0045196563
-0.08399795 -0.0416829 -0.030178323 -0.0058360994 0.07729313 -0.12305683 0.090045705 0.0077846497
0.06550847 0.07803221 0.023616612 -0.09821895 -0.09625408 -0.056183428 0.10193625 -0.06742166
-0.045319244 0.01990208 0.1197017 -0.04268478 0.114889026 0.10489112 0.11562182 0.039024025
0.11857538 0.031672 0.11207536 0.08575052 -0.108582646 0.12470204 -0.0043011755 -0.06608288
-0.05346264 -0.018434808 -0.10238327 -0.009871572 0.04390736 0.031822324 -0.09269218 -0.09718472
0.08604348 -0.06011352 -0.017711326 -0.03369221 0.102243125 0.010840222 -0.11383845 -0.064483106
-0.01101017 -0.06795275 0.10623047 -0.031368136 -0.06927748 0.05530791 -0.06982499 -0.040329605
0.071977034 0.09979756 -0.0011672378 0.10069355 -0.011941165 0.06098284 -0.062091425 0.12270126

gru.weight_hh_l0 f4 [192, 64]
00000000: 843b 7d3d 5424 243d d8bc f33c d8b7 8abd
00000010: 7096 873d e8cb 1ebd c476 913d 7422 183d
00000020: f63b f1bd 1c5e f13d 406a c3bc 4094 c73b
00000030: 8a81 82bd 46db 903d 8019 2bbd b4fb b1bd
00000040: e0d8 b13c 2041 e73b 4c30 ee3d 5087 1d3d
00000050: 809c e43c 8a46 a2bd f084 b5bd faf7 f3bd
00000060: 4a09 e33d ac47 1b3d c81b c1bc e821 9ebd
00000070: 9e2c e73d 8049 883b 7860 15bd 5017 f9bd
00000080: 908b cbbd 4814 a43d 00f1 f9bb 0a4d 9b3d
00000090: 78cf cdbd 985a f93d 42a8 96bd 803c 953c
000000a0: 689a e4bc 2866 41bd 302b 97bd b686 cb3d
000000b0: a62d f83d fa6f db3d 6054 0cbc dc80 203d
000000c0: 0a85 ea3d 0a87 ef3d 807a 9abd a2d0 debd
000000d0: 202d 7ebc d624 e23d f892 513d b822 a53c
000000e0: c2d5 d2bd 66d2 a73d 2c4e 9fbd dc8d 0bbd
000000f0: 0c51 17bd 8075 8fbc 4ebf b13d 0a2b e8bd
00000100: 8c20 ea3d f0d7 e3bc 80fd ac3b 145f 113d
00000110: e01f 983d b223 fb3d d09a 91bd 80f5 47bb
00000120: b0d7 d8bc a432 a6bd 32a4 bc3d d86f 6bbd
00000130: 00e6 63bb a0e0 543c a4a0 583d f20c d2bd
00000140: b283 bf3d e297 913d 7cd7 9ebd c67d 96bd
00000150: d02c 023c e007 fa3d 221b 873d bc8b c23d
00000160: c0bd 4d3b d8b6 3c3d f6c3 abbd d674 a53d
00000170: 1ce5 5a3d cab7 9fbd 8467 f23d dc0e c83d
00000180: 4466 cabd 100a 1f3d 08f3 d8bd b449 46bd
00000190: 3c98 ff3d 681b d2bc 9033 84bc 5469 ef3d
000001a0: 60c8 2f3c 9e0c d93d 488b 83bd d200 9ebd
000001b0: 748e efbd a828 babc b8a7 ec3c 10e5 083d
000001c0: d0eb 28bd 7aaa c63d 40f3 113c 7864 523d
000001d0: ca76 b43d 0ac6 a3bd 7828 9e3d 1a34 a4bd
000001e0: bae7 cc3d 88e0 cd3d fc28 56bd 54c2 e2bd
000001f0: 38fa f2bc ccf6 71bd 76bf f63d 701f 60bd
00000200: 9c3d 1bbd f4b1 b43d 76cb 89bd b682 853d
00000210: 6471 e03d 5024 1ebd 969a f53d 4063 74bd
00000220: 906a cb3c 7a4f 983d f09d 443c a4ec 96bd
00000230: c8bf 943c ee7c fabd d027 583c c0fb 7f3c
00000240: 0404 ad3d 0cb9 babd 5421 273d 38cf 363d
00000250: e8ef 24bd 2473 33bd 94eb de3d 2abc 9ebd
00000260: 56fd 84bd 64fa 783d 8850 b63d 245c 53bd
00000270: ae9e a6bd 4096 e4bd 1af0 e1bd a069 5d3d
00000280: d856 153d e8e0 d73c 1a86 bbbd 3ee8 b4bd
00000290: 0075 cbbb 54a9 ad3d 5071 0f3d 406f a5bb
000002a0: 9669 8f3d a028 7fbc 582b bc3d 061b 893d
000002b0: b06d b7bd d42b 513d 80e9 6f3d a285 b9bd
000002c0: 2023 403d 5acb d93d c0dc eb3d 0883 a4bc
000002d0: 48dd de3c 807e 683c 3443 9b3d 38d6 e8bc
000002e0: 0491 f2bd 241e acbd 94df 963d 3edd 843d
000002f0: 609a b13b 30e0 70bd 803d fcbd 08e6 cd3c
00000300: 9061 62bd 5091 6a3d 2875 ba3c 7ce6 9fbd
00000310: ec7b d2bd 9ebe 97bd 58aa d93d 3a54 f7bd
00000320: 6419 743d 70c2 ba3c 6e54 b7bd 5072 763c
00000330: f226 92bd 0ecb 9abd eab5 9abd 3a25 96bd
00000340: 3a04 fb3d 9269 e43d 3017 e53c 2257 d7bd
00000350: 0c62 febd fa7f 883d a4cd cf3d 7622 9f3d
00000360: e2a5 df3d 9049 523c 00c4 9f39 28f0 2d3d
00000370: 30c4 8c3d c8b3 a03d d84d 853c 46dd fc3d
00000380: f0f9 9cbd 4c4e aa3d d0bc 5c3d 6652 e83d
00000390: b8fc 0abd f4c9 bdbd 2895 06bd 2293 f93d
000003a0: d8e7 423d 3ca5 d13d 980d a53c b21f dcbd
000003b0: d2eb e73d 74e8 ba3d 400f a1bb fcee 963d
000003c0: 9607 82bd 9084 41bc 0e50 9fbd f2b7 efbd
000003d0: 8cb6 273d e886 52bd ccfd 61bd 409c 663d
000003e0: b018 b43d 2e13 d93d 8259 fc3d 5019 523d
000003f0: 086c a2bd b247 eb3d 8818 3a3d 28b6 923d
0.061824337 0.040073708 0.029753134 -0.06773347 0.066204906 -0.03876868 0.07102731 0.037142232
-0.11779015 0.11785528 -0.023854375 0.006090671 -0.06372364 0.07073073 -0.041772366 -0.08690587
0.02170986 0.007057324 0.11630306 0.038459122 0.027906656 -0.079236105 -0.088632464 -0.11912532
0.11085756 0.03791015 -0.023572817 -0.07721311 0.11287807 0.0041591525 -0.036468953 -0.1216265
-0.09938729 0.08011681 -0.0076276064 0.075830534 -0.10049337 0.121754825 -0.073563114 0.018217325
-0.027905658 -0.047216564 -0.07381284 0.099378034 0.12118082 0.10714717 -0.008565038 0.03918539
0.114511564 0.116956785 -0.07542896 -0.10879637 -0.015513688 0.11042182 0.05116555 0.020158157
-0.10294677 0.08194427 -0.07778582 -0.034070835 -0.036942527 -0.017512083 0.086790666 -0.11336334
0.11431989 -0.027812928 0.005279243 0.035491064 0.07427955 0.12262668 -0.07109606 -0.003051132
-0.026470035 -0.08115128 0.09211005 -0.05747971 -0.0034774542 0.012993008 0.052887574 -0.10256375
0.09351291 0.071090475 -0.07755944 -0.07348208 0.007945254 0.12208533 0.06596972 0.094993085
0.0031393617 0.04607281 -0.08386986 0.08078925 0.053441152 -0.07798727 0.1183615 0.09768459
-0.09882787 0.038827956 -0.105932295 -0.048410133 0.12480208 -0.025647834 -0.016137868 0.116900116
0.0107289255 0.1059811 -0.0642305 -0.07715 -0.11697093 -0.022724465 0.028888568 0.033421576
-0.041240513 0.097004846 0.008908093 0.051365346 0.0881172 -0.07996757 0.077225626 -0.0801775
0.10005136 0.100525916 -0.05228518 -0.110722214 -0.02966033 -0.059073254 0.12048237 -0.05471748
-0.037900552 0.08823004 -0.0672826 0.06519072 0.109591275 -0.03860885 0.119923756 -0.059664965
0.024831086 0.07437034 0.012000546 -0.07369354 0.018157855 -0.1223086 0.013193086 0.015623987
0.084480315 -0.09117326 0.04080327 0.044631213 -0.040267855 -0.04381098 0.10884777 -0.07750733
-0.064936325 0.060785666 0.08902079 -0.051601544 -0.081357345 -0.111614704 -0.11032124 0.05405581
0.036459774 0.02635236 -0.09156437 -0.08833359 -0.006209016 0.084795624 0.035020173 -0.0050486624
0.07002561 -0.015573651 0.09187955 0.066946074 -0.08956468 0.05106719 0.058572292 -0.090586916
0.046908498 0.10634489 0.11516714 -0.020082012 0.027205124 0.014190316 0.07581177 -0.02842246
-0.11844066 -0.08404186 0.07366863 0.06487511 0.0054200143 -0.05880755 -0.12316418 0.025134102
-0.055268824 0.057267487 0.022760943 -0.07807633 -0.102775425 -0.07409404 0.106281936 -0.12076612
0.059594527 0.022797793 -0.089516506 0.015041903 -0.071363345 -0.07558261 -0.075542286 -0.07331319
0.122566655 0.111529484 0.027965158 -0.10514666 -0.12421045 0.066650346 0.10146645 0.07770245
0.109203115 0.0128349215 0.00030472875 0.04246536 0.06873357 0.078467906 0.01627247 0.12346892
-0.07664859 0.08315715 0.053891003 0.11343841 -0.033932418 -0.09267035 -0.03285709 0.121862665
0.047584385 0.10236594 0.020148084 -0.10748233 0.11324276 0.09126368 -0.004915148 0.073698014
-0.06349103 -0.0118113905 -0.07778941 -0.11705007 0.040945575 -0.051398188 -0.05517368 0.056301355
0.08793771 0.10599361 0.1232176 0.05129367 -0.079307616 0.11488284 0.04543355 0.0716365

gru.bias_ih_l0 f4 [192]
00000000: 122b ff3d 8808 7f3d 80ed 443d c882 19bd
00000010: 3941 2e3d 9cd8 453d 104d 14bc b543 863d
00000020: 702b f5bd af78 75bd b0ff 113c 4c83 2bbd
00000030: 404d e33c 38a6 b7bd b469 f13d be13 a5bd
00000040: a04c 41bd 0cad cabd a80f e6bd 3a31 f83d
00000050: f803 e9bd 4088 c53c 7006 6ebc d247 81bd
00000060: 86cf e2bd 26ec 5a3d 9c4c 68bd 3722 3d3d
00000070: f0d8 b6bc ac08 64bd 3ef8 d7bd d8d9 ee3c
00000080: a800 e7bd 4795 0ebc c8f0 a53d 6058 dc3d
00000090: f8e4 70bd c235 9abd c83f 9ebc 2484 b9bd
000000a0: 8cef 6fbd ca07 863d 40ab b73b a5fe 983d
000000b0: 74d0 cfbb 1a82 813d 50b3 283d ca32 d63d
000000c0: 8044 de3d d044 ddbc f649 b43d 421a 88bd
000000d0: d615 a3bd ff15 6bbc 8215 cc3d 2032 d9bb
000000e0: 0a55 60ba acb1 013d 5034 223d 5ec3 88bd
000000f0: 8c34 573d 0046 e93c 2417 bc3d fc34 85bd
00000100: f843 12bd cbbd ab3d bcae a7bd 86f5 e1bd
00000110: 813e 64bd 26ea 10bd 5019 093d e904 9cbd
00000120: eeac eebd faf3 cb3a 8d86 96bd 8cfe b7bd
00000130: 8418 6fbd 4e99 0c3d 9c05 793d 47d5 99bd
00000140: 206e 933c d254 f03d f67c dfbd a923 613c
00000150: 20af 213d 3fd0 dfbc 0a94 863d c4f0 f8bd
00000160: 4c46 f43d aa43 01be d094 f93c c533 113d
00000170: 78ae c73d 549c 8e3b 119f 1cbc 6e7e 4ebd
00000180: 48e9 c3bd 6389 f4bc 81aa 8e3c 4182 c3bd
00000190: c0b5 96bc 401b e3bd 1d51 fdbd 438a b5bd
000001a0: 40e0 083b 5c8f 303d 184b 01bd 443e 48bd
000001b0: b44c 0cbe a362 da3d c3dc 623d d8a7 c53d
000001c0: 75d0 0b3d fe37 bf3d dce4 8c3d 04da 653d
000001d0: c07c e7bb 0c2c 03bd f6dd d83d 8c6c 6ebd
000001e0: c4ac f1bd e025 083d b494 393c d49f 2b3d
000001f0: dcd4 613d 2098 80bd d07e fe3d 0937 163d
00000200: b6ef a23d 4407 62bd 9a07 64bd 2ce7 bc3d
00000210: 6869 d33d 90b5 b03c 54bb 32bd 70e7 073c
00000220: c788 033c 8a11 e03d 78ef 943d e002 6f3c
00000230: 4325 da3d c8de c5bd f6e7 ee3d 0a79 edbd
00000240: 7ea5 e9bd 98dd d4bc 96ba c6bd 32a5 68bd
00000250: 0401 b63d 6bbe 2d3d 1220 c1bd 1bf3 323b
00000260: ea00 81bd 784f a13c d8d1 b7bc b92b 45bc
00000270: 0811 0e3d decb b83d 50d6 2fbd d69b e7bd
00000280: d033 66bc 3107 e8bd 69d7 953d 9574 f83d
00000290: 501b 51bc fae3 ca3d 70bc f33c f892 933c
000002a0: deaf dd3d 5849 5b3d 9ae2 1c3c ee9f 803c
000002b0: 46c8 4e3c 22f9 f13d 518c 89bc d2fd bebd
000002c0: c4c6 e33d 85ce b8bd 100b 473d 1208 99bd
000002d0: 4855 e73d 7855 363c b8fb 31bd 34e6 413d
000002e0: daf4 ccbd 906a c43c 744d e0bd 7004 3ebc
000002f0: c03f de3b 3821 5d3d 44dd 563d 7fd2 983d
0.12459387 0.062263995 0.04807806 -0.03747824 0.04254267 0.048302278 -0.009051576 0.06555883
-0.11971176 -0.059929546 0.008911058 -0.04187326 0.027746797 -0.089672506 0.117877394 -0.08060406
-0.047192216 -0.09896287 -0.11233455 0.12118764 -0.1137771 0.02411282 -0.014527902 -0.06312527
-0.11074738 0.053447865 -0.056713685 0.046175208 -0.02232024 -0.055672333 -0.10545395 0.02915661
-0.11279422 -0.008702583 0.08102566 0.10759044 -0.05881211 -0.07529785 -0.019317523 -0.09058407
-0.05857806 0.065444544 0.0056051314 0.074704446 -0.006341988 0.06323643 0.04118663 0.10458906
0.10852909 -0.027010351 0.088031694 -0.06645633 -0.07963149 -0.014348506 0.0996504 -0.00662829
-0.00085575937 0.03166358 0.03960067 -0.06677888 0.052540347 0.028475761 0.09184101 -0.065042466
-0.03570935 0.083858095 -0.08187625 -0.11033158 -0.05572367 -0.03537955 0.033471406 -0.07618124
-0.116540775 0.0015560382 -0.07349882 -0.08984098 -0.05837299 0.03432589 0.060796365 -0.075113826
0.017996848 0.11734928 -0.10912506 0.013741412 0.039473653 -0.02732098 0.06571205 -0.121552974
0.119274706 -0.12623468 0.030466467 0.035449762 0.09750074 0.004352132 -0.009559409 -0.05041354
-0.09565979 -0.029850667 0.017415287 -0.09546328 -0.018397212 -0.11089182 -0.12368987 -0.08864262
0.0020885617 0.04310547 -0.031565756 -0.048887506 -0.13701135 0.10663345 0.055386316 0.09651154
0.034134347 0.093368515 0.06879589 0.05611612 -0.007064432 -0.03202443 0.10589211 -0.058208987
-0.118005306 0.033239245 0.0113269575 0.04190047 0.05513464 -0.062790155 0.12426531 0.03667358
0.079558775 -0.05518271 -0.055671312 0.0922378 0.10322839 0.02157095 -0.04363568 0.008294925
0.008028216 0.10940845 0.072722375 0.014588088 0.10651638 -0.09661633 0.11665337 -0.11595352
-0.11408518 -0.02598457 -0.09703557 -0.056798168 0.088869125 0.042417925 -0.09429945 0.0027305547
-0.062990025 0.019691214 -0.022438928 -0.01203435 0.03468421 0.090232596 -0.042928994 -0.1130902
-0.014050439 -0.11329497 0.07316477 0.12131611 -0.012762859 0.09906764 0.02975294 0.018014416
0.1082456 0.053536743 0.00957551 0.01570126 0.012620991 0.118150964 -0.01679054 -0.09325756
0.11121896 -0.090237655 0.048594534 -0.074722424 0.11295563 0.011128776 -0.04345295 0.04733868
-0.10007639 0.023976594 -0.10952273 -0.011597738 0.006782502 0.053986758 0.05245711 0.07462024

gru.bias_hh_l0 f4 [192]
00000000: 40e8 32bb 9887 773d a68f ba3d b894 d03d
00000010: 6684 9d3d 6ca8 8d3d c08d c0bb 3b0d ba3d
00000020: 8e10 8bbd 9d26 0c3e f2cc 9b3d 4425 163d
00000030: 2a4e e7bd a09e bdbb fe3c ae3d 803e bf3a
00000040: 68a4 22bd 04ab 1e3d 729c da3d 48e4 b73d
00000050: 0003 cf3b 60b0 8e3d 0086 7a3b 40ac 5d3d
00000060: 1824 d3bc 6275 54bd 76fa b7bd fec5 b53d
00000070: c8ff dcbd 9c14 fbbd 58e3 e9bd fe38 a8bd
00000080: 9cb5 00bd 3830 a0bd e85a e93c 26bc 41bd
00000090: e079 573c 36b0 83bd e090 f33c 52b8 bcbd
000000a0: b0fa 243c 7c68 c93d e46f 53bd 3c8c 5ebd
000000b0: cb65 fb3c c8d3 36bd 7353 e23d 0095 3bbb
000000c0: a0be 85bb bc17 abbd c22a 93bd de83 ccbd
000000d0: a8d1 c9bd e96c d83d cc72 303d d064 db3d
000000e0: 566d dd3d cc4e 743d 8002 ac3b 0424 71bd
000000f0: 406b 6c3c 8441 cbbd 04ce 093d a4ca 75bd
00000100: c43b 983d 8308 ce3d b609 3e3d 30c5 a23d
00000110: 3e6c b33c f8f1 df3d c0df a9bd 99fd ea3d
00000120: c092 debd 6ecd eb3c 453a f03d dcc3 6d3d
00000130: ca16 5f3d 9fc4 06bd d886 573d ba74 603c
00000140: b435 d6bd 32ef 98bd 1839 913c dd2e c53b
00000150: 2824 0c3b 98fa 96bc 2cb0 7c3d d258 753d
00000160: 9864 b1bd d047 8c3d d08a 44bc 2aeb c1bb
00000170: 3c11 b83c f7f9 babd 22c7 b5bd 271b a7bd
00000180: 3095 6e3c e5cf a03d 57df 2cbb 682d 073d
00000190: ae54 ef3d 0e86 d5bd 6a4b 6b3d 9362 df3c
000001a0: 42ed c5bd 0cd1 e2bd 8d6c dd3d 8299 c33d
000001b0: 6c21 25bd b4fb 3c3c 6d82 77bd de76 d43d
000001c0: 644e a9bd 30fc dbbd c0be b33b 887b ffbc
000001d0: 283b cd3c b403 db3d 18f9 2bbd f43a 17bd
000001e0: fca6 b03d b021 2fbc 7832 c8bd 4837 d7bd
000001f0: 0c8a 043d 6a21 aabd 8b61 743d 33bc 29bd
00000200: 648e 303d ac85 543d 721c 8dbd 603b 81bd
00000210: 2c0e 113e 9002 fcbc 66f7 bcbd f963 733d
00000220: c4a2 dd3d 2ac9 d53c 78f0 aebd 96b2 f93d
00000230: 689c 243d b06f 5e3d a49a 5fbd 10d0 38bd
00000240: 48c7 ff3c e031 2e3d a420 babd 4b31 f13d
00000250: 8c29 77bd 2542 ca3d 1473 383d 5614 753d
00000260: 2c0a 95bd eaa1 253d d48b 893d 4c52 9dbd
00000270: 10a5 2a3c 808d dfbd 8610 95bd 3c60 08bd
00000280: a058 83bc 4737 e63c da98 d5bd 1492 593b
00000290: e829 cc3d 5c4c 933d 18f3 843c e0a7 343c
000002a0: 5403 7bbd 00b1 a13d 7a3b 92bd 1a0b b8bd
000002b0: 43c4 1f3d 147b 19bd 4e8e 4ebd 904e bcbd
000002c0: c050 b33d 766f bfbd f0a4 313c ba64 d03d
000002d0: 98a9 df3d b371 e8bd 86d2 cebd d077 e0bc
000002e0: 02e4 c63d 84a8 fc3d d463 94bd 90af 2a3d
000002f0: 5609 fdbd c09b f6bc e096 bb3b f48b 283d
-0.0027299076 0.060432047 0.0910943 0.10184616 0.076912686 0.069168895 -0.005876273 0.09084555
-0.06790267 0.13686605 0.076074496 0.036656633 -0.112942055 -0.005786732 0.08507727 0.001459077
-0.03970757 0.038737312 0.10674371 0.08979088 0.0063174963 0.069672346 0.0038226843 0.05411935
-0.025774047 -0.051869757 -0.089833185 0.08875655 -0.10790974 -0.1225979 -0.114203155 -0.082139954
-0.031423196 -0.07821697 0.02848573 -0.047298573 0.013151616 -0.06430094 0.029732168 -0.09214844
0.010069534 0.09834382 -0.05162038 -0.054332957 0.030688187 -0.044635564 0.11051073 -0.0028622746
-0.004081562 -0.08354136 -0.0718589 -0.09986089 -0.09854442 0.10567648 0.04307823 0.10712588
0.1081187 0.05964546 0.0052493215 -0.058872238 0.014429867 -0.099246055 0.033643737 -0.060007706
0.074332744 0.10060217 0.04639598 0.07947767 0.0219022 0.10934824 -0.0829463 0.11474151
-0.10867834 0.02878448 0.11729864 0.058048114 0.054465093 -0.032902356 0.05261883 0.013699705
-0.10459462 -0.07467498 0.01772742 0.0060175494 0.0021383855 -0.01843004 0.061691448 0.05989916
-0.08661765 0.06849635 -0.011995986 -0.0059179263 0.022469155 -0.09129708 -0.08875872 -0.08159476
0.014561936 0.07852153 -0.0026378238 0.033002287 0.11686073 -0.104259595 0.057444967 0.027268684
-0.09664394 -0.11075029 0.1081172 0.09550764 -0.040315077 0.01153462 -0.060427118 0.103742346
-0.08266905 -0.1074146 0.0054853857 -0.031186834 0.025052622 0.10694066 -0.0419856 -0.036921456
0.086256 -0.010689184 -0.09775251 -0.10508591 0.032358214 -0.083071545 0.059663337 -0.041439246
0.043104544 0.051885292 -0.06890191 -0.06310153 0.14165562 -0.03076294 -0.09226875 0.059421513
0.10822061 0.026096899 -0.085419595 0.12192266 0.040188223 0.054305732 -0.054590836 -0.0451203
0.031222954 0.042528033 -0.09088257 0.1177698 -0.060342357 0.09875897 0.045031622 0.059833847
-0.07277331 0.040437616 0.06716123 -0.076817125 0.0104153305 -0.10915661 -0.07278542 -0.0332949
-0.01603347 0.02810253 -0.10429545 0.0033198642 0.099689305 0.07192299 0.016229197 0.011026353
-0.06128247 0.07895088 -0.071402505 -0.089864925 0.03900553 -0.037470892 -0.05042868 -0.09194672
0.08755636 -0.09347431 0.010842547 0.10175462 0.10921019 -0.113498114 -0.10098748 -0.027400881
0.09711458 0.12336829 -0.07245603 0.041671336 -0.12355296 -0.030103564 0.005724773 0.041149095

fc.weight f4 [3, 64]
00000000: b494 0d3d 1134 d0bd 808d b93d f037 a03d
00000010: 3e30 813d fc76 a7bd 7c5b 21bd b149 453d
00000020: 9d11 b8bc 7c21 623e bf83 c9bc ac74 263d
00000030: c49a 8ebd bc6b 58bc 96e5 b23d 34d2 0fbd
00000040: 70e6 0abd 20f8 e6bd 288a 18bd 2ca8 8d3e
00000050: 9750 0cbe bb90 0d3e dc2d 31bd 52bb 043d
00000060: f0e7 073d c179 d73d 0833 e43c 26fb 023b
00000070: 5f67 c9bd 9de3 a13d 53a7 73bd 3b3d 293d
00000080: 1aaa fc3b 63a8 b3bd d15f b1bd b696 12be
00000090: da5c 91bd 28ce 9c3c c220 a9bd faf4 f7bc
000000a0: 3617 92bd 004c 2bbd ddf7 0ebc f598 a5bd
000000b0: 3a3e 4e3d 9daf d6bd 3a44 883d e594 a83c
000000c0: 0e2d d0bd 8366 0c3e 6cc4 dfbd 9e8c b1bd
000000d0: 307f 66bd fc9e 60bd a0d1 583c 8050 02bc
000000e0: d91b 2a3d a19c 9bbd 7ce7 5bbd 08db 17bd
000000f0: 7d2e d7bc 30e0 4fbc 9e83 6b3d 6009 71bc
00000100: d65a f93d 3b6d 94bd 8f8f cebd 3d45 10bd
00000110: 4823 d43d 3dae 923d 40ce c03d 3cfd 26be
00000120: 1dd2 d9bc d9ce 46be 8fbe 0c3c 1c3f d5bc
00000130: 8ad5 023e 38fd eabc aef2 893b 68e9 273c
00000140: 10ce 053e 94f3 463d 3ed3 9c3d 5f89 9fbd
00000150: 67ff b2bd 0a12 7fbc 6b30 583b 67de 1e3e
00000160: c2f8 98bd f567 dabd d831 933c 6eaa 0dbe
00000170: 3b60 0fbc bb22 1f3d 73e5 263d 56db cc3d
00000180: 6fcf 0a3e 8226 86bb 28ed 8d3c ab12 053e
00000190: fa4a b9bd b481 533d d337 053e ff80 3e3e
000001a0: e08a fbbc 889a ac3c 6de9 393e 450c f3bd
000001b0: 39be c7bd d922 143e 15f7 3abe 8c35 51bd
000001c0: 8458 103d c464 26bd 8029 a6bc 06a8 083d
000001d0: 893e 133d 7d74 383d 6878 803d 085f 4ebd
000001e0: 75c0 cabd b682 de3d 1dc0 1e3d 8438 613d
000001f0: feb5 8a3d e0d3 e6bc dabc 3cbd a21b a53d
00000200: b8eb 11bd 977c d73c 527f b8bd 325e 753c
00000210: e5f1 f33d ca60 813d fcf0 abbd 721b 25bd
00000220: 4f4d f23d 58c8 b0bd 7f78 bdbc b415 993c
00000230: 0708 2d3d bd2a 84bc 3458 99bd 3da3 cc3d
00000240: 9b8b 4dbd 50dc 293c 4833 f5bc 474a 9abd
00000250: 0e86 c63d 7b29 e3bd 2304 05be 150f 183d
00000260: 5e13 d63d 5539 8e3c dcb9 90bd cd52 943d
00000270: 868a 093c 3103 57bd 7ec9 cbbd eddc 6cbd
00000280: 903b f03d ffab 8fba e3f3 83bc 6e68 803d
00000290: 9ca0 e9bd 6edd d33d 70aa dcbc 9945 3c3d
000002a0: f82b c1bc 82a4 df3d 0b4c b93d c07a 6b3d
000002b0: eadb 623c 32b9 e33d e409 4c3d e808 d63c
000002c0: 8e0e 9ebd 0e2f d43d 654c 893d 280d f23c
000002d0: 503d db3c df07 dabd 8854 c5bc 5c66 e1bd
000002e0: 780a a43d 436a fa3d 4e59 15bc 682e e2bc
000002f0: 583f e63c 144f d13d a5bf 12bc d77b 5ebd
0.034565642 -0.10166181 0.09060192 0.07823169 0.063080296 -0.08176991 -0.039393887 0.04816598
-0.022469336 0.22083086 -0.024598954 0.04063861 -0.06963113 -0.01320928 0.08735196 -0.035112575
-0.03391117 -0.11277795 -0.03724113 0.27667367 -0.13702618 0.13824742 -0.043256626 0.032405205
0.033180177 0.105212696 0.027856365 0.0019986122 -0.098341696 0.07904742 -0.059485745 0.04131816
0.0077107074 -0.087723516 -0.08660854 -0.14315304 -0.07097788 0.019141272 -0.08258201 -0.030268181
-0.071333334 -0.041820526 -0.008726087 -0.08085815 0.050352313 -0.10482714 0.06653638 0.020578811
-0.101648435 0.1371098 -0.109261364 -0.08669399 -0.05627364 -0.05483912 0.013233572 -0.007953763
0.041530464 -0.07598234 -0.053687558 -0.03707412 -0.026267285 -0.012687728 0.057498567 -0.014711708
0.12175529 -0.072473966 -0.100859754 -0.03522228 0.10358292 0.071621396 0.09414339 -0.16307539
-0.026589448 -0.19414844 0.008590355 -0.02603107 0.12776771 -0.028685197 0.004209838 0.0102485195
0.13066888 0.048572138 0.07657479 -0.07789873 -0.087401204 -0.015568266 0.0032987844 0.15514527
-0.07469322 -0.106643595 0.017968103 -0.13834545 -0.0087509705 0.03885148 0.040746164 0.100027725
0.13555692 -0.004093946 0.017324999 0.12995403 -0.09047504 0.051637366 0.13009576 0.18603896
-0.03070587 0.02106978 0.18155451 -0.118675746 -0.09753079 0.14466418 -0.18258317 -0.051076457
0.035240665 -0.04062344 -0.02028346 0.033363365 0.03594831 0.045032967 0.06272966 -0.050383598
-0.098999895 0.10864775 0.038757432 0.054985538 0.067729935 -0.028177202 -0.04607854 0.08061911
-0.03562519 0.026304526 -0.090086594 0.014976071 0.11911372 0.06317289 -0.083955735 -0.040309377
0.11831152 -0.086319625 -0.023128746 0.018687107 0.042243984 -0.01613366 -0.074875265 0.09992073
-0.050181966 0.010367468 -0.02993168 -0.075336985 0.09693538 -0.11091896 -0.1298986 0.03712376
0.10452913 0.017361322 -0.070667 0.072423555 0.008394843 -0.052493278 -0.09950541 -0.05782788
0.11730111 -0.0010961293 -0.016107505 0.062699184 -0.11407587 0.10344969 -0.02693674 0.04596481
-0.023580536 0.10920049 0.09047707 0.05749011 0.013846377 0.111193076 0.04981412 0.026127294
-0.0771762 0.103605375 0.06704024 0.029547289 0.026762635 -0.106460325 -0.02408816 -0.110058516
0.08009809 0.12227299 -0.00911553 -0.027610019 0.028106377 0.10220161 -0.008956824 -0.05431732

fc.bias f4 [3]
00000000: bbfc cdbd b1a3 e23c 5865 863d
-0.1005797 0.027665945 0.065622985
