model_checkpoints/best_gru_fold_1.pth (torch, 516919 bytes, 21 tensors)

linear1.weight f4 [32, 9]
0	0x3e30bccb	0.17259519
1	0x3e0993bf	0.13435267
2	0xbee328f5	-0.44367185
3	0x3e80f83c	0.25189388
4	0xbe650632	-0.22365645
5	0xbf14ba27	-0.58096546
6	0xbee4887b	-0.44635376
7	0xbc5d8652	-0.013520794
8	0x3d6a9d10	0.057278693
9	0x3dbc0780	0.09181118
10	0xbde54526	-0.1119483
11	0x3d98ae45	0.07455114
12	0xbf252821	-0.64514357
13	0x3d67c0a5	0.056580205
14	0xbed73e9e	-0.4203996
15	0x3e1e31a8	0.1544863
16	0xbf00cd66	-0.50313413
17	0x3f1daae9	0.61588913
18	0x3e6f26d2	0.23354653
19	0xbc1db893	-0.009626525
20	0x3d95956b	0.0730389
21	0x3f84bec3	1.0370716
22	0xbed296cc	-0.41130674
23	0xbef764e6	-0.48319167
24	0xbed3e914	-0.41388762
25	0x3e4984a4	0.19679505
26	0x3f823abc	1.0174174
27	0x3d170540	0.03687024
28	0x3d9a54d8	0.07535714
29	0xbd8e7aa5	-0.06956986
30	0x3efc0fb8	0.49230742
31	0xbf8a2fbd	-1.0795819
32	0x3edc6d90	0.4305234
33	0xbda5d8de	-0.08098005
34	0x3f31d9cf	0.69472975
35	0xbf223e27	-0.63376087
36	0xbd09fda0	-0.03368914
37	0x3ceddb09	0.029035108
38	0xbe6c6bd2	-0.23088005
39	0x3e8f05ca	0.27934104
40	0x3f0efb40	0.5585213
41	0xbed39f25	-0.41332355
42	0xbdb56914	-0.08857933
43	0xbeda07fa	-0.4258421
44	0x3e54caab	0.20780437
45	0xbe058893	-0.1304038
46	0xbe81c887	-0.25348303
47	0xbebddd4d	-0.37082902
48	0x3da4f91d	0.08055327
49	0x3de56bea	0.112022236
50	0x3e321f9b	0.17394869
51	0xbecdc86d	-0.40191975
52	0xbe4936f7	-0.19649874
53	0x3d8a2346	0.06745009
54	0xbcdf41fa	-0.02725314
55	0x3e7a5a3e	0.24448487
56	0xbe9dc982	-0.308178
57	0x3f1230f2	0.57105935
58	0x3d0082fa	0.03137491
59	0x3ea2b036	0.31775063
60	0xbe2d2121	-0.16907169
61	0xbe25d940	-0.16196156
62	0xbecf4744	-0.4048406
63	0x3cf16633	0.029467678
64	0x3b09c511	0.0021022002
65	0x3d2a2526	0.041539334
66	0xbecafa68	-0.3964417
67	0xbe3f1b52	-0.18662766
68	0xbcfd38e0	-0.03091091
69	0xbe5d88d0	-0.21634221
70	0x3eba6828	0.3640759
71	0x3f5fe542	0.87459195
72	0xbd1dd2fd	-0.038531292
73	0xbd961b60	-0.0732944
74	0x3e7eead2	0.24894264
75	0x3e68808d	0.22705288
76	0xbd913320	-0.070898294
77	0xbe6de06c	-0.23230141
78	0xba170f82	-0.0005762504
79	0xbf137408	-0.57598925
80	0xbf66f7d6	-0.9022192
81	0xbe29404c	-0.16528434
82	0xbdbf6172	-0.09344758
83	0xbc4abac9	-0.012373635
84	0x3f139259	0.57645184
85	0xbf205daa	-0.6264292
86	0x3e5e4b82	0.21708491
87	0xbecab846	-0.39593714
88	0x3ed634cd	0.4183716
89	0xbf24ef3c	-0.6442754
90	0x3e411920	0.1885724
91	0x3db04931	0.0860771
92	0xbe16ddd7	-0.14733063
93	0x3f2552c5	0.6457942
94	0x3e4124a8	0.1886164
95	0x3f06ca77	0.52652687
96	0xbde84e10	-0.11343014
97	0xbef5e9ae	-0.48029846
98	0xbf2baddf	-0.6706218
99	0xbdbeb868	-0.093125165
100	0xbd7c030d	-0.061526347
101	0x3bfaabe4	0.0076498855
102	0xbefdfe06	-0.49607867
103	0xbe7885bc	-0.24269766
104	0xbe0c3f87	-0.13696109
105	0x3e879aba	0.26485234
106	0x3ec218e4	0.37909615
107	0x3e14763e	0.14498231
108	0xbd667d43	-0.056271803
109	0xbddc6bf9	-0.10762782
110	0x3d922f18	0.07137889
111	0xbf41fa72	-0.75772774
112	0xbf3ba85b	-0.73303765
113	0x3c839afc	0.016065113
114	0x3f06c30e	0.5264138
115	0x3ec48f45	0.38390556
116	0xbe982e8d	-0.29723015
117	0x3e9fa2aa	0.3117879
118	0x3bf86dce	0.007581449
119	0xbe8a3ff7	-0.27001926
120	0xbeea6559	-0.45780447
121	0x3e09580e	0.13412496
122	0xbe99de4c	-0.30052412
123	0x3ea572e5	0.3231422
124	0x3f02bd1d	0.51069814
125	0x3e9fab1c	0.31185234
126	0xbcfc9ff8	-0.030837998
127	0xbe15e97d	-0.1463985
128	0xbd2051cd	-0.03914051
129	0x3d804dcc	0.062648386
130	0xbee6c63b	-0.45073113
131	0xbe532d75	-0.20622809
132	0x3ea095e3	0.31364354
133	0x3e577c0d	0.21043415
134	0xbe2ec0d1	-0.17065741
135	0xbd026b27	-0.03184047
136	0xbd8fa98b	-0.0701476
137	0xbdf4b2ce	-0.11948167
138	0xbe74db8e	-0.23911878
139	0xbec34356	-0.3813731
140	0x3eee3fcf	0.46533057
141	0x3ea33243	0.31874284
142	0x3d62a0ff	0.05532932
143	0xbf6680a5	-0.90040046
144	0x3d368c1d	0.044567216
145	0xbe867fa3	-0.26269254
146	0xbe9d8075	-0.30762067
147	0x3de3f591	0.111308224
148	0xbad01ece	-0.0015878321
149	0xbf082ad7	-0.5319037
150	0x3e805521	0.25064948
151	0xbe269d95	-0.1627105
152	0x3e884f7c	0.26623142
153	0xbdcd06c9	-0.1001106
154	0xbda6e3eb	-0.08148941
155	0xbe077666	-0.13228759
156	0x3e0a372e	0.13497612
157	0x3e737f67	0.23779069
158	0x3e629307	0.22126399
159	0xbea1f187	-0.31629583
160	0x3ebfb405	0.37442032
161	0xbe64b4f6	-0.22334656
162	0x3e342d7c	0.17595476
163	0xbca5df8f	-0.020248203
164	0x3cbb44cd	0.022859955
165	0x3e0ac307	0.1355096
166	0xbe743466	-0.23848113
167	0x3f028bd8	0.50994635
168	0xbe3edc4e	-0.18638727
169	0x3f0bde84	0.54636407
170	0xbf64b9af	-0.8934583
171	0xbe11a57c	-0.14223284
172	0xbaec6fac	-0.0018038652
173	0xbd451091	-0.048111502
174	0xbde9bb41	-0.11412669
175	0x3ec45cfb	0.38352188
176	0xbf22ea56	-0.6363882
177	0xbebf3218	-0.37342906
178	0xbf17b340	-0.5925789
179	0xbdb71985	-0.08940414
180	0xbe0bd9d3	-0.13657312
181	0x3c9d7e64	0.019225307
182	0x3d90b1d7	0.0706517
183	0xbe16285d	-0.14663835
184	0xbe7a9c25	-0.24473627
185	0x3d52fdff	0.05151176
186	0xbcab8b3a	-0.020940412
187	0x3e8979a2	0.2685061
188	0x3dcfd475	0.10147945
189	0x3e0eb544	0.13936335
190	0xbe441b8d	-0.19151135
191	0xbe32959f	-0.17439888
192	0xbe256e30	-0.16155314
193	0xbdf89bb8	-0.12139076
194	0x3f00df6b	0.5034091
195	0x3ea47ba1	0.3212557
196	0x3ed4c8f7	0.41559574
197	0xbf0313c1	-0.5120202
198	0xbd039f50	-0.032134354
199	0x3e0fb77b	0.14034836
200	0xbe416879	-0.1888751
201	0x3ef26ffc	0.47351062
202	0xbe883ef1	-0.2661052
203	0xbe9e7f25	-0.3095638
204	0xbcf8bb4e	-0.030362751
205	0x3e811275	0.25209394
206	0x3e42b838	0.19015586
207	0xbafc5eae	-0.0019254291
208	0x3e23b89b	0.1598839
209	0xbd85b5a0	-0.06528783
210	0x3e44b99c	0.1921143
211	0x3e671261	0.22565605
212	0xbf1eb1b5	-0.6198991
213	0xbea0bd0d	-0.31394234
214	0xbe72bf8d	-0.23705883
215	0xbe3265ea	-0.1742169
216	0x3e09db12	0.13462475
217	0xbe894043	-0.2680684
218	0xbdc91349	-0.098181315
219	0x3ead1c0d	0.33810464
220	0x3e0dd51f	0.1385083
221	0x3e76c991	0.24100329
222	0xbe2f0e91	-0.170954
223	0x3d726382	0.05917693
224	0x3f2c752a	0.6736628
225	0xbe06f530	-0.13179469
226	0x3e021584	0.1270352
227	0xbda19a43	-0.07890751
228	0xbe2e98a9	-0.17050423
229	0xbe9dcc3f	-0.3081989
230	0xbe4dd914	-0.2010234
231	0xbbf8cf71	-0.0075930883
232	0xbed896eb	-0.4230264
233	0xbe6af64f	-0.22945522
234	0xb8951154	-7.108101e-05
235	0x3ccd783d	0.025081748
236	0xbd462f44	-0.04838492
237	0xbea6675c	-0.32500732
238	0x3ec62dce	0.3870682
239	0x3e48b793	0.19601278
240	0x3e97446b	0.29544386
241	0x3ea38191	0.3193479
242	0x3e10c405	0.14137276
243	0xbdefb108	-0.11703688
244	0xbd4b75db	-0.049672943
245	0xbd8cd124	-0.06875828
246	0xbd204c2a	-0.039135136
247	0xbe3e5b72	-0.18589571
248	0xbf017b39	-0.5057865
249	0x3c6a05cc	0.014283609
250	0x3f015b80	0.5053024
251	0x3e793e78	0.24340236
252	0x3e14ce3d	0.14531799
253	0xbdd1d85d	-0.10246346
254	0xbe1dcbe3	-0.15409808
255	0xbe0ebcfe	-0.13939282

linear1.bias f4 [32]
0	0x3ef78e6f	0.48350856
1	0xbe2e23e4	-0.17005879
2	0xbf31a190	-0.6938715
3	0x3eca1d8b	0.39475664
4	0xbcac93f5	-0.021066645
5	0x3e385a32	0.18003157
6	0x3c194f29	0.009357252
7	0xbf0eb68e	-0.55747306
8	0xbdd19c90	-0.1023494
9	0xbecb0767	-0.39654085
10	0x3e810c0e	0.2520451
11	0xbed9b865	-0.42523494
12	0xbdf3f470	-0.11911857
13	0xbe1e7444	-0.1547404
14	0xbe23a76b	-0.15981834
15	0x3d0a2f90	0.033736765
16	0x3d6b271d	0.05741035
17	0xbe092b51	-0.1339543
18	0xbe651d31	-0.22374417
19	0xbde008a6	-0.109391496
20	0xbee22f42	-0.4417668
21	0xbdf98ca6	-0.1218503
22	0xbdf9d20e	-0.12198268
23	0xbcba55fd	-0.02274608
24	0xbdd87790	-0.1056968
25	0xbeee198c	-0.46503866
26	0xbec8596f	-0.39130732
27	0xbdbc75bf	-0.09202146
28	0xbd214ffd	-0.039382923
29	0x3eb0c05e	0.34521765
30	0xbeb2fc06	-0.34957904
31	0xbe87f7f0	-0.2655635

linear2.weight f4 [64, 32]
0	0xbe3cc024	-0.18432671
1	0xbdab5f69	-0.083678074
2	0xbe36aa55	-0.17838414
3	0xbe17e295	-0.14832528
4	0xbe1679b7	-0.14694868
5	0xbd79cb69	-0.060985003
6	0x3e20dc7d	0.1570911
7	0xbd27d038	-0.040970057
8	0xbeb274bc	-0.34854686
9	0xbf0fe404	-0.562073
10	0xbe73e1fa	-0.23816672
11	0x3e68134d	0.22663613
12	0xbe9b7486	-0.30362338
13	0x3dfde534	0.12397233
14	0xbf05a2da	-0.52201617
15	0xbdea8983	-0.114520095
16	0x3e8ad3aa	0.27114612
17	0xbdd09821	-0.10185266
18	0x3e711719	0.23543967
19	0x3e990029	0.29882935
20	0x3e5c614f	0.21521495
21	0xbe19732a	-0.14985338
22	0x3e3e84e4	0.18605381
23	0xbe5dccf1	-0.2166021
24	0xbeb2b4ef	-0.34903666
25	0x3d880d4c	0.06643161
26	0x3c4687ec	0.012117367
27	0xbe4e70cd	-0.20160218
28	0x3bc2f6c0	0.005949825
29	0x3e6a6e5c	0.22893661
30	0xbd751be2	-0.059841044
31	0x3cab906d	0.020942891
32	0xbe830b57	-0.2559459
33	0x3b973012	0.0046138847
34	0x3d9deb6a	0.07710917
35	0xbdc00586	-0.093760535
36	0xbbd24aff	-0.0064176316
37	0xbd08d287	-0.0334039
38	0xbcfb3100	-0.030663013
39	0xbe82e06f	-0.25561854
40	0x3d97d0d4	0.07412878
41	0x3d2e7904	0.04259588
42	0x3eee6ad9	0.46565893
43	0x3d96c6da	0.07362147
44	0xbd9e32dc	-0.077245444
45	0xbe684dba	-0.226859
46	0xbdcc61ee	-0.09979616
47	0x3d7fcc66	0.06245079
48	0xbe1105ea	-0.14162412
49	0x3ca06c0d	0.019582773
50	0x3cc1ef9b	0.023673823
51	0xbdd1be1f	-0.10241341
52	0xbd237a05	-0.03991129
53	0x3dcb9721	0.09940935
54	0xbacd0ccd	-0.0015644074
55	0xbdefca6f	-0.11708533
56	0x3ebdc534	0.37064517
57	0xbf65ed68	-0.8981538
58	0x3de0101f	0.10940575
59	0x3b9e5fb6	0.004833187
60	0xbe425044	-0.18975931
61	0xbca4ed65	-0.02013273
62	0xbf0ab202	-0.5417787
63	0xbeaa6c47	-0.33285734
64	0xbd5257b9	-0.05135319
65	0x3df22160	0.11822772
66	0x3e2ab7b5	0.16671641
67	0x3e6fcd43	0.23418145
68	0xbe59e62a	-0.21279207
69	0x3e14ac0a	0.14518753
70	0xbcd5d1f4	-0.02610109
71	0xbc92bbea	-0.01791187
72	0xbdb147e1	-0.08656288
73	0x3e556411	0.20838954
74	0xbed6f829	-0.41986206
75	0xbdd776e7	-0.10520726
76	0xbce3a8e4	-0.027790494
77	0x3e33f6f6	0.17574677
78	0xbcc64268	-0.024201587
79	0x3de94c36	0.11391489
80	0xbd1c6cb2	-0.038189597
81	0x3d07ad15	0.03312405
82	0xbd8dcb0b	-0.06923493
83	0xbe4596d7	-0.19295822
84	0x3d900946	0.07033019
85	0xbf56bbd3	-0.83880347
86	0x3d5532fb	0.052050572
87	0xbe6ec099	-0.23315658
88	0xbf8da91f	-1.1067237
89	0x3dd7123f	0.10501527
90	0x3d3ee230	0.046602428
91	0x3dd50170	0.10400665
92	0xbe9bf9f9	-0.30464152
93	0x3dd605da	0.10450335
94	0x3e65d791	0.22445513
95	0xbe15da78	-0.1463412
96	0x3e7ccba3	0.24687056
97	0x3e97cfea	0.29650813
98	0xbea5e662	-0.3240233
99	0xbf80b0be	-1.0053937
100	0x3edc6f2b	0.43053564
101	0xbddcd0ca	-0.10782011
102	0xbee16295	-0.44020525
103	0x3dbf375c	0.09336731
104	0x3e9efcd2	0.31052262
105	0xbef2ec70	-0.47446012
106	0xbeb36403	-0.3503724
107	0x3ddf0dc1	0.10891295
108	0xbb0456f1	-0.0020193423
109	0x3eb00b3c	0.3438357
110	0x3daccdbc	0.08437678
111	0xbefc5cb1	-0.49289468
112	0x3f0b2949	0.5435987
113	0xbead050b	-0.3379291
114	0xbf7b5000	-0.98168945
115	0xbd062823	-0.03275312
116	0xbf27ad64	-0.6549895
117	0xbda016af	-0.078168266
118	0xbeaac79c	-0.33355415
119	0xbe43bd84	-0.19115263
120	0x3ba08dc6	0.004899713
121	0xbe9e93cc	-0.30972135
122	0x3e1fa150	0.1558888
123	0xbeee4898	-0.4653976
124	0x3ecba40d	0.39773598
125	0xbcb39748	-0.021922722
126	0x3c7e62c6	0.015526479
127	0xbed1fdca	-0.41013938
128	0xbefd380d	-0.49456826
129	0x3dfab7e4	0.122421056
130	0xbb619c00	-0.0034425259
131	0xbd94dea5	-0.072690286
132	0x3f12dcb3	0.5736801
133	0xbe35583c	-0.1770944
134	0x3ead8b24	0.33895218
135	0xbd311173	-0.04322953
136	0x3e8e9ec3	0.278555
137	0xbef1d51f	-0.4723291
138	0xbe546509	-0.20741667
139	0xbeabeafd	-0.3357772
140	0xbe777ee4	-0.24169499
141	0x3c62d720	0.013845235
142	0xbe494e9e	-0.19658896
143	0xbe25bcb5	-0.16185267
144	0xbe9e0de9	-0.30869988
145	0xbea26803	-0.3171998
146	0x3e92fb22	0.28707224
147	0xbe78e6a8	-0.24306738
148	0xbf25a644	-0.64706826
149	0x3e9fed39	0.31235674
150	0xbf9ae35b	-1.2100633
151	0xbf4066b4	-0.7515671
152	0x3e2bdf24	0.1678434
153	0xbf35f634	-0.710788
154	0xbea6a732	-0.32549435
155	0xbed6c063	-0.41943654
156	0x3bf6bead	0.0075300545
157	0xbcb664bd	-0.022264833
158	0xbf04c67f	-0.5186538
159	0x3da3f59c	0.08005831
160	0xbf0f9144	-0.5608103
161	0x3ed513ca	0.4161666
162	0xbe87d151	-0.26526883
163	0xbdeb3bbf	-0.11486005
164	0xbd99c6a6	-0.07508592
165	0xbf57f36b	-0.843558
166	0xbe90a74d	-0.2825264
167	0x3d986d9f	0.074427836
168	0x3e312ba4	0.17301804
169	0x3e43e569	0.19130482
170	0xbe6dafce	-0.23211595
171	0x3e63d9f9	0.22251119
172	0x3ea24179	0.31690577
173	0x3e77240a	0.24134842
174	0x3da2f539	0.07956929
175	0xbe9506c0	-0.29106712
176	0xbd6f2cc5	-0.058392305
177	0xbdc0b676	-0.09409802
178	0xbeedcd2c	-0.46445596
179	0x3dfcfa68	0.12352449
180	0x3e285b84	0.1644116
181	0xba0f2824	-0.00054609985
182	0xbd9af0f6	-0.07565491
183	0xbe3f43e9	-0.1867825
184	0x3eaf3c65	0.34225765
185	0x3d81b5d8	0.06333512
186	0x3e9f38de	0.31098074
187	0xbca27cfe	-0.019834992
188	0xbe0ef83b	-0.1396188
189	0xbf2b01a6	-0.6679939
190	0xbe4ddfe9	-0.20104946
191	0xbf259cff	-0.6469268
192	0x3ebde3c6	0.3708784
193	0x3cbb7270	0.022881716
194	0xbeacca11	-0.33747914
195	0xba5c64d9	-0.00084073615
196	0x3de3783f	0.111069195
197	0xbca3a145	-0.01997436
198	0x3e8d0058	0.27539325
199	0xbd730d6b	-0.05933897
200	0x3e071dbb	0.13194935
201	0xbbd7c719	-0.0065850136
202	0x3dd2ea13	0.10298552
203	0x3e9fce82	0.3121224
204	0x3d6f163a	0.058370806
205	0x3e21d737	0.15804754
206	0xbc6e7804	-0.014554981
207	0xbe90e780	-0.2830162
208	0xbe1b18a0	-0.15146112
209	0x3d3f9e96	0.0467821
210	0xbe694451	-0.22779967
211	0x3d989d35	0.0745186
212	0x3e41da87	0.18931018
213	0x3cc4bc57	0.024015589
214	0x3ea4a8b8	0.32159972
215	0xbcf12a85	-0.02943922
216	0xbd94e911	-0.072710164
217	0xbe810206	-0.25196856
218	0xbd4d725e	-0.050157897
219	0xbe8f303d	-0.2796649
220	0x3cd5d2ca	0.026101489
221	0xbd3d20ca	-0.04617385
222	0x3e30e029	0.1727301
223	0xbebb0ce7	-0.3653328
224	0x3d02a81b	0.0318986
225	0x3cd8f9cb	0.026486298
226	0x3dd9733f	0.106176846
227	0x3d95a980	0.0730772
228	0xbe9cef83	-0.30651483
229	0xbebae153	-0.36500034
230	0x3d1bb406	0.03801348
231	0x3e0c9b14	0.13731033
232	0xbe1018fd	-0.14072032
233	0xbeb5767c	-0.3544196
234	0x3dc0d420	0.0941546
235	0x3cebb167	0.028771115
236	0xbe05c77b	-0.13064377
237	0x3f0e9a7d	0.5570448
238	0xbebffe79	-0.37498835
239	0xbe44c2c7	-0.19214927
240	0x3b2998a6	0.002587834
241	0xbefa63df	-0.4890432
242	0xbda3d3b1	-0.07999361
243	0xbde1bcbf	-0.110223286
244	0x3e5fa5b6	0.21840557
245	0x3dc00237	0.093754224
246	0x3e7af617	0.24507938
247	0xbdc18679	-0.09449477
248	0x3e12de77	0.14342676
249	0xbd27b0f1	-0.04094023
250	0x3e0dda36	0.13852772
251	0x3d9d17f4	0.07670584
252	0xbe9409ca	-0.28913718
253	0xbe6e6b3c	-0.23283094
254	0xbecd7878	-0.40130973
255	0x3cf8a51d	0.03035217

linear2.bias f4 [64]
0	0xbc559805	-0.013036733
1	0x3e812a5e	0.25227636
2	0xbdb3b543	-0.08774807
3	0x3e8028c9	0.25031117
4	0xbcd6abb6	-0.026204925
5	0xbea9088c	-0.33014333
6	0x3e77b192	0.24188831
7	0xbd279626	-0.040914677
8	0x3dcda57e	0.10041331
9	0xbebe272d	-0.37139264
10	0xbefde8a9	-0.49591568
11	0xbeb6caf5	-0.3570172
12	0xbdb56b1c	-0.0885832
13	0xbe500a7b	-0.20316498
14	0xbc858b11	-0.016301664
15	0xbefb0cc3	-0.49033174
16	0x3e659eb5	0.22423823
17	0x3e3dfcfe	0.1855354
18	0xbd9862aa	-0.07440694
19	0xbed7b27a	-0.42128354
20	0xbe45d352	-0.19318894
21	0xbe2f4571	-0.17116334
22	0xbe5d4614	-0.21608764
23	0x3de8e726	0.11372213
24	0x3c92cba6	0.017919373
25	0xbe2a11c8	-0.16608346
26	0xbd602c7c	-0.054729924
27	0x3da9b301	0.082860954
28	0xbe8fabcc	-0.28060758
29	0xbd7651f2	-0.060136743
30	0x3e427486	0.18989763
31	0xbe9efd31	-0.31052545
32	0xbe847721	-0.25872138
33	0x3cc78c2d	0.024358833
34	0xbe2ddfe5	-0.1697994
35	0x3e372f04	0.17889029
36	0x3d2f5537	0.042805877
37	0xbd67124e	-0.05641394
38	0x3c3b103d	0.011417446
39	0xbd4bb7e0	-0.049735904
40	0xbdb3aac9	-0.08772809
41	0x3d24b2f9	0.040209744
42	0x3daefccb	0.0854431
43	0xbef436d0	-0.4769807
44	0x3e6ace00	0.22930145
45	0xbb277f10	-0.0025557913
46	0xbe423c58	-0.18968332
47	0xbe620706	-0.22072992
48	0x3e1cfe9d	0.15331502
49	0xbe8c8a7e	-0.2744941
50	0xbe52a7d9	-0.20571841
51	0xbcd9eca3	-0.026602095
52	0x3f01d2d3	0.5071232
53	0xbe629f90	-0.22131181
54	0xbd935464	-0.071938306
55	0x3e3976bb	0.18111698
56	0x3dccc678	0.099987924
57	0xbe5a0438	-0.21290672
58	0x3dab49f1	0.083637126
59	0x3e10fc04	0.14158636
60	0xbe4edf20	-0.20202303
61	0xbe0d7401	-0.13813783
62	0xbd94ac3e	-0.07259415
63	0xbc9128fc	-0.017719738

gru_short.weight_ih_l0 f4 [96, 64]
0	0x3e4dda45	0.20102794
1	0x3ef08bc9	0.46981648
2	0x3f31b049	0.69409615
3	0x3e2fca48	0.17167008
4	0x3d8fd649	0.070232935
5	0x3f38af95	0.72142917
6	0xbf157cb8	-0.5839343
7	0xbe77a572	-0.24184206
8	0xbfa52786	-1.2902687
9	0x3e9e12b4	0.30873644
10	0x3ed6355c	0.41837585
11	0x3ef930e8	0.48670125
12	0x3f2e2485	0.68024474
13	0x3f4462c5	0.7671321
14	0x3e5eaa21	0.21744587
15	0xbef24571	-0.47318605
16	0xbe132c15	-0.14372285
17	0x3e6d8c3a	0.23198023
18	0xbea97610	-0.33097887
19	0x3c64d302	0.013966324
20	0x3ddbeb79	0.10738272
21	0x3e6aecfe	0.22941968
22	0x3de78474	0.1130456
23	0xbe96d85a	-0.29461938
24	0x3cb30fda	0.021858145
25	0xbe099e79	-0.13439359
26	0x3f517282	0.8181535
27	0xbfd3607a	-1.6513817
28	0xbf5916d2	-0.84800446
29	0x3f03f32a	0.51542914
30	0xbe816300	-0.25270844
31	0x3e8e69bd	0.27815047
32	0x3d6b5a56	0.057459198
33	0xbe7a7723	-0.2445951
34	0x3f12666f	0.5718755
35	0xbf297d32	-0.6620666
36	0xc014fe22	-2.328011
37	0xbec55455	-0.38540903
38	0x3f153e9f	0.5829868
39	0x3e312753	0.17300157
40	0xc00d4352	-2.207234
41	0xbe6cd116	-0.23126635
42	0x3e576a7b	0.21036713
43	0xbd24f281	-0.040270332
44	0xbd9c3993	-0.07628169
45	0xb978f8b2	-0.00023743769
46	0x3e8f4c0a	0.279877
47	0x3e1f8254	0.1557706
48	0xbec7555e	-0.38932317
49	0x3ef2e35c	0.47439086
50	0x3df810d4	0.12112585
51	0x3d9cbd7e	0.0765333
52	0xbc48098c	-0.012209307
53	0x3de36642	0.111034885
54	0x3e83307c	0.25622928
55	0x3e275a8e	0.16343138
56	0x3f21a2b5	0.63138896
57	0xbe3c74fd	-0.18404002
58	0x3ee97a3e	0.45601076
59	0x3debe102	0.11517526
60	0xbe8d9db0	-0.2765937
61	0xbe98f399	-0.2987335
62	0x3eabc7b4	0.335508
63	0xbe9be8f8	-0.3045118
64	0xbebb8bb8	-0.36630034
65	0x3ed1d2d5	0.40981165
66	0xbdd548a3	-0.10414245
67	0x3e890e0c	0.2676853
68	0x3f60f8b7	0.8787951
69	0x3ebbe493	0.36697826
70	0x3e291c5a	0.16514722
71	0xbe4dcd8d	-0.20097943
72	0x3e3699e0	0.17832136
73	0xbdbc9329	-0.09207756
74	0xbf444309	-0.7666479
75	0xbec24144	-0.3794042
76	0x3ec4072d	0.38286725
77	0xbef480e6	-0.47754592
78	0x3ec9c529	0.39408234
79	0x3e2dc266	0.16968688
80	0xbcfbf3cc	-0.0307559
81	0x3e8ea85b	0.2786282
82	0x3e4fce14	0.20293456
83	0xbfd9ef90	-1.7026234
84	0xbf3f0f16	-0.74632394
85	0x3dec6c5d	0.11544106
86	0xbf3aa1a7	-0.7290291
87	0x3f63e6c5	0.89024
88	0x3f0fe652	0.56210816
89	0xbea6e450	-0.32596064
90	0x3e8a93b9	0.27065828
91	0x3d80be5b	0.062863074
92	0x3ee406fe	0.44536585
93	0xbf14e29f	-0.58158296
94	0x3f973872	1.1814101
95	0xbdb4d365	-0.08829383
96	0xbf157dca	-0.58395064
97	0xbe9a1e34	-0.30101168
98	0xbf44f53c	-0.769367
99	0xbce81dde	-0.028334554
100	0x3f66819e	0.9004153
101	0xbf8d1d8e	-1.1024644
102	0xbeedd754	-0.46453345
103	0xbe58caa4	-0.21171051
104	0xbe26eab3	-0.16300468
105	0xbfae949b	-1.3639101
106	0x3e717739	0.23580636
107	0xbf5332d6	-0.82499444
108	0xbe99b64e	-0.300219
109	0xbedac31f	-0.4272699
110	0x3ea83566	0.3285324
111	0xbccedc88	-0.025251642
112	0xbf00bcb8	-0.5028796
113	0xbf340d8d	-0.70333177
114	0xbeccda6d	-0.40010396
115	0x3e10891a	0.141148
116	0xbe6f80da	-0.23388997
117	0x3f4a304a	0.78979933
118	0xbee3b9a2	-0.44477564
119	0xbf90191f	-1.1257666
120	0xbdd4ac1f	-0.10384392
121	0x3bed11ab	0.007234772
122	0xbe3fb802	-0.18722537
123	0xbe34c3a2	-0.17652753
124	0xbe16233f	-0.14661883
125	0x3e789c51	0.2427838
126	0xbececffa	-0.4039305
127	0xbe2e7422	-0.17036489
128	0x3ed0a80b	0.40753207
129	0xbf7553a0	-0.95830727
130	0xbe44a179	-0.19202222
131	0x3eabb42e	0.33535904
132	0x3e3e619d	0.18591924
133	0xbfa7b3f1	-1.3101789
134	0xbd088c52	-0.033336945
135	0xbec8dea0	-0.3923235
136	0xbe3e48fb	-0.18582527
137	0x3f5c8229	0.8613611
138	0xbeed8c21	-0.46395972
139	0x3e7b6fcb	0.24554364
140	0x3e173eab	0.1477
141	0x3f2808be	0.6563834
142	0x3e919f53	0.28441867
143	0x3f40f66d	0.75376016
144	0xbd82c75b	-0.0638568
145	0xbdce0e7a	-0.10061355
146	0xbed5b566	-0.4173996
147	0x3f5a16c3	0.8519098
148	0x3f0f40d7	0.5595831
149	0xbf738d51	-0.95137507
150	0x3d9db623	0.077007554
151	0xbe5b0fe2	-0.21392778
152	0x3f6745a7	0.90340656
153	0x3f4b3960	0.7938442
154	0xbeb98452	-0.36233765
155	0x3e89ae84	0.26890957
156	0xbf3684e9	-0.71296555
157	0x3f25f263	0.6482298
158	0xbdaa3025	-0.08309964
159	0x3e3f6d92	0.18694142
160	0xbed78fd7	-0.4210193
161	0x3d462273	0.048372697
162	0xbdaa4ca6	-0.08315401
163	0xbb6b7547	-0.0035928057
164	0x3d727260	0.059191108
165	0xbef9f07a	-0.48816282
166	0xbeb90a32	-0.3614059
167	0x3e4c0d67	0.19926988
168	0xbdd82749	-0.10554368
169	0x3e8c00da	0.273444
170	0xbe8e2f3b	-0.2777041
171	0xbf1761c8	-0.5913358
172	0x3e2e0560	0.16994238
173	0x3cbd95e1	0.023142757
174	0x3dfd5777	0.12370198
175	0x3f0da12f	0.5532407
176	0xbf2636d7	-0.6492743
177	0xbf1c4e18	-0.6105666
178	0x3f5f2b23	0.87175196
179	0xbe5eeb8b	-0.2176954
180	0xbe50224f	-0.20325588
181	0xbe54755a	-0.20747891
182	0xbc57ec0c	-0.013178837
183	0x3f47977e	0.77965534
184	0xbe6da094	-0.23205787
185	0x3e8b8434	0.272493
186	0xbdd8d53e	-0.10587548
187	0xbfa73d2d	-1.3065544
188	0xbb855347	-0.0040687653
189	0x3db075ca	0.086162165
190	0x3f6ee05e	0.9331111
191	0xbe2eb3d5	-0.17060788
192	0xbe11b036	-0.14227375
193	0x3ca2d767	0.019878102
194	0xbed8f78e	-0.4237637
195	0x3ee5092b	0.44733557
196	0x3e9099bd	0.28242293
197	0xbe2c2ea8	-0.16814673
198	0xbe040383	-0.12891965
199	0x3ea58fc3	0.32336244
200	0x3df5c696	0.12000768
201	0x3f8a5c58	1.0809431
202	0x3f72ed85	0.94893676
203	0xbd0094cc	-0.031391904
204	0xbe5a68a9	-0.21328987
205	0xbed87786	-0.4227869
206	0xbe97752e	-0.29581589
207	0xbf20e94b	-0.62855977
208	0x3d4a7e4f	0.049436864
209	0x3df4de90	0.11956513
210	0xbe0c3cec	-0.13695115
211	0xbe8f9587	-0.28043768
212	0x3ea150ea	0.31507045
213	0x3e5a4378	0.213148
214	0x3e3764a2	0.17909482
215	0xbe12346c	-0.1427781
216	0x3e9a9bc4	0.30196965
217	0xbcacb295	-0.021081248
218	0x3eb9c0cb	0.36279902
219	0xbdf8a081	-0.12139989
220	0x3edd1b06	0.4318468
221	0x3bf96a6a	0.0076115625
222	0xbd9e48bc	-0.07728717
223	0x3e9e6b50	0.30941248
224	0xbc871f54	-0.01649443
225	0xbc8346b0	-0.016024917
226	0x3f407df2	0.7519218
227	0x3f0a8025	0.54101783
228	0xbce6077c	-0.02807974
229	0xbe31d6a8	-0.17367041
230	0x3dfc9bc5	0.12334398
231	0x3e4b02c5	0.19825275
232	0x3ded4102	0.11584665
233	0x3d15eb53	0.036601376
234	0x3e9ca681	0.30595782
235	0x3ec578c0	0.38568687
236	0x3f9c76a9	1.2223712
237	0x3f1acb81	0.6046677
238	0x3e913a63	0.28364858
239	0x3d7cc1d4	0.061708286
240	0xbd8bbf9e	-0.068236575
241	0x3e8a3755	0.2699534
242	0x3eca6f11	0.39537862
243	0xbe9be870	-0.30450773
244	0xbce04e80	-0.027381182
245	0xbf3e3e2d	-0.7431362
246	0xbf8c5809	-1.0964366
247	0xbdfc0213	-0.12305083
248	0x3e07348a	0.13203636
249	0xbdea2293	-0.11432376
250	0xbf668106	-0.90040624
251	0x3c43e33b	0.011956031
252	0x3d756d20	0.059918523
253	0x3d32e731	0.043677513
254	0xbde35235	-0.11099664
255	0x3e30e173	0.17273502

gru_short.weight_hh_l0 f4 [96, 32]
0	0xbf250d84	-0.6447375
1	0x3de19f82	0.11016752
2	0x3f08bde4	0.5341475
3	0x3e69dbe7	0.22837792
4	0x3dcaa790	0.09895241
5	0xbeaa0b51	-0.3321176
6	0xbe815c74	-0.2526585
7	0xbd98b9f7	-0.07457345
8	0xbe6c06f8	-0.23049533
9	0x3f35b482	0.7097856
10	0xbe8c50ae	-0.27405304
11	0xbca0db25	-0.019635746
12	0x3de738b4	0.11290112
13	0xbdf6e156	-0.12054698
14	0xbf8943c5	-1.0723807
15	0x384d673e	4.897196e-05
16	0x3e7c825b	0.24659102
17	0x3e2f0d2c	0.17094868
18	0xbfad45ce	-1.3536928
19	0xbfc36574	-1.5265336
20	0x3f111174	0.56667256
21	0x3fcc89ba	1.5979531
22	0x3ed6f444	0.41983235
23	0x3eb1377d	0.34612647
24	0x3d10f122	0.035386212
25	0xbcfa848f	-0.030580787
26	0x3ea0f3ea	0.31436092
27	0xbd31891e	-0.043343656
28	0xbe41fb6c	-0.18943566
29	0x3fb51501	1.4147035
30	0xbeee6300	-0.46559906
31	0xbe92a963	-0.28644857
32	0xbf0e1d3f	-0.55513376
33	0x3eb916d2	0.36150223
34	0xbe2a1865	-0.16610868
35	0xbf2b30ac	-0.6687114
36	0xbea62ff2	-0.32458454
37	0xbe98d0a5	-0.29846683
38	0xbd334b23	-0.043772828
39	0x3e1d579d	0.15365453
40	0xbecb9be9	-0.39767388
41	0x3cf69d66	0.03010435
42	0xbe3243fd	-0.17408748
43	0xbdfd14fe	-0.123575196
44	0x3cde9107	0.027168764
45	0x3e3c344b	0.18379323
46	0x3e182594	0.14858085
47	0xbe0e1fa5	-0.13879259
48	0xbeddade0	-0.4329672
49	0x3cd95bf4	0.026533104
50	0xbf810615	-1.0079981
51	0x3f2cb302	0.67460644
52	0xbdf8f376	-0.121558115
53	0x3eeb6972	0.45978886
54	0x3f1633bf	0.5867271
55	0x3e37a6db	0.17934744
56	0x3d780043	0.060547125
57	0xbdf3ea0a	-0.11909874
58	0xbdb96509	-0.09052474
59	0x3d758a81	0.05994654
60	0x3fcb38ac	1.587667
61	0xbe3658f3	-0.17807369
62	0x3e255880	0.16147041
63	0x3c836259	0.016038107
64	0xbefbb2ae	-0.4915976
65	0xbd350cd3	-0.044201683
66	0x3b925b78	0.0044664703
67	0xbfaa5ced	-1.3309609
68	0xbdd244c5	-0.10267023
69	0x3ece017d	0.4023551
70	0xbf1871ac	-0.5954845
71	0x3d99f5ce	0.07517587
72	0x3fcfe79c	1.6242557
73	0x3e5d8748	0.21633637
74	0x3ef1daef	0.47237346
75	0xbe29b4ea	-0.1657292
76	0xbd9d2aec	-0.07674202
77	0xbcc69172	-0.024239276
78	0x3f00b72f	0.50279516
79	0x3d979028	0.074005425
80	0xbf171f4a	-0.5903212
81	0x3eabe828	0.3357556
82	0x3f61fce9	0.88276535
83	0xbf6b5104	-0.91920495
84	0x3f00ff9a	0.5039002
85	0x3e9e2f26	0.30895346
86	0xbe86fe99	-0.26366118
87	0x3e5d2988	0.21597874
88	0xbe691e64	-0.227655
89	0x3deb8992	0.11500849
90	0x3d21ec6b	0.039532106
91	0x3edf259d	0.43583384
92	0xbed82ea6	-0.4222309
93	0xbf2a2e8b	-0.6647727
94	0x3f4beb41	0.79655844
95	0x3e07747a	0.13228026
96	0x3e6842da	0.22681752
97	0x3eecab1d	0.462243
98	0xbf701d50	-0.9379473
99	0xbe1e4d99	-0.15459289
100	0x3c4ac59b	0.012376214
101	0xbeb27344	-0.34853566
102	0x3f351695	0.7073758
103	0x3d5e58c9	0.05428389
104	0xbec64a2e	-0.3872847
105	0xbdc06ccd	-0.09395752
106	0x3d8eac10	0.06966412
107	0xbea3ff1c	-0.3203057
108	0x3e353e96	0.17699656
109	0x3dd4838f	0.10376655
110	0xbf10b5c6	-0.56527364
111	0xbe106767	-0.14101945
112	0x3dd60e7a	0.1045198
113	0x3e88c740	0.26714516
114	0xbfcc811f	-1.5976905
115	0x3f896784	1.0734715
116	0xbeb51627	-0.35368463
117	0x3f4a6b40	0.790699
118	0x3e36a2b7	0.17835508
119	0xbe624f9f	-0.22100686
120	0x3eccb5a4	0.3998233
121	0xbe704ffa	-0.23468009
122	0x3ee90d0c	0.45517766
123	0xbd7cc3ee	-0.06171029
124	0x3f785d34	0.97017217
125	0x3f24cd88	0.64376116
126	0xbf2fabce	-0.6862153
127	0xbdce3839	-0.10069317
128	0xbd96ec33	-0.0736927
129	0xbf22f142	-0.6364938
130	0xbe7047ca	-0.23464885
131	0x3eb7f8bb	0.35931954
132	0x3eb6334c	0.3558601
133	0x3d8df766	0.06931953
134	0x3d1ab714	0.037772253
135	0xbf6bf0a3	-0.9216406
136	0x3f47a64d	0.7798813
137	0xbdcb8d71	-0.09939087
138	0xbededdaa	-0.4352849
139	0xbe736cc7	-0.23771964
140	0xbea3eaa3	-0.3201495
141	0xbd20e617	-0.03928193
142	0xbef2f3e4	-0.474517
143	0x3e070437	0.13185202
144	0x3ee32e34	0.44371188
145	0xbd701c60	-0.05862081
146	0xbeb7de66	-0.35911864
147	0xbdecc858	-0.1156165
148	0x3e92d143	0.2867528
149	0x3e026068	0.12732089
150	0x3ef69c4f	0.4816613
151	0x3f44df89	0.7690359
152	0xbedf7896	-0.43646687
153	0x3dc636c7	0.09678417
154	0xbc9253af	-0.01786217
155	0xbbfafd9b	-0.0076596267
156	0xbeed1341	-0.46303752
157	0x3e3bfc8e	0.1835806
158	0xbe6f6444	-0.23378092
159	0x3f1d0abc	0.61344504
160	0x3fedf691	1.8590871
161	0x3f5d0a83	0.86344165
162	0xbdba6d50	-0.09102881
163	0x3eadf553	0.3397623
164	0x3c9bbe4b	0.019011637
165	0xbf1d35c3	-0.6141016
166	0xbe4ce30b	-0.20008485
167	0x3da5ec33	0.08101692
168	0x3f0689d7	0.52554077
169	0xbded71da	-0.11593981
170	0x3dc72b98	0.09725112
171	0x3e8e14ee	0.27750343
172	0xbeb0001d	-0.34375086
173	0x3e384043	0.17993264
174	0x3f6db1a3	0.9284918
175	0x3c8012d8	0.015633985
176	0xbd04720c	-0.032335326
177	0xbde40ee4	-0.11135653
178	0x3e99a5dc	0.30009353
179	0xbec65ac4	-0.38741124
180	0x3cdb3168	0.026756957
181	0xbf75c0b9	-0.95997196
182	0x3e22771d	0.1586575
183	0xbe28a262	-0.16468194
184	0x3e272230	0.16321635
185	0x3e6f3177	0.23358713
186	0xbe2b2d1d	-0.16716428
187	0x3c831b19	0.016004132
188	0x3f137185	0.5759509
189	0x3f094aa8	0.5362954
190	0xbf01298f	-0.5045404
191	0xbdbb31e3	-0.091403745
192	0x3faf4b14	1.3694787
193	0x3f32133a	0.6956059
194	0x3daff2c3	0.08591225
195	0xbd3981a7	-0.04528966
196	0xbe80a52a	-0.2512601
197	0xbe964f79	-0.29357508
198	0x3a464e6d	0.0007564787
199	0x3e76b984	0.24094206
200	0xbec37f25	-0.3818294
201	0x3e59b9d5	0.21262296
202	0xbea1a8b3	-0.3157402
203	0x3dda1ebf	0.106503956
204	0x3cfae398	0.030626103
205	0x3e4041d8	0.18775117
206	0xbb81cb50	-0.0039610043
207	0xbea7539f	-0.32680985
208	0x3f58c5c7	0.84676784
209	0xbcea23ab	-0.028581461
210	0xbf8898ad	-1.0671593
211	0x3ed6d17b	0.41956696
212	0xbe4adecb	-0.19811551
213	0x3f35e8e6	0.710585
214	0xbec55386	-0.38540286
215	0x3edb6756	0.42852277
216	0x3e891c9d	0.26779643
217	0x3e159eb9	0.14611329
218	0x3e4c8592	0.19972828
219	0x3c6c3ef6	0.014419308
220	0x3eedfc12	0.46481377
221	0xbf3a0e3d	-0.72677976
222	0x3f27687a	0.65393794
223	0x3eaa9381	0.33315662
224	0xbe8f1773	-0.27947578
225	0xbe9d6073	-0.30737647
226	0x3db5a7d7	0.088699035
227	0xbe263ff8	-0.1623534
228	0xbdebc9b7	-0.115130834
229	0xbebb9a9a	-0.3664139
230	0x3f0a69b2	0.5406753
231	0x3e83f6ff	0.2577438
232	0x3e8f5e38	0.2800157
233	0x3f75dc16	0.9603895
234	0x3f517f87	0.81835216
235	0xbf3a0144	-0.7265818
236	0x3e2cb69d	0.16866536
237	0xbee1c144	-0.44092762
238	0x3f0a909b	0.541269
239	0xbe458183	-0.19287686
240	0x3f2ab05f	0.6667537
241	0x3df8e20e	0.121524915
242	0xbfa318bb	-1.2741922
243	0x3c30b2c4	0.010784809
244	0xbfa63545	-1.2985007
245	0x3ecf7919	0.40522078
246	0xbcafb629	-0.021449165
247	0x3e1b46fa	0.15163794
248	0xbea08865	-0.3135406
249	0xbe19a8a8	-0.15005744
250	0xbe978fc8	-0.29601884
251	0x3e98858a	0.29789382
252	0xbf0fddb4	-0.5619767
253	0x3f4b8197	0.79494613
254	0x3e7f0d1e	0.24907348
255	0xbcd07ff8	-0.025451645

gru_short.bias_ih_l0 f4 [96]
0	0xbe715139	-0.2356614
1	0xbd9193b0	-0.07108247
2	0xbd1e6e14	-0.038679197
3	0xbd72052f	-0.059086975
4	0xbcf3dc39	-0.029768096
5	0x3e396a06	0.18106851
6	0xbdc976f0	-0.09837139
7	0xbc07875d	-0.008272019
8	0x3eb93ff3	0.36181602
9	0xbddbfaeb	-0.10741218
10	0xbe93032e	-0.28713363
11	0x3da40181	0.08008099
12	0x3caf31ac	0.02138599
13	0xbdbf8490	-0.09351456
14	0xbdad0bcf	-0.08449518
15	0xbccfb5f9	-0.025355326
16	0x3d94ba1e	0.072620615
17	0xbe6c53d0	-0.23078847
18	0xbe880dfe	-0.26573175
19	0x3d0b5cec	0.034024164
20	0x3e428928	0.18997633
21	0xbe2ac785	-0.16677673
22	0x3e014514	0.12624007
23	0xbe3a72c0	-0.18207836
24	0xbb90820c	-0.004410034
25	0x3cc7d1f4	0.024392106
26	0x3ddcfedb	0.10790797
27	0x3d95688d	0.07295332
28	0xbe251b04	-0.16123587
29	0xbe886729	-0.26641205
30	0x3de171a9	0.11008007
31	0xbe27111b	-0.16315119
32	0x3ece26b3	0.402639
33	0x3eda1584	0.4259454
34	0xbdb337fa	-0.08750911
35	0x3ebe75c6	0.3719923
36	0xbd9227fb	-0.07136532
37	0x3d50c673	0.050970506
38	0x3d84bf44	0.064817935
39	0x3e635bda	0.22203007
40	0x3db06c75	0.086144365
41	0x3e88b234	0.26698458
42	0x3e6106cf	0.21975254
43	0xbd0c33fa	-0.034229256
44	0xbebaf0ac	-0.36511743
45	0xbdaed6b1	-0.08537043
46	0x3ea9d50f	0.33170363
47	0xbdc1e1d6	-0.09466903
48	0x3e13f436	0.14448628
49	0x3e50d1e2	0.20392564
50	0x3e83e72b	0.25762305
51	0xbd967d90	-0.07348168
52	0x3ebee12e	0.37281173
53	0xbd5904b3	-0.052982997
54	0x3e6484cf	0.22316287
55	0xbe3b02da	-0.18262807
56	0x3e8e886e	0.27838463
57	0x3d09a1d6	0.033601604
58	0xbd86d761	-0.06584049
59	0x3e7d99e2	0.24765733
60	0xbe1110e9	-0.14166607
61	0xbe31fa0f	-0.17380546
62	0xbd6be6bb	-0.05759309
63	0x3e1bf90a	0.1523172
64	0x3c92ed04	0.017935283
65	0x3dfc724c	0.12326488
66	0xbe9cb2d2	-0.3060518
67	0xbcddf3b5	-0.027093748
68	0x3d3b57c7	0.045738008
69	0x3d54b6ca	0.051932134
70	0x3df18e40	0.1179471
71	0x3e43c182	0.19116786
72	0x3e0c6e3e	0.13713929
73	0x3dad4fca	0.08462484
74	0x3e50ecef	0.20402883
75	0xbd2ad79c	-0.041709527
76	0x3cfde630	0.030993551
77	0x3e6730cd	0.2257721
78	0x3e55cdad	0.2087924
79	0xbe275b99	-0.16343535
80	0xbde9db14	-0.11418739
81	0x3c859f9b	0.016311457
82	0xbd905f92	-0.070494786
83	0x3c38e315	0.011284609
84	0xbe8cf874	-0.27533305
85	0xbdeb650d	-0.11493883
86	0x3c4bb4d3	0.012433249
87	0xbe7df442	-0.24800208
88	0x3e306ddd	0.1722941
89	0xbdef5d6c	-0.11687741
90	0x3dc5463d	0.096325375
91	0xbdb79280	-0.089634895
92	0x3e03716d	0.12836237
93	0xbde034d9	-0.1094758
94	0xbd5929de	-0.053018443
95	0xbd169132	-0.036759563

gru_short.bias_hh_l0 f4 [96]
0	0xbe7d742f	-0.24751352
1	0x3e1fe114	0.15613204
2	0xbe83612b	-0.2566007
3	0xbe2afdbd	-0.16698356
4	0x3e2f1f65	0.1710182
5	0x3de8499f	0.11342167
6	0x3e35dd30	0.17760158
7	0x3becb032	0.0072231526
8	0x3dc4e1de	0.09613393
9	0x3d16fc42	0.036861666
10	0xbe8fd3bc	-0.28091228
11	0xbce39047	-0.027778758
12	0x3d9bfe74	0.076168925
13	0xbd0a94c8	-0.033833295
14	0x3d036c91	0.03208596
15	0x3de7aa15	0.113117374
16	0x3d8c020b	0.06836327
17	0xbd4ffbdb	-0.050777297
18	0xbd013072	-0.03154034
19	0xbdbf8248	-0.09351021
20	0xbda567bc	-0.080764264
21	0xbd5ce577	-0.053929772
22	0xbd671f3b	-0.056426268
23	0x3d096b0a	0.033549346
24	0xbe2c6cb4	-0.16838342
25	0x3ca50773	0.020145154
26	0x3e23ee51	0.16008879
27	0x3e522ca8	0.20524848
28	0x3d86931b	0.06571027
29	0xbe535efa	-0.206417
30	0xbbdc03e8	-0.006714333
31	0xbdedbd01	-0.11608315
32	0x3ef7f407	0.48428366
33	0x3e8e4da1	0.277936
34	0x3e5ad0b6	0.2136868
35	0x3e2cbc1c	0.16868633
36	0xbdeb9e2b	-0.115047775
37	0x3c1c1401	0.009526254
38	0x3d9aff1a	0.07568188
39	0x3e1682f3	0.1469839
40	0x3e28fb49	0.16502108
41	0x3e99bad3	0.30025348
42	0xbcfccb9b	-0.030858805
43	0xbe15d66d	-0.14632578
44	0xbe8665c0	-0.26249504
45	0xbea22d54	-0.31675208
46	0x3e48043f	0.1953287
47	0x3dabff47	0.083983
48	0xbd32927b	-0.043596726
49	0x3d224257	0.039614048
50	0x3e141a0a	0.14463058
51	0x3de8e755	0.11372248
52	0x3ef7c87f	0.48395154
53	0x3df3326c	0.118748516
54	0x3e88e12f	0.267343
55	0xbe22c0df	-0.15893887
56	0x3ef5c01d	0.47998133
57	0x3cc2cf80	0.023780584
58	0x3b774e53	0.0037735894
59	0x3e2e3221	0.1701131
60	0xbe844c20	-0.2583933
61	0xbe7937c3	-0.24337678
62	0xbc952f11	-0.01821092
63	0x3dd8ac34	0.1057972
64	0x3ea03082	0.3128701
65	0xbe8fd320	-0.28090763
66	0xbdd43e9f	-0.103635065
67	0xbf252acc	-0.6451843
68	0xbe0df392	-0.13862446
69	0x3c7bddfa	0.015372748
70	0xbb93ed7c	-0.0045143943
71	0x3e63016a	0.22168508
72	0x3e22ae2b	0.15886752
73	0xbe36896b	-0.17825858
74	0xbe940206	-0.28907794
75	0xbe2cb859	-0.16867198
76	0xbf004e60	-0.5011959
77	0xbe62a532	-0.2213333
78	0xbe2226f8	-0.15835178
79	0xbe1ba811	-0.15200831
80	0xbe875a11	-0.26435903
81	0xbc2e66a7	-0.010644591
82	0xbf567772	-0.8377601
83	0x3ea285b8	0.31742644
84	0xbebe9fc0	-0.37231255
85	0x3fa9754b	1.323892
86	0xbea316a2	-0.31853205
87	0x3ab2f829	0.001365428
88	0xbdeb8583	-0.11500075
89	0xbc36b04a	-0.011150429
90	0xbe90f240	-0.28309822
91	0x3ddc0b43	0.107443355
92	0x3ea6503d	0.32483092
93	0xbe612e8f	-0.21990417
94	0x3bb013a9	0.0053734374
95	0x3e1775f9	0.14791097

gru_mid.weight_ih_l0 f4 [192, 64]
0	0xbe70731b	-0.23481409
1	0xbe9c57ea	-0.30535823
2	0xbea5fa31	-0.32417443
3	0x3d2affc3	0.04174782
4	0x3d97faa9	0.074208565
5	0xbe3e04fb	-0.18556587
6	0x3f90f7f7	1.1325673
7	0xbdede769	-0.116164036
8	0x3da56ac6	0.08077006
9	0xbe9cc819	-0.30621412
10	0xbe1f4d85	-0.15556915
11	0xbddde108	-0.10833937
12	0xbe22132c	-0.15827626
13	0x3e8140bf	0.2524471
14	0xbe8834c1	-0.26602748
15	0xbe14cfa9	-0.14532341
16	0x3f520a46	0.82046926
17	0x3dbf5af8	0.09343523
18	0x3e23c5ca	0.1599342
19	0x3ea51910	0.32245684
20	0xbd39868e	-0.045294337
21	0x3e56a5e7	0.20961724
22	0xbe795613	-0.24349241
23	0xbeed0e59	-0.4630001
24	0xbb8f2d2d	-0.004369399
25	0xbf310fe5	-0.6916488
26	0x3e8cf15d	0.27527896
27	0x3ca7c9bc	0.020481937
28	0xbf0dce3b	-0.5539281
29	0x3e42798c	0.18991679
30	0x3eb8ca89	0.36092022
31	0x3c25bd37	0.010115913
32	0xbe128ad3	-0.1431077
33	0xbef0e0ce	-0.47046512
34	0xbdd9808a	-0.1062022
35	0x3e0d04d3	0.13771372
36	0x3f39afde	0.7253398
37	0xbcc11748	-0.023570672
38	0x3ba8c18f	0.005150027
39	0x3eb6aac4	0.3567716
40	0x3e906fe6	0.28210372
41	0x3e448ec1	0.19195081
42	0x3e78bcde	0.24290797
43	0xbf2bc351	-0.67094904
44	0x3c40546f	0.011738881
45	0xbe8155ac	-0.25260675
46	0x3dc61ba4	0.09673241
47	0x3ec3fd76	0.38279313
48	0xbd8387c0	-0.06422377
49	0x3e3e8bc3	0.18608002
50	0x3e59ced7	0.2127031
51	0x3f5fab04	0.87370324
52	0x3c2e778a	0.0106486175
53	0xbcc63163	-0.024193471
54	0x3f11a3ad	0.56890374
55	0xbe7c0663	-0.24611811
56	0x3dd89de0	0.10576987
57	0x3e3b01e9	0.18262447
58	0xbb80f457	-0.0039353776
59	0x3d8b0387	0.06787782
60	0x3de9b46c	0.11411366
61	0x3e4433fc	0.19160455
62	0xbe9d951d	-0.30777827
63	0x3dc668ec	0.09687981
64	0x3edeee80	0.43541336
65	0x3ec313f5	0.38101164
66	0xbc06817a	-0.008209581
67	0xbcc5a567	-0.024126722
68	0xbecd661f	-0.40116975
69	0xbec20b1d	-0.37899104
70	0x3da10e20	0.07864022
71	0xbedb230b	-0.42800173
72	0xbc880d5c	-0.016607933
73	0x3fb12913	1.384066
74	0x3e5729a4	0.21011978
75	0xbd761284	-0.06007625
76	0xbed9ee3c	-0.4256457
77	0x3eb971e7	0.36219713
78	0xbe2e4b85	-0.17020996
79	0xbdc3e24e	-0.095646486
80	0xbd96a05e	-0.07354806
81	0xbdba74ce	-0.0910431
82	0xbd454066	-0.04815712
83	0x3f012e5f	0.5046138
84	0xbe2d3aa0	-0.16916895
85	0xbdf6f3e8	-0.1205824
86	0xbdef690f	-0.1168996
87	0xbeba8723	-0.36431226
88	0x3f9ea23f	1.2393264
89	0xbedc8b48	-0.43075013
90	0x3ebcb847	0.36859342
91	0x3e8a8eec	0.27062166
92	0xbe95560c	-0.2916721
93	0xbe428e27	-0.1899954
94	0x3dd78663	0.10523679
95	0x3f523563	0.8211271
96	0x3d74b44f	0.05974227
97	0xbea61615	-0.32438722
98	0xbecb4efd	-0.397087
99	0x3f6d1ddd	0.9262369
100	0x3f787cc2	0.97065365
101	0x3ee90a0d	0.4551548
102	0x3f362a0f	0.71157926
103	0xbebf312f	-0.37342212
104	0xbd28c0fc	-0.04119967
105	0x3f314d02	0.6925813
106	0xbca88dbc	-0.020575397
107	0x3f4e1d18	0.80513144
108	0xbe38267a	-0.17983428
109	0x3e05076b	0.12991111
110	0xbeeec0b2	-0.4663139
111	0xbe6bd4e4	-0.2303043
112	0xbdcb4f38	-0.09927219
113	0x3e202147	0.15637694
114	0xbe27c387	-0.16383182
115	0xbd8848a7	-0.06654482
116	0xbcc7c74d	-0.024387026
117	0xbe08ddbe	-0.13365838
118	0x3f440895	0.76575595
119	0x3f8df8ff	1.1091613
120	0x3e81abdb	0.25326428
121	0xbea2a2f9	-0.31764963
122	0x3ebb8f20	0.36632633
123	0x3eba8e47	0.36436674
124	0x3d90e31a	0.07074566
125	0xbe1ab41b	-0.15107767
126	0x3d89539d	0.06705401
127	0xbe133dd3	-0.14379053
128	0xbdc9eb6e	-0.09859358
129	0xbca1773a	-0.019710172
130	0x3ee41e31	0.44554284
131	0xbf7a3a70	-0.9774542
132	0x3f0ce031	0.5502959
133	0x3e645983	0.22299771
134	0xbc23a21e	-0.009987382
135	0xbdc753e8	-0.09732801
136	0xbe5b25c6	-0.21401128
137	0x3e274aba	0.163371
138	0x3f52977d	0.822624
139	0x3e16ba78	0.1471957
140	0x3b588d0b	0.0033043053
141	0xbea18c72	-0.31552464
142	0xbea11a42	-0.31465346
143	0x3c791bf7	0.015204421
144	0xbf28f86f	-0.6600408
145	0x3de2f9a0	0.110827684
146	0x3d7e60ab	0.06210391
147	0x3edf17d0	0.43572855
148	0x3ee34e26	0.4439556
149	0x3d3c3401	0.045948032
150	0x3e9f8a28	0.31160092
151	0x3e87ff57	0.26561996
152	0x3bb96d00	0.0056587458
153	0x3dbb71f2	0.09152593
154	0x3e0a3dd0	0.13500142
155	0x3eb57578	0.35441184
156	0x3ece71d3	0.40321216
157	0x3c4fcc29	0.012682953
158	0x3ec3fd0a	0.3827899
159	0x3f25e9c9	0.6480985
160	0xbcad5210	-0.021157295
161	0xbe9caad9	-0.30599096
162	0x3e1ad483	0.1512013
163	0x3f43cd91	0.76485544
164	0x3f6e3243	0.93045443
165	0x3f142dc6	0.57882345
166	0x3f04d9ad	0.51894647
167	0x3e993576	0.299236
168	0x3ddae9c0	0.106891155
169	0xbe423e4b	-0.18969075
170	0xbf00e346	-0.5034679
171	0x3f080aff	0.5314178
172	0xbeacdc87	-0.33762
173	0x3d968c17	0.07350939
174	0x3ee36c82	0.44418722
175	0x3e836a83	0.256672
176	0x3e0cd762	0.13754037
177	0x3e560b30	0.20902705
178	0x3f0547b0	0.5206251
179	0x3e4c08fc	0.19925302
180	0xbf1696b7	-0.5882372
181	0xbe0e2ce9	-0.1388432
182	0x3f9d7412	1.2301047
183	0xbe78be5d	-0.24291368
184	0x3e6d8b96	0.23197779
185	0x3efea9f8	0.4973905
186	0x3ef6f4ab	0.48233542
187	0x3e48c191	0.1960509
188	0xbd4f1a21	-0.050562028
189	0x3ec6e0a9	0.38843277
190	0xbdf22946	-0.118242785
191	0x3d2b19b4	0.04177256
192	0xbeaac97e	-0.3335685
193	0xbe130d79	-0.14360608
194	0x3d3f442b	0.04669587
195	0x3f28ebdc	0.6598489
196	0xbd950900	-0.07277107
197	0x3f811143	1.0083393
198	0xbe089dbe	-0.13341424
199	0x3e17fa27	0.1484152
200	0xbdeeaf90	-0.1165458
201	0xbef29cab	-0.47385153
202	0x3edd7343	0.43252
203	0xbebc7c2f	-0.36813495
204	0x3f4c2320	0.79741096
205	0xbf619715	-0.8812116
206	0xbda3bf61	-0.07995487
207	0xbe694ace	-0.22782442
208	0xbea2fd30	-0.31833792
209	0x3d8f31b0	0.06991899
210	0x3cfc53dc	0.030801706
211	0xbe776911	-0.24161173
212	0x3efaed8f	0.49009368
213	0xbf0095bb	-0.5022847
214	0x3c63785c	0.013883676
215	0xbedba9f8	-0.42903113
216	0xbf64b353	-0.8933613
217	0xbea8a292	-0.3293653
218	0xbefaddaf	-0.48997256
219	0x3ec9d97c	0.3942374
220	0xbeb6facc	-0.35738218
221	0x3f616a81	0.8805314
222	0xbe7c01e1	-0.24610092
223	0x3d83464b	0.06409892
224	0xbe573f6a	-0.21020284
225	0xbd8482a0	-0.06470227
226	0xbe97b780	-0.29632187
227	0x3f08ba17	0.5340895
228	0xbee5e65c	-0.44902313
229	0xbe94f95c	-0.29096496
230	0x3ddf3c58	0.109001815
231	0xbf4762ea	-0.77885306
232	0xbd27250d	-0.04080682
233	0xbcec15fc	-0.028819077
234	0xbe041267	-0.12897645
235	0x3e201bdd	0.15635629
236	0xbe21c1f1	-0.15796639
237	0x3e3002dc	0.17188591
238	0xbe2c6c30	-0.16838145
239	0x3e1ea2a2	0.15491727
240	0xbf850741	-1.0392839
241	0x3f6ad1d7	0.9172644
242	0xbea1530a	-0.31508666
243	0x3ed34fb9	0.4127176
244	0xbccbdcdb	-0.024885586
245	0xbdf12e15	-0.117763676
246	0x3e348826	0.17630062
247	0x3fe2b414	1.7711205
248	0x3eca525a	0.39515954
249	0x3f133312	0.574998
250	0xbe980db6	-0.2969796
251	0xbdd58923	-0.104265474
252	0x3c9f6842	0.019458894
253	0x3e93d528	0.28873563
254	0xbed626e7	-0.41826555
255	0x3e9b3c4d	0.30319443

gru_mid.weight_hh_l0 f4 [192, 64]
0	0xbde99799	-0.11405868
1	0x3f5eb60c	0.8699653
2	0x3e80c7a5	0.25152317
3	0x3dced3fa	0.10099025
4	0xbe02f0ab	-0.1278712
5	0x3ee759bc	0.4518565
6	0x3d7344f4	0.05939193
7	0xbe532819	-0.20620765
8	0xbee74a28	-0.45173764
9	0xbe57a565	-0.21059187
10	0x3dbe4b3e	0.09291695
11	0xbdabc07c	-0.08386323
12	0x3e4c0c9d	0.19926687
13	0x3e870f87	0.26379034
14	0xb9f89b1e	-0.00047417817
15	0x3da0f226	0.07858686
16	0xbecb4811	-0.3970342
17	0xbecf0fb0	-0.40441656
18	0xbef57419	-0.47940138
19	0x3e9d69e1	0.30744842
20	0xbc202279	-0.009773844
21	0xbc7396d4	-0.014867503
22	0xbdff165f	-0.12455439
23	0x3dc1a8d6	0.09456031
24	0x3eb10e50	0.34581232
25	0xbe2b305a	-0.16717663
26	0x3e2fe842	0.17178443
27	0xbd98e2f6	-0.07465164
28	0x3f374ae6	0.7159866
29	0xbdfdb81b	-0.12388631
30	0x3f023c6c	0.50873446
31	0xbd504122	-0.050843365
32	0x3dacd601	0.084392555
33	0xbd7aebe8	-0.061260134
34	0xbe254700	-0.16140366
35	0x3ecfb662	0.40568835
36	0x3dd0793f	0.10179376
37	0x3d90c75f	0.07069277
38	0xbef9a0cc	-0.4875549
39	0xbe6f8f43	-0.23394494
40	0x3e4fb308	0.20283139
41	0x3dad33ca	0.084571436
42	0x3f3e2158	0.7426963
43	0xbe6aa5dd	-0.22914834
44	0x3d49a8d9	0.04923329
45	0xbdcc01da	-0.09961291
46	0xbe9f98a7	-0.31171152
47	0xbe86f2aa	-0.26357013
48	0xbed59184	-0.41712582
49	0xbe3c0b47	-0.18363677
50	0xbd60ef60	-0.054915786
51	0xbe471eb0	-0.194453
52	0xbe98c985	-0.29841247
53	0xbebcfbeb	-0.36910948
54	0x3f2973a2	0.66192067
55	0xbe2bc4e4	-0.16774327
56	0xbc8e5f1b	-0.017379334
57	0xbe9f36cb	-0.3109649
58	0x3eaf47b2	0.34234387
59	0xbf3c5e4e	-0.735814
60	0x3ec18364	0.37795556
61	0x3f2a4a63	0.66519755
62	0xbd3e6c68	-0.046490103
63	0xbdc104f8	-0.09424776
64	0xbdab58e2	-0.083665624
65	0x3f2cccc7	0.67499965
66	0x3e15448f	0.14576934
67	0x3e910ccd	0.2833008
68	0x3e03775c	0.128385
69	0x3e8847ed	0.26617375
70	0xbbd0e77e	-0.0063752523
71	0x3f7528c4	0.9576533
72	0x3d9e62ac	0.07733664
73	0x3f083052	0.5319873
74	0x3dc0e117	0.094179325
75	0x3f01779d	0.5057314
76	0x3e72bca1	0.23704769
77	0xb7e4b0f9	-2.7262127e-05
78	0x3dfe9375	0.12430469
79	0x3eda32ad	0.42616788
80	0xbe75ce14	-0.24004394
81	0xbe22915e	-0.15875766
82	0xbf0c8383	-0.5488817
83	0xbd6f6df2	-0.05845446
84	0x3f025255	0.5090688
85	0x3dfb768b	0.1227847
86	0x3ef03c45	0.46920982
87	0x3c114167	0.008865691
88	0x3ef4c31a	0.478051
89	0x3e08cbc5	0.13358982
90	0x3ebb1ccc	0.36545408
91	0xbe92ab41	-0.2864628
92	0xbd016131	-0.03158683
93	0xbf26b1ca	-0.65115035
94	0xbe1bd307	-0.1521722
95	0x3ee83950	0.45356226
96	0xbcbd9b6d	-0.023145402
97	0x3ec3bba0	0.38229084
98	0x3edbd9e0	0.42939663
99	0x3f0f4309	0.5596166
100	0x3e1e41bc	0.15454763
101	0x3f1f1c74	0.6215279
102	0x3e6e79c2	0.23288634
103	0xbdca04e2	-0.098642126
104	0x3f7803c9	0.96880776
105	0xbe10bcb7	-0.14134489
106	0x3f177816	0.5916761
107	0x3f33af9b	0.7018983
108	0xbd174098	-0.036926836
109	0xbf05182c	-0.5199001
110	0x3e8df808	0.27728295
111	0x3abc3756	0.0014359753
112	0x3ed0f914	0.40815032
113	0x3e674a6b	0.22586982
114	0xbf2d8a81	-0.67789465
115	0xbe1c75d2	-0.1527932
116	0xbefd9a24	-0.49531662
117	0xbf37210c	-0.715348
118	0x3f1b5b8c	0.60686564
119	0xbd8af125	-0.06784276
120	0xbe2dcecf	-0.16973422
121	0xbde963ab	-0.11395963
122	0x3ca21529	0.01978548
123	0xbeea7547	-0.457926
124	0x3eca1b71	0.3947406
125	0x3ec77159	0.38953665
126	0x3df679c6	0.12034945
127	0x3e25e1df	0.16199444
128	0x3eca509e	0.3951463
129	0xbd9e006f	-0.077149265
130	0x3dce8f28	0.10085899
131	0x3e907d62	0.2822066
132	0x3dfc9bbc	0.123343915
133	0x3ed581d0	0.41700602
134	0xbdc21c81	-0.09478093
135	0xbe5a7620	-0.21334124
136	0x3f2129db	0.6295449
137	0xbbe6f013	-0.007047662
138	0xbe414a21	-0.18875934
139	0xbce1de5e	-0.027571853
140	0xbe062f79	-0.13104047
141	0xbdf79136	-0.12088244
142	0xbd72e86d	-0.05930369
143	0xbedc094d	-0.42975846
144	0x3da2e642	0.079540744
145	0x3f3896ac	0.7210491
146	0xbe0a5047	-0.13507186
147	0xbe123de9	-0.1428143
148	0xbdf7b580	-0.12095165
149	0x3ba1d39e	0.004938557
150	0xbcab3466	-0.020899009
151	0x3dd8fe73	0.10595407
152	0x3e151164	0.14557415
153	0xbd9ee42f	-0.07758366
154	0x3eeb5686	0.4596445
155	0xbe3915bd	-0.18074699
156	0xbea6adff	-0.32554623
157	0x3e1e0450	0.15431333
158	0x3e910568	0.28324437
159	0x3c92b34a	0.017907757
160	0x3f283ad8	0.6571479
161	0xbd8cc503	-0.068735145
162	0x3e819496	0.25308675
163	0xbcd38121	-0.02581841
164	0x3e15c42f	0.1462562
165	0x3f182ea6	0.5944618
166	0x3f1f815a	0.6230675
167	0x3e8ae6dd	0.2712926
168	0x3e7e92ee	0.24860737
169	0xbd13519b	-0.035966497
170	0x3d1cd40c	0.03828816
171	0xbf759986	-0.95937383
172	0x3d494093	0.04913385
173	0xbdacf115	-0.0844442
174	0xbeec4881	-0.46149066
175	0xbd7bcb8d	-0.061473418
176	0xbe6974ff	-0.22798537
177	0x3df967e2	0.12178017
178	0x3d917198	0.071017444
179	0x3ebf8e58	0.37413287
180	0xbea96f57	-0.33092758
181	0xbe0a8649	-0.13527788
182	0xbf5a24e2	-0.8521253
183	0xbd07ab23	-0.033122193
184	0xbec50bc4	-0.3848554
185	0xbeff40bf	-0.49854085
186	0xbe2118b0	-0.15732074
187	0x3e9cbf38	0.30614638
188	0xbdcaf8fe	-0.09910773
189	0x3ec3f997	0.3827636
190	0xbdfdb949	-0.12388856
191	0xbee29193	-0.4425169
192	0xbe9e75ff	-0.309494
193	0x3e49f872	0.1972368
194	0x3e5d7c06	0.21629342
195	0x3e344dbf	0.17607783
196	0x3ee3e258	0.44508624
197	0x3f24d55b	0.64388055
198	0x3d1d5ef1	0.03842062
199	0x3fca3c05	1.5799567
200	0x3e7498cf	0.23886417
201	0x3ef77637	0.48332378
202	0x3f102f27	0.5632195
203	0x3f026c00	0.50946045
204	0xbee1fcea	-0.4413827
205	0xbab885cd	-0.0014077962
206	0x3f098e8f	0.5373315
207	0x3d611f59	0.054961536
208	0xbde9ffe8	-0.11425763
209	0xbf7c97df	-0.98669237
210	0x3ef21f31	0.47289422
211	0xbf004544	-0.5010569
212	0xbdcc0ae5	-0.099630155
213	0x3f2c7c99	0.6737762
214	0x3ef2031c	0.47267997
215	0x3d13c66e	0.03607791
216	0x3cc1a523	0.023638314
217	0xbec73f0a	-0.38915282
218	0xbd26ade8	-0.040693194
219	0xbf0b36a7	-0.5438027
220	0x3d6a07c0	0.057136297
221	0xbe65d273	-0.22443561
222	0xbf8cc12d	-1.0996453
223	0x3e591f62	0.21203378
224	0x3e9c7299	0.3055618
225	0xbee37ae7	-0.44429705
226	0xbfbc41f3	-1.4707626
227	0xbf2fc2c4	-0.68656564
228	0xbdc61e68	-0.09673768
229	0x3f4bba67	0.795813
230	0xbda10b30	-0.07863462
231	0x3f356c9d	0.70868856
232	0x3f7e32d8	0.9929633
233	0x3e68a79a	0.22720185
234	0xbf7960ea	-0.97413504
235	0x3f36e966	0.7144989
236	0x3f1dfdea	0.6171557
237	0x3d89faeb	0.06737312
238	0xbd5dae55	-0.054121334
239	0x3da459a2	0.080249086
240	0xbf6baa3b	-0.92056626
241	0x3f092f1c	0.5358751
242	0x3e80cc80	0.2515602
243	0xbddd0b20	-0.107931376
244	0x3e878e2d	0.2647566
245	0xbf95a0e8	-1.168973
246	0xbef79771	-0.48357728
247	0xbdc5925f	-0.09647059
248	0x3d0a2c2b	0.033733528
249	0x3ec9a407	0.39382955
250	0x3f9aa9b4	1.2083039
251	0x3f7e0686	0.99228704
252	0x3ec4dccf	0.38449714
253	0x3e051358	0.1299566
254	0x3ea67c49	0.32516697
255	0x3f251587	0.64485973
