a-storage/result/9/model_epoch_1940.pth (torch, 67411 bytes, 6 tensors)

gru.weight_ih_l0 f4 [192, 18]
0.0868438 -0.05056733 0.009234756 0.028896064 -0.030249923 -0.065518156 -0.10390419 -0.011042297
0.12198295 0.071338564 -0.01839295 -0.0963532 0.008452743 -0.064457774 0.054757655 0.048667118
0.030874327 0.118934065 0.06738788 0.06694223 0.08535813 0.12269628 -0.11685838 0.053480774
0.04146239 0.11307661 0.12004948 0.09052798 0.07624708 -0.104972005 -0.12330297 -0.10697697
0.04170786 -0.10716842 -0.08080746 0.00262554 0.04082419 0.060325995 0.08763853 -0.102224156
-0.108572304 0.10862163 -0.050597116 -0.11480127 -0.037490666 -0.048112348 -0.112527475 0.04260923
0.11903933 0.031151846 0.09401597 0.022352904 0.0807834 0.08396809 -0.053994462 0.09769763
0.071013644 -0.06526634 0.028913692 -0.027363002 -0.017094165 0.03006342 0.10027428 -0.11320996
0.118562534 -0.01979886 0.058692098 0.0009990484 -0.11561522 0.09302318 0.026950091 0.08532311
0.10420287 0.07752794 0.09741339 -0.07984066 0.07437597 -0.09307498 -0.0148322135 -0.01471892
-0.029232338 -0.050692797 0.039185494 -0.021646664 0.086003646 0.08823837 0.008494705 0.04451649
0.08269702 -0.08454785 0.08527754 -0.02400826 -0.065430656 -0.035609707 0.044349775 0.030726507
-0.047697246 0.0067118853 0.023385495 -0.039694726 -0.009268165 -0.04053992 -0.011118084 -0.075244054
0.11028874 0.042877987 0.08757204 0.089214325 0.071610734 0.057723776 -0.07545841 0.019149482
-0.0033760816 -0.011576489 -0.044919148 0.11063065 -0.058043852 0.11098772 -0.040263534 0.081545755
-0.041056395 -0.0117589235 -0.014956102 0.0915838 0.109187156 -0.11251627 0.081971765 0.09907146
-0.0033282936 -0.05280648 0.024780348 0.034426287 0.107778594 0.047382697 -0.08528845 0.015175864
-0.08085795 0.04429607 0.11121073 0.034925476 -0.039988413 0.016039416 -0.015069142 0.026593745
0.11642729 0.054128736 -0.1090153 -0.03240195 -0.07110503 -0.070850745 0.015284479 -0.08136462
0.038458407 -0.02504021 -0.027659878 -0.036587283 0.034776136 -0.03931983 -0.058674112 -0.0049241185
-0.07368116 0.09748949 -0.009978667 -0.09910761 0.09253289 0.10822345 0.056830972 -0.06824641
-0.07603875 0.0077344924 -0.0064308047 0.010645613 -0.035829917 -0.07890928 0.120931625 -0.10186829
-0.02906692 -0.10478875 -0.048254147 0.0042446703 -0.06682214 0.070967585 0.022399798 0.055840045
-0.06418519 -0.10622895 0.026786655 0.124440685 0.082382694 0.038307488 0.0838906 0.070743084
0.039073855 0.07721196 -0.11306943 0.06914356 -0.12094681 -0.04029937 0.014859095 0.058482468
0.020421937 -0.04479392 -0.096573964 0.09989257 0.07718681 0.055260137 0.082143754 -0.05642581
0.1101975 0.05912991 -0.0734413 -0.04170029 -0.11192241 0.022478342 -0.031489357 -0.077041104
-0.02770251 0.05139774 0.05595398 -0.04796344 0.0081065 -0.11293937 -0.028698504 -0.07786907
0.058473483 0.109019026 0.113602296 0.124096096 -0.008391932 -0.10378289 -0.08208738 0.117170274
0.10773288 0.11447202 0.044899583 0.005744338 0.055347502 -0.017252296 -0.0575379 -0.07603137
0.027369514 -0.005589783 -0.030545354 0.11161211 -0.018861145 -0.08090986 0.10288186 -0.08619954
0.03875704 0.033110082 0.07406081 -0.050186872 0.038307577 -0.10674654 0.005904302 -0.05282499
00000000: 2adb b13d b01f 4fbd 604d 173c 70b7 ec3c
00000010: b0ce f7bc 622e 86bd b8cb d4bd c0ea 34bc
00000020: 32d2 f93d f419 923d d0ac 96bc d454 c5bd
00000030: 607d 0a3c 7002 84bd 9049 603d 2c57 473d
00000040: 28ec fc3c b493 f33d a802 8a3d 0219 893d
00000050: 3ed0 ae3d 3048 fb3d 7253 efbd a80e 5b3d
00000060: 78d4 293d b694 e73d 80dc f53d bc66 b93d
00000070: 6e27 9c3d 90fb d6bd 4486 fcbd be16 dbbd
00000080: dcd5 2a3d 1e7b dbbd 627e a5bd 4011 2c3b
00000090: 4437 273d 6418 773d d47b b33d e65a d1bd
000000a0: 285b debd 0475 de3d ec3e 4fbd ee1c ebbd
000000b0: d08f 19bd 7411 45bd ce74 e6bd 0487 2e3d
000000c0: e4ca f33d 2832 ff3c 728b c03d 701d b73c
000000d0: c471 a53d 76f7 ab3d 4c29 5dbd b215 c83d
000000e0: 9a6f 913d 5caa 85bd 68dc ec3c 6028 e0bc
000000f0: 1009 8cbc 9047 f63c 9a5c cd3d a0da e7bd
00000100: ead0 f23d 3831 a2bc 2067 703d 80f2 823a
00000110: acc7 ecbd f082 be3d 70c6 dc3c e2bd ae3d
00000120: 5068 d53d f8c6 9e3d ac80 c73d 8083 a3bd
00000130: 6e52 983d 189e bebd d002 73bc a027 71bc
00000140: a878 efbc 40a3 4fbd f880 203d 5854 b1bc
00000150: ae22 b03d 52b6 b43d 602d 0b3c ec56 363d
00000160: 0e5d a93d 6c27 adbd fea5 ae3d f8ac c4bc
00000170: 8200 86bd 7cdb 11bd 1ca8 353d 28b6 fb3c
00000180: 305e 43bd 60ef db3b f092 bf3c f096 22bd
00000190: 80d9 17bc 300d 26bd a028 36bc 8e19 9abd
000001a0: 10df e13d d4a0 2f3d f858 b33d 00b6 b63d
000001b0: a6a8 923d c46f 6c3d f089 9abd 60df 9c3c
000001c0: 4041 5dbb 50ab 3dbc 24fd 37bd 5292 e23d
000001d0: 64bf 6dbd 884d e33d 60eb 24bd 7601 a73d
000001e0: c02a 28bd 80a8 40bc 700a 75bc 4a90 bb3d
000001f0: 849d df3d ee6e e6bd d0e0 a73d fae5 ca3d
00000200: 801f 5abb 9c4b 58bd 2800 cb3c 9402 0d3d
00000210: 06bb dc3d 5c14 423d b6ab aebd 30a4 783c
00000220: da98 a5bd cc6f 353d 74c2 e33d 040e 0f3d
00000230: e4ca 23bd 1865 833c 90e4 76bc 20db d93c
00000240: 6e71 ee3d 18b6 5d3d 6a43 dfbd e8b7 04bd
00000250: 849f 91bd 321a 91bd c06b 7a3c 7ea2 a6bd
00000260: 9086 1d3d 2021 cdbc f896 e2bc 8cdc 15bd
00000270: 6c71 0e3d d40d 21bd 4454 70bd 805a a1bb
00000280: 26e6 96bd 92a8 c73d 907d 23bc eef8 cabd
00000290: e281 bd3d 42a4 dd3d 98c7 683d c6c4 8bbd
000002a0: 34ba 9bbd a071 fd3b 80b9 d2bb f06a 2e3c
000002b0: 64c2 12bd 309b a1bd 00ab f73d 52a0 d0bd
000002c0: c01d eebc 7c9b d6bd 24a6 45bd e016 8b3b
000002d0: 0cda 88bd 7457 913d c87f b73c 88b8 643d
000002e0: 8673 83bd 908e d9bd b06f db3c c2da fe3d
000002f0: 42b8 a83d 50e8 1c3d d6ce ab3d c0e1 903d
00000300: e80b 203d 4e21 9e3d f290 e7bd 249b 8d3d
00000310: f6b2 f7bd f410 25bd 9073 733c 508b 6f3d
00000320: e84b a73c d479 37bd 92c8 c5bd 7a94 cc3d
00000330: 1e14 9e3d 7458 623d fc3a a83d c01e 67bd
00000340: 3aaf e13d 3432 723d 6468 96bd eccd 2abd
00000350: 9437 e5bd 8024 b83c fcfa 00bd bac7 9dbd
00000360: 60f0 e2bc 7086 523d 0030 653d 5075 44bd
00000370: 20d1 043c c24c e7bd 2019 ebbc d279 9fbd
00000380: e481 6f3d 5e45 df3d 52a8 e83d 1826 fe3d
00000390: 507e 09bc 208c d4bd 6e1d a8bd f8f6 ef3d
000003a0: 0ea3 dc3d 4e70 ea3d a0e8 373d 003b bc3b
000003b0: 10b4 623d b054 8dbc dcac 6bbd 56b6 9bbd
000003c0: 0836 e03c 802a b7bb 403a fabc e494 e43d
000003d0: b082 9abc 12b4 a5bd bab3 d23d 6289 b0bd
000003e0: b4bf 1e3d 709e 073d 32ad 973d c090 4dbd
000003f0: 68e8 1c3d ee9d dabd e078 c13b 045f 58bd

gru.weight_hh_l0 f4 [192, 64]
-0.013586268 0.06838113 -0.007455945 0.026054308 -0.04704091 0.12227656 0.098851874 0.01375927
0.11495435 -0.059379146 0.011904597 -0.042629793 0.1186291 0.035365343 0.034521386 0.11483522
0.11573963 0.021804765 -0.119097844 -0.0659551 -0.09581436 0.09083119 0.1102265 0.0049342215
-0.016052812 0.04753068 0.07511097 0.11150575 0.020864561 0.061604038 -0.03603798 0.116927415
0.112534925 0.038197845 0.110274374 -0.08500488 -0.042382836 -0.08303599 0.06936738 -0.062805966
0.095606804 0.02226235 0.12396018 0.0276725 0.030466914 -0.04417339 -0.0041386783 0.03927067
0.11897208 0.01616709 -0.11888386 -0.04605946 -0.06368202 -0.11277756 0.0064982325 -0.01444228
-0.108930305 -0.10722272 -0.096052974 -0.071547925 -0.09750125 -0.12111455 -0.060750797 0.030203775
-0.06779602 -0.0511335 -0.1203244 -0.018326566 0.09274872 0.06885141 -0.105229154 -0.10198143
0.0061063617 0.113857016 0.07795882 -0.02288501 -0.09508221 -0.062315896 0.12437092 0.089288965
0.02211076 0.08720781 0.11505629 0.0037525594 -0.030344307 0.016103566 -0.07149765 -0.07136151
-0.10762535 0.08542803 0.12338403 0.11477187 0.087177515 0.111626014 0.057538226 0.12051737
0.010110781 0.021277115 0.11064109 -0.11572321 0.122795284 0.0027641654 0.10977636 0.077652484
0.104654625 0.09744024 -0.05685562 0.10132313 -0.07721585 -0.124509305 -0.07482006 0.021803215
-0.033239156 0.061517328 -0.039565563 0.06421071 0.10483557 -0.044545487 -0.054221004 -0.09878823
0.1170927 -0.028056964 0.076034576 0.09873146 -0.04712999 -0.043785363 -0.053476304 -0.11048488
-0.048649997 -0.0046295673 0.11232431 -0.12196979 -0.0798693 -0.0082241595 -0.10660459 0.005991876
-0.08623032 -0.07413535 0.034391895 0.045887545 0.015036628 -0.010176405 0.11937939 -0.060947016
0.010808602 -0.010152549 -0.003908813 0.11500572 -0.054783314 -0.07931538 0.036722496 -0.051982522
-0.11843294 0.051074803 0.06359424 0.082766786 -0.043977216 -0.10680464 0.11130309 0.01809983
0.05991617 0.017591596 -0.06302039 0.035661817 0.052975878 0.0062182695 0.06949431 -0.12473941
0.010127187 0.11654031 -0.05023752 -0.023088872 0.025808305 0.059819907 0.029357657 0.0014454871
-0.06500223 -0.0494795 0.052799508 0.0744628 -0.03344211 0.10312371 0.11893286 -0.039512634
-0.10233998 0.100840405 0.10282254 -0.008924291 -0.07195018 0.0051458776 -0.02071248 -0.031353444
0.023269191 -0.089239016 -0.027475461 0.03199531 -0.080281034 -0.11098789 -0.039983258 -0.06250353
-0.10018623 -0.058454618 0.116193116 -0.060674787 -0.07358588 -0.045087293 0.051959723 -0.030341208
-0.07482062 -0.018998116 0.024238512 0.029026464 -0.029550195 0.10019931 0.041842476 0.075925976
-0.03950779 0.02545987 -0.03875923 0.060573995 -0.059147924 0.09822042 -0.110334456 0.08759646
-0.12188049 0.008480951 -0.07158215 -0.046824366 0.048361942 0.10397281 0.04467973 0.11034915
-0.019520685 0.033105284 0.070094794 0.017616719 0.11958678 0.116695076 -0.094647035 0.07371351
-0.079221785 -0.11730933 -0.06294422 -0.1239516 0.089699954 0.055089623 0.07278484 0.04529105
-0.11951819 0.03432943 0.123784244 -0.058165938 0.07281177 -0.04096265 -0.01758477 0.07633363
00000000: f098 5ebc 680b 8c3d 0051 f4bb d86f d53c
00000010: f8ad 40bd 226c fa3d da72 ca3d 906e 613c
00000020: 306d eb3d 8c37 73bd 800b 433c 949c 2ebd
00000030: d0f3 f23d 40db 103d 4c66 0d3d ba2e eb3d
00000040: e608 ed3d e89f b23c 92e9 f3bd 7813 87bd
00000050: 523a c4bd b405 ba3d 6ebe e13d 40af a13b
00000060: 3081 83bc 88af 423d c8d3 993d 205d e43d
00000070: 28ec aa3c 8454 7c3d 909c 13bd a477 ef3d
00000080: b678 e63d 5875 1c3d 88d7 e13d 0a17 aebd
00000090: a099 2dbd c60e aabd 7c10 8e3d 6aa0 80bd
000000a0: 80cd c33d 885f b63c d6de fd3d 70b1 e23c
000000b0: c095 f93c 28ef 34bd c09d 87bb 48da 203d
000000c0: a2a7 f33d d870 843c 6279 f3bd d8a8 3cbd
000000d0: b86b 82bd ecf7 e6bd 20ef d43b 509f 6cbc
000000e0: da16 dfbd 9697 dbbd 6cb7 c4bd b887 92bd
000000f0: bcae c7bd e80a f8bd d4d5 78bd e86d f73c
00000100: a4d8 8abd 5c71 51bd a46c f6bd 9821 96bc
00000110: 0af3 bd3d f801 8d3d 6282 d7bd a4db d0bd
00000120: e017 c83b de2d e93d e0a8 9f3d 5879 bbbc
00000130: 76ba c2bd f43e 7fbd 2eb6 fe3d 22dd b63d
00000140: a021 b53c 029a b23d a2a2 eb3d 80ed 753b
00000150: a094 f8bc a0eb 833c 5c6d 92bd fc25 92bd
00000160: ae6a dcbd e4f4 ae3d c4b0 fc3d 840d eb3d
00000170: 208a b23d 2e9c e43d 34ad 6b3d d0d1 f63d
00000180: b0a7 253c 584d ae3c cc97 e23d 4a00 edbd
00000190: 187c fb3d 0027 353b 6ed2 e03d 4408 9f3d
000001a0: 2a55 d63d c08e c73d 70e1 68bd 8082 cf3d
000001b0: 5823 9ebd bcfe febd 423b 99bd a89c b23c
000001c0: c825 08bd 98f9 7b3d 800f 22bd e880 833d
000001d0: 08b4 d63d 5475 36bd d816 5ebd 7c51 cabd
000001e0: 4cce ef3d b8d7 e5bc 04b8 9b3d b833 ca3d
000001f0: 600b 41bd 4858 33bd f809 5bbd e645 e2bd
00000200: 3845 47bd a0b3 97bb 4a0a e63d 4ccb f9bd
00000210: 8492 a3bd a0be 06bc 8253 dabd 8057 c43b
00000220: 8699 b0bd 46d4 97bd 84de 0c3d 94f4 3b3d
00000230: 305c 763c f0ba 26bc 2e7d f43d 94a3 79bd
00000240: 9016 313c e056 26bc 8015 80bb 1e88 eb3d
00000250: 7864 60bd 1a70 a2bd 546a 163d a0eb 54bd
00000260: f88c f2bd d033 513d b23d 823d a281 a93d
00000270: 7421 34bd 64bc dabd e0f2 e33d 1846 943c
00000280: a86a 753d 401c 903c d610 81bd 2012 123d
00000290: 3cfd 583d a0c2 cb3b 0853 8e3d 6077 ffbd
000002a0: 80ec 253c b0ac ee3d dcc5 4dbd e024 bdbc
000002b0: f06b d33c b805 753d 787f f03c 8076 bd3a
000002c0: e41f 85bd 04ab 4abd 4c44 583d f47f 983d
000002d0: 98fa 08bd 8632 d33d 1293 f33d 00d8 21bd
000002e0: a097 d1bd 6a85 ce3d a094 d23d 3037 12bc
000002f0: 9e5a 93bd c09e a83b 38ad a9bc 786c 00bd
00000300: 089f be3c f2c2 b6bd 3814 e1bc 840d 033d
00000310: 626a a4bd 9e4d e3bd 7cc5 23bd da01 80bd
00000320: 702e cdbd 1c6e 6fbd a8f6 ed3d 2086 78bd
00000330: 32b4 96bd 74ad 38bd b8d3 543d 208e f8bc
00000340: 8e3b 99bd f0a1 9bbc d88f c63c e8c8 ed3c
00000350: 4013 f2bc 4c35 cd3d 0463 2b3d 147f 9b3d
00000360: ecd2 21bd 3891 d03c 00c2 1ebd 701c 783d
00000370: 1845 72bd ca27 c93d 08f7 e1bd c665 b33d
00000380: 7a9c f9bd b0f3 0a3c aa99 92bd e8ca 3fbd
00000390: 2c17 463d b2ef d43d 1802 373d bcfe e13d
000003a0: d8e9 9fbc 6899 073d dc8d 8f3d f050 903c
000003b0: eae9 f43d d4fd ee3d 4ed6 c1bd 1cf7 963d
000003c0: 083f a2bd e03f f0bd e6e8 80bd 56da fdbd
000003d0: 9cb4 b73d a8a5 613d 3810 953d 1c83 393d
000003e0: f4c5 f4bd 049d 0c3d 9882 fd3d 683f 6ebd
000003f0: 561e 953d 74c8 27bd f00d 90bc ce54 9c3d

gru.bias_ih_l0 f4 [192]
0.0022103488 0.113886386 -0.06974059 -0.042538285 -0.03941539 -0.01636596 -0.028321818 0.10061462
0.0018698722 0.092981994 0.03817652 -0.045876548 -0.038372427 0.083412364 -0.081216335 -0.0029870283
0.041773424 -0.08236019 -0.11277868 0.025690526 0.07129547 0.042789623 -0.0871335 0.08825037
-0.12197547 0.10436329 -0.09763562 0.05068773 0.04222125 -0.1121643 0.12111691 -0.029235154
0.026461462 0.06502092 -0.045636132 -0.055833116 0.01972416 -0.03195277 0.049088627 -0.05189073
-0.04979074 -0.050745327 0.07490796 0.03153412 0.07904847 -0.058384255 0.10010852 0.12450585
-0.05251436 -0.049052015 -0.061769478 0.06327678 -0.057923228 -0.08553085 0.0102915885 -0.124172315
0.047873855 0.07492483 0.077751294 -0.014892638 -0.02033591 -0.009113595 0.060956568 0.05144395
0.012593811 -0.05462636 -0.05716783 0.065820575 -0.11426439 -0.014511198 0.0065265093 -0.101548016
0.08372816 0.057819713 0.014161772 0.044282675 -0.13282576 0.043676987 -0.049227197 0.06313562
0.03234331 -0.047220454 0.1055659 -0.08727963 0.06898567 -0.024789711 -0.054243624 0.033188105
-0.11975995 -0.0025987774 0.00686984 0.02762319 -0.087497726 0.07448437 0.10433617 0.029299345
0.046281166 -0.06421802 -0.09255382 -0.045801807 0.09191356 -0.03113064 0.09072229 0.111698374
-0.01639077 0.08447147 -0.01161164 0.036222614 -0.07535052 -0.011538103 0.06111791 0.013591326
0.083898604 0.00850223 -0.076991886 -0.03783202 0.07167068 -0.0075215995 -0.012452052 -0.06380641
0.11864314 -0.0051599476 -0.012951821 0.11026691 -0.068790436 0.08749454 -0.11766405 0.120367184
0.10541333 0.07920055 -0.046925545 -0.07995498 -0.0278126 -0.046012238 0.11065163 -0.006221622
-0.057026 0.06420599 -0.05185218 0.0032841861 -0.122664586 -0.101603016 0.10995519 -0.069420956
-0.093375474 -0.10356383 -0.10379039 0.08005835 0.09813185 -0.05554931 0.03670615 0.0671839
8.948004e-05 0.017646953 -0.025638238 -0.085788645 0.004477024 0.098339066 0.056358382 -0.05179493
0.13352504 0.033309028 -0.01725447 0.04529175 0.10530615 0.12122778 0.10975526 0.00786221
-0.09467648 0.07028722 0.035280272 -0.031254545 0.05018234 -0.020163238 0.04765837 -0.054320976
-0.023945138 0.07119097 -0.05398311 -0.009003311 0.10665378 0.027991638 -0.053183135 0.09335667
0.020282805 -0.09348568 -0.07683085 0.0015848577 0.10009813 -0.11053857 0.08844273 0.08756171
00000000: 80db 103b 443d e93d 28d4 8ebd a03c 2ebd
00000010: 0872 21bd e811 86bc 2803 e8bc 0a0f ce3d
00000020: 8016 f53a 586d be3d fc5e 1c3d 0ce9 3bbd
00000030: 682c 1dbd 1ad4 aa3d c054 a6bd 05c2 43bb
00000040: 9c1a 2b3d 76ac a8bd 82f8 e6bd f074 d23c
00000050: 5c03 923d 2c44 2f3d 0c73 b2bd 9cbc b43d
00000060: 46ce f9bd 6cbc d53d 2ff5 c7bd f09d 4f3d
00000070: 30f0 2c3d 66b6 e5bd 240c f83d 907e efbc
00000080: b5c5 d83c b029 853d f4ec 3abd 44b1 64bd
00000090: 9094 a13c e8e0 02bd 2811 493d 608b 54bd
000000a0: 60f1 4bbd 55da 4fbd 5869 993d ec29 013d
000000b0: 2ae4 a13d 5424 6fbd b205 cd3d ecfc fe3d
000000c0: 4c19 57bd c4ea 48bd fe01 7dbd 4297 813d
000000d0: e840 6dbd cc2a afbd 0d9e 283c 0e4e febd
000000e0: 6017 443d 3072 993d 123c 9f3d 4000 74bc
000000f0: 7f97 a6bc 3051 15bc 98ad 793d e4b6 523d
00000100: 4656 4e3c e4bf 5fbd d128 6abd f0cc 863d
00000110: 7303 eabd 60c0 6dbc 54dc d53b 68f8 cfbd
00000120: ab79 ab3d 5dd4 6c3d c706 683c c061 353d
00000130: 7a03 08be a4e6 323d 75a2 49bd 3f4d 813d
00000140: 6b7a 043d 3c6a 41bd ef32 d83d aabf b2bd
00000150: 5c48 8d3d cb13 cbbc 902e 5ebd 40f0 073d
00000160: b444 f5bd 4050 2abb 651c e13b 074a e23c
00000170: 0232 b3bd 438b 983d 34ae d53d 2e05 f03c
00000180: 5291 3d3d bd84 83bd db8c bdbd ad9a 3bbd
00000190: 2d3d bc3d af05 ffbc 9ccc b93d 1ec2 e43d
000001a0: f045 86bc 61ff ac3d c03e 3ebc 2a5e 143d
000001b0: 6051 9abd 500a 3dbc c656 7a3d 27ae 5e3c
000001c0: 08d3 ab3d f04c 0b3c ecad 9dbd c0f5 1abd
000001d0: 14c8 923d c077 f6bb b103 4cbc efac 82bd
000001e0: 2dfb f23d c714 a9bb e033 54bc 9ed3 e13d
000001f0: 00e2 8cbd 5630 b33d d9f9 f0bd 1283 f63d
00000200: f2e2 d73d e633 a23d 0035 40bd 70bf a3bd
00000210: 40d7 e3bc 5477 3cbd 529d e23d c0de cbbb
00000220: 1894 69bd 6e7e 833d f462 54bd 803b 573b
00000230: 9237 fbbd 3e15 d0bd 3030 e13d 932c 8ebd
00000240: a43b bfbd 4619 d4bd 0e90 d4bd a2f5 a33d
00000250: 5af9 c83d ac87 63bd 3059 163d b697 893d
00000260: 3ba7 bb38 5890 903c 4807 d2bc f5b1 afbd
00000270: 00b4 923b fe65 c93d 0cd8 663d ec26 54bd
00000280: caba 083e 0c6f 083d 3f59 8dbc d883 393d
00000290: c0aa d73d 4546 f83d 5ec7 e03d 80d0 003c
000002a0: bee5 c1bd bff2 8f3d 0c82 103d c404 00bd
000002b0: ff8b 4d3d 602d a5bc 6c35 433d ac7f 5ebd
000002c0: 9828 c4bc 92cc 913d 651d 5dbd a082 13bc
000002d0: 4c6d da3d b84e e53c 8fd6 59bd c831 bf3d
000002e0: 2028 a63c 6c75 bfbd 7e59 9dbd 00bb cf3a
000002f0: 4000 cd3d 0c62 e2bd 7621 b53d 8e53 b33d

gru.bias_hh_l0 f4 [192]
-0.019434676 0.10761377 0.10372281 0.11634374 0.048650146 0.013007522 -0.033461496 -0.034355447
0.11438309 0.050670803 -0.10139695 0.08552514 0.014551029 0.00997591 0.036119357 0.04658139
0.015132159 -0.054638833 0.013454303 -0.021179646 -0.0632748 -0.034822017 -0.05992113 0.09586704
0.091763526 0.020231605 0.08708597 -0.027264833 -0.09719537 0.072440445 0.040001407 0.021822155
-0.11621268 -0.07715331 0.102015615 -0.05986257 -0.10468288 -0.07636613 -0.10606091 0.0010882914
0.03960669 0.116098955 0.0019921064 -0.015300259 -0.10163903 -0.010019273 -0.12338215 0.047598794
0.11975005 -0.0827744 -0.05444616 -0.042418092 0.0062212646 0.028455257 0.031220175 -0.09552744
-0.06846793 -0.1024552 0.06031014 0.099350974 0.110672645 -0.11624499 0.03221461 -0.07392195
0.11686383 -0.026720524 -0.033994645 0.10359813 -0.11064742 -0.10195619 -0.0009038404 -0.08679078
-0.024240132 -0.088921756 0.074547306 0.10703921 0.11096142 -0.064937025 -0.089916505 -0.06425207
-0.003030464 -0.09353861 -0.070665576 0.08125166 0.09567751 -0.05300373 -0.022352964 0.07263231
-0.061164185 0.116890416 -0.08551679 -0.03886058 0.04249996 0.061828855 -0.10319364 -0.03760795
-0.086670436 -0.08226266 -0.12093989 -0.06632546 0.039729457 -0.13482714 0.066780806 0.019946665
0.027866185 -0.104931004 0.12189993 -0.097246535 -0.021638468 -0.016771376 0.12219925 -0.038241047
0.07089387 0.081891224 0.10893573 -0.08936663 -0.10819192 -0.04706484 -0.013458403 -0.06509077
-0.0961734 -0.058777805 -0.035529345 -0.031202674 -0.0035026073 -0.103141546 -0.12228202 0.09838261
-0.033633217 0.07939461 -0.09143466 -0.11043705 0.11193766 -0.041809976 -0.10160206 0.07260531
0.122136086 0.04806681 0.018687263 -0.061583087 -0.08976224 0.024222463 0.037106395 -0.081725314
0.032375783 -0.05094947 -0.013107255 0.05397591 0.00040066242 -0.0955279 -0.11018327 0.039075226
-0.0913329 0.061567903 -0.13306221 -0.032295465 -0.031401634 0.064555824 -0.11846265 0.08141412
-0.05455262 0.08962679 -0.043119565 0.017099798 -0.07194732 -0.11090154 0.052927926 0.053220212
-0.12199026 0.038267378 0.053497493 0.10439141 -0.04362681 0.015798748 0.07491103 -0.00034438074
0.06591457 0.007474005 0.09631784 -0.07884292 0.086440906 -0.09257077 -0.013620651 -0.114778474
-0.07110874 -0.036119834 0.10483582 0.06671639 0.013243029 0.017370462 0.12084298 0.11089942
00000000: 7835 9fbc 9c64 dc3d a06c d43d a045 ee3d
00000010: 6045 473d 801d 553c ec0e 09bd 4cb8 0cbd
00000020: ae41 ea3d 308c 4f3d 34a9 cfbd ce27 af3d
00000030: 7067 6e3c 0072 233c e4f1 133d 21cc 3e3d
00000040: e0ec 773c f8cc 5fbd 706f 5c3c f080 adbc
00000050: 3896 81bd 88a1 0ebd dc6f 75bd f055 c43d
00000060: 84ee bb3d c0bc a53c 215a b23d 805a dfbc
00000070: 5e0e c7bd a85b 943d 84d8 233d 60c4 b23c
00000080: ea00 eebd 8e02 9ebd 90ed d03d 7432 75bd
00000090: fa63 d6bd d865 9cbd 7636 d9bd 00a5 8e3a
000000a0: a03a 223d 4ac5 ed3d 008e 023b f0ad 7abc
000000b0: 2028 d0bd e027 24bc c8af fcbd f4f6 423d
000000c0: 843f f53d a085 a9bd f002 5fbd 98be 2dbd
000000d0: c0db cb3b 001b e93c 74c1 ff3c e4a3 c3bd
000000e0: ea38 8cbd 08d4 d1bd c407 773d 8678 cb3d
000000f0: 57a8 e23d da11 eebd 78f3 033d 6464 97bd
00000100: 4e56 ef3d 00e5 dabc f83d 0bbd 422b d43d
00000110: 1d9b e2bd 68ce d0bd b4ef 6cba 5dbf b1bd
00000120: 3e93 c6bc 9c1c b6bd 42ac 983d 6037 db3d
00000130: be3f e33d b4fd 84bd 2526 b8bd 9796 83bd
00000140: c09a 46bb 2c91 bfbd 1db9 90bd 4567 a63d
00000150: 92f2 c33d 701a 59bd 901d b7bc 40c0 943d
00000160: 4c87 7abd 3e64 ef3d 6d23 afbd 462c 1fbd
00000170: 7014 2e3d 4140 7d3d 3057 d3bd cb0a 1abd
00000180: 4580 b1bd 5379 a8bd 55af f7bd a5d5 87bd
00000190: 5bbb 223d 2010 0abe 60c4 883d 3067 a33c
000001a0: a047 e43c 11e6 d6bd aca6 f93d 3129 c7bd
000001b0: 2843 b1bc 2064 89bc 9a43 fa3d a5a2 1cbd
000001c0: ce30 913d 96b6 a73d b219 df3d da05 b7bd
000001d0: ba93 ddbd 10c7 40bd a280 5cbc 4f4e 85bd
000001e0: 8ff6 c4bd ffc0 70bd 3887 11bd c09c ffbc
000001f0: 008c 65bb e03b d3bd ff6e fabd d27c c93d
00000200: fcc2 09bd a499 a23d 1842 bbbd d22c e2bd
00000210: 923f e53d f040 2bbd be14 d0bd 18b2 943d
00000220: 7c22 fa3d b4e1 443d 0816 993c 8c3e 7cbd
00000230: 44d5 b7bd 306e c63c e0fc 173d 9a5f a7bd
00000240: 789c 043d 64b0 50bd d0bf 56bc d815 5d3d
00000250: 0010 d239 22a4 c3bd c4a7 e1bd 580d 203d
00000260: be0c bbbd a02e 7c3d 7641 08be 4048 04bd
00000270: 009f 00bd d835 843d 8c9c f2bd 72bc a63d
00000280: 9172 5fbd 408e b73d 249e 30bd e014 8c3c
00000290: 1e59 93bd 5920 e3bd f4ca 583d 70fd 593d
000002a0: 08d6 f9bd 41be 1c3d 3020 5b3d 2acb d53d
000002b0: 07b2 32bd 606c 813c f46a 993d 008e b4b9
000002c0: 38fe 863d 80e8 f43b 4a42 c53d 6678 a1bd
000002d0: ee07 b13d be95 bdbd 2729 5fbc fa10 ebbd
000002e0: 76a1 91bd 64f2 13bd 2ab4 d63d 9aa2 883d
000002f0: 4af9 583c 804c 8e3c 867c f73d 3c1f e33d

fc.weight f4 [3, 64]
0.74809706 0.10541408 -0.872782 0.081509605 0.88711315 -0.04523076 -0.029440485 0.066286236
-0.002482785 0.36410844 -0.05612366 -0.12395163 -0.13463941 -0.07304809 -0.11272668 -0.08597614
-0.029594727 -0.123493075 -0.3543953 0.074489005 0.019759893 -0.030110175 -0.08848621 0.07541882
0.01151364 -0.04583828 0.3299989 -0.8112553 0.0776031 1.2791463 0.06712863 0.056192476
-0.9097229 -0.3702667 -0.58709216 -0.090748176 0.13597788 0.090513356 0.113691315 0.036386326
-0.038189888 0.7015222 0.12010937 0.087060146 -0.041257102 0.014608498 -0.039996963 0.037755053
-0.03703901 -0.039397325 0.077590786 -0.040578842 0.071900725 0.09628592 0.09935825 0.02856839
-0.7826768 0.04575726 -0.057417184 0.124622 -0.0048755864 -0.09952363 -0.070970766 -0.092844665
0.65668195 -0.09941569 0.8686361 0.028026838 -0.037917465 0.02883312 -0.0975398 0.027827362
-0.09031624 -0.8155068 0.0098069515 -0.080467656 0.47739625 0.017177109 0.06995911 0.10240991
0.10593111 0.013301939 0.2836502 -0.15155107 -0.04665549 0.02669634 0.020666197 -0.11281839
0.15454093 0.058239236 1.103819 0.6132132 -0.0071924804 1.4637512 -0.009379938 0.110466026
0.9459076 0.8669074 0.7985248 0.06394784 -0.95456755 -0.063071705 0.07085246 0.08035536
0.018321902 -0.4562771 0.09655635 -0.013564468 0.063557245 -0.075704105 -0.08464568 -0.10053434
0.04459758 0.014202907 -0.0968744 0.05641976 -0.0870918 -0.06953911 -0.0078241285 0.07564351
-0.3575037 0.033313856 -0.08287497 0.003673792 -0.06927646 -0.04241538 0.15216729 -0.114231765
-0.04388733 0.06736119 -0.38498348 0.11476533 0.19063672 -0.007583161 -0.066619605 0.059498794
-0.043228656 -0.02490246 -0.09301604 -0.12060359 -0.42130518 -0.09423193 0.09257952 0.050501727
0.012130212 -0.0032484233 -0.17254207 -0.115111895 -0.024022102 0.052259095 0.038790986 -0.022910494
0.06554328 0.052908674 -0.11411082 0.1860476 -0.0010286323 0.17855354 0.055597708 0.039379828
0.095453106 0.15959464 0.09344557 -0.017087186 -0.07558409 0.103434645 -0.08547789 0.116543055
-0.029899701 -0.18382926 0.007289617 -0.017162142 -0.04721459 -0.04596393 -0.009100113 0.093194544
0.09446974 0.10136494 0.33958533 -0.0947545 0.030031832 -0.0796058 0.06631311 -0.054721933
-0.027452622 0.032478113 -0.084175706 -0.0023004562 0.082544066 -0.0024964213 0.09988496 -0.011170059
00000000: 4a83 3f3f 56e3 d73d a46e 5fbf 82ee a63d
00000010: d919 633f e443 39bd 2c2d f1bc 14c1 873d
00000020: 38b6 22bb 6c6c ba3e ece1 65bd 5ada fdbd
00000030: eade 09be 3d9a 95bd 3fdd e6bd 4214 b0bd
00000040: a470 f2bc f0e9 fcbd 4d73 b5be b18d 983d
00000050: 80df a13c 9da9 f6bc 4238 b5bd 2f75 9a3d
00000060: b5a3 3c3c ecc0 3bbd 9ef5 a83e 6dae 4fbf
00000070: 60ee 9e3d 11bb a33f bc7a 893d 152a 663d
00000080: 9ae3 68bf 9993 bdbe ac4b 16bf 2eda b9bd
00000090: c93d 0b3e 115f b93d fed6 e83d d409 153d
000000a0: 006d 1cbd f596 333f e7fb f53d 974c b23d
000000b0: 35fd 28bd 7b58 6f3c dbd3 23bd 0ba5 1a3d
000000c0: 38b6 17bd 175f 21bd ebe7 9e3d 0036 26bd
000000d0: b040 933d 8d31 c53d 577c cb3d 4208 ea3c
000000e0: 825d 48bf f76b 3b3d 482e 6bbd d239 ff3d
000000f0: 62c3 9fbb 0cd3 cbbd 1f59 91bd 5825 bebd
00000100: 4f1c 283f 749a cbbd ef5e 5e3f 8a98 e53c
00000110: 584f 1bbd 6f33 ec3c f2c2 c7bd 35f6 e33c
00000120: b9f7 b8bd 0ec5 50bf 56ad 203c 3acc a4bd
00000130: 486d f43e 02b7 8c3c b946 8f3d 49bc d13d
00000140: 69f2 d83d 60f0 593c 993a 913e 3430 1bbe
00000150: d419 3fbd 48b2 da3c 284c a93c 540d e7bd
00000160: fa3f 1e3e 448c 6e3d f149 8d3f 8afb 1c3f
00000170: e6ae ebbb 335c bb3f 50ae 19bc 033c e23d
00000180: 0027 723f a5ed 5d3f 1f6c 4c3f 16f7 823d
00000190: 8a5e 74bf bd2b 81bd 181b 913d 5a91 a43d
000001a0: d017 963c 279d e9be 56bf c53d 813d 5ebc
000001b0: 4d2a 823d c10a 9bbd b75a adbd f3e4 cdbd
000001c0: f4ab 363d 4fb3 683c 1666 c6bd 6818 673d
000001d0: 305d b2bd 856a 8ebd c630 00bc fcea 9a3d
000001e0: ba0a b7be 1c74 083d 5aba a9bd 00c4 703b
000001f0: d1e0 8dbd c0bb 2dbd bed1 1b3e 58f2 e9bd
00000200: 33c3 33bd aaf4 893d 8e1c c5be 160a eb3d
00000210: 4636 433e 2a7c f8bb dc6f 88bd 02b5 733d
00000220: 8810 31bd 3e00 ccbc 327f bebd 04ff f6bd
00000230: 50b5 d7be acfc c0bd 559a bd3d e6da 4e3d
00000240: ccbd 463c 80e3 54bb deae 30be c9bf ebbd
00000250: 00ca c4bc a20d 563d 4ce3 1e3d caae bbbc
00000260: 8e3b 863d c4b6 583d efb2 e9bd 4383 3e3e
00000270: 2cd3 86ba bdd6 363e 6cba 633d be4c 213d
00000280: eb7c c33d c76c 233e 6460 bf3d 6dfa 8bbc
00000290: d5cb 9abd 8bd5 d33d 080f afbd 20ae ee3d
000002a0: 38f0 f4bc bd3d 3cbe bddd ee3b 9f97 8cbc
000002b0: 1664 41bd ad44 3cbd a418 15bc c8dc be3d
000002c0: 5a79 c13d 6c98 cf3d 21de ad3e a60e c2bd
000002d0: 5105 f63c 5e08 a3bd 2bcf 873d 1b24 60bd
000002e0: 52e4 e0bc c507 053d 5064 acbd 40c3 16bb
000002f0: dd0c a93d 009b 23bb 7c90 cc3d a002 37bc

fc.bias f4 [3]
0.11198239 0.044211894 -0.059156984
00000000: 0657 e53d 8817 353d 984e 72bd
