a-storage/result/9/model_epoch_1500.pth (torch, 67411 bytes, 6 tensors)

gru.weight_ih_l0 f4 [192, 18]
0	0x3db1db2a	0.0868438
1	0xbd4f1fb0	-0.05056733
2	0x3c174d60	0.009234756
3	0x3cecb770	0.028896064
4	0xbcf7ceb0	-0.030249923
5	0xbd862e62	-0.065518156
6	0xbdd4cbb8	-0.10390419
7	0xbc34eac0	-0.011042297
8	0x3df9d232	0.12198295
9	0x3d9219f4	0.071338564
10	0xbc96acd0	-0.01839295
11	0xbdc554d4	-0.0963532
12	0x3c0a7d60	0.008452743
13	0xbd840270	-0.064457774
14	0x3d604990	0.054757655
15	0x3d47572c	0.048667118
16	0x3cfcec28	0.030874327
17	0x3df393b4	0.118934065
18	0x3d8a02a8	0.06738788
19	0x3d891902	0.06694223
20	0x3daed03e	0.08535813
21	0x3dfb4830	0.12269628
22	0xbdef5372	-0.11685838
23	0x3d5b0ea8	0.053480774
24	0x3d29d478	0.04146239
25	0x3de794b6	0.11307661
26	0x3df5dc80	0.12004948
27	0x3db966bc	0.09052798
28	0x3d9c276e	0.07624708
29	0xbdd6fb90	-0.104972005
30	0xbdfc8644	-0.12330297
31	0xbddb16be	-0.10697697
32	0x3d2ad5dc	0.04170786
33	0xbddb7b1e	-0.10716842
34	0xbda57e62	-0.08080746
35	0x3b2c1140	0.00262554
36	0x3d273744	0.04082419
37	0x3d771864	0.060325995
38	0x3db37bd4	0.08763853
39	0xbdd15ae6	-0.102224156
40	0xbdde5b28	-0.108572304
41	0x3dde7504	0.10862163
42	0xbd4f3eec	-0.050597116
43	0xbdeb1cee	-0.11480127
44	0xbd198fd0	-0.037490666
45	0xbd451174	-0.048112348
46	0xbde674ce	-0.112527475
47	0x3d2e8704	0.04260923
48	0x3df3cae4	0.11903933
49	0x3cff3228	0.031151846
50	0x3dc08b72	0.09401597
51	0x3cb71d70	0.022352904
52	0x3da571c4	0.0807834
53	0x3dabf776	0.08396809
54	0xbd5d294c	-0.053994462
55	0x3dc815b2	0.09769763
56	0x3d916f9a	0.071013644
57	0xbd85aa5c	-0.06526634
58	0x3cecdc68	0.028913692
59	0xbce02860	-0.027363002
60	0xbc8c0910	-0.017094165
61	0x3cf64790	0.03006342
62	0x3dcd5c9a	0.10027428
63	0xbde7daa0	-0.11320996
64	0x3df2d0ea	0.118562534
65	0xbca23138	-0.01979886
66	0x3d706720	0.058692098
67	0x3a82f280	0.0009990484
68	0xbdecc7ac	-0.11561522
69	0x3dbe82f0	0.09302318
70	0x3cdcc670	0.026950091
71	0x3daebde2	0.08532311
72	0x3dd56850	0.10420287
73	0x3d9ec6f8	0.07752794
74	0x3dc780ac	0.09741339
75	0xbda38380	-0.07984066
76	0x3d98526e	0.07437597
77	0xbdbe9e18	-0.09307498
78	0xbc7302d0	-0.0148322135
79	0xbc7127a0	-0.01471892
80	0xbcef78a8	-0.029232338
81	0xbd4fa340	-0.050692797
82	0x3d2080f8	0.039185494
83	0xbcb15458	-0.021646664
84	0x3db022ae	0.086003646
85	0x3db4b652	0.08823837
86	0x3c0b2d60	0.008494705
87	0x3d3656ec	0.04451649
88	0x3da95d0e	0.08269702
89	0xbdad276c	-0.08454785
90	0x3daea5fe	0.08527754
91	0xbcc4acf8	-0.02400826
92	0xbd860082	-0.065430656
93	0xbd11db7c	-0.035609707
94	0x3d35a81c	0.044349775
95	0x3cfbb628	0.030726507
96	0xbd435e30	-0.047697246
97	0x3bdbef60	0.0067118853
98	0x3cbf92f0	0.023385495
99	0xbd2296f0	-0.039694726
100	0xbc17d980	-0.009268165
101	0xbd260d30	-0.04053992
102	0xbc3628a0	-0.011118084
103	0xbd9a198e	-0.075244054
104	0x3de1df10	0.11028874
105	0x3d2fa0d4	0.042877987
106	0x3db358f8	0.08757204
107	0x3db6b600	0.089214325
108	0x3d92a8a6	0.071610734
109	0x3d6c6fc4	0.057723776
110	0xbd9a89f0	-0.07545841
111	0x3c9cdf60	0.019149482
112	0xbb5d4140	-0.0033760816
113	0xbc3dab50	-0.011576489
114	0xbd37fd24	-0.044919148
115	0x3de29252	0.11063065
116	0xbd6dbf64	-0.058043852
117	0x3de34d88	0.11098772
118	0xbd24eb60	-0.040263534
119	0x3da70176	0.081545755
120	0xbd282ac0	-0.041056395
121	0xbc40a880	-0.0117589235
122	0xbc750a70	-0.014956102
123	0x3dbb904a	0.0915838
124	0x3ddf9d84	0.109187156
125	0xbde66eee	-0.11251627
126	0x3da7e0d0	0.081971765
127	0x3dcae5fa	0.09907146
128	0xbb5a1f80	-0.0033282936
129	0xbd584b9c	-0.05280648
130	0x3ccb0028	0.024780348
131	0x3d0d0294	0.034426287
132	0x3ddcbb06	0.107778594
133	0x3d42145c	0.047382697
134	0xbdaeabb6	-0.08528845
135	0x3c78a430	0.015175864
136	0xbda598da	-0.08085795
137	0x3d356fcc	0.04429607
138	0x3de3c274	0.11121073
139	0x3d0f0e04	0.034925476
140	0xbd23cae4	-0.039988413
141	0x3c836518	0.016039416
142	0xbc76e490	-0.015069142
143	0x3cd9db20	0.026593745
144	0x3dee716e	0.11642729
145	0x3d5db618	0.054128736
146	0xbddf436a	-0.1090153
147	0xbd04b7e8	-0.03240195
148	0xbd919f84	-0.07110503
149	0xbd911a32	-0.070850745
150	0x3c7a6bc0	0.015284479
151	0xbda6a27e	-0.08136462
152	0x3d1d8690	0.038458407
153	0xbccd2120	-0.02504021
154	0xbce296f8	-0.027659878
155	0xbd15dc8c	-0.036587283
156	0x3d0e716c	0.034776136
157	0xbd210dd4	-0.03931983
158	0xbd705444	-0.058674112
159	0xbba15a80	-0.0049241185
160	0xbd96e626	-0.07368116
161	0x3dc7a892	0.09748949
162	0xbc237d90	-0.009978667
163	0xbdcaf8ee	-0.09910761
164	0x3dbd81e2	0.09253289
165	0x3ddda442	0.10822345
166	0x3d68c798	0.056830972
167	0xbd8bc4c6	-0.06824641
168	0xbd9bba34	-0.07603875
169	0x3bfd71a0	0.0077344924
170	0xbbd2b980	-0.0064308047
171	0x3c2e6af0	0.010645613
172	0xbd12c264	-0.035829917
173	0xbda19b30	-0.07890928
174	0x3df7ab00	0.120931625
175	0xbdd0a052	-0.10186829
176	0xbcee1dc0	-0.02906692
177	0xbdd69b7c	-0.10478875
178	0xbd45a624	-0.048254147
179	0x3b8b16e0	0.0042446703
180	0xbd88da0c	-0.06682214
181	0x3d915774	0.070967585
182	0x3cb77fc8	0.022399798
183	0x3d64b888	0.055840045
184	0xbd837386	-0.06418519
185	0xbdd98e90	-0.10622895
186	0x3cdb6fb0	0.026786655
187	0x3dfedac2	0.124440685
188	0x3da8b842	0.082382694
189	0x3d1ce850	0.038307488
190	0x3dabced6	0.0838906
191	0x3d90e1c0	0.070743084
192	0x3d200be8	0.039073855
193	0x3d9e214e	0.07721196
194	0xbde790f2	-0.11306943
195	0x3d8d9b24	0.06914356
196	0xbdf7b2f6	-0.12094681
197	0xbd2510f4	-0.04029937
198	0x3c737390	0.014859095
199	0x3d6f8b50	0.058482468
200	0x3ca74be8	0.020421937
201	0xbd3779d4	-0.04479392
202	0xbdc5c892	-0.096573964
203	0x3dcc947a	0.09989257
204	0x3d9e141e	0.07718681
205	0x3d625874	0.055260137
206	0x3da83afc	0.082143754
207	0xbd671ec0	-0.05642581
208	0x3de1af3a	0.1101975
209	0x3d723234	0.05912991
210	0xbd966864	-0.0734413
211	0xbd2acdec	-0.04170029
212	0xbde53794	-0.11192241
213	0x3cb82480	0.022478342
214	0xbd00fafc	-0.031489357
215	0xbd9dc7ba	-0.077041104
216	0xbce2f060	-0.02770251
217	0x3d528670	0.05139774
218	0x3d653000	0.05595398
219	0xbd447550	-0.04796344
220	0x3c04d120	0.0081065
221	0xbde74cc2	-0.11293937
222	0xbceb1920	-0.028698504
223	0xbd9f79d2	-0.07786907
224	0x3d6f81e4	0.058473483
225	0x3ddf455e	0.109019026
226	0x3de8a852	0.113602296
227	0x3dfe2618	0.124096096
228	0xbc097e50	-0.008391932
229	0xbdd48c20	-0.10378289
230	0xbda81d6e	-0.08208738
231	0x3deff6f8	0.117170274
232	0x3ddca30e	0.10773288
233	0x3dea704e	0.11447202
234	0x3d37e8a0	0.044899583
235	0x3bbc3b00	0.005744338
236	0x3d62b410	0.055347502
237	0xbc8d54b0	-0.017252296
238	0xbd6bacdc	-0.0575379
239	0xbd9bb656	-0.07603137
240	0x3ce03608	0.027369514
241	0xbbb72a80	-0.005589783
242	0xbcfa3a40	-0.030545354
243	0x3de494e4	0.11161211
244	0xbc9a82b0	-0.018861145
245	0xbda5b412	-0.08090986
246	0x3dd2b3ba	0.10288186
247	0xbdb08962	-0.08619954
248	0x3d1ebfb4	0.03875704
249	0x3d079e70	0.033110082
250	0x3d97ad32	0.07406081
251	0xbd4d90c0	-0.050186872
252	0x3d1ce868	0.038307577
253	0xbdda9dee	-0.10674654
254	0x3bc178e0	0.005904302
255	0xbd585f04	-0.05282499

gru.weight_hh_l0 f4 [192, 64]
0	0xbc5e98f0	-0.013586268
1	0x3d8c0b68	0.06838113
2	0xbbf45100	-0.007455945
3	0x3cd56fd8	0.026054308
4	0xbd40adf8	-0.04704091
5	0x3dfa6c22	0.12227656
6	0x3dca72da	0.098851874
7	0x3c616e90	0.01375927
8	0x3deb6d30	0.11495435
9	0xbd73378c	-0.059379146
10	0x3c430b80	0.011904597
11	0xbd2e9c94	-0.042629793
12	0x3df2f3d0	0.1186291
13	0x3d10db40	0.035365343
14	0x3d0d664c	0.034521386
15	0x3deb2eba	0.11483522
16	0x3ded08e6	0.11573963
17	0x3cb29fe8	0.021804765
18	0xbdf3e992	-0.119097844
19	0xbd871378	-0.0659551
20	0xbdc43a52	-0.09581436
21	0x3dba05b4	0.09083119
22	0x3de1be6e	0.1102265
23	0x3ba1af40	0.0049342215
24	0xbc838130	-0.016052812
25	0x3d42af88	0.04753068
26	0x3d99d3c8	0.07511097
27	0x3de45d20	0.11150575
28	0x3caaec28	0.020864561
29	0x3d7c5484	0.061604038
30	0xbd139c90	-0.03603798
31	0x3def77a4	0.116927415
32	0x3de678b6	0.112534925
33	0x3d1c7558	0.038197845
34	0x3de1d788	0.110274374
35	0xbdae170a	-0.08500488
36	0xbd2d99a0	-0.042382836
37	0xbdaa0ec6	-0.08303599
38	0x3d8e107c	0.06936738
39	0xbd80a06a	-0.062805966
40	0x3dc3cd80	0.095606804
41	0x3cb65f88	0.02226235
42	0x3dfdded6	0.12396018
43	0x3ce2b170	0.0276725
44	0x3cf995c0	0.030466914
45	0xbd34ef28	-0.04417339
46	0xbb879dc0	-0.0041386783
47	0x3d20da48	0.03927067
48	0x3df3a7a2	0.11897208
49	0x3c8470d8	0.01616709
50	0xbdf37962	-0.11888386
51	0xbd3ca8d8	-0.04605946
52	0xbd826bb8	-0.06368202
53	0xbde6f7ec	-0.11277756
54	0x3bd4ef20	0.0064982325
55	0xbc6c9f50	-0.01444228
56	0xbddf16da	-0.108930305
57	0xbddb9796	-0.10722272
58	0xbdc4b76c	-0.096052974
59	0xbd9287b8	-0.071547925
60	0xbdc7aebc	-0.09750125
61	0xbdf80ae8	-0.12111455
62	0xbd78d5d4	-0.060750797
63	0x3cf76de8	0.030203775
64	0xbd8ad8a4	-0.06779602
65	0xbd51715c	-0.0511335
66	0xbdf66ca4	-0.1203244
67	0xbc962198	-0.018326566
68	0x3dbdf30a	0.09274872
69	0x3d8d01f8	0.06885141
70	0xbdd78262	-0.105229154
71	0xbdd0dba4	-0.10198143
72	0x3bc817e0	0.0061063617
73	0x3de92dde	0.113857016
74	0x3d9fa8e0	0.07795882
75	0xbcbb7958	-0.02288501
76	0xbdc2ba76	-0.09508221
77	0xbd7f3ef4	-0.062315896
78	0x3dfeb62e	0.12437092
79	0x3db6dd22	0.089288965
80	0x3cb521a0	0.02211076
81	0x3db29a02	0.08720781
82	0x3deba2a2	0.11505629
83	0x3b75ed80	0.0037525594
84	0xbcf894a0	-0.030344307
85	0x3c83eba0	0.016103566
86	0xbd926d5c	-0.07149765
87	0xbd9225fc	-0.07136151
88	0xbddc6aae	-0.10762535
89	0x3daef4e4	0.08542803
90	0x3dfcb0c4	0.12338403
91	0x3deb0d84	0.11477187
92	0x3db28a20	0.087177515
93	0x3de49c2e	0.111626014
94	0x3d6bad34	0.057538226
95	0x3df6d1d0	0.12051737
96	0x3c25a7b0	0.010110781
97	0x3cae4d58	0.021277115
98	0x3de297cc	0.11064109
99	0xbded004a	-0.11572321
100	0x3dfb7c18	0.122795284
101	0x3b352700	0.0027641654
102	0x3de0d26e	0.10977636
103	0x3d9f0844	0.077652484
104	0x3dd6552a	0.104654625
105	0x3dc78ec0	0.09744024
106	0xbd68e170	-0.05685562
107	0x3dcf8280	0.10132313
108	0xbd9e2358	-0.07721585
109	0xbdfefebc	-0.124509305
110	0xbd993b42	-0.07482006
111	0x3cb29ca8	0.021803215
112	0xbd0825c8	-0.033239156
113	0x3d7bf998	0.061517328
114	0xbd220f80	-0.039565563
115	0x3d8380e8	0.06421071
116	0x3dd6b408	0.10483557
117	0xbd367554	-0.044545487
118	0xbd5e16d8	-0.054221004
119	0xbdca517c	-0.09878823
120	0x3defce4c	0.1170927
121	0xbce5d7b8	-0.028056964
122	0x3d9bb804	0.076034576
123	0x3dca33b8	0.09873146
124	0xbd410b60	-0.04712999
125	0xbd335848	-0.043785363
126	0xbd5b09f8	-0.053476304
127	0xbde245e6	-0.11048488
128	0xbd474538	-0.048649997
129	0xbb97b3a0	-0.0046295673
130	0x3de60a4a	0.11232431
131	0xbdf9cb4c	-0.12196979
132	0xbda39284	-0.0798693
133	0xbc06bea0	-0.0082241595
134	0xbdda5382	-0.10660459
135	0x3bc45780	0.005991876
136	0xbdb09986	-0.08623032
137	0xbd97d446	-0.07413535
138	0x3d0cde84	0.034391895
139	0x3d3bf494	0.045887545
140	0x3c765c30	0.015036628
141	0xbc26baf0	-0.010176405
142	0x3df47d2e	0.11937939
143	0xbd79a394	-0.060947016
144	0x3c311690	0.010808602
145	0xbc2656e0	-0.010152549
146	0xbb801580	-0.003908813
147	0x3deb881e	0.11500572
148	0xbd606478	-0.054783314
149	0xbda2701a	-0.07931538
150	0x3d166a54	0.036722496
151	0xbd54eba0	-0.051982522
152	0xbdf28cf8	-0.11843294
153	0x3d5133d0	0.051074803
154	0x3d823db2	0.06359424
155	0x3da981a2	0.082766786
156	0xbd342174	-0.043977216
157	0xbddabc64	-0.10680464
158	0x3de3f2e0	0.11130309
159	0x3c944618	0.01809983
160	0x3d756aa8	0.05991617
161	0x3c901c40	0.017591596
162	0xbd8110d6	-0.06302039
163	0x3d121220	0.035661817
164	0x3d58fd3c	0.052975878
165	0x3bcbc2a0	0.0062182695
166	0x3d8e5308	0.06949431
167	0xbdff7760	-0.12473941
168	0x3c25ec80	0.010127187
169	0x3deeacb0	0.11654031
170	0xbd4dc5dc	-0.05023752
171	0xbcbd24e0	-0.023088872
172	0x3cd36bf0	0.025808305
173	0x3d7505b8	0.059819907
174	0x3cf07f78	0.029357657
175	0x3abd7680	0.0014454871
176	0xbd851fe4	-0.06500223
177	0xbd4aab04	-0.0494795
178	0x3d58444c	0.052799508
179	0x3d987ff4	0.0744628
180	0xbd08fa98	-0.03344211
181	0x3dd33286	0.10312371
182	0x3df39312	0.11893286
183	0xbd21d800	-0.039512634
184	0xbdd197a0	-0.10233998
185	0x3dce856a	0.100840405
186	0x3dd294a0	0.10282254
187	0xbc123730	-0.008924291
188	0xbd935a9e	-0.07195018
189	0x3ba89ec0	0.0051458776
190	0xbca9ad38	-0.02071248
191	0xbd006c78	-0.031353444
192	0x3cbe9f08	0.023269191
193	0xbdb6c2f2	-0.089239016
194	0xbce11438	-0.027475461
195	0x3d030d84	0.03199531
196	0xbda46a62	-0.080281034
197	0xbde34d9e	-0.11098789
198	0xbd23c57c	-0.039983258
199	0xbd8001da	-0.06250353
200	0xbdcd2e70	-0.10018623
201	0xbd6f6e1c	-0.058454618
202	0x3dedf6a8	0.116193116
203	0xbd788620	-0.060674787
204	0xbd96b432	-0.07358588
205	0xbd38ad74	-0.045087293
206	0x3d54d3b8	0.051959723
207	0xbcf88e20	-0.030341208
208	0xbd993b8e	-0.07482062
209	0xbc9ba1f0	-0.018998116
210	0x3cc68fd8	0.024238512
211	0x3cedc8e8	0.029026464
212	0xbcf21340	-0.029550195
213	0x3dcd354c	0.10019931
214	0x3d2b6304	0.041842476
215	0x3d9b7f14	0.075925976
216	0xbd21d2ec	-0.03950779
217	0x3cd09138	0.02545987
218	0xbd1ec200	-0.03875923
219	0x3d781c70	0.060573995
220	0xbd724518	-0.059147924
221	0x3dc927ca	0.09822042
222	0xbde1f708	-0.110334456
223	0x3db365c6	0.08759646
224	0xbdf99c7a	-0.12188049
225	0x3c0af3b0	0.008480951
226	0xbd9299aa	-0.07158215
227	0xbd3fcae8	-0.046824366
228	0x3d46172c	0.048361942
229	0x3dd4efb2	0.10397281
230	0x3d370218	0.04467973
231	0x3de1febc	0.11034915
232	0xbc9fe9d8	-0.019520685
233	0x3d079968	0.033105284
234	0x3d8f8ddc	0.070094794
235	0x3c9050f0	0.017616719
236	0x3df4e9ea	0.11958678
237	0x3deefdd4	0.116695076
238	0xbdc1d64e	-0.094647035
239	0x3d96f71c	0.07371351
240	0xbda23f08	-0.079221785
241	0xbdf03fe0	-0.11730933
242	0xbd80e8e6	-0.06294422
243	0xbdfdda56	-0.1239516
244	0x3db7b49c	0.089699954
245	0x3d61a5a8	0.055089623
246	0x3d951038	0.07278484
247	0x3d39831c	0.04529105
248	0xbdf4c5f4	-0.11951819
249	0x3d0c9d04	0.03432943
250	0x3dfd8298	0.123784244
251	0xbd6e3f68	-0.058165938
252	0x3d951e56	0.07281177
253	0xbd27c874	-0.04096265
254	0xbc900df0	-0.01758477
255	0x3d9c54ce	0.07633363

gru.bias_ih_l0 f4 [192]
0	0x3b10db80	0.0022103488
1	0x3de93d44	0.113886386
2	0xbd8ed428	-0.06974059
3	0xbd2e3ca0	-0.042538285
4	0xbd217208	-0.03941539
5	0xbc8611e8	-0.01636596
6	0xbce80328	-0.028321818
7	0x3dce0f0a	0.10061462
8	0x3af51680	0.0018698722
9	0x3dbe6d58	0.092981994
10	0x3d1c5efc	0.03817652
11	0xbd3be90c	-0.045876548
12	0xbd1d2c68	-0.038372427
13	0x3daad41a	0.083412364
14	0xbda654c0	-0.081216335
15	0xbb43c205	-0.0029870283
16	0x3d2b1a9c	0.041773424
17	0xbda8ac76	-0.08236019
18	0xbde6f882	-0.11277868
19	0x3cd274f0	0.025690526
20	0x3d92035c	0.07129547
21	0x3d2f442c	0.042789623
22	0xbdb2730c	-0.0871335
23	0x3db4bc9c	0.08825037
24	0xbdf9ce46	-0.12197547
25	0x3dd5bc6c	0.10436329
26	0xbdc7f52f	-0.09763562
27	0x3d4f9df0	0.05068773
28	0x3d2cf030	0.04222125
29	0xbde5b666	-0.1121643
30	0x3df80c24	0.12111691
31	0xbcef7e90	-0.029235154
32	0x3cd8c5b5	0.026461462
33	0x3d8529b0	0.06502092
34	0xbd3aecf4	-0.045636132
35	0xbd64b144	-0.055833116
36	0x3ca19490	0.01972416
37	0xbd02e0e8	-0.03195277
38	0x3d491128	0.049088627
39	0xbd548b60	-0.05189073
40	0xbd4bf160	-0.04979074
41	0xbd4fda55	-0.050745327
42	0x3d996958	0.07490796
43	0x3d0129ec	0.03153412
44	0x3da1e42a	0.07904847
45	0xbd6f2454	-0.058384255
46	0x3dcd05b2	0.10010852
47	0x3dfefcec	0.12450585
48	0xbd57194c	-0.05251436
49	0xbd48eac4	-0.049052015
50	0xbd7d7d44	-0.06188704
51	0x3d819742	0.06327678
52	0xbd6d40e8	-0.057923228
53	0xbdaf2acc	-0.08553085
54	0x3c289e0d	0.0102915885
55	0xbdfe4e0e	-0.124172315
56	0x3d441760	0.047873855
57	0x3d997230	0.07492483
58	0x3d9f3c12	0.077751294
59	0xbc740040	-0.014892638
60	0xbca6977f	-0.02033591
61	0xbc155130	-0.009113595
62	0x3d79ad98	0.060956568
63	0x3d52b6e4	0.05144395
64	0x3c1a6b04	0.009424929
65	0xbd5fbfe4	-0.05462636
66	0xbd6ee62e	-0.058324985
67	0x3d922f0c	0.0713788
68	0xbde84814	-0.11341873
69	0xbc6dc060	-0.014511198
70	0x3bd4233d	0.0064739273
71	0xbdcffd0a	-0.10155685
72	0x3dab79ab	0.08372816
73	0x3d68affa	0.05680845
74	0x3c68068b	0.014161716
75	0x3d3561c0	0.044282675
76	0xbe05900c	-0.13043231
77	0x3d32e6a4	0.043676987
78	0xbd1cd059	-0.038284633
79	0x3d9c9b53	0.07646813
80	0x3d30bf6c	0.043151304
81	0xbd416a3c	-0.047220454
82	0x3dd83783	0.10557463
83	0xbdb2bfaa	-0.08727963
84	0x3d8d485c	0.06898567
85	0xbcca9b35	-0.024732212
86	0xbd5e2e90	-0.054243624
87	0x3d07f040	0.033188105
88	0xbdf544b4	-0.11975995
89	0xbb2a5040	-0.0025987774
90	0x3c03a3b1	0.008034633
91	0x3ce33581	0.027735474
92	0xbdb33202	-0.087497726
93	0x3d9dcf1f	0.07705521
94	0x3dd5ae34	0.10433617
95	0x3cf0052e	0.029299345
96	0x3d2da6a1	0.042395238
97	0xbd73994a	-0.05947236
98	0xbdbc9afd	-0.09209249
99	0xbd3b9aad	-0.045801807
100	0x3dbae1fd	0.09125135
101	0xbd008274	-0.03137441
102	0x3db9cc9c	0.09072229
103	0x3de4c21e	0.111698374
104	0xbc8645f0	-0.01639077
105	0x3dae7bda	0.085197166
106	0xbc3e3ec0	-0.01161164
107	0x3d14ec33	0.03635807
108	0xbd9a5160	-0.07535052
109	0xbc3d0a50	-0.011538103
110	0x3d7804e0	0.060551524
111	0x3c5eae27	0.013591326
112	0x3dabd308	0.083898604
113	0x3c0b4cf0	0.00850223
114	0xbd8d6849	-0.069046564
115	0xbd1af5c0	-0.03783202
116	0x3d9524a1	0.07282377
117	0xbbf677c0	-0.0075215995
118	0xbc4bf1d9	-0.012447798
119	0xbd82c957	-0.06386059
120	0x3df1b892	0.11802782
121	0xbba981cf	-0.005172945
122	0xbc5433e0	-0.012951821
123	0x3de1d39e	0.11026691
124	0xbd8ce200	-0.068790436
125	0x3db33056	0.08749454
126	0xbdef89f0	-0.11696231
127	0x3df68312	0.120367184
128	0x3dd7e2f2	0.10541333
129	0x3da233e6	0.07920055
130	0xbd403500	-0.046925545
131	0xbda3bf70	-0.07995498
132	0xbce3d740	-0.0278126
133	0xbd3c7754	-0.046012238
134	0x3de29d52	0.11065163
135	0xbbcbdec0	-0.006221622
136	0xbd699418	-0.057026
137	0x3d837e6e	0.06420599
138	0xbd5462f4	-0.05185218
139	0x3b573b80	0.0032841861
140	0xbdfb3792	-0.122664586
141	0xbdd0153e	-0.101603016
142	0x3de13041	0.10995532
143	0xbd8e2c9a	-0.06942101
144	0xbdbf3ba4	-0.093375474
145	0xbdd41946	-0.10356383
146	0xbdd4900e	-0.10379039
147	0x3da3f5a2	0.08005835
148	0x3dc8f95a	0.09813185
149	0xbd6387ac	-0.05554931
150	0x3d165930	0.03670615
151	0x3d8997b6	0.0671839
152	0x38c69807	9.469693e-05
153	0x3c909058	0.017646953
154	0xbcd20748	-0.025638238
155	0xbdafb1f5	-0.085788645
156	0x3b92b400	0.004477024
157	0x3dbfe50b	0.09369858
158	0x3d66d80c	0.056358382
159	0xbd5426ec	-0.05179493
160	0x3e08c6e4	0.13357121
161	0x3d086f0c	0.033309028
162	0xbc8d593f	-0.01725447
163	0x3d3983d8	0.04529175
164	0x3dd7aac0	0.10530615
165	0x3df84645	0.12122778
166	0x3de0c75e	0.10975526
167	0x3c00d080	0.00786221
168	0xbdc1e5be	-0.09467648
169	0x3d8ff22d	0.07028613
170	0x3d10820c	0.035280272
171	0xbd0004c4	-0.031254545
172	0x3d4d83c1	0.05017448
173	0xbca52d60	-0.020163238
174	0x3d43356c	0.04765837
175	0xbd5e7fac	-0.054320976
176	0xbcc42898	-0.023945138
177	0x3d91cc92	0.07119097
178	0xbd72d679	-0.05928657
179	0xbc1382a0	-0.009003311
180	0x3dda6d4c	0.10665378
181	0x3ce54eb8	0.027991638
182	0xbd57c398	-0.052676767
183	0x3dbf31c8	0.09335667
184	0x3ca62820	0.020282805
185	0xbdbf756c	-0.09348568
186	0xbd9d597e	-0.07683085
187	0x3acfbb00	0.0015848577
188	0x3dcd0040	0.10009813
189	0xbde2620c	-0.11053857
190	0x3db52176	0.08844273
191	0x3db3538e	0.08756171

gru.bias_hh_l0 f4 [192]
0	0xbc9f3578	-0.019434676
1	0x3ddc649c	0.10761377
2	0x3dd46ca0	0.10372281
3	0x3dee45a0	0.11634374
4	0x3d474560	0.048650146
5	0x3c551d80	0.013007522
6	0xbd090eec	-0.033461496
7	0xbd0cb84c	-0.034355447
8	0x3dea41ae	0.11438309
9	0x3d4f8c30	0.050670803
10	0xbdcfa934	-0.10139695
11	0x3daf27ce	0.08552514
12	0x3c6e6770	0.014551029
13	0x3c237200	0.00997591
14	0x3d13f1e4	0.036119357
15	0x3d3ecc21	0.04658139
16	0x3c77ece0	0.015132159
17	0xbd5fccf8	-0.054638833
18	0x3c5c6f70	0.013454303
19	0xbcad80f0	-0.021179646
20	0xbd819638	-0.0632748
21	0xbd0ea188	-0.034822017
22	0xbd756fdc	-0.05992113
23	0x3dc455f0	0.09586704
24	0x3dbbee84	0.091763526
25	0x3ca5bcc0	0.020231605
26	0x3db25a21	0.08708597
27	0xbcdf5a80	-0.027264833
28	0xbdc70e5e	-0.09719537
29	0x3d945ba8	0.072440445
30	0x3d23d884	0.040001407
31	0x3cb2c460	0.021822155
32	0xbdee00ea	-0.11621268
33	0xbd9e028e	-0.07715331
34	0x3dd0ed90	0.102015615
35	0xbd753274	-0.05986257
36	0xbdd663fa	-0.10468288
37	0xbd9c65d8	-0.07636613
38	0xbdd93676	-0.10606091
39	0x3a8ea500	0.0010882914
40	0x3d223aa0	0.03960669
41	0x3dedc54a	0.116098955
42	0x3b028e00	0.0019921064
43	0xbc7aadf0	-0.015300259
44	0xbdd02820	-0.10163903
45	0xbc2427e0	-0.010019273
46	0xbdfcafc8	-0.12338215
47	0x3d42f6f4	0.047598794
48	0x3df53f84	0.11975005
49	0xbda985a0	-0.0827744
50	0xbd5f7e36	-0.054563724
51	0xbd2dbe98	-0.042418092
52	0x3bcbdbc0	0.0062212646
53	0x3ce91b00	0.028455257
54	0x3cffc174	0.031220175
55	0xbdc3a3e4	-0.09552744
56	0xbd8c38ea	-0.06846793
57	0xbdd1d408	-0.1024552
58	0x3d7707c4	0.06031014
59	0x3dcb7886	0.099350974
60	0x3de2a857	0.110672645
61	0xbdee11da	-0.11624499
62	0x3d03f378	0.03221461
63	0xbd976464	-0.07392195
64	0x3de8d8ed	0.113695
65	0xbcdae500	-0.026720524
66	0xbd0ffb55	-0.0351518
67	0x3ddf8d5e	0.109156355
68	0xbde0dfbe	-0.109801754
69	0xbdd0ce68	-0.10195619
70	0xba7ab92d	-0.00095643365
71	0xbdb1c3ff	-0.086799614
72	0xbcc6933e	-0.024240132
73	0xbdb82ec3	-0.08993294
74	0x3d98ac42	0.074547306
75	0x3ddb3760	0.10703921
76	0x3de826b3	0.11335506
77	0xbd84fdb4	-0.064937025
78	0xbda1bd18	-0.07897395
79	0xbd509131	-0.050919715
80	0x3bfed0b0	0.0077763423
81	0xbdbf912c	-0.09353861
82	0xbd90b489	-0.07065684
83	0x3da66745	0.08125166
84	0x3dc3f292	0.09567751
85	0xbd58de1d	-0.0529462
86	0xbcb71d90	-0.022352964
87	0x3d94c040	0.07263231
88	0xbd7a874c	-0.061164185
89	0x3def643e	0.116890416
90	0xbdacc0b7	-0.08435195
91	0xbd1eb69c	-0.03874837
92	0x3d2e1470	0.04249996
93	0x3d83e3f8	0.06439966
94	0xbdd35730	-0.10319364
95	0xbd1a0acb	-0.03760795
96	0xbdb9758e	-0.09055625
97	0xbd9ec13f	-0.077517025
98	0xbdf6bd77	-0.12047856
99	0xbd87d5a5	-0.06632546
100	0x3d2004e1	0.039067153
101	0xbe0a5011	-0.13507105
102	0x3d88c460	0.066780806
103	0x3ca36730	0.019946665
104	0x3ce447a0	0.027866185
105	0xbdd56998	-0.10420531
106	0x3df9a6ac	0.12189993
107	0xbdc6e215	-0.097110905
108	0xbcb14328	-0.021638468
109	0xbc896420	-0.016771376
110	0x3df91a85	0.12163261
111	0xbd1ca2a5	-0.038241047
112	0x3d9130ce	0.07089387
113	0x3da7b696	0.081891224
114	0x3def5f53	0.116881035
115	0xbdb705da	-0.08936663
116	0xbddb372d	-0.10703883
117	0xbd40c710	-0.04706484
118	0xbc5c6eca	-0.013454149
119	0xbd856ab7	-0.06514495
120	0xbdc6392a	-0.09678872
121	0xbd70ceb9	-0.058790896
122	0xbd118738	-0.035529345
123	0xbcff9cc0	-0.031202674
124	0xbb658c00	-0.0035026073
125	0xbdd33be0	-0.103141546
126	0xbdf8ff16	-0.12158029
127	0x3dc97cd2	0.09838261
128	0xbd09c2fc	-0.033633217
129	0x3da299a4	0.07939461
130	0xbdbb4218	-0.09143466
131	0xbde22cd2	-0.11043705
132	0x3de53f92	0.11193766
133	0xbd2b40f0	-0.041809976
134	0xbdd014be	-0.10160206
135	0x3d94b218	0.07260531
136	0x3dfa227c	0.122136086
137	0x3d44e1b4	0.04806681
138	0x3c991608	0.018687263
139	0xbd7c3e8c	-0.061583087
140	0xbdb7d544	-0.08976224
141	0x3cc66e30	0.024222463
142	0x3d17fce0	0.037106395
143	0xbda75fa1	-0.08172537
144	0x3d049c78	0.032375783
145	0xbd50b064	-0.05094947
146	0xbc56bfd0	-0.013107255
147	0x3d5d15d8	0.05397591
148	0x39d21000	0.00040066242
149	0xbdc3a422	-0.0955279
150	0xbde1a7c4	-0.11018327
151	0x3d200d58	0.039075226
152	0xbdbb09ea	-0.0913275
153	0x3d7c2ea0	0.061567903
154	0xbe084176	-0.13306221
155	0xbd044840	-0.032295465
156	0xbd009f00	-0.031401634
157	0x3d7569c0	0.059915304
158	0xbdf29c8c	-0.11846265
159	0x3da6bc72	0.08141412
160	0xbd5f7291	-0.05455262
161	0x3db78e40	0.08962679
162	0xbd309e24	-0.043119565
163	0x3c8c14e0	0.017099798
164	0xbd93591e	-0.07194732
165	0xbde32059	-0.11090154
166	0x3d58caf4	0.052927926
167	0x3d59fd70	0.053220212
168	0xbdf9d608	-0.12199026
169	0x3d1cb9ca	0.03826312
170	0x3d5b2030	0.053497493
171	0x3dd5cb2a	0.10439141
172	0xbd32b207	-0.04362681
173	0x3c816c60	0.015798748
174	0x3d996af4	0.07491103
175	0xb9b48e00	-0.00034438074
176	0x3d86fe38	0.06591457
177	0x3bf4e880	0.007474005
178	0x3dba65ae	0.09101425
179	0xbda17866	-0.07884292
180	0x3db107ee	0.086440906
181	0xbdbd95be	-0.09257077
182	0xbc5f2927	-0.013620651
183	0xbdeb10fa	-0.114778474
184	0xbd91a176	-0.07110874
185	0xbd13f264	-0.036119834
186	0x3dd6b42a	0.10483582
187	0x3d88a29a	0.06671639
188	0x3c58f94a	0.013243029
189	0x3c8e4c80	0.017370462
190	0x3df77c86	0.12084298
191	0x3de31f3c	0.11089942

fc.weight f4 [3, 64]
0	0x3f39e869	0.72620255
1	0x3dd7e356	0.10541408
2	0xbf57d70f	-0.8431253
3	0x3da7a55e	0.08185838
4	0x3f4d67f4	0.80236745
5	0xbd37c786	-0.044868015
6	0xbcf0eec9	-0.029410737
7	0x3d887f45	0.066649
8	0xbb0af003	-0.0021200187
9	0x3eb95eca	0.3620513
10	0xbd64658e	-0.055760913
11	0xbdfdda5a	-0.12395163
12	0xbd174daa	-0.0369393
13	0xbd94dbe6	-0.07268505
14	0xbde61b1d	-0.1123564
15	0xbdaf58b4	-0.08561841
16	0xbce587c9	-0.028018849
17	0xbdfce9f0	-0.123493075
18	0xbea7b457	-0.32754776
19	0x3d97cf5a	0.07412596
20	0x3ca1df80	0.019759893
21	0xbcf3b0ce	-0.029747393
22	0xbdb53842	-0.08848621
23	0x3d99b6d8	0.07505578
24	0x3c429538	0.011876397
25	0xbd3bc0ec	-0.04583828
26	0x3ea78197	0.32716057
27	0xbf4825f2	-0.781829
28	0x3d9facb7	0.077966146
29	0x3f8ea0f9	1.1142875
30	0x3d897abc	0.06712863
31	0x3d662a15	0.056192476
32	0xbf64f1ae	-0.89431274
33	0xbe8b3254	-0.27186835
34	0xbf1ecf65	-0.6203521
35	0xbdb91bd7	-0.09038513
36	0x3d9d618d	0.07684622
37	0x3db8a124	0.0901511
38	0x3de8d6fe	0.113691315
39	0x3d1509d4	0.036386326
40	0xbd1c6d00	-0.038189888
41	0x3f2ec84e	0.6827439
42	0x3df6ba3e	0.12047242
43	0x3d6d59c0	0.05794692
44	0xbd2780d0	-0.04089433
45	0x3c6966f8	0.014245741
46	0xbd23dfe3	-0.040008437
47	0x3d1aa50b	0.037755053
48	0xbd17b638	-0.03703901
49	0xbd1fe2b9	-0.03903458
50	0x3d3d7ae2	0.04625977
51	0xbd263600	-0.040578842
52	0x3d9289d1	0.07155193
53	0x3dc47336	0.09592287
54	0x3dcabd5d	0.098993994
55	0x3ce9cb7a	0.028539408
56	0xbf3a098f	-0.72670835
57	0x3d3ce855	0.046120007
58	0xbd6b2e48	-0.057417184
59	0x3dff39d2	0.124622
60	0xbbaba64b	-0.0052383295
61	0xbdcbd30c	-0.09952363
62	0xbd909e39	-0.070614286
63	0xbdbe2558	-0.092844665
64	0x3f28940f	0.6585092
65	0xbdcb9a74	-0.09941569
66	0x3f515d9d	0.8178347
67	0x3cada7af	0.021198122
68	0x3d3266bc	0.043555006
69	0x3cb4330f	0.021997003
70	0xbdc7cba4	-0.09755638
71	0x3cabf5a0	0.020991147
72	0xbdc6f7bd	-0.09715221
73	0xbf4d3ea8	-0.8017373
74	0x3b42b2ae	0.0029708552
75	0xbda4cc3a	-0.080467656
76	0x3ecf2cb2	0.40463787
77	0x3c296d64	0.010341022
78	0x3d81456f	0.063120715
79	0x3dc32c84	0.09529975
80	0x3dc779dd	0.097400405
81	0x3c59f060	0.013301939
82	0x3e8b8ce0	0.27255917
83	0xbe14302f	-0.14471506
84	0xbd3f19d4	-0.04665549
85	0x3ca2b1e8	0.019860223
86	0x3ca94c28	0.020666197
87	0xbdd90d50	-0.10598242
88	0x3e173ff6	0.14770493
89	0x3d6e8c44	0.058239236
90	0x3f7b17ed	0.9808338
91	0x3f229ca6	0.63520277
92	0xbc65d828	-0.014028586
93	0x3fa0fef5	1.2577807
94	0xbc19ae50	-0.009379938
95	0x3de23c03	0.110466026
96	0x3f71f4f1	0.94514376
97	0x3f4c3b30	0.7977781
98	0x3f4d3b11	0.80168253
99	0x3d69edf7	0.057111707
100	0xbf6e273c	-0.93028617
101	0xbd664fdd	-0.056228507
102	0x3d911b18	0.07085246
103	0x3da4915a	0.08035536
104	0x3c9617d0	0.018321902
105	0xbeed0162	-0.46290118
106	0x3db7bf52	0.08972038
107	0xbbd9d9d5	-0.006648282
108	0x3d6853fc	0.05672072
109	0xbd8d0abd	-0.06886814
110	0xbdad5263	-0.0846298
111	0xbdcde4f3	-0.10053434
112	0x3d36abf4	0.04459758
113	0x3bf16540	0.0073668063
114	0xbe234606	-0.1594468
115	0x3d671868	0.05641976
116	0xbda463b5	-0.0802683
117	0xbd806a80	-0.06270313
118	0xba80fb35	-0.000984049
119	0x3d9b1470	0.075722575
120	0xbea18b78	-0.3155172
121	0x3cd8e7c8	0.02647771
122	0xbda9ba5a	-0.08287497
123	0x3b70c400	0.003673792
124	0xbd7fc0ef	-0.062439855
125	0xbd2dbbc0	-0.04241538
126	0x3e14d196	0.14533076
127	0xbde9f258	-0.114231765
128	0x3b86292b	0.004094263
129	0x3d89f4aa	0.06736119
130	0xbec9eeb8	-0.3943994
131	0x3dde9290	0.10867798
132	0x3e18acf1	0.14909722
133	0xbc6031b0	-0.013683721
134	0xbd885a97	-0.06657904
135	0x3d5ab825	0.05339827
136	0xbd4a0d64	-0.049329177
137	0xbce53cdf	-0.027983127
138	0xbdcafdd1	-0.09911693
139	0xbdf6ff04	-0.12060359
140	0xbedb986d	-0.4288973
141	0xbdcd7b4b	-0.10033282
142	0x3db11c9d	0.08648036
143	0x3d375300	0.04475689
144	0x3b88d421	0.0041756784
145	0xbb54e380	-0.0032484233
146	0xbe20ed0d	-0.15715428
147	0xbddf4129	-0.109011
148	0xbcc4ca00	-0.024022102
149	0x3d3d10c5	0.04615857
150	0x3d1ee34c	0.038790986
151	0xbc89b50b	-0.01680996
152	0x3d7379ff	0.059442516
153	0x3d58b6c4	0.052908674
154	0xbe29b572	-0.16573122
155	0x3e28a01a	0.16467324
156	0xbbe99be1	-0.007129178
157	0x3e2571b0	0.1615665
158	0x3d63ba6c	0.055597708
159	0x3d214cbe	0.039379828
160	0x3e1d77ab	0.15377681
161	0x3e504e53	0.20342378
162	0x3de8ab66	0.11360817
163	0xbcbdf42c	-0.02318772
164	0xbda67f88	-0.081297934
165	0x3de053ee	0.10953508
166	0xbdaf0f08	-0.08547789
167	0x3deeae20	0.116543055
168	0xbcf4f038	-0.029899701
169	0xbe7e019e	-0.24805304
170	0x3a9bdaac	0.0011890731
171	0xbcac4389	-0.021028297
172	0xbd5a6106	-0.053315185
173	0xbd2347d0	-0.039863408
174	0xbc151fca	-0.009101817
175	0x3dbedcc8	0.093194544
176	0x3dc1795a	0.09446974
177	0x3dc319cd	0.095264055
178	0x3cf5210e	0.029922988
179	0xbdc20ea6	-0.0947545
180	0x3d13ee28	0.036115795
181	0xbd9689bf	-0.07350492
182	0x3d944ece	0.07241593
183	0xbd6024e7	-0.054722693
184	0xbd969598	-0.073527515
185	0x3cd815b4	0.026377536
186	0xbdac6450	-0.084175706
187	0xbb16c340	-0.0023004562
188	0x3db58b74	0.08864489
189	0xbb239b00	-0.0024964213
190	0x3dc0164c	0.09379253
191	0xbc3702a0	-0.011170059

fc.bias f4 [3]
0	0x3de6155e	0.11234544
1	0x3d191743	0.0373757
2	0xbd85a5bd	-0.06525753
