a-storage/result/10/model_epoch_360.pth (torch, 430692 bytes, 16 tensors)

gru.weight_ih_l0 f4 [192, 18]
0	0xbdb26d3a	-0.087122396
1	0xbdee50a2	-0.11636473
2	0x3dcebf88	0.100951254
3	0xbdfdfcca	-0.12401731
4	0x3d6daf54	0.058028534
5	0xbca5f520	-0.020258486
6	0xbded3c6a	-0.11583789
7	0x3d2512dc	0.04030119
8	0xbc35ffb0	-0.011108324
9	0xbdd9e1de	-0.10638784
10	0xbdb17ff6	-0.08666985
11	0x3de5fd9e	0.11230014
12	0xbd73279c	-0.059363946
13	0xbd30a54c	-0.04312639
14	0xbc08c930	-0.008348748
15	0xbcb8eb50	-0.022573143
16	0x3d9ea622	0.07746531
17	0xbde76c8e	-0.11300002
18	0x3d9eff0e	0.077634916
19	0x3d59caac	0.0531718
20	0x3d98cdb4	0.0746111
21	0x3d269580	0.040669918
22	0x3d837296	0.0641834
23	0xbd98b2b6	-0.074559614
24	0xbd94a498	-0.07257956
25	0xbca1eb10	-0.019765407
26	0x3d4714ec	0.048603937
27	0x3d24c758	0.04022917
28	0xbd5c00f0	-0.05371183
29	0x3bc69240	0.006059915
30	0xbdace046	-0.08441214
31	0xbcc0bb60	-0.023526847
32	0xbdae5626	-0.08512525
33	0x3d689ee4	0.056792155
34	0xbdd52cf6	-0.10408966
35	0x3da85632	0.082195655
36	0x3d95e16e	0.07318388
37	0xbd36ff74	-0.044677213
38	0x3dfbca30	0.122944236
39	0x3dd6053a	0.10450216
40	0x3dc25dd8	0.094905555
41	0x3d7bd894	0.061485842
42	0xbcfbb8ec	-0.030727826
43	0xbd23b8ec	-0.039971277
44	0xbc692641	-0.014230312
45	0xbd62d438	-0.05537817
46	0x3d2b5568	0.041829497
47	0xbdb2f7a0	-0.08738637
48	0x3d3ca266	0.046053313
49	0x3cdc7cca	0.026914973
50	0xbd08eecf	-0.03343087
51	0xbdd05eae	-0.10174309
52	0xbdd016a6	-0.1016057
53	0xbd2b3d28	-0.04180637
54	0xbde23842	-0.110458866
55	0xbd4ac610	-0.049505293
56	0xbdbbdb1c	-0.09172651
57	0x3d889528	0.06669074
58	0xbda9b918	-0.08287257
59	0xbcfaf8b8	-0.030636176
60	0xbdda4fbe	-0.10659741
61	0x3ce10648	0.027468815
62	0xbdc09ec0	-0.09405279
63	0x3d124c7c	0.035717472
64	0xbd12dc44	-0.035854593
65	0xbde65e2e	-0.11248432
66	0x3dcce724	0.10005024
67	0x3d2a443c	0.04156898
68	0xbd17a4d8	-0.03702244
69	0xbd24d05c	-0.04023777
70	0x3d230ab4	0.03980513
71	0x3dd99af8	0.10625261
72	0x3d4c7190	0.04991299
73	0x3c90a3a0	0.017656147
74	0x3d39168c	0.045187518
75	0xbd09d568	-0.033650786
76	0x3d43cc74	0.047802404
77	0xbda3e4d6	-0.08002631
78	0x3daf498e	0.08558951
79	0xbd94c1e8	-0.07263547
80	0x3da8ce66	0.082424924
81	0xbb9750a0	-0.0046177655
82	0x3df35b44	0.11882642
83	0xbdf7c764	-0.120985776
84	0x3d6f27f4	0.05838771
85	0x3d426b08	0.047465354
86	0x3d9afc3a	0.0756764
87	0x3d25072c	0.040290043
88	0x3d85d00e	0.06533824
89	0xbda91340	-0.08255625
90	0xbcb59df8	-0.022170052
91	0x3d7f578c	0.06233935
92	0xbd6ba3f0	-0.05752939
93	0x3dc74a96	0.09731023
94	0xbdc644b8	-0.09681076
95	0xbcee4318	-0.029084727
96	0x3de48e7c	0.11159989
97	0xbdb6376a	-0.08897288
98	0x3c1808c0	0.00927943
99	0xbcbc1768	-0.02296038
100	0x3dd862c4	0.10565713
101	0xbddcccc8	-0.107812464
102	0xbcb2a3c0	-0.021806598
103	0x3dc209cc	0.09474525
104	0xbb8e79a0	-0.004347995
105	0x3d8641a6	0.0655549
106	0xbde0ddc8	-0.109798014
107	0xbd60685c	-0.054787025
108	0xbc0e97c2	-0.008703174
109	0xbd1de425	-0.038547654
110	0x3cce9b99	0.02522068
111	0x3d4295c7	0.04750612
112	0x3de6ad94	0.11263576
113	0x3da70407	0.08155065
114	0x3dc5b3b2	0.09653415
115	0xbdd4588a	-0.1036845
116	0xbde36826	-0.11103849
117	0x3d3ffbb4	0.046870902
118	0x3db8bc85	0.09020332
119	0xbd206016	-0.039154135
120	0x3d51d838	0.051231593
121	0xbd3ff1fb	-0.04686163
122	0x3ce54b09	0.027989881
123	0x3d2c4b01	0.042063717
124	0xbd36a268	-0.044588476
125	0xbdea58d0	-0.11442721
126	0xbda4c9de	-0.080463156
127	0xbd3ed29c	-0.04658757
128	0x3db89d1e	0.09014343
129	0x3df34d48	0.118799746
130	0x3bb33720	0.005469218
131	0xbd622d2c	-0.05521886
132	0xbd962f2a	-0.073332146
133	0x3ce6ded8	0.028182432
134	0x3d0089fc	0.031381592
135	0xbadca700	-0.0016834438
136	0xbd8d1148	-0.06888062
137	0xbc0d47e0	-0.008623093
138	0xbcc05310	-0.023477107
139	0xbd6e024c	-0.05810766
140	0xbdee0b46	-0.11623244
141	0xbde45b3e	-0.111502156
142	0xbd9eae68	-0.07748109
143	0xbccbd848	-0.024883404
144	0x3dd0ef10	0.102018476
145	0xbdc65a64	-0.096852094
146	0x3dd0534a	0.10172136
147	0xbdeb16ae	-0.11478935
148	0x3ca57018	0.020195052
149	0x3d14310c	0.036179587
150	0x3cd10e78	0.025519595
151	0x3dd058e0	0.101732016
152	0xbd964388	-0.07337099
153	0xbd3bac60	-0.045818686
154	0x3df474c8	0.11936337
155	0xbdc40ff4	-0.09573355
156	0xbd65c60c	-0.056097075
157	0xbde1e492	-0.110299245
158	0xbd4bc410	-0.049747527
159	0xbdbd432c	-0.09241328
160	0x3da21846	0.07914786
161	0xbd679fe4	-0.056548968
162	0x3d6d2b7b	0.057902794
163	0xbde0f75f	-0.10984682
164	0x3db9d60a	0.09074028
165	0xbdada2d9	-0.08478326
166	0x3ccbb81f	0.02486807
167	0x3d98bc6a	0.07457812
168	0xbd9b0199	-0.07568664
169	0xbcad8fc3	-0.021186715
170	0xbcd1ec87	-0.02562548
171	0xbd87ece8	-0.06636983
172	0x3c6d423d	0.0144811245
173	0x3d98c278	0.07458967
174	0xbd0bbd2a	-0.034115948
175	0x3d8b3d89	0.06798846
176	0x3ccd6c3f	0.02507603
177	0x3a5fa1a3	0.00085308607
178	0xbdda08f1	-0.10646237
179	0xbd921594	-0.07133022
180	0xbd6c1384	-0.0576358
181	0x3dc2be82	0.09508993
182	0x3dda8c42	0.10671283
183	0x3debe326	0.115179345
184	0x3c1b08f0	0.00946258
185	0xbd196060	-0.037445426
186	0xbdbe0696	-0.092786
187	0xbdf293bc	-0.11844584
188	0xbda7d96a	-0.08195765
189	0xbd7986b0	-0.060919464
190	0x3cd4de58	0.025984928
191	0x3c8bfe30	0.01708898
192	0xbd31dcf4	-0.043423608
193	0x3cf43028	0.029808119
194	0xbd2c316c	-0.04203932
195	0xbd812d62	-0.06307484
196	0xbda6f9d2	-0.08153118
197	0xbda823f4	-0.082099825
198	0xbdcc41c0	-0.09973478
199	0xbd838e54	-0.06423631
200	0xbd8db1d0	-0.06918681
201	0x3d6860a8	0.056732804
202	0xbd23758c	-0.039907023
203	0xbcb538d8	-0.022121832
204	0xbdec85c0	-0.11548948
205	0x3d8fd2cc	0.07022628
206	0xbd850d60	-0.06496692
207	0x3d94090e	0.072282895
208	0x3da90d18	0.082544506
209	0xbd8c3e74	-0.068478495
210	0x3ca20738	0.019778833
211	0xbda40f9c	-0.0801079
212	0x3cb7b2b0	0.022424072
213	0x3cbf12d8	0.023324415
214	0xbd14e58c	-0.036351725
215	0xbceaa900	-0.028645039
216	0x3d641f90	0.055694163
217	0xbb3e0f80	-0.0029000938
218	0x3de163fa	0.11005397
219	0x3d8eb42e	0.0696796
220	0xbde62e0a	-0.1123925
221	0x3db593ea	0.08866103
222	0xbc405f50	-0.011741474
223	0x3dba2e08	0.09090811
224	0xbc664060	-0.014053434
225	0xbca5b418	-0.020227477
226	0xbd5d445c	-0.05402027
227	0x3d428430	0.047489345
228	0x3de5a14c	0.112124056
229	0xbdcea900	-0.10090828
230	0xbd8792d8	-0.06619805
231	0xbca36360	-0.019944847
232	0xbd6eed98	-0.058332056
233	0x3d518f18	0.051161855
234	0xbdd8902e	-0.10574375
235	0x3dabf7f0	0.083969
236	0x3d5ac894	0.053413942
237	0xbcbd91d8	-0.023140833
238	0x3bd48fc0	0.006486863
239	0x3cd84290	0.026398927
240	0xbddc7044	-0.107636005
241	0xbde9358a	-0.11387165
242	0xbdf51a70	-0.11967933
243	0xbd8d97dc	-0.069137305
244	0xbd82b3d6	-0.06381957
245	0x3c0c8730	0.008577153
246	0xbd0c3228	-0.03422752
247	0x3d030004	0.031982437
248	0xbde8e5a0	-0.113719225
249	0xbd13dda0	-0.03610003
250	0xbcec1f00	-0.028823376
251	0x3d11f5e0	0.035634875
252	0xbdd83afc	-0.105581254
253	0xbde318d4	-0.1108872
254	0xbd8058cd	-0.062669374
255	0xbd421d8b	-0.047391456

gru.weight_hh_l0 f4 [192, 64]
0	0x3d58faa4	0.052973405
1	0xbd190374	-0.03735681
2	0x3dc60144	0.0966821
3	0xba270500	-0.00063712895
4	0x3dc9f32c	0.098608345
5	0x3d127f70	0.035766065
6	0x3d498518	0.049199194
7	0xbd974a8a	-0.07387264
8	0x3d791f68	0.060820967
9	0xbdbee7ac	-0.09321532
10	0x3ddf7522	0.10911013
11	0xbdc8dcec	-0.098077625
12	0xbd678968	-0.056527525
13	0xbde13da0	-0.10998082
14	0xbd076b64	-0.0330614
15	0xbc569110	-0.013096109
16	0x3df995ce	0.12186776
17	0x3dd6da1c	0.1049082
18	0xbd50a7a8	-0.05094114
19	0x3de44aac	0.11147055
20	0xbdfb42ca	-0.122685984
21	0x3de04a02	0.10951616
22	0x3cbf8228	0.023377493
23	0xbdf4cb52	-0.11952843
24	0x3d7d1254	0.061785057
25	0x3df857e6	0.1212614
26	0xbd976986	-0.07393174
27	0xbd3c70c4	-0.04600598
28	0x3d99485a	0.07484503
29	0xbdedf100	-0.11618233
30	0xbd92ca58	-0.071675
31	0xbd897798	-0.06712264
32	0xbd751224	-0.059831753
33	0x3de48f0e	0.11160098
34	0xbd8a68da	-0.0675828
35	0x3dd9bde0	0.10631919
36	0x3ddae406	0.10688023
37	0x3d00d984	0.03145744
38	0x3d763d2c	0.06011693
39	0x3d0ca580	0.03433752
40	0xbcd9c150	-0.026581436
41	0x3dc68a72	0.09694375
42	0x3bca5d40	0.006175667
43	0x3ded2856	0.11579959
44	0xbd5354dc	-0.0515946
45	0x3ddc8ac6	0.107686564
46	0x3cf540b8	0.029938087
47	0x3dc8aa88	0.09798151
48	0x3db608f8	0.088884294
49	0xbbfcb500	-0.0077120066
50	0x3c4acb50	0.012377575
51	0x3d8c68da	0.06855936
52	0xbd7ac77c	-0.0612254
53	0x3dbb93be	0.09159039
54	0x3dbc81b4	0.092044264
55	0xbd7cfa28	-0.061762005
56	0x3d88094e	0.066424
57	0x3db9f830	0.09080541
58	0x3d7d3788	0.061820537
59	0xbd10d018	-0.035354704
60	0x3c799d50	0.01523526
61	0xbcfcd430	-0.030862898
62	0x3db26dfa	0.087123826
63	0xbc870858	-0.01648347
64	0xbd305dd0	-0.043058217
65	0x3daf05cc	0.085460275
66	0xbdd0fe5a	-0.10204764
67	0xbdc02e2e	-0.09383808
68	0x3d865214	0.06558624
69	0xbbf76500	-0.007549882
70	0xbcabf290	-0.020989686
71	0x3da78ee6	0.081815526
72	0x3dbf7314	0.09348121
73	0xbde7ba70	-0.11314857
74	0xbdd45a80	-0.10368824
75	0xbda6b74a	-0.08140428
76	0xbdfe69be	-0.124225125
77	0xbdef7f90	-0.116942525
78	0x3dcbef54	0.099577576
79	0x3dcb9a8a	0.09941585
80	0x3d817e52	0.06322922
81	0xbcf3e690	-0.029773027
82	0x3c913d80	0.01772952
83	0xbd9bd81e	-0.076095805
84	0xbde261e2	-0.11053826
85	0xbd43a358	-0.0477632
86	0xbda168be	-0.07881306
87	0x3dc97d00	0.09838295
88	0x3b3c5840	0.0028739125
89	0xbd504b80	-0.050853252
90	0xbca1dbb0	-0.019758075
91	0x3dc5a756	0.096510574
92	0x3cfb0b90	0.030645162
93	0x3dc77940	0.097399235
94	0xbcdeac28	-0.0271817
95	0x3d9e6b34	0.07735291
96	0xbdccfa84	-0.100087196
97	0xbd69b554	-0.057057694
98	0x3d7ff76c	0.06249182
99	0xbdafd742	-0.08585979
100	0xbdc67c9a	-0.096917346
101	0x3d9fd88e	0.078049764
102	0x3babd1c0	0.00524351
103	0x3daadde4	0.083431035
104	0x3dc53e68	0.09631044
105	0x3d5a2e2c	0.05326669
106	0x3dfb4b92	0.12270273
107	0x3defb160	0.117037535
108	0x3decbb92	0.11559214
109	0x3dea3aae	0.114369735
110	0xbca34490	-0.019930154
111	0xbd5794e8	-0.052632242
112	0xbb99a520	-0.004688874
113	0xbd9fcc28	-0.078026116
114	0x3def36e2	0.1168039
115	0x3d8f0082	0.06982519
116	0x3c0bd0a0	0.008533627
117	0xbcebe0c0	-0.028793693
118	0xbdc4768e	-0.09592925
119	0x3dc9c386	0.09851746
120	0x3d86c522	0.06580569
121	0xbc951620	-0.018199027
122	0x3d7c5068	0.06160012
123	0xbdb57df0	-0.08861911
124	0xbdcf0ae0	-0.10109496
125	0xbdbf6eb8	-0.0934729
126	0x3be099c0	0.006854266
127	0x3a6b1900	0.0008968264
128	0x3d793780	0.060843945
129	0x3de8e5d6	0.11371963
130	0x3d167838	0.036735743
131	0xbcbd0988	-0.023075834
132	0x3da8202c	0.08209261
133	0xbdb161d6	-0.08661239
134	0x3d69a000	0.057037354
135	0xbdfcd182	-0.12344648
136	0x3cb2abf8	0.021810517
137	0x3d0ff778	0.035148114
138	0xbdf4e176	-0.11957066
139	0x3d1e81f8	0.038698167
140	0xbdb39772	-0.0876912
141	0x3d1dce1c	0.03852664
142	0x3c04d830	0.008108184
143	0xbd846d3a	-0.06466146
144	0xbd37bee0	-0.044859767
145	0xbd5a6d90	-0.053327143
146	0x3d70559c	0.058675393
147	0xbcd9b8b8	-0.026577339
148	0xbdd278ba	-0.10276933
149	0x3dbe599e	0.09294437
150	0xbdeaae44	-0.1145902
151	0xbdd302b6	-0.103032514
152	0x3d962404	0.07331088
153	0x3daad186	0.08340745
154	0x3dce9b22	0.10088183
155	0x3df97bba	0.12181802
156	0xbbc7f8a0	-0.0061026365
157	0x3dac4fec	0.084136814
158	0x3d9c34ac	0.07627234
159	0x3db97710	0.090559125
160	0xbd4d3e6c	-0.05010836
161	0xbdcc5db4	-0.0997881
162	0xbd1292c0	-0.035784483
163	0xbd95e752	-0.073195115
164	0x3c69f730	0.0142801255
165	0x3df0af3c	0.11752173
166	0xbddac01a	-0.10681172
167	0x3dada456	0.0847861
168	0x3d9df938	0.0771355
169	0xbdc7d7ce	-0.09757958
170	0x3dbe54f8	0.0929355
171	0xbdf537de	-0.119735464
172	0x3df671ec	0.120334476
173	0xbdb81ea2	-0.08990218
174	0xbdbcdb68	-0.09221536
175	0xbd890c6a	-0.06691821
176	0x3d23a5a4	0.03995289
177	0xbdd04496	-0.10169332
178	0x3d5f8508	0.054570228
179	0xbd20fd5c	-0.039304122
180	0x3dedc470	0.11609733
181	0xbdb2bf6a	-0.087279156
182	0xbb0bb100	-0.0021315217
183	0xbdf436c0	-0.11924505
184	0xbdda3a56	-0.10655658
185	0xbdafa2e8	-0.08575994
186	0xbc53e5c0	-0.012933195
187	0xbdbfc4be	-0.093636975
188	0xbdb89bf0	-0.09014118
189	0x3d85e080	0.065369606
190	0xbdc4b11e	-0.09604095
191	0x3d8a10ca	0.067414835
192	0xbc57a950	-0.013162926
193	0x3cf7c540	0.030245423
194	0x3cda31c0	0.02663505
195	0x3d0bc964	0.034127608
196	0xbcdcadd0	-0.026938349
197	0xbd8e938c	-0.06961736
198	0x3da79578	0.08182806
199	0x3daabb44	0.08336499
200	0x3d0cac9c	0.0343443
201	0xbd502534	-0.05081673
202	0xbde7f98a	-0.11326893
203	0xbd3629b8	-0.04447338
204	0x3dcd447a	0.100228265
205	0x3d5b0ac8	0.05347708
206	0xbd9752b6	-0.07388823
207	0x3d3a9d74	0.045560315
208	0x3dfcb83e	0.12339829
209	0x3d8c9a00	0.06865311
210	0x3d0e1fd8	0.034698337
211	0xbca9b6a0	-0.020716965
212	0xbdd43432	-0.10361518
213	0xbd8b3f98	-0.06799239
214	0x3de17094	0.11007801
215	0xbdbd29ac	-0.09236464
216	0xbde0ab08	-0.109701216
217	0x3d569e5c	0.052397117
218	0x3ded76f0	0.11594951
219	0x3d67cf0c	0.05659394
220	0xbdf8e6da	-0.121534064
221	0xbc23b890	-0.009992734
222	0x3c6b3b30	0.014357373
223	0xbb2e1980	-0.0026565492
224	0xbd94283c	-0.072342366
225	0xbd4c8df0	-0.04994005
226	0xbdade76a	-0.08491404
227	0xbd475b04	-0.048670784
228	0x3d0faaa0	0.03507483
229	0x3df69944	0.12040952
230	0xbdb2edd6	-0.0873677
231	0xbde8c6c6	-0.11366038
232	0xbd072414	-0.03299339
233	0xbd66677c	-0.056251034
234	0x3d265760	0.04061067
235	0x3d792ef8	0.06083581
236	0x3d89be3a	0.06725736
237	0xbca25b48	-0.019818917
238	0xbc2f7bf0	-0.010710701
239	0xbdf90164	-0.12158468
240	0x3d491fa0	0.049102426
241	0xbd643a6c	-0.055719778
242	0xbdf3d6e8	-0.119062245
243	0xbd276884	-0.04087116
244	0xbde1cb9c	-0.110251635
245	0xbdd5a6e0	-0.104322195
246	0x3d1cc5ac	0.038274452
247	0x3dfcc6d8	0.12342614
248	0x3db4de3c	0.0883145
249	0xbd0858f8	-0.033287972
250	0x3dae4098	0.08508414
251	0x3d914ed0	0.070951104
252	0xbd1e9c78	-0.03872344
253	0x3db4b906	0.08824353
254	0x3d370468	0.044681937
255	0x3d78ed44	0.06077315

gru.bias_ih_l0 f4 [192]
0	0xbd21f754	-0.03954251
1	0xbde328c0	-0.11091757
2	0xbde7342a	-0.112892464
3	0xbcaccc70	-0.021093577
4	0x3d8dc828	0.069229424
5	0xbd8cc5cc	-0.06873664
6	0xbd9267bc	-0.07148692
7	0x3dd5e6b0	0.10444391
8	0xbd828ef2	-0.06374921
9	0x3d9491ac	0.07254347
10	0xbdae0160	-0.08496356
11	0x3d8f46f8	0.06995958
12	0x3ccfc330	0.025361627
13	0x3dd49fc6	0.10382037
14	0xbd5e79fa	-0.054315545
15	0xbda9f8ec	-0.08299431
16	0x3d9333fa	0.07187648
17	0x3d9d64cc	0.07685241
18	0x3ddcf262	0.10788418
19	0xbdddce78	-0.108303964
20	0x3da85566	0.082194135
21	0x3d32dd41	0.043668035
22	0xbd38e69c	-0.0451418
23	0xbdc23eca	-0.09484632
24	0xbcf514b8	-0.029917106
25	0x3dba24a6	0.090890214
26	0xbd5294e8	-0.05141154
27	0xbdcfaf5e	-0.101408705
28	0xbca08200	-0.019593239
29	0x3df69b16	0.12041299
30	0x3ce7a1a0	0.028275311
31	0x3dabd092	0.08389391
32	0xbc1412c0	-0.0090376735
33	0x3d388988	0.045053035
34	0x3dd65c92	0.10466875
35	0xbddcdfd5	-0.1078488
36	0x3dd19e0a	0.10235222
37	0xbdb92a68	-0.090412915
38	0xbdb69c84	-0.08916572
39	0xbd0c8240	-0.034303904
40	0xbd3bd9e4	-0.045862094
41	0x3de91a10	0.11381924
42	0xbdd2922c	-0.10281786
43	0x3d544e74	0.05183263
44	0xbdbe17d4	-0.092818886
45	0x3dcbae88	0.099453986
46	0xbdd10ce0	-0.10207534
47	0xbca2dea0	-0.019881546
48	0xbc4b7ce0	-0.012419909
49	0x3d87e0b8	0.066346586
50	0xbdccd17e	-0.10000895
51	0xbd9715de	-0.07377218
52	0x3c249040	0.0100441575
53	0xbd0f9900	-0.03505802
54	0x3d173ac0	0.036921263
55	0xbdad1ee0	-0.084531546
56	0xbdcdb73c	-0.10044715
57	0xbd54e770	-0.05197853
58	0x3cef81f8	0.029236779
59	0x3ca8a050	0.020584255
60	0xbdebe200	-0.115177155
61	0x3ce6c4c8	0.028170004
62	0x3cf248e0	0.029575765
63	0xbddb93c8	-0.107215464
64	0xbdf13c79	-0.11779112
65	0xbdd3be23	-0.10339
66	0xbd9f8824	-0.07789639
67	0x3db60ef0	0.08889568
68	0xb9324e56	-0.00017004585
69	0x3d42c770	0.04755348
70	0xbda4b0b3	-0.08041515
71	0x3be9f400	0.007139683
72	0xbd0e4cf0	-0.034741342
73	0x3db925dd	0.09040425
74	0xbd772c20	-0.060344815
75	0xbd41618c	-0.04721217
76	0x3d05d050	0.032669365
77	0x3cb45968	0.022015288
78	0x3cec228d	0.028825069
79	0x3caa5cb8	0.020796165
80	0xbdbee2ca	-0.093206
81	0x3ccadd70	0.024763793
82	0x3d81a11e	0.06329559
83	0xbdf4fc0e	-0.11962138
84	0x3ddc4d73	0.1075696
85	0xbc027400	-0.007962227
86	0x3d1a455f	0.037663814
87	0xbd269007	-0.0406647
88	0x3d518740	0.051154375
89	0x3bcdab0a	0.006276493
90	0x3d54bfac	0.051940605
91	0x3d6ee605	0.058324832
92	0x3dd57630	0.10422933
93	0xbd8a37f6	-0.06748955
94	0x3d4390ad	0.047745395
95	0xbdd9c82e	-0.10633884
96	0x3dd689db	0.104755126
97	0xbd8103a0	-0.062995195
98	0xbb6b03c0	-0.003586039
99	0xbc2f3b6f	-0.010695322
100	0xbd8a8c8a	-0.06765087
101	0xbdd8088a	-0.10548504
102	0x3d5d3380	0.054004192
103	0x3ce825e8	0.028338388
104	0x3d9da5e5	0.076976575
105	0x3d8737c1	0.06602431
106	0x3daf12d8	0.08548516
107	0xbdba6856	-0.09101932
108	0xbdaef076	-0.08541958
109	0x3dc562fb	0.0963802
110	0x3c2b4e45	0.010455673
111	0x3dc065cd	0.09394417
112	0x3d89370c	0.066999525
113	0xbcb984d8	-0.022646353
114	0xbd71af04	-0.0590048
115	0xbbb4aafa	-0.005513546
116	0xbd82f842	-0.06395008
117	0xbd802730	-0.062574744
118	0xbdeebaad	-0.11656699
119	0x3b37f5c0	0.0028070062
120	0x3d8a29c3	0.06746247
121	0xbdb93956	-0.09044139
122	0xbd85e3e5	-0.06537608
123	0xbd3be94e	-0.045876794
124	0x3cc34068	0.023834422
125	0x3db72147	0.08941894
126	0x3d89d3b8	0.06729835
127	0x3d89533d	0.067053296
128	0xbd7fd584	-0.062459484
129	0xbd615e08	-0.055021316
130	0xbdfce66c	-0.12348637
131	0xbd51611c	-0.051118
132	0xbccc61e0	-0.024949014
133	0xbd8aa570	-0.06769836
134	0x3cff3318	0.031152293
135	0xbd90201e	-0.07037376
136	0x3d06f48a	0.032948054
137	0xbd61092c	-0.054940388
138	0xbc84c610	-0.016207725
139	0x3db8cc22	0.0902331
140	0x3d342910	0.043984473
141	0xbd86e0b0	-0.065858245
142	0x3d7bb48e	0.061451487
143	0x3bd98e40	0.006639272
144	0xbd8f8d4e	-0.070093736
145	0xbdf6b8f0	-0.12046993
146	0xbba40b20	-0.005006209
147	0x3d15437c	0.03644131
148	0x3d113678	0.035452336
149	0xbca2f105	-0.019890318
150	0xbc85c8b8	-0.016331062
151	0x3df9a469	0.12189562
152	0xbd107ede	-0.03527724
153	0xbdda3f49	-0.10656602
154	0xbdbfac25	-0.09359006
155	0x3ded0101	0.11572457
156	0xbca43cb0	-0.02004847
157	0x3c8e2480	0.017351389
158	0x3ddf0bc0	0.10890913
159	0x3d87d286	0.06631951
160	0x3cdab1b0	0.026696056
161	0x3d68157c	0.056661114
162	0x3b32da40	0.0027290732
163	0x3dc50981	0.09620953
164	0x3d77536c	0.06038229
165	0x3da4d378	0.08048147
166	0xbd501f40	-0.050811052
167	0xbd5a0a74	-0.053232625
168	0x3df02d0c	0.11727342
169	0xbdd7207a	-0.10504241
170	0x3da60b0a	0.08107574
171	0x3d416cc0	0.047222853
172	0xbd74a4ac	-0.059727356
173	0x3d29ed57	0.04148611
174	0xbd272988	-0.04081109
175	0xbdbadcfa	-0.09124179
176	0x3dcf58b6	0.10124342
177	0xbcbd4d23	-0.02310807
178	0x3d825234	0.06363335
179	0xbd9a3db4	-0.075313
180	0x3dbe091e	0.09279083
181	0x3b0c3bc0	0.0021397918
182	0xbddba8f0	-0.10725582
183	0x3d303f28	0.04302898
184	0xbc8f3ae7	-0.017484142
185	0x3d3b3d70	0.04571289
186	0xbb2d15c0	-0.002641067
187	0xbddf680a	-0.10908516
188	0x3dfa7be8	0.122306645
189	0x3dc48988	0.095965445
190	0x3ce00f28	0.027350977
191	0x3d7d07c2	0.061774977

gru.bias_hh_l0 f4 [192]
0	0x3d75c318	0.06000051
1	0x3d2dc4fc	0.042424187
2	0xbcad8ea8	-0.021186188
3	0xbdc3cb62	-0.095602766
4	0xbdcd53ba	-0.10025735
5	0xbdae3912	-0.08506979
6	0x3df2ca72	0.1185502
7	0xbdc1e616	-0.094677135
8	0xbda90bdc	-0.08254215
9	0x3dbe7098	0.09298819
10	0x3cafde10	0.021468192
11	0x3d0aed70	0.033917844
12	0x3cfd8de8	0.030951455
13	0x3db7aa9a	0.089680865
14	0xbd662612	-0.05618865
15	0x3c6b3380	0.01435554
16	0x3dc697d6	0.09696929
17	0x3da9eb36	0.08296816
18	0xbce7e958	-0.02830951
19	0x3df7738e	0.12082587
20	0xbd4706f4	-0.048590615
21	0xbd22af5f	-0.03971803
22	0xbae3d000	-0.0017380714
23	0x3db0dd9e	0.0863602
24	0xbd238426	-0.03992095
25	0xbda742e4	-0.08167055
26	0xbd627c34	-0.05529423
27	0xbd8a5a00	-0.067554474
28	0xbcfb2870	-0.03065893
29	0x3da0d0e4	0.07852343
30	0xbb0237e3	-0.0019869737
31	0x3d8fcf1c	0.07021925
32	0x3d740100	0.059571266
33	0x3dc8107c	0.09768769
34	0x3d80bbe2	0.06285836
35	0x3dedcfe1	0.116119154
36	0x3ca2a178	0.019852385
37	0xbce8b520	-0.02840668
38	0x3db1e718	0.08686656
39	0xbdeddc4e	-0.116142854
40	0x3dac249f	0.084054224
41	0xbd862188	-0.06549364
42	0xbc9e7028	-0.01934059
43	0x3dca6e64	0.098843366
44	0x3d6e6f18	0.058211416
45	0xbdb6d0b6	-0.08926527
46	0xbdc87cee	-0.097894534
47	0x3d17bf20	0.037047505
48	0xbd8b4926	-0.06801061
49	0xbd9b56c6	-0.0758491
50	0x3da4938a	0.08035953
51	0x3d6041d4	0.05475028
52	0xbc9fb950	-0.019497544
53	0xba946580	-0.0011321753
54	0x3dd6dc36	0.10491221
55	0xbd1ed554	-0.038777664
56	0x3d2c02cc	0.041994855
57	0xbd9f7cf8	-0.07787508
58	0x3d5cad18	0.053876013
59	0x3ccf05e0	0.025271356
60	0x3dab6c32	0.08370246
61	0x3defb7e4	0.11704996
62	0xbd809a60	-0.06279445
63	0x3d417240	0.047228098
64	0x3c8c085b	0.017093828
65	0x3dd1fbfd	0.10253141
66	0xbc83e6e8	-0.016101316
67	0x3c461d70	0.012091979
68	0xbd9d194d	-0.07670841
69	0x3d32f370	0.04368919
70	0xbb2e6de6	-0.0026615798
71	0xbd7bed18	-0.061505407
72	0xbddae6da	-0.10688563
73	0xbdc0eff7	-0.0942077
74	0xbd8c1b3a	-0.068411306
75	0x3cc6ab16	0.024251502
76	0x3db458fc	0.08806035
77	0x3d7be998	0.06150207
78	0x3c5cc2d5	0.013474186
79	0x3da63068	0.081147015
80	0x3d866ae8	0.065633595
81	0xbdf88748	-0.12135178
82	0xbc082457	-0.008309445
83	0xbc9a8b13	-0.018865144
84	0xbce416d6	-0.02784292
85	0x3da07866	0.07835464
86	0x3d7fb90e	0.06243234
87	0x3d98b71b	0.074567996
88	0xbd7db560	-0.06194055
89	0xbd1326f7	-0.03592583
90	0x3dc74b92	0.09731211
91	0xbbe273ce	-0.0069107777
92	0xbc333670	-0.010938272
93	0x3c4e1c41	0.012579978
94	0x3dc68904	0.096941024
95	0xbdcd0192	-0.10010065
96	0xbe09669c	-0.13418049
97	0x3da6bbd8	0.08141297
98	0x3daf5378	0.08560842
99	0xbcf08c5f	-0.02936381
100	0xbcdbc21e	-0.02682596
101	0x3d84a4da	0.064767554
102	0xbd297167	-0.041367915
103	0x3dea78f8	0.11448854
104	0xbdbb28c8	-0.09138638
105	0x3e03da1d	0.12876172
106	0x3cb7d022	0.022438113
107	0xbdbdca04	-0.09267047
108	0x3c91b0e8	0.01778455
109	0xbcf98189	-0.030457275
110	0x3d2feb2d	0.04294889
111	0x3d300a84	0.04297878
112	0x3d30636c	0.043063566
113	0xbddcd284	-0.1078234
114	0xbdecb748	-0.115583956
115	0x3dafed9b	0.085902415
116	0xbd8117d8	-0.06303376
117	0xbddd8f32	-0.10818328
118	0xbc8eda4c	-0.017438076
119	0x3ddd6686	0.108105704
120	0x3c9990da	0.018745828
121	0xbde42c70	-0.11141288
122	0xbd62b6bb	-0.055350047
123	0xbd59145e	-0.05299794
124	0x3dede030	0.11615026
125	0xbd5902e1	-0.05298126
126	0xbd9b93f0	-0.07596576
127	0xbdbd0183	-0.09228804
128	0xbd6fb044	-0.05851771
129	0xbd4e74e8	-0.05040446
130	0x3d3b1e24	0.04568304
131	0x3da2a4cc	0.07941589
132	0xbd84dd04	-0.06487468
133	0xbd8839b6	-0.066516325
134	0x3d436aee	0.047709398
135	0x3d8cb294	0.068699986
136	0xbcb83ac8	-0.022488967
137	0x3c728933	0.014803219
138	0x3de195a4	0.1101487
139	0x3d0de0c0	0.034638166
140	0x3dcec7f2	0.1009673
141	0xbc0e5320	-0.008686811
142	0xbc5f1141	-0.0136149535
143	0x3d4a47b8	0.049384803
144	0x3dc2449e	0.09485744
145	0x3cb59350	0.02216497
146	0x3cb13c20	0.021635115
147	0x3c823d98	0.01589851
148	0x3de9e052	0.11419739
149	0xbdca997f	-0.09892558
150	0x3d91354c	0.07090244
151	0xbd7f254c	-0.06229143
152	0xbb3063e3	-0.0026915006
153	0xbcc600b8	-0.024170265
154	0x3d6643e0	0.056217074
155	0x3de42b75	0.11141101
156	0xbdc71ef0	-0.09722698
157	0xbd84bf52	-0.06481804
158	0xbc147976	-0.009062162
159	0xbd38cd34	-0.045117572
160	0xbda5edf6	-0.08102028
161	0x3d97879e	0.07398914
162	0xbdbacf66	-0.09121589
163	0x3d08b44f	0.03337508
164	0xbd8e6d90	-0.06954491
165	0x3d1703b4	0.036868766
166	0x3de1c532	0.1102394
167	0x3dc320f4	0.0952777
168	0xbcdc1cc9	-0.026869195
169	0xbdfc640e	-0.123237714
170	0xbc03a160	-0.00803408
171	0x3d54fe70	0.052000463
172	0x3dae86c0	0.08521795
173	0xbd8648b1	-0.065568335
174	0x3cf48da8	0.029852703
175	0x3d9d8e08	0.07693106
176	0x3d1570c8	0.03648451
177	0xbd5e1ea8	-0.054228455
178	0xbd07b014	-0.033126906
179	0xbdf056f0	-0.11735332
180	0xbd1d0e4c	-0.038343713
181	0xbdabac22	-0.08382441
182	0xbcded7d0	-0.027202517
183	0xbdbd22a6	-0.09235124
184	0x3c158a40	0.0091272
185	0xbd82fe3c	-0.063961476
186	0xbdde089a	-0.10841484
187	0xbcb53050	-0.022117764
188	0xbc8d5b58	-0.01725547
189	0x3c894ca8	0.016760185
190	0x3da6deae	0.081479415
191	0xbde8afb2	-0.11361636

gru.weight_ih_l0_reverse f4 [192, 18]
0	0x3adc9600	0.0016829371
1	0x3d5b93cc	0.053607747
2	0xbdb55542	-0.08854152
3	0x3cfe8d88	0.031073347
4	0xbd3a54f8	-0.04549119
5	0xbd573208	-0.052537948
6	0xbdba23b0	-0.09088838
7	0xbcc9b478	-0.024622187
8	0xbbf39520	-0.0074335486
9	0xbd8f85d2	-0.07007946
10	0x3d2c6cdc	0.042096004
11	0xbde1bfc2	-0.11022903
12	0x3dcbf9da	0.09959765
13	0x3c85bc90	0.016325265
14	0xbdfbfac2	-0.12303688
15	0x3dc97bfc	0.09838101
16	0x3dff7720	0.12473893
17	0x3bf55a20	0.0074875504
18	0x3d1c4b08	0.038157493
19	0x3ddac028	0.10681182
20	0x3dd22706	0.102613494
21	0xbdbfaffc	-0.09359738
22	0xbc88ef30	-0.016715616
23	0xbd68107c	-0.056656346
24	0xbd845508	-0.06461531
25	0xbd9a1cb0	-0.07525003
26	0x3d3b25e4	0.045690432
27	0x3d180bfc	0.037120804
28	0xbdf3e130	-0.119081855
29	0x3c4e1a50	0.012579516
30	0xbd82d4f6	-0.06388275
31	0x3db786f2	0.08961286
32	0x3c464ba0	0.012102991
33	0x3db641fa	0.08899303
34	0xba8ddb00	-0.0010822713
35	0xbd91f920	-0.07127595
36	0x3d27ea30	0.040994823
37	0xbddfa736	-0.10920565
38	0xbbba6fc0	-0.005689591
39	0xbc9d9760	-0.01923722
40	0x3cf93fb8	0.030425891
41	0x3d56d0d0	0.052445233
42	0x3d900e02	0.07033922
43	0xbd32bd6c	-0.043637678
44	0x3d25f82c	0.04051988
45	0x3dfe455c	0.12415573
46	0xbdd0ef20	-0.102018595
47	0xbd1cc938	-0.038277835
48	0xbc8495c0	-0.016184688
49	0xbddeaf94	-0.108733326
50	0x3d4e84dc	0.050419673
51	0x3d8f1612	0.069866315
52	0x3d9dab4e	0.076986894
53	0x3d6f0fa4	0.058364525
54	0xbd0f1064	-0.03492774
55	0xbd1d2180	-0.038362026
56	0x3d0391a0	0.0321213
57	0xbb298140	-0.0025864393
58	0xbdf35340	-0.11881113
59	0x3ddb7ad4	0.10716787
60	0x3dddf006	0.108367965
61	0x3bd5e640	0.006527692
62	0x3dcc31a8	0.09970409
63	0x3dde5108	0.10855299
64	0x3d40b20c	0.0470448
65	0x3dfacecc	0.122464746
66	0xbdd86a4c	-0.105671495
67	0x3dabbe2e	0.08385883
68	0x3dcef4ca	0.101052836
69	0xbc409370	-0.011753902
70	0xbb71c240	-0.0036889464
71	0x3c83b308	0.01607658
72	0xbc8c0938	-0.01709424
73	0xbdf3c608	-0.11903006
74	0x3dcdf56e	0.100565776
75	0x3d7f88c4	0.06238629
76	0xbc375710	-0.011190191
77	0xbda672d2	-0.08127369
78	0xbdd561c8	-0.10419041
79	0xbcaa6838	-0.020801648
80	0x3de717b0	0.11283815
81	0x3c903c20	0.017606795
82	0x3deac2f6	0.11462967
83	0x3d350c7c	0.04420136
84	0x3d4446dc	0.04791914
85	0x3d43bb3c	0.047785982
86	0x3dddf828	0.10838348
87	0x3db4e06c	0.088318676
88	0xbdb18e4a	-0.086697176
89	0x3dbc78c2	0.0920272
90	0xbdbf9348	-0.093542635
91	0x3df870c0	0.1213088
92	0x3dd0a3b2	0.101874724
93	0xbd96aa00	-0.07356644
94	0x3d15175c	0.03639923
95	0xbbdd2ec0	-0.006749958
96	0xbc8f94e8	-0.017527059
97	0xbdb8c030	-0.09021032
98	0x3dcab996	0.09898679
99	0xbdcc3a50	-0.0997206
100	0xb8efe000	-0.00011438131
101	0x3dbf5bc4	0.09343675
102	0xbd703a18	-0.058649153
103	0x3d90c8e8	0.0706957
104	0x3dc1f0dc	0.094697684
105	0x3cb647d8	0.022251055
106	0xbd6e6d2c	-0.058209583
107	0xbd39d834	-0.045372203
108	0xbdfb7b76	-0.12279408
109	0x3dc4e9b9	0.096148916
110	0x3c863df3	0.016386962
111	0xbd14d0aa	-0.03633181
112	0x3dc525b2	0.096263304
113	0xbd0b05b5	-0.03394099
114	0x3d2c03c8	0.041995794
115	0x3df4a6fb	0.119459115
116	0x3ca51067	0.020149423
117	0x3da15f56	0.07879512
118	0x3d955cee	0.072931156
119	0xbcac3e00	-0.021025658
120	0x3d8a137f	0.06742
121	0x3c1a63fb	0.009423251
122	0x3dbbf4ee	0.09177576
123	0x3d5b90ae	0.053604774
124	0xbdeea1a4	-0.11651924
125	0xbd6ab91e	-0.057305448
126	0xbd77d7ea	-0.060508646
127	0xbdd3f0fb	-0.10348698
128	0x3c93f571	0.018061372
129	0x3b9f8c60	0.004869029
130	0xbda73330	-0.0816406
131	0x3ddeb337	0.10874026
132	0xbdf4f5ed	-0.11960969
133	0xbca9365a	-0.0206558
134	0xbdee97b9	-0.116500326
135	0xbbb1f858	-0.005431216
136	0x3d996a27	0.0749095
137	0x3d93189b	0.071824275
138	0x3dbb0d5c	0.091334075
139	0xbdf4cef5	-0.119535364
140	0x3dacc805	0.08436588
141	0xbdca4229	-0.098759
142	0x3d6c9527	0.05775943
143	0xbd8917d5	-0.06693999
144	0xbdc0e202	-0.094181076
145	0x3d4be2cc	0.049776837
146	0x3ddfaeb8	0.10921997
147	0xbddbdf8c	-0.107359976
148	0xbc1d3fc0	-0.009597719
149	0x3d4aafdc	0.04948412
150	0xbdd5105e	-0.104035124
151	0xbdd535f6	-0.10410683
152	0xbccd8458	-0.02508752
153	0xbcc53a38	-0.024075612
154	0xbdd0082a	-0.10157807
155	0x3b170780	0.0023045242
156	0x3def3cb8	0.11681503
157	0x3d81df32	0.06341399
158	0x3d940740	0.07227945
159	0xbda2043e	-0.079109654
160	0x3df3e53e	0.11908959
161	0x3d808e5c	0.06277153
162	0x3db5f34e	0.08884297
163	0x3ccc3fe8	0.024932817
164	0xbdeb2bdc	-0.11482975
165	0xbdd1e776	-0.10249226
166	0xbc4d9e00	-0.012549877
167	0x3dcfa74c	0.10139331
168	0xbd8f995e	-0.07011674
169	0x3de97fe0	0.11401343
170	0x3df6480e	0.12025462
171	0x3d1ade70	0.03780979
172	0xbd9a466a	-0.07532962
173	0x3def78ea	0.116929844
174	0xbd536c90	-0.051617205
175	0x3d7c23e4	0.061557665
176	0x3c921028	0.01782997
177	0x3dbd6ace	0.09248887
178	0xbc9765a0	-0.018481076
179	0xbcadd0d8	-0.021217749
180	0x3dc8a142	0.097963825
181	0x3d9aab52	0.07552208
182	0xbcba5e38	-0.022750005
183	0x3dec7e32	0.11547507
184	0xbbdcc220	-0.0067370087
185	0xbce3cdf8	-0.027808174
186	0xbda7b264	-0.08188322
187	0xbdec9352	-0.115515366
188	0xbdd3c770	-0.10340774
189	0x3d17094c	0.0368741
190	0x3d76e22c	0.060274288
191	0x3d984d0c	0.074365705
192	0x3dfd28ba	0.123612836
193	0xbd766b68	-0.060161024
194	0xbdb92b96	-0.090415165
195	0x3de1279c	0.10993883
196	0x3da7ef1a	0.08199902
197	0xbcfb3220	-0.03066355
198	0x3c933c30	0.017973036
199	0xbd1a66c8	-0.037695676
200	0xbd32903c	-0.043594584
201	0xbda6cdfe	-0.08144759
202	0xbc95f2e0	-0.018304288
203	0x3cc04c88	0.023473993
204	0x3d5e8c40	0.05433297
205	0xbddb7a92	-0.10716738
206	0xbd3319c0	-0.04372573
207	0x3dd9b210	0.10629666
208	0xbda2c988	-0.07948595
209	0x3d5fcea0	0.054640412
210	0xbd80cd54	-0.06289163
211	0x3acd7c00	0.0015677214
212	0x3c3c3f10	0.011489645
213	0x3d9668be	0.07344197
214	0x3db278fa	0.08714481
215	0xbdfbfbca	-0.12303884
216	0xbd82ae79	-0.06380934
217	0x3d48e81f	0.049049493
218	0x3d2fb286	0.042894863
219	0x3d6520ad	0.055939365
220	0xbd8ad0f4	-0.06778136
221	0x3dd43f31	0.10363615
222	0xbca26074	-0.019821383
223	0xbdf2e8bf	-0.11860799
224	0xbd2d3da0	-0.0422951
225	0x3c0fa0a6	0.008766329
226	0xbdce1490	-0.10062516
227	0x3df74037	0.12072795
228	0x3db1bdfa	0.08678813
229	0xbd1f8769	-0.038947497
230	0xbc6d39ab	-0.014479081
231	0x3de2e1a8	0.11078197
232	0x3d6d05cd	0.05786686
233	0xbdd0a5db	-0.101878844
234	0x3a704a00	0.00091663003
235	0xbce5c8a0	-0.028049767
236	0xbd84c80e	-0.0648347
237	0x3d19a920	0.037514806
238	0x3d8fb61a	0.07017155
239	0x3bd63c60	0.006537959
240	0xbcc0f810	-0.023555785
241	0xbdfc367c	-0.123150796
242	0xbc9c3bf8	-0.019071564
243	0xbdaf8dc4	-0.085719615
244	0x3d2e29e4	0.04252042
245	0x3d152b1c	0.036418065
246	0x3d9b0948	0.0757013
247	0xbd5084e8	-0.050908
248	0xbad55600	-0.001627624
249	0xbd868eba	-0.06570192
250	0x3b2b67c0	0.002615437
251	0x3d921982	0.071337715
252	0x3cc97534	0.02459202
253	0x3d21a048	0.039459497
254	0x3d6be8a7	0.05759492
255	0xba274943	-0.0006381461

gru.weight_hh_l0_reverse f4 [192, 64]
0	0x3dc34d16	0.09536187
1	0x3b028b00	0.0019919276
2	0xbcb46ce0	-0.022024572
3	0xbdb7cdb8	-0.089747846
4	0x3d9fcf9a	0.07803269
5	0x3de3e6d8	0.11128014
6	0x3c1040a0	0.00880447
7	0xbc9c2498	-0.019060418
8	0x3d0fb9c4	0.03508927
9	0x3ddfa100	0.1091938
10	0xbd874884	-0.06605628
11	0xbcec9ff8	-0.028884873
12	0xbdd1aaac	-0.10237631
13	0x3ab38800	0.0013697147
14	0x3d8eff3e	0.06982277
15	0xbd55f120	-0.052231908
16	0xbdc10954	-0.09425607
17	0x3da87190	0.08224785
18	0xbd53676c	-0.051612303
19	0x3df979c2	0.121814266
20	0xbcad3e58	-0.021147892
21	0xbd2369e8	-0.039895922
22	0x3c726300	0.014794111
23	0x3cc8c5f0	0.024508446
24	0x3dce38a4	0.10069397
25	0xbbccd600	-0.0062510967
26	0x3d9ca63a	0.07648893
27	0xbd954e6e	-0.0729035
28	0x3da0f770	0.07859695
29	0x3ce41ca8	0.027845696
30	0xbd5ded4c	-0.054181382
31	0x3c84e1e0	0.016220987
32	0xbd225de8	-0.039640337
33	0xbda65b08	-0.081228316
34	0x3d782730	0.060584247
35	0xbd313d30	-0.043271244
36	0x3d993d92	0.07482447
37	0x3da32c30	0.079674125
38	0x3c510a30	0.012758777
39	0x3d4dcf08	0.05024627
40	0xbcb0ee48	-0.021597996
41	0x3c7f05f0	0.01556538
42	0x3ddef19c	0.10885927
43	0x3db35d5e	0.08758043
44	0xbdeec1e2	-0.11658074
45	0x3dc51d00	0.09624672
46	0xbdea7f2c	-0.11450037
47	0x3da07b62	0.078360334
48	0x3dc1aeea	0.0945719
49	0xbcb33d58	-0.021879837
50	0x3d976c82	0.07393743
51	0x3cb51bb8	0.022107944
52	0xbdb55fe8	-0.08856183
53	0x3d9f530a	0.0777951
54	0xbda77cda	-0.081781104
55	0x3c626680	0.013818383
56	0x3cea0990	0.028569013
57	0x3dcb9986	0.09941392
58	0xbdfda210	-0.123844266
59	0x3d48a918	0.048989385
60	0x3dbb27e6	0.091384694
61	0x3cd118c0	0.025524497
62	0x3cb37188	0.021904722
63	0x3d35c5b0	0.044377983
64	0xbdfc85b6	-0.12330191
65	0x3d9cbecc	0.07653579
66	0x3d5d4130	0.054017246
67	0xbd114c5c	-0.035473213
68	0xbcae8990	-0.02130583
69	0xbddbaa94	-0.107258946
70	0xbd736e7c	-0.059431538
71	0xbc5ac600	-0.013352871
72	0x3d0b1c74	0.033962682
73	0xbd85d144	-0.06534055
74	0xbdd3bfa0	-0.10339284
75	0xbd8b8530	-0.06812513
76	0x3db28c5a	0.08718176
77	0x3d8b3104	0.06796458
78	0xbd0c6414	-0.03427513
79	0x3df2abae	0.118491516
80	0x3b2d2940	0.0026422292
81	0x3dd39d02	0.10332681
82	0x3dd0abf2	0.10189046
83	0xbdf236f2	-0.11826886
84	0x3de2b126	0.11068945
85	0x3de04e7e	0.10952471
86	0xbd740f1c	-0.059584722
87	0xbc478cc0	-0.0121795535
88	0xbc076d90	-0.008265868
89	0xbdbba932	-0.09163131
90	0x3c905590	0.017618924
91	0x3d9beb02	0.076131836
92	0xbc997588	-0.018732801
93	0xbdb8e5f8	-0.09028238
94	0x3dfc4056	0.123169586
95	0x3d98849e	0.0744717
96	0x3d0b62ac	0.034029648
97	0xbdd87726	-0.10569601
98	0xbdbe7ace	-0.09300767
99	0x3d8a2f70	0.06747329
100	0x3db2ead0	0.08736193
101	0x3d248294	0.04016359
102	0x3c822ed0	0.015891463
103	0x3c2d5a20	0.0105805695
104	0xbd918a04	-0.071064025
105	0x3da3a4fc	0.07990453
106	0xbdd9201c	-0.106018275
107	0x3ca88a70	0.020573825
108	0xbd44da28	-0.048059613
109	0x3de363e6	0.111030385
110	0x3d753890	0.059868395
111	0xbda3d238	-0.079990804
112	0xbcb53610	-0.022120506
113	0x3ca48230	0.02008161
114	0xbd007b2c	-0.031367466
115	0xbde585bc	-0.112071484
116	0x3cf90d38	0.030401811
117	0xbd1ddb7c	-0.038539395
118	0x3dd6b834	0.10484353
119	0xbdf1d300	-0.11807823
120	0x3c9bd968	0.019024566
121	0xbd2ea490	-0.042637408
122	0xbde5c060	-0.11218333
123	0x3dcdbd74	0.10045901
124	0x3d99e33e	0.07514046
125	0xbd63fcf0	-0.055661142
126	0xbd8afcda	-0.06786509
127	0x3df6f4ca	0.120584086
128	0xbbed8560	-0.0072485656
129	0xbdc0a732	-0.0940689
130	0x3dafde80	0.085873604
131	0x3cdcabe0	0.026937425
132	0x3d4f4c1c	0.050609693
133	0x3dabdf92	0.08392252
134	0x3c9b0608	0.018923774
135	0xbc825038	-0.015907392
136	0x3da9362c	0.082622856
137	0xbd88004e	-0.06640683
138	0xbdc4bbee	-0.09606157
139	0x3b441240	0.0029918104
140	0xbd0ae58c	-0.03391032
141	0xbd459ce0	-0.04824531
142	0xbdcb75fa	-0.099346116
143	0xbdcee098	-0.101014316
144	0xbb290b80	-0.0025794208
145	0xbd8c9670	-0.06864631
146	0x3dc0cd1c	0.094141215
147	0x3dfe9254	0.124302536
148	0xbd50a248	-0.050936013
149	0xbc45c5f0	-0.012071118
150	0x3ddd4360	0.108038664
151	0xbdde2228	-0.108463585
152	0xbd02ce38	-0.031934947
153	0xbd27d260	-0.040972114
154	0x3d9e383e	0.07725571
155	0xbd158d88	-0.036511928
156	0xbcceb5b8	-0.025233135
157	0x3ce71fd0	0.028213412
158	0xbc251930	-0.010076806
159	0x3d8b6556	0.06806438
160	0xbde2ef8c	-0.11080846
161	0xbd946eda	-0.07247706
162	0x3df8854c	0.12134799
163	0x3d178c94	0.0369993
164	0x3df0d1e6	0.11758785
165	0x3dad22e0	0.084539175
166	0xbdfed8e8	-0.12443715
167	0xbdb6dc22	-0.08928706
168	0xbd72030c	-0.059084937
169	0x3cf203f0	0.029542893
170	0x3d637678	0.055532902
171	0xbd3947a0	-0.045234323
172	0xbdad05f4	-0.08448401
173	0x3dea4140	0.11438227
174	0xbbd383e0	-0.0064549297
175	0xbc424d90	-0.011859313
176	0xbdde3a44	-0.10850957
177	0xbd1665ec	-0.036718294
178	0xbd8af826	-0.06785612
179	0xbdcfd174	-0.10147372
180	0xbdd81d5e	-0.10552476
181	0xbde2ec5e	-0.1108024
182	0x3df523e2	0.11969735
183	0x3d3b2cc4	0.04569699
184	0x3da09390	0.07840645
185	0xbdd052f0	-0.10172069
186	0x3d5089a4	0.050912514
187	0x3b6f6640	0.0036529452
188	0x3dc1875e	0.09449647
189	0x3dfe65d6	0.124217674
190	0xbd6e195c	-0.058129653
191	0xbde4436a	-0.11145671
192	0x3ddfb132	0.10922469
193	0xbd40c7ec	-0.04706566
194	0xbd9d4b10	-0.07680333
195	0xbdcdb464	-0.100441724
196	0x3bea4c80	0.007150233
197	0x3d1f4510	0.038884223
198	0x3de6466a	0.11243899
199	0x3dc63be2	0.096793905
200	0x3d932730	0.07185209
201	0x3d156170	0.036469877
202	0x3cba3fc8	0.022735491
203	0x3df1c18e	0.11804496
204	0x3b844c20	0.004037395
205	0xbcd02448	-0.025407925
206	0x3c090380	0.008362651
207	0xbcb66168	-0.022263244
208	0x3d04ddfc	0.032438263
209	0x3cb9b4b8	0.022669181
210	0x3df46aac	0.119344085
211	0xba020300	-0.00049595535
212	0x3cc1d600	0.023661613
213	0x3df7feae	0.12109123
214	0x3d987e14	0.074459225
215	0x3d850008	0.064941466
216	0x3d144260	0.036196113
217	0xbdddf308	-0.1083737
218	0xbdb4b5ba	-0.08823724
219	0xbdbb729c	-0.091527194
220	0x3dc50b28	0.096212685
221	0x3d8eb978	0.06968969
222	0x3bedb2a0	0.00725396
223	0xbcf05230	-0.029336065
224	0x3c43df30	0.0119550675
225	0x3d7c23ec	0.061557695
226	0xbc989598	-0.01862602
227	0x3de83ee4	0.113401204
228	0xbdec4db0	-0.11538255
229	0x3d8ab074	0.06771937
230	0x3debea9a	0.11519356
231	0x3dd40656	0.10352771
232	0xbd74fbc0	-0.0598104
233	0x3d86f0ae	0.06588875
234	0x3dd1f91e	0.102525935
235	0x3dc941be	0.098269925
236	0xbdd1ecb6	-0.10250227
237	0xbdb33c6a	-0.087517574
238	0xbdc217ee	-0.094772205
239	0x3c7a8510	0.015290514
240	0x3c8304a0	0.015993416
241	0xbd3dc3dc	-0.046329364
242	0xbd453018	-0.04814157
243	0x3d810e88	0.063016
244	0xbccee3a8	-0.02525504
245	0x3c9dcd28	0.019262865
246	0x3dc5b688	0.09653956
247	0x3d363504	0.044484153
248	0x3b259e00	0.0025271177
249	0xbbe014e0	-0.006838426
250	0xbdc6b974	-0.09703341
251	0x3d48a0c0	0.04898143
252	0xbc95ff28	-0.018310145
253	0xbd4c2a60	-0.0498451
254	0x3d070300	0.032961845
255	0xbd9c409e	-0.07629512

gru.bias_ih_l0_reverse f4 [192]
0	0xbdfb923c	-0.12283751
1	0xbd8dcf90	-0.06924355
2	0xbd5d6f6c	-0.05406134
3	0xbd9e2686	-0.077221915
4	0xbd9c7d88	-0.07641131
5	0x3db8eec0	0.09029913
6	0x3c925bc7	0.017866028
7	0xbd92c9e5	-0.071674146
8	0x3dc0dabc	0.0941672
9	0xbcddb670	-0.027064532
10	0x3b94b140	0.0045377314
11	0x3dd758a4	0.10514954
12	0x3c884984	0.016636617
13	0x3dc7b62e	0.09751545
14	0xba440617	-0.0007477714
15	0xbd222f90	-0.03959614
16	0xbdd96c4e	-0.106163606
17	0xbd3d4f50	-0.046218216
18	0xbdbf0c5a	-0.09328528
19	0xbdbdc522	-0.09266116
20	0xbc473860	-0.012159437
21	0x3df71d6c	0.12066159
22	0x3d70d534	0.058797076
23	0xbce37a78	-0.027768359
24	0x3de8c92a	0.11366494
25	0x3d7cfe8c	0.061766192
26	0xbda62f58	-0.08114499
27	0x3d37658f	0.04477459
28	0x3c0a2370	0.0084313005
29	0x3c1a4c60	0.009417623
30	0xbba01b80	-0.0048860908
31	0x3de06468	0.10956651
32	0x3db5d41c	0.08878347
33	0x3d3fd884	0.046837345
34	0x3d864eda	0.065580085
35	0x3c501b80	0.012701869
36	0x3dd6436a	0.10462077
37	0x3deb56fa	0.11491199
38	0x3bb663a0	0.0055660754
39	0xbd80dc86	-0.062920615
40	0xbdc9915c	-0.09842178
41	0xbdbf6b42	-0.0934663
42	0xbd5c198c	-0.0537353
43	0xbc7f2840	-0.015573561
44	0x3dfda5c4	0.12385133
45	0xbdd1e45c	-0.10248634
46	0x3d8c6b6e	0.06856428
47	0xbda579e4	-0.080798894
48	0x3dd77c70	0.105217814
49	0x3dc34006	0.09533696
50	0x3d6a6ad4	0.057230785
51	0x3df9f404	0.122047454
52	0xbdf2f12c	-0.11862406
53	0x3ca1ecd4	0.019766249
54	0x3df28b7c	0.11843011
55	0xbd8e4d3a	-0.069483235
56	0x3d8cd416	0.0687639
57	0xbd41ac48	-0.04728344
58	0x3d2d40cc	0.042298123
59	0x3d22b44c	0.039722726
60	0xbc04d6c0	-0.008107841
61	0xbdae9cea	-0.08526023
62	0xbdeefe56	-0.116696045
63	0xbbf90300	-0.0075992346
64	0x3df06a54	0.117390305
65	0xbc5be020	-0.013420135
66	0x3da0b3e3	0.07846811
67	0xbd819e56	-0.06329028
68	0xbde7041e	-0.11280082
69	0x3cd0f04f	0.025505213
70	0xbdb4b5fa	-0.08823772
71	0x3d3ea7db	0.0465468
72	0xbd70c568	-0.05878201
73	0xba13f459	-0.00056440156
74	0x3d715f94	0.05892904
75	0xbd5b4578	-0.053533047
76	0x3d430a41	0.0476172
77	0x3d2ee530	0.04269904
78	0x3d075ddf	0.033048507
79	0xbd4234b4	-0.047413543
80	0x3d3e8530	0.046513736
81	0x3d1880d0	0.03723222
82	0x3cd7dcdd	0.026350433
83	0x3d02bbe3	0.031917464
84	0xbd02dec0	-0.031950712
85	0xbdb6d24c	-0.0892683
86	0xbc99685f	-0.018726526
87	0x3e065bb4	0.1312092
88	0xbd35285b	-0.04422794
89	0xbc8d7e5a	-0.017272163
90	0x3cba9650	0.022776753
91	0x3dd46c50	0.103722215
92	0x3d35bd00	0.044369698
93	0x3d179c48	0.037014276
94	0x3d886dcd	0.06661568
95	0x3c73aea0	0.014873177
96	0xbce78fc0	-0.028266788
97	0xbc9028f7	-0.017597659
98	0x3d854d90	0.065089345
99	0x3dd8a1ae	0.10577713
100	0xbc038785	-0.008027916
101	0xbdc35249	-0.09537179
102	0xbd8c37ea	-0.06846602
103	0xbddb9692	-0.107220784
104	0x3dc10560	0.09424853
105	0x3d112246	0.035433076
106	0xbdd91b6b	-0.10600933
107	0xbd7761ec	-0.06039612
108	0x3df105f3	0.11768713
109	0xbd78542d	-0.06062715
110	0x3da76732	0.0817398
111	0xbdc87fbc	-0.097899884
112	0x3e006592	0.12538746
113	0xbdcf48b5	-0.1012129
114	0x3deaa153	0.114565514
115	0x3d73cee0	0.059523463
116	0xb9f73000	-0.00047147274
117	0xbd6edc5d	-0.058315624
118	0x3d480d6b	0.04884092
119	0xbdb126ed	-0.08650003
120	0x3db88d6c	0.09011349
121	0x3d599932	0.053124614
122	0xbdc384ba	-0.095468
123	0xbd60d255	-0.05488809
124	0x3d8d713a	0.06906362
125	0xbc4cece0	-0.012507647
126	0xbccbace0	-0.024862707
127	0xbc96c4e9	-0.018404441
128	0x3d240488	0.040043384
129	0xbbcc6d00	-0.0062385798
130	0xbda94572	-0.08265199
131	0xbcd49970	-0.025952071
132	0xbd1dcdb4	-0.038526252
133	0xbd5b68fc	-0.053566918
134	0x3cf5efd0	0.030021578
135	0xbe04ccc8	-0.12968743
136	0x3c5d5310	0.013508573
137	0x3a139f00	0.0005631298
138	0x3ce357f0	0.027751893
139	0xbd640e18	-0.055677503
140	0xbc036eae	-0.008021994
141	0xbc14e6c0	-0.009088218
142	0x3dcce8bb	0.10005327
143	0x3d563f58	0.052306503
144	0x3d3b0cf4	0.04566665
145	0x3cc86d60	0.024466217
146	0x3c3fdca0	0.011710316
147	0x3dc53130	0.096285224
148	0xbd699dc8	-0.057035238
149	0xbd267748	-0.0406411
150	0x3d2a2068	0.04153481
151	0x3d8d79b0	0.06907976
152	0xbdd558c2	-0.1041732
153	0xbd907318	-0.070532024
154	0xbdec9c02	-0.11553194
155	0x3cc8f28d	0.02452972
156	0xbdacf922	-0.08445956
157	0x3cb64070	0.022247523
158	0xbc82f658	-0.015986606
159	0x3dc007aa	0.09376462
160	0x3dfbdbfa	0.122978166
161	0x3dc4be72	0.09606637
162	0xbd4a3734	-0.049369052
163	0xbd059b27	-0.032618668
164	0x3db49b1c	0.08818647
165	0xbc111d87	-0.0088571375
166	0xbd7ed928	-0.062218815
167	0x3d72c81c	0.05927287
168	0x3ddab13a	0.106783345
169	0x3de158c2	0.11003257
170	0xbd80914a	-0.06277712
171	0xbd033380	-0.032031536
172	0xbde22292	-0.1104175
173	0x3d582b1b	0.052775484
174	0x3daae72e	0.08344875
175	0xbc6251a3	-0.013813409
176	0x3d3feefd	0.046858776
177	0xbd93cddc	-0.07216999
178	0xbc246770	-0.010034427
179	0xbd2dfffc	-0.042480454
180	0x3dadda60	0.08488917
181	0xbda0d722	-0.07853533
182	0xbd6eba24	-0.058282986
183	0xbd9c81db	-0.076419555
184	0x3d55ec6c	0.052227423
185	0x3ca45f30	0.02006492
186	0xbd4ef8b0	-0.050530136
187	0xbddb221a	-0.10699864
188	0xbda85f60	-0.08221316
189	0x3d7813b8	0.06056568
190	0xbcf2ba0a	-0.029629726
191	0xbd0b79b4	-0.034051612

gru.bias_hh_l0_reverse f4 [192]
0	0x3d9e4958	0.07728833
1	0x3d1c9500	0.038228035
2	0x3d5e0c30	0.05421084
3	0xbca31400	-0.019906998
4	0xbd9544d2	-0.07288517
5	0x3bf9c820	0.0076227337
6	0x3db7c643	0.08973362
7	0xbdff1fe1	-0.12457252
8	0x3ddc2b4c	0.10750446
9	0x3bd54e40	0.0065095723
10	0xbce97160	-0.028496444
11	0xbdd8aec4	-0.10580209
12	0xb9d41f34	-0.0004045904
13	0xbd5f16a4	-0.05446495
14	0xbdca38af	-0.09874093
15	0xbdc17854	-0.09446779
16	0x3d9daeac	0.07699332
17	0x3c091a40	0.008368075
18	0x3de42d7e	0.111414894
19	0xbdebb906	-0.115099
20	0xbd0bcd64	-0.034131423
21	0x3dc6170e	0.09672366
22	0xbd8ef578	-0.06980413
23	0x3c109cf0	0.008826479
24	0xbd931f3a	-0.0718369
25	0xbdd23448	-0.10263878
26	0x3d48e6c8	0.049048215
27	0x3ac8c403	0.0015317205
28	0x3db4b7a2	0.08824088
29	0xbcb6c618	-0.022311255
30	0x3d25190c	0.04030709
31	0xbcf46d48	-0.029837266
32	0x3cf3c4c0	0.029756904
33	0x3d22549c	0.03963147
34	0xbc2c09e0	-0.010500401
35	0xbcce9c60	-0.02522105
36	0xbdae0fd6	-0.08499114
37	0xbcd367b0	-0.025806278
38	0x3d3c2214	0.045930937
39	0xbd592460	-0.053013206
40	0x3cd0cd20	0.025488436
41	0xbdea53aa	-0.11441739
42	0x3d918e54	0.07107225
43	0x3dea3bc2	0.11437179
44	0xbd341e28	-0.04397407
45	0xbd147504	-0.036244407
46	0xbde5e782	-0.11225797
47	0x3d9cf658	0.07664174
48	0xbc163548	-0.009167977
49	0xbcbf8570	-0.023379058
50	0xbdae6458	-0.08515233
51	0xbd907310	-0.070531964
52	0x3bc884a0	0.0061193258
53	0xbd6dcbfd	-0.058055867
54	0x3d6e7450	0.058216393
55	0x3da524f6	0.0806369
56	0x3d668cec	0.056286737
57	0x3d04ae38	0.03239271
58	0x3dfa27b8	0.12214607
59	0x3dc8e6ca	0.098096445
60	0xbdd64c7a	-0.104638055
61	0xbd3c44e4	-0.045964137
62	0x3d9641d0	0.073367715
63	0xbdf4c134	-0.11950913
64	0xbdeb7a3e	-0.11497925
65	0xbd8c0e4a	-0.06838663
66	0xbc6fcfbc	-0.01463693
67	0xbb88f020	-0.0041790158
68	0xbc99a310	-0.018754512
69	0x3dabe844	0.083939105
70	0xbc0007d1	-0.007814364
71	0x3cbc0fc3	0.022956735
72	0xbdc2b37e	-0.09506892
73	0xbdfd4ec0	-0.12368536
74	0xbe04a94b	-0.12955205
75	0x3ca2d7af	0.019878237
76	0x38a0f451	7.674902e-05
77	0xbd110a04	-0.035409942
78	0x3d5d4202	0.054018028
79	0x3d86cf8c	0.06582555
80	0x3da71e90	0.08160126
81	0xbdac3e00	-0.08410263
82	0x3c930028	0.01794441
83	0xbd85e460	-0.065377
84	0x3db4bfe6	0.08825664
85	0xbc8d0780	-0.01721549
86	0xbd7eeede	-0.06223952
87	0xbd400f98	-0.04688987
88	0x3d865693	0.065594815
89	0xbc0618a8	-0.008184589
90	0x3d715370	0.058917463
91	0x3d273a62	0.040827163
92	0x3dda0a04	0.106464416
93	0xbdf088c4	-0.11744836
94	0xbc233bf5	-0.009963025
95	0x3d458128	0.048218876
96	0x3d168c28	0.036754757
97	0x3cc23171	0.023705216
98	0xbddf5950	-0.10905707
99	0x3c42cd2a	0.011889735
100	0xbcb53f3f	-0.022124885
101	0x3c23c035	0.009994556
102	0xbda86e94	-0.08224216
103	0x3d987a46	0.07445197
104	0xbd74973b	-0.059714537
105	0x3b063a44	0.0020481506
106	0x3c38f781	0.011289478
107	0x3bce466f	0.0062950174
108	0x3d88e333	0.0668396
109	0xbcf8b681	-0.030360462
110	0xbd00e7d5	-0.031471092
111	0xbdc5fb0a	-0.096670225
112	0x3c7a8b5a	0.015292013
113	0xbdc9fdab	-0.098628365
114	0x3d56eafa	0.052470185
115	0x3d92c27c	0.07166001
116	0xbdd362f4	-0.10321608
117	0x3dea5e71	0.114437945
118	0x3db0f325	0.08640126
119	0xbc9aaa47	-0.018880023
120	0xbd2544c8	-0.040348798
121	0x3d011ce9	0.03152171
122	0xbdf0bbe8	-0.1175459
123	0xbd11b17b	-0.03556965
124	0xbd5954ac	-0.053059265
125	0xbd591f10	-0.05300814
126	0x3c527730	0.012845799
127	0x3d612d3d	0.054974783
128	0x3ddac9bc	0.10683009
129	0x3d556ccc	0.05210571
130	0xbda6820a	-0.08130272
131	0xbbe99820	-0.0071287304
132	0x3d6a0408	0.05713275
133	0x3d49b3e4	0.049243823
134	0xbde56068	-0.11200029
135	0x3d9d0955	0.076677956
136	0x3d87ba10	0.066272855
137	0x3d504e9c	0.050856218
138	0x3de626b0	0.11237848
139	0x3dcc1ab6	0.09966032
140	0xbc8d32d6	-0.017236155
141	0x3d7312d8	0.059344143
142	0xbd2e3645	-0.042532224
143	0xbd8d4b2e	-0.06899105
144	0x3dcebf22	0.100950494
145	0xbd3e4ab4	-0.04645796
146	0xbde3fd1c	-0.11132261
147	0x3d5f3c05	0.0545006
148	0xbb311100	-0.002701819
149	0x3d83f0f8	0.064424455
150	0xbd694250	-0.056948006
151	0xbdc8362a	-0.09775956
152	0x3dbb4158	0.09143323
153	0x3c72e222	0.014824422
154	0x3d562388	0.05227998
155	0x3dbdc84c	0.09266719
156	0x3dc195fa	0.09452434
157	0xbdfb97ba	-0.12284799
158	0xbd91334a	-0.07089861
159	0xbdaacea0	-0.08340192
160	0xbdef35bc	-0.11680171
161	0x3cd5b850	0.026088864
162	0xbd96f640	-0.07371187
163	0xbd79f894	-0.06102808
164	0xbcfeea38	-0.031117544
165	0xbd96f848	-0.07371575
166	0xbd8a7712	-0.06760992
167	0x3c43ebc0	0.011958063
168	0x3d930a20	0.071796656
169	0xbc167590	-0.0091833025
170	0xbd6f9d94	-0.058499888
171	0xbdda6e2c	-0.10665545
172	0x3dcdb954	0.10045114
173	0x3de03682	0.109478965
174	0x3dfeb2e6	0.12436466
175	0xbdc11c95	-0.0942928
176	0xbdba22df	-0.090886824
177	0x3cdc95f0	0.026926965
178	0x3cb737b8	0.022365436
179	0x3d2e9644	0.042623773
180	0x3d6d34a0	0.057911515
181	0xbba8df8f	-0.0051536034
182	0xbd68a548	-0.05679825
183	0xbd5372f0	-0.051623285
184	0x3d27cd18	0.040967077
185	0x3db4ea1c	0.08833715
186	0xbdcca826	-0.09993009
187	0x3de10358	0.10986966
188	0xba43e100	-0.0007472187
189	0x3ce88fe8	0.028388932
190	0xbd8be66b	-0.06831058
191	0xbddf7250	-0.10910475
